hierarchical30boys/models/final.pth (torch_old, 217409 bytes, 21 tensors)

weight f4 [32, 1, 3, 3]
000000 17 3f a4 40 ab 32 be 3e fd 13 15 3d 12 4b ad 40
       5.1327014 0.37148032 0.036396015 5.415414
000010 0e bd c7 3f e9 ad 20 40 8a 62 34 40 5b 16 55 40
       1.560457 2.5106146 2.8185143 3.3294895
000020 ab c0 b7 40 22 06 31 bf 2d e2 33 3e ae 91 da 3e
       5.742269 -0.6914998 0.17566748 0.4268927
000030 4a 2e 0a 3f a5 b1 83 3f cd a8 91 3f 2e 81 04 3f
       0.5397688 1.0288588 1.1379639 0.5175961
000040 df 51 96 3f 03 80 e4 3c 4d b2 3e 3d cf 68 29 3f
       1.1743735 0.027893072 0.04655676 0.6617555
000050 70 05 96 bf 9e 40 32 bf eb 9a bd be a2 36 c0 bf
       -1.1720409 -0.6962985 -0.37032256 -1.5016673
000060 5f 6d e2 bf 30 6f 79 bf 4d 27 3a bf de 15 c1 bf
       -1.7689627 -0.97435284 -0.7271622 -1.5084798
000070 97 44 c9 bf 9b e6 bd bf 5d dc d3 bd 84 03 8d be
       -1.5724057 -1.4836 -0.10344765 -0.27541745
000080 4d 71 13 3f 8c a3 e7 3f ff d1 17 40 f2 7c 12 40
       0.5759476 1.8096786 2.3721921 2.288876
000090 9e 23 0d 3f f7 77 ea 3e 8e b2 17 3e 42 07 36 3f
       0.5513247 0.4579465 0.14814207 0.71104825
0000a0 60 f0 53 3f 80 48 34 3f 5f 70 94 3f 54 61 dd 3f
       0.8278866 0.70423126 1.1596793 1.7295327
0000b0 79 c2 75 3f a6 a3 c6 3e 6a 06 76 3f 7c 7f 02 3e
       0.95999867 0.3879673 0.9610354 0.12743944
0000c0 5c 7e c1 be e4 6e 6b bf 94 17 81 bf 80 aa 5d bf
       -0.37791717 -0.9196608 -1.008532 -0.8658829
0000d0 57 90 02 bf a6 f3 eb 3e 33 e6 98 3f 7e 8e 91 3f
       -0.51001495 0.46084327 1.1945251 1.137161
0000e0 2a 8b 4d 3f fd 41 94 3f 41 9e 1a 40 a5 e5 91 3e
       0.8029047 1.1582638 2.415909 0.28495517
0000f0 b3 6e 51 bf 0d b6 a6 bf b5 92 d6 bf 7a cc 19 bf
       -0.8180954 -1.3024307 -1.6763521 -0.6007763
000100 01 79 5f bf 68 1d 9c bf 35 4a 26 3e db 4e 38 bf
       -0.8729401 -1.2196474 0.16239245 -0.71995324
000110 f7 20 24 bf 38 46 85 3e c2 36 7c 3f 33 9c 29 3f
       -0.641128 0.26030135 0.98521054 0.66253966
000120 82 65 a8 bd b5 e4 ba bf 1e 0f cc bf ed b1 7c be
       -0.08222486 -1.4601046 -1.5942113 -0.24677248
000130 33 3d 4e bf 16 ed 03 be cc a7 61 3f fe 93 8e 3f
       -0.8056213 -0.1288341 0.8814666 1.1138914
000140 1b 4e 21 3f 59 91 a7 bd a9 ea 07 3f 64 7f 03 3e
       0.63009804 -0.0818202 0.5309244 0.12841564
000150 e1 3b 25 bf a0 f1 51 bf 7f f1 77 3e 95 a3 8d bf
       -0.6454449 -0.82009315 0.24213217 -1.1065546
000160 dd 4a f7 be bb b4 0e 3f 32 cf 2e 3f 71 29 00 be
       -0.48299304 0.5574452 0.68284905 -0.12515809
000170 eb 9a 8a be 49 88 1c 3f 20 03 8e bf f4 60 93 bf
       -0.27071318 0.61145455 -1.1094704 -1.1513963
000180 c9 f6 2c 3f f4 84 17 bf c4 78 24 bf 77 18 0c c0
       0.67564064 -0.59187245 -0.64246774 -2.1889932
000190 f1 f7 0f bf de 68 ed bf 91 6c b5 bf 53 dd bc 3e
       -0.56237704 -1.8547628 -1.4173757 0.36887607
0001a0 df 3c da bf ac ef 0c c0 32 14 c4 bf ac 9a 22 c0
       -1.7049826 -2.2021284 -1.5318663 -2.5406904
0001b0 a4 39 f6 be 7f f6 86 3e b4 17 97 3e df a9 b2 bf
       -0.4809085 0.26359937 0.29510272 -1.395809
0001c0 26 eb 88 bf 8c b0 bc bf ce 55 9a bf f5 7f 20 bf
       -1.0696762 -1.4741378 -1.2057436 -0.62695247
0001d0 b2 ac 0d be 0d 4c 23 bf 95 14 05 bf 5d 8b 22 c0
       -0.1383541 -0.6378792 -0.5198453 -2.539756
0001e0 19 96 01 bd 97 7c ea 3d 64 e0 8e bf 06 e5 7f bf
       -0.031637285 0.11449545 -1.1162229 -0.9995884
0001f0 64 f3 af bf 26 72 bb bf b6 1b 88 bf b1 c8 b6 be
       -1.3746152 -1.464421 -1.0633457 -0.3569999
000200 7a cb 7a 3f f2 a8 bc bf 55 2f 61 be 7a b7 29 3f
       0.9796673 -1.4739058 -0.21990712 0.6629559
000210 bf 0f 52 bf 7d a3 f0 3e 71 95 e8 3e 11 0b ef be
       -0.82055277 0.46999732 0.45426515 -0.4668813
000220 50 1b 5d bf 23 ee 1d c0 2e 2f e5 bb 46 6e 2b bf
       -0.863698 -2.4676597 -0.0069941496 -0.6696514
000230 77 8a 74 bf 17 c5 08 bf 34 80 00 bf 3a 36 25 bf
       -0.9552378 -0.53425735 -0.5019562 -0.6453587
000240 a8 60 e7 3e b8 33 89 3f 1e 48 df be 45 26 a5 3f
       0.4519093 1.0718908 -0.4360971 1.2902304
000250 a6 dd 2e 40 61 9b 9b be cd 2d 01 bf 6e 58 fa be
       2.7322783 -0.30391982 -0.5046051 -0.48895591
000260 66 ab d9 bf 27 cd 00 c0 33 2e 7b bf 2b c1 d1 bf
       -1.7005432 -2.0125215 -0.9811737 -1.6387075
000270 bd 09 2f be fd 16 91 3f 46 09 92 3e f5 52 5b 3f
       -0.17093559 1.133514 0.285227 0.8567346
000280 bf 08 13 40 1b a1 76 3f 0c bd 81 3e f4 08 d6 be
       2.2974088 0.9633958 0.25339544 -0.41803706
000290 6e f9 21 3f f2 14 23 bf 4d 94 89 bf 96 42 db 3e
       0.63271224 -0.63703835 -1.0748383 0.4282424
0002a0 05 8e d2 be 36 55 17 bf 53 fd 65 3d 4d ac ed 3e
       -0.41123977 -0.59114397 0.056149792 0.46420518
0002b0 f4 3a f5 3e 54 f1 9e be 29 52 fb bd d0 f8 47 bf
       0.4789654 -0.31043494 -0.1227153 -0.7811403
0002c0 92 3e 95 bf f8 1c d0 3e de 3f 1a 3e e2 4e 3c bf
       -1.165972 0.406471 0.15063426 -0.73557866
0002d0 5b fb 19 3f d3 aa ce 3e 14 4b e6 3e 0c 05 78 3f
       0.60149163 0.40364704 0.44979155 0.968827
0002e0 27 7c fb 3f 0a b9 7e 3f 12 d0 e0 3e 53 8a 81 3d
       1.9647263 0.995011 0.43908745 0.063252114
0002f0 45 ce 86 bf 66 77 66 bf a6 3d b9 bf f6 d5 d5 bf
       -1.0531698 -0.9002594 -1.4471939 -1.6705921
000300 da b5 97 3f 53 45 8c 3f cc 40 ad be 90 5c 03 40
       1.1852372 1.0958656 -0.338385 2.0525246
000310 73 1e cc 3f 4d e7 b6 3d 66 08 4f 3f 4b af 2b 3f
       1.5946792 0.08930836 0.8087219 0.6706435
000320 e0 42 42 be 48 10 bd 3c 26 d4 3b be ef 32 bf be
       -0.18970823 0.023079053 -0.18342647 -0.37343547
000330 0c e2 0d bf b0 26 83 bf ee 0f 4e bf 57 08 80 bf
       -0.55423045 -1.0246181 -0.80493057 -1.0002545
000340 18 9c 80 bf 34 53 c8 be f1 f9 8e be 21 ec ff be
       -1.0047636 -0.3912598 -0.27925065 -0.4998484
000350 33 55 86 be db a1 a6 bd 6f 79 b1 3e 43 c2 82 3f
       -0.26236877 -0.0813634 0.3466296 1.0215534
000360 a5 07 a1 3f 95 8c c6 3f 31 de 78 3f ff 7f 02 bf
       1.2580458 1.5511652 0.9721404 -0.50976557
000370 e7 2d c3 be 7f 1b c9 be 4c a7 21 c0 4f fb e1 bf
       -0.38120958 -0.3927879 -2.525836 -1.7654818
000380 af 59 fe bf 73 c9 9e 40 b6 2b 95 3f ab 8d d3 3f
       -1.9871119 4.962091 1.1653965 1.6527609
000390 bc 5f c1 40 30 ed 82 3f ea 70 82 40 ca d7 cb 40
       6.0429363 1.0228634 4.0762835 6.3700914
0003a0 2b 7d b8 40 66 7c e2 40 3c 1e 93 3f ad 23 d8 3e
       5.7652793 7.0776854 1.1493602 0.42214718
0003b0 da e0 b7 3e 7f b9 eb bd 48 ca aa bf d9 d9 67 bf
       0.35913736 -0.1150999 -1.3342981 -0.90566784
0003c0 9b 33 26 3e dc 67 71 bf b5 f6 23 bf 0d 9c ba bf
       0.16230623 -0.942991 -0.6404832 -1.4578873
0003d0 90 a5 63 bf de 6e c4 bf 95 c6 0b bf 71 b3 36 bf
       -0.88924503 -1.5346334 -0.5459989 -0.71367556
0003e0 cf 2c 14 c0 05 d3 7b 3f 1e 2f a8 3e dd 35 22 bf
       -2.315235 0.98368865 0.32848448 -0.6336344
0003f0 f5 b9 b0 bf 11 28 d9 bf 2c 5d 64 bf ef e7 23 bf
       -1.380675 -1.6965352 -0.8920467 -0.6402578

bias f4 [32]
000000 9c 05 e2 bc 61 40 c3 be 8e aa cd 3e 8c ee a0 bd
       -0.027590565 -0.38135055 0.40169185 -0.07857999
000010 a7 3b f4 be 61 d4 9c 3e b9 54 15 be 93 8d 79 3f
       -0.4770176 0.30630782 -0.145831 0.9748165
000020 a6 d9 26 3f 65 b5 3c 3f 25 9e 86 3f 0d e6 5e 3e
       0.65175855 0.73714286 1.0517012 0.21767445
000030 1f e1 02 3f d6 15 d1 3e 00 59 6c 3f 7d 5f e2 3e
       0.5112476 0.40836972 0.92323303 0.44213477
000040 c8 07 06 bf 6f 13 70 3c 5e 0d 3a 3f 9b 01 77 3f
       -0.52355623 0.014653071 0.72676647 0.96486825
000050 41 19 ca be b7 f3 87 bc 9b bf a0 3f 79 a3 b5 3f
       -0.39472392 -0.016595704 1.2558473 1.4190513
000060 94 de 09 bd d7 ac eb bd d0 65 94 3f 4e 19 f9 3e
       -0.033659533 -0.11507576 1.1593571 0.48652118
000070 08 01 a9 3f 46 88 ac 3f 85 b9 81 be 45 d9 16 3f
       1.320344 1.3479087 -0.25336853 0.58925277

weight f4 [32, 32, 3, 3]
000000 3f 48 ef bd 09 41 1f be 5a 5f 1e 3d a3 07 f4 bc
       -0.11683702 -0.15552153 0.038665153 -0.029788798
000010 49 4e 0d be d4 5b 86 bb 0c df 29 be fb 75 8b bd
       -0.13799395 -0.0041003022 -0.16588992 -0.06809612
000020 89 b5 09 3e d9 96 b2 be e4 6f 1d be 13 7e 94 bd
       0.13448156 -0.34880713 -0.15374714 -0.07250609
000030 7c c0 57 be 5b ca a6 be db 82 6d bc 36 12 b0 be
       -0.2106952 -0.3257626 -0.01449653 -0.34388894
000040 5e c3 6b bd bd 38 3e 3d 96 f9 17 3e 69 bb 2c 3e
       -0.057559364 0.04644083 0.14841303 0.16868366
000050 cf c0 a7 3d 95 98 f5 bd 59 68 9d 3e e3 a1 c9 3d
       0.08191072 -0.11991993 0.30743673 0.098453306
000060 0a da dd 3d e0 67 e7 bc 1a 42 87 bd 4f 6b 42 be
       0.10832603 -0.028247774 -0.06604405 -0.18986247
000070 2c 07 79 be e1 60 08 3e 66 0c a9 be 1c 97 06 bd
       -0.24319142 0.13318206 -0.33017272 -0.032858953
000080 df ea 72 3e 64 47 96 3e 3a 1b c6 3e d8 9c 8f 3b
       0.23722409 0.29351342 0.38692647 0.004382711
000090 1b 6f 8e be 0c 72 16 be df 78 a8 bd 32 2f 96 bd
       -0.27819142 -0.14691943 -0.08226179 -0.073332205
0000a0 9f 45 97 be f4 06 88 bd 45 ab ac be c2 af 5d bd
       -0.29545304 -0.06641951 -0.33724418 -0.054122694
0000b0 a4 1c e2 3d a4 2f 12 3e b3 21 72 3e 8b b8 af 3d
       0.11040619 0.14275986 0.23645668 0.08580121
0000c0 2b 86 e8 3b 13 5b d8 3e fd 3a 08 be f9 86 bc bd
       0.007096072 0.42256984 -0.13303752 -0.092054315
0000d0 df e8 4c be ca d0 99 be e4 a5 87 be 7b ea 5f be
       -0.20010708 -0.30042106 -0.26493752 -0.21866791
0000e0 15 a2 17 be e1 34 29 be 7b c1 33 be 58 a5 d1 bd
       -0.14807923 -0.16524078 -0.17554276 -0.10236615
0000f0 e0 48 c6 bd 98 0a 11 be 33 57 aa 3d 26 25 ae 3d
       -0.096818686 -0.14164197 0.08317413 0.08503179
000100 c4 3b 4a 3e a2 86 e5 bd 03 43 65 3b 86 95 bd 3e
       0.19749361 -0.1120732 0.003498257 0.3702814
000110 7a 0e 29 be bc 9c 17 3e d1 fd 15 3d 99 c2 02 bf
       -0.16509429 0.14805883 0.03661901 -0.5107818
000120 cf d7 55 3e 19 7e 97 3e a7 03 0a be 0a 0a d1 3d
       0.20883106 0.29588392 -0.13477956 0.10206993
000130 9a 8a cf 3e 59 e9 26 be db 8a 88 3e bd 2a f2 3d
       0.40535432 -0.16299953 0.26668438 0.11824558
000140 fc 24 12 bf d1 e2 0e 3e 89 3f 62 3e e3 b9 32 3e
       -0.57087684 0.13953711 0.22094549 0.17453723
000150 a5 0f a2 3d 15 df b8 3e b4 bc e5 bd ee 37 2a be
       0.0791314 0.36107698 -0.11217633 -0.16622898
000160 f0 58 08 bd 2d ee be be eb 04 3c 3e b5 92 8e 3e
       -0.033287942 -0.3729109 0.18361251 0.27846304
000170 d4 9c 55 be 2e 95 77 3e 8e ae eb 3e 62 40 ce be
       -0.20860606 0.24178001 0.46031612 -0.40283495
000180 a5 8b a4 3d 54 4d 27 be c4 d1 b3 be bb 86 ea 3d
       0.080344476 -0.16338092 -0.35120976 0.11451479
000190 d2 09 4b 3e ba fd 89 3d be cb 81 be 74 c5 71 3e
       0.19827965 0.067378476 -0.25350755 0.23610479
0001a0 2d a8 ec 3d 04 56 ef 3d 74 d1 85 3c 91 2c d1 be
       0.115555145 0.11686328 0.016335227 -0.40854314
0001b0 b0 8b 1a 3e 0b 74 45 3e 56 3f 31 3e 79 6f 4b bd
       0.15092349 0.19282548 0.17309317 -0.049666855
0001c0 f0 bf a0 3e 5f 15 ea 3d 6a 58 1a 3d e1 7b 3a 3e
       0.31396437 0.114298575 0.037681974 0.18211319
0001d0 57 b2 1c be f5 97 75 3e 46 4f 89 3e fa 46 d9 3d
       -0.15302406 0.23983748 0.26818293 0.10609241
0001e0 15 0d 1b be 19 0a 9d 3e f8 4e 11 3e 6b 30 82 3e
       -0.15141709 0.30671766 0.1419028 0.25427565
0001f0 34 13 ce 3d 34 ae a2 be 77 a5 a0 bd c7 41 7f 3e
       0.100622565 -0.3177353 -0.0784406 0.24927436
000200 84 b9 82 3e ca 86 03 bd 5e 32 94 3e 2a 0b 06 3e
       0.25532162 -0.032110967 0.28944677 0.13090196
000210 3a 5e 6a be ce ab e3 3d ec 03 fa be bf 08 88 3e
       -0.22887507 0.111167535 -0.48831117 0.26569173
000220 83 48 7d 3e 84 9f 00 3e ce cf 05 bd 9b 65 87 3e
       0.24734692 0.1256085 -0.03266888 0.26444706
000230 a8 58 9b 3d 9c 7d 77 3e 8c 96 34 3e c4 f7 92 be
       0.07585269 0.2416901 0.17635554 -0.28704655
000240 51 db 96 be 71 6a ac be 65 dd 97 be 81 42 a8 be
       -0.294642 -0.33674958 -0.29661098 -0.32863238
000250 35 b8 b1 be 6f c1 bb 3d 2c 64 5a be 67 1e 0c be
       -0.3471085 0.09167754 -0.21327275 -0.13683473
000260 dd f5 87 3e 21 48 9e be e8 22 a0 be 7b ab 78 bd
       0.26554766 -0.30914405 -0.3127663 -0.06071041
000270 37 2b d7 be 8e e6 94 be dc c4 8d 3d d7 21 c7 bc
       -0.42025158 -0.2908215 0.069223136 -0.024308128
000280 ba 2f cc 3d 13 d7 72 bd e9 45 13 3e 92 52 a2 3e
       0.099700406 -0.059287142 0.14382137 0.3170362
000290 b3 dc 00 3e 1a 2c 28 3e eb 5d ee 3e 05 61 1a bd
       0.1258419 0.16423073 0.4655603 -0.03769018
0002a0 91 5b 02 3d 76 d7 17 3e c0 b9 d8 be 69 93 31 3e
       0.031825606 0.14828286 -0.42329216 0.17341389
0002b0 18 5c a3 3e e1 af 06 be b7 f0 cd 3d dc 2e c6 3e
       0.319062 -0.1315303 0.10055678 0.38707626
0002c0 02 0b 2d be 5d 60 34 3d 4c cc 15 be bd 38 8f be
       -0.1689873 0.04403721 -0.14628714 -0.27972975
0002d0 f4 ef a7 be 6b 3c 67 be 3c d3 1c be 0f 3c 09 be
       -0.32800257 -0.22581641 -0.15314955 -0.13401817
0002e0 cb ee 4d be 71 3f 0b bc d3 e3 97 be 98 a1 27 be
       -0.20110624 -0.008499012 -0.29666004 -0.16370237
0002f0 13 59 69 3d f2 82 36 be 4e 19 94 bd cb 77 a5 be
       0.056969713 -0.17823389 -0.07231389 -0.32317957
000300 c4 1f 58 be c4 4b 71 be 72 1a 3c bc 5f a3 cd 3d
       -0.21105868 -0.23564059 -0.011480914 0.10040926
000310 11 6e 57 3d f3 c9 fb bc 46 a8 3a 3e 56 ea 68 3e
       0.052595202 -0.030735945 0.18228254 0.22745642
000320 91 d6 19 be ee fb 37 3e 97 0b ca 3e 14 d2 67 be
       -0.15023257 0.17967197 0.39461967 -0.22638732
000330 2d a7 38 be 06 4e ad be 0c af c9 be 91 7a 27 38
       -0.18032522 -0.3384859 -0.39391363 3.993005e-05
000340 76 6b 66 3e 51 af a8 bb 7f 5f ac 3d 85 c7 b9 3e
       0.2250193 -0.0051478525 0.08416652 0.36285034
000350 f1 64 c1 bd de 57 14 3e 14 06 f2 3d ef c1 04 bf
       -0.09443081 0.14486644 0.118175656 -0.5185842
000360 5e 44 71 bc b6 fe 59 3e be ae d7 3d 85 80 61 3e
       -0.014725773 0.21288571 0.10531376 0.22021683
000370 06 91 b3 3e 80 95 a8 3d 31 5f be be 1c df 86 be
       0.35071582 0.0823164 -0.37182 -0.26342094
000380 f0 c4 80 bb cc 77 b5 3b 30 b8 86 bd 79 0d 8b 3d
       -0.003929727 0.0055379625 -0.065781 0.06789679
000390 dd d4 40 3d 19 5a b2 bd 79 68 e4 3c 2f 32 db bd
       0.047078002 -0.08708591 0.027881848 -0.10702931
0003a0 d7 36 8c 3c fe c5 81 3e 7f 33 93 3e f1 c4 b7 3e
       0.017115993 0.2534637 0.28750226 0.35892442
0003b0 c9 e6 92 3d 65 2d 5c 3e fd 86 fe 3e de 8f 51 be
       0.07172925 0.21501692 0.49712363 -0.20465037
0003c0 88 e1 1f 3d bd 79 99 bd 44 42 b0 be 59 bb 02 3e
       0.039033443 -0.07493923 -0.34425557 0.1276678
0003d0 ea ea 3f 3e c2 7a a2 bd 3a fb bb bd 39 d4 84 3e
       0.18741956 -0.079335704 -0.09178777 0.25943163
0003e0 d5 ce 57 bd 43 16 ad 3d 82 c1 ec 3d 01 31 84 be
       -0.052687485 0.08451512 0.11560346 -0.25818637
0003f0 fb ec f6 bd ea 3b 5d 3e 48 06 3c bc a8 87 87 3d
       -0.12056919 0.21604887 -0.011476107 0.06617671

bias f4 [32]
000000 6b da 0b 3d 34 cb b2 3d bf 1c 92 bd b8 9f 6d 3c
       0.034143846 0.08730164 -0.07134389 0.014503412
000010 c4 2b c3 3d e6 fe 9d 3c 7e 8b 45 bd 77 74 c8 3c
       0.09529832 0.019286584 -0.048228733 0.024469597
000020 c4 68 80 3a 16 4d 0d bd 58 1b 2f bd d4 ce 68 3d
       0.0009796848 -0.034497343 -0.042750686 0.05683787
000030 25 30 ba 3c 02 43 b9 3d c0 b2 02 3b 66 6b b6 3d
       0.022728035 0.09045984 0.001994297 0.089072034
000040 7c 97 f0 bd 4f f1 07 3d 3e af 8e 3c b2 2a 19 bc
       -0.11747643 0.033189114 0.017417546 -0.009348558
000050 5b fc 07 3d 86 72 15 be 86 1f b1 3d 3a d3 14 3d
       0.03319965 -0.14594468 0.08648591 0.036334254
000060 8c 7e a1 3c 44 ec ee bc 40 8f 83 3d b3 4e 6a 3d
       0.019713663 -0.029165395 0.06423807 0.05720396
000070 65 63 b0 bc 75 91 0a ba 4a 28 8b bc 98 fa c4 bc
       -0.02153177 -0.0005285957 -0.016986985 -0.024045274

weight f4 [32, 32, 3, 3]
000000 d6 58 18 3e 3b 9f 86 3d f2 dc 8e 3d 06 18 fa 3d
       0.14877638 0.065733396 0.06975736 0.12211613
000010 e2 a7 5f 3e b6 d0 ac ba c9 b9 f0 be 61 65 93 be
       0.21841386 -0.0013184759 -0.47016743 -0.28788283
000020 45 e3 4b be 5c 20 e7 be cb 78 46 3d 38 6d f2 be
       -0.19910915 -0.45141876 0.04845504 -0.47348952
000030 30 6d 48 3e 7a fd f1 bd e4 24 4c be 74 a8 55 3e
       0.19572902 -0.11815925 -0.19935948 0.20865041
000040 5b 6a a1 3e 21 c3 e2 3e 55 85 29 3e c9 2a 45 3d
       0.31526455 0.44289497 0.16554768 0.048136506
000050 b7 b2 b1 bd d7 87 eb 3e 24 90 2a 3f c6 a8 9c 3e
       -0.08676665 0.46002075 0.6662619 0.30597514
000060 c6 ee 4b be 62 a5 4c be 93 86 95 3e c1 06 30 3d
       -0.19915304 -0.19984964 0.29204234 0.04297519
000070 6d 5f fc bd 1e 1a 95 3d b0 9d ee 3e 9a 1f 89 be
       -0.123228885 0.07280372 0.4660468 -0.26781923
000080 ed 89 4f 3d 2d 22 19 3d 4b 69 be be a8 2a eb be
       0.050668646 0.03738611 -0.37189707 -0.45930982
000090 9e 68 23 3d 3d ab 12 be f9 87 ad 3d ca 04 97 3e
       0.039894693 -0.14323135 0.084732 0.2949584
0000a0 52 71 63 be 6f af 3c 3e 9d 83 bb 3c 64 97 0e bd
       -0.22211197 0.18426298 0.022889907 -0.034812346
0000b0 a6 da 8e 3d 3f 02 dc bc f9 34 bd be 7b f8 81 3e
       0.06975298 -0.02685654 -0.36954477 0.25384888
0000c0 99 19 47 be b4 af b3 be 5f e5 17 bf ee ea 25 3e
       -0.19443358 -0.35094988 -0.5933437 0.162029
0000d0 73 ae ab bd 3c de cd 3d 21 72 a5 3d 07 8b d8 be
       -0.08382883 0.100521535 0.08078409 -0.4229357
0000e0 47 0e d5 be 21 43 47 3e 64 a9 e7 bd 78 d4 eb bd
       -0.41612455 0.19459201 -0.113116056 -0.115151346
0000f0 40 d0 82 3e 4e 3b 2b bf af af ec be 19 77 39 3e
       0.25549507 -0.66887367 -0.46227786 0.18111838
000100 0f 8d 53 be 73 ba b1 be dd 78 07 bd 2c 8d 0a 3e
       -0.20659278 -0.34712562 -0.03307425 0.13530415
000110 b0 e9 07 3d a7 74 af bd 6f 17 31 3d 14 ed e3 be
       0.033181846 -0.085671715 0.04323524 -0.44516814
000120 5e 98 d7 bd 48 be 8f 3e c5 44 d9 bd 43 37 5f 3c
       -0.105271086 0.2807486 -0.1060882 0.013624015
000130 c4 f1 a3 3e e0 2e 8e 3c 06 aa 71 3d da b9 1a 3e
       0.3202039 0.017356336 0.059000038 0.15109959
000140 27 c6 fd 3e 1e 5e 72 bc 2e fb b1 3d 83 a9 87 3e
       0.4956524 -0.014792947 0.08690487 0.26496515
000150 a9 09 dd 3d d2 aa 48 be 6d e6 83 be 7f 12 a7 bd
       0.10792858 -0.19596413 -0.25761738 -0.08157825
000160 03 57 bc 3e 27 88 02 3f 9a 3d 06 3e f8 9a e3 3d
       0.36785135 0.50989 0.13109437 0.11113542
000170 3e 56 eb bc fa 8d 15 3f 9e c2 81 3d 63 7b b9 bd
       -0.028727647 0.58419764 0.063359484 -0.09056737
000180 8f d3 05 3e bd bf 4f be e1 c3 1f be 67 de 20 be
       0.13068984 -0.20287986 -0.15602066 -0.1570984
000190 b5 17 e1 be fe f6 ac be b7 e2 1d 3e 86 8a 1f 3c
       -0.439634 -0.3378219 0.15418516 0.009737616
0001a0 eb 73 5b 3e 35 8f 3c be 3e b7 55 bf 73 36 8c be
       0.21430938 -0.18414004 -0.8348273 -0.2738529
0001b0 a4 b5 12 3d 48 35 5f bc e8 31 35 be ac fe aa 3e
       0.035817757 -0.013623543 -0.17694819 0.33397424
0001c0 72 18 8f 3d c2 16 9f be 07 a5 99 3e 6f 18 d8 be
       0.069870844 -0.3107205 0.30008718 -0.4220614
0001d0 90 58 10 be f4 cb 97 bd e4 5f 5b be c6 37 93 be
       -0.14096284 -0.07411948 -0.21423298 -0.2875349
0001e0 93 53 25 bf e7 31 43 be 54 93 0c 3e 0b e3 c1 bd
       -0.6458065 -0.19062005 0.13728076 -0.09467133
0001f0 8d f2 ed bd 5f d2 c0 bd 24 e1 bb 3c f4 c2 2a 3e
       -0.116185285 -0.09415125 0.022934504 0.16675931
000200 12 77 92 bd 95 b7 31 3f ee b5 8f be df 82 8a be
       -0.07151617 0.6942075 -0.2806849 -0.27052972
000210 47 ff 25 be ea bd 39 3f 99 85 ab 3e f5 3b 80 3a
       -0.16210662 0.7255541 0.33500364 0.0009783494
000220 8a 47 86 bd 67 b7 b9 bd b4 b9 e4 be c7 ae 0c bf
       -0.06556614 -0.09068184 -0.4467293 -0.5495419
000230 01 66 34 bc 3e d8 95 bd 67 63 d8 be 39 3f b3 be
       -0.011010648 -0.073166355 -0.42263338 -0.35009173
000240 0c 74 47 bd 9a 4d d7 bc 62 9e 1c be fe c6 39 bf
       -0.048694655 -0.02628212 -0.15294793 -0.72569263
000250 d1 68 4f be 53 c1 5f be a0 27 42 be 0b ef 34 bd
       -0.20254828 -0.21851091 -0.18960428 -0.04417328
000260 24 de 81 3e cd d0 2d be 49 ac 0a bd d2 4c 3a bd
       0.25364792 -0.16974182 -0.03385571 -0.045483418
000270 dc e0 55 3f a0 95 51 3e 55 79 02 3f 86 2b 70 3d
       0.83546233 0.20467234 0.5096639 0.058635257
000280 3e d7 57 be fc 02 32 3e d0 5b 19 3e 83 44 03 3d
       -0.21078202 0.17383951 0.1497643 0.03204776
000290 89 65 ea 3d 65 5a 03 bf a9 26 e2 be bb 5a eb be
       0.114451475 -0.51309806 -0.4417012 -0.4596766
0002a0 2e 40 8b 3e 73 26 26 3f 12 81 ed 3e ff f1 85 3d
       0.27197403 0.6490242 0.46387535 0.06540298
0002b0 0b 71 06 3e c5 6c c3 be 5a 86 0c 3f a1 00 d7 bd
       0.1312906 -0.38168922 0.54892504 -0.10498167
0002c0 87 ea f2 bd 07 07 05 3f 34 35 c6 3e f8 9a 47 3f
       -0.11861139 0.5196385 0.38712466 0.7797084
0002d0 f2 ca 74 3e 60 c8 07 3d 2b 20 91 3e dd f5 ef 3d
       0.23905542 0.033150077 0.28344855 0.117168166
0002e0 19 3b a8 3e c6 2d 92 3f 58 47 22 be 32 44 3a bf
       0.32857588 1.1420219 -0.15847528 -0.7276031
0002f0 4d bc e0 be 12 ed 4d 3e 70 51 13 3d 4c 95 92 3e
       -0.43893662 0.20109966 0.035966337 0.2862953
000300 12 25 0c 3f 96 25 a0 bd e7 a5 92 3e 8a 67 25 bd
       0.54744065 -0.07819669 0.28642198 -0.040381946
000310 05 8d 39 3e 8f cc af 3e d3 32 5a 3e 5c 42 93 3e
       0.18120201 0.34335753 0.2130845 0.28761566
000320 71 48 74 be d0 50 ba 3e 5f 51 db be d4 5a ab be
       -0.23855759 0.3638978 -0.4283552 -0.33467734
000330 18 05 61 3e b1 9f 4e 3f fb ff c2 bd 21 d7 ba 3e
       0.219746 0.8071242 -0.09521481 0.36492255
000340 2c 67 b1 3e 40 35 06 3f b3 4a 5e be 38 b0 04 bf
       0.34649026 0.52425003 -0.21708183 -0.5183139
000350 23 cb f6 be b2 34 e2 3e 24 f1 58 3f 3a b3 b5 3e
       -0.48201856 0.44180828 0.8474295 0.35488302
000360 4a ae 5b 3d 28 53 5d bd 61 4b 0a bf 50 b9 fd be
       0.053633012 -0.054034382 -0.5402127 -0.49555445
000370 ef 33 2e be 0f 5e 49 bd 54 a8 79 3e f5 08 43 3f
       -0.17011999 -0.049161967 0.24380618 0.7618554
000380 13 42 3a 3f db 48 32 be 06 ff e1 be 09 b0 b5 bd
       0.7275707 -0.17410605 -0.4413988 -0.08871467
000390 69 32 21 bf 6f fb 18 bf 06 a9 c9 3d 94 8e 87 3e
       -0.62967545 -0.5975866 0.09846692 0.26475966
0003a0 4f c8 4c 3d 90 2c ae be f5 45 47 3e 77 5f 2b 3f
       0.049995717 -0.34018373 0.1946028 0.6694254
0003b0 d9 47 d4 3e d1 a8 91 3e 8f b6 c6 be e4 30 ae 3d
       0.41461065 0.2844911 -0.38811156 0.08505419
0003c0 57 3f 0f 3f 84 40 9c be 4d ac 2f be f1 b9 7e be
       0.55956024 -0.30517972 -0.17155571 -0.24875619
0003d0 6f d2 d7 be ae 90 a9 be 42 63 11 3f c4 32 f5 3e
       -0.42152736 -0.33118194 0.5679208 0.47890294
0003e0 66 b3 40 3f df 9d 51 3d c3 19 7f bd a7 f7 32 3b
       0.7527374 0.05117595 -0.062280428 0.0027308257
0003f0 f8 22 04 bf d0 14 3f 3f bf a0 d2 3e 38 26 91 3e
       -0.5161586 0.7464113 0.41138265 0.2834947

bias f4 [32]
000000 93 cf c4 bd 67 2a 42 be d6 f0 0c be 47 4f c5 3d
       -0.09609904 -0.18961488 -0.13763747 0.096342616
000010 c0 34 01 3d 5d 90 a3 3d 7c 53 8e bd d7 57 cf bd
       0.031544447 0.079865195 -0.06949517 -0.10124176
000020 47 19 34 3d 4e 82 c6 bd 36 8a b2 3d cf d6 c7 bd
       0.04396942 -0.096928224 0.08717768 -0.09757768
000030 f9 4a 13 be e8 0a ed bd 32 19 06 bd 37 01 3c bb
       -0.14384069 -0.11574346 -0.032738872 -0.0028687248
000040 19 2e be bd 1e 18 c4 3d 1c d0 fe bb 93 21 e1 bd
       -0.09286136 0.095749125 -0.0077762734 -0.10992732
000050 ec 73 56 be b3 86 14 3e 38 ec 14 3d 74 de 96 bc
       -0.20942658 0.14504509 0.03635809 -0.01841662
000060 33 32 33 be 21 21 68 bd d1 9f 2b be 0c 81 a6 bd
       -0.17499618 -0.05667222 -0.16760184 -0.081300825
000070 18 00 af 3d 25 14 37 be 91 1e 17 3d 2e 53 cf 3d
       0.0854494 -0.17878778 0.036894385 0.10123287

weight f4 [10, 32, 3, 3]
000000 b9 41 a6 3d 72 67 e2 be 2b 9c 55 be 3e dc e5 bd
       0.08118004 -0.44219548 -0.20860355 -0.112236485
000010 02 c9 c1 3d 38 1c 1d 3b 23 10 00 3e ec 27 45 bd
       0.09462167 0.0023973119 0.12506156 -0.048133776
000020 2f be 57 be 7f b7 19 bc 65 1f 68 bd d4 01 9c bc
       -0.21068643 -0.009382128 -0.056670565 -0.01904384
000030 35 93 06 3e f5 05 2f be 62 36 1f 3c 63 91 10 3e
       0.13142093 -0.17092116 0.009717556 0.1411796
000040 d9 19 d6 bd 53 b0 97 be 29 95 2c 3d 60 31 69 3e
       -0.10454149 -0.29626712 0.042134438 0.22772741
000050 81 4a 98 3e 70 16 b0 be cc 9a 4e be 04 b8 a4 3e
       0.29744342 -0.34392118 -0.20176238 0.32171643
000060 d7 40 35 be 35 53 5d bd cc 2d dd 3d ba 19 16 bf
       -0.17700516 -0.05403443 0.10799751 -0.58633006
000070 4b 45 85 3e 74 07 1b 3e 36 4d 72 3d 1b 7c 22 bf
       0.2602943 0.15139562 0.059155665 -0.6347062
000080 5f 2a af 3e 4a 2d 18 3d 54 ef 13 3f 8d af 1c 3e
       0.34212014 0.037152566 0.5778706 0.15301342
000090 51 87 0a be 87 44 a5 3d d5 21 46 be 8a 15 b6 bf
       -0.13528182 0.08069711 -0.19348843 -1.4225323
0000a0 bf 83 82 be 66 58 04 bf da 35 8e 3e 81 a1 1b bf
       -0.2549114 -0.51697385 0.2777546 -0.6079331
0000b0 83 0c ce be 0e ea e4 3f 35 2d d7 3d c0 70 ec 3d
       -0.4024392 1.7883928 0.105066694 0.11544943
0000c0 55 bb 80 3e df c4 81 be 9d 5d 99 3d f6 76 62 be
       0.25142923 -0.25345513 0.074885584 -0.22115692
0000d0 51 96 90 3e e6 dc 1a 3f 27 24 9a bd 68 18 4f 3e
       0.28239682 0.60493314 -0.07526427 0.20224154
0000e0 16 79 4b bd bf cd 13 3f 73 79 1d 3f aa c1 bf bd
       -0.049676023 0.5773582 0.6151344 -0.0936311
0000f0 ab dc 3e 3d f0 b8 32 3e cc e7 80 be 38 e7 55 3e
       0.046597164 0.1745336 -0.25176847 0.20888984
000100 6c bd 96 be 79 1d aa bc 35 17 c6 be bf ac 62 3e
       -0.29441392 -0.020766007 -0.3868958 0.2213621
000110 00 71 c6 bc c8 b5 9e 3e 89 b3 12 be 0e e2 97 3d
       -0.024223804 0.30998063 -0.143263 0.074161634
000120 41 ba 78 3e dc 7a 95 bd db 62 bf 3d 0a db 40 be
       0.242898 -0.07298824 0.09345027 -0.18833557
000130 b5 86 dc be c0 85 e2 be 4f 51 0f 3e 3d e8 9e be
       -0.43071523 -0.44242668 0.1399586 -0.3103656
000140 1d 9d 30 3e 3c 19 f0 3e f4 27 8a 3e 24 8a ff 3d
       0.17247434 0.46894252 0.26983607 0.1247752
000150 23 0c e8 bb d9 2f 62 3e 79 95 10 3d d2 52 52 be
       -0.007081525 0.22088565 0.0352988 -0.20539406
000160 30 ef 4c be ef 82 40 3d c4 04 7a 3f e3 d4 1c 3f
       -0.20013118 0.046999868 0.9766352 0.6126234
000170 2a bf fb bc e8 a8 cd 3e fa ac 02 3e a4 ec ad 3d
       -0.030730803 0.40167928 0.12761298 0.08492401
000180 4f 3e 89 bd b1 e4 85 3e b6 df 82 3d c9 d6 6f 3e
       -0.067013375 0.2615104 0.06390326 0.23421778
000190 68 16 bb 3d 92 65 77 3b 87 9a 39 3f 94 84 fc 3e
       0.09135133 0.003774975 0.72501415 0.493199
0001a0 05 67 06 bd 90 71 0b 3e 2e 55 38 be ed 8e 4c be
       -0.03281309 0.1361754 -0.18001243 -0.19976397
0001b0 f8 ac 79 3f 37 bd 89 3e f5 ee a6 3e df 2f 77 3e
       0.97529554 0.26902172 0.32604185 0.24139355
0001c0 b3 16 83 bd 4d dd 95 3e f2 71 82 bf 4a ea 34 3f
       -0.06400814 0.29270402 -1.0191023 0.70669997
0001d0 c7 82 2f 3f bc ee 6b 3f b0 ee 12 3f 34 d5 62 3c
       0.68558925 0.92161155 0.5739546 0.013844777
0001e0 79 f5 cd 3c 53 cc 22 be 76 04 ac bd de e8 32 be
       0.025141465 -0.15898256 -0.08399288 -0.17471644
0001f0 4f 0f ae be b5 64 8c 3d f7 26 30 bf 3e 59 8d 3d
       -0.33996055 0.06855146 -0.68809456 0.06901787
000200 1f 59 5f 3e 0d c6 6e 3d fb dc 46 3e bd e2 41 3d
       0.21811341 0.058294345 0.19420235 0.047335375
000210 f3 22 9a be 08 7e 50 be bd 34 20 be 50 18 cd be
       -0.3010479 -0.20360577 -0.15645118 -0.4005761
000220 1a e4 3b bd 6b 6f 01 be b5 a0 ca be de e6 50 bd
       -0.04587183 -0.12640159 -0.39575735 -0.051001422
000230 d3 19 dc bc d7 d7 a7 3c bd c8 be be b7 fb 26 be
       -0.026867783 0.020488663 -0.37262526 -0.16306959
000240 bc 26 d1 3e ad f9 2e be 72 6c f0 3c 8c 52 52 3f
       0.40849864 -0.17087431 0.029348586 0.82157207
000250 16 cd 3e be 23 46 da 3e 29 80 ca be b0 e0 0e 3e
       -0.18632922 0.42631635 -0.39550903 0.13952899
000260 c2 ad 13 be 67 7b 1a be c6 59 78 3e f3 01 d9 ba
       -0.14421752 -0.15086137 0.24252996 -0.0016556367
000270 3d 85 e0 be c5 ea 25 be c9 92 6f 3d 6a 61 c2 3d
       -0.43851653 -0.16202839 0.058489595 0.094912365
000280 3a 48 64 be 75 e4 0a 3e 44 53 eb be 7f 37 58 be
       -0.22293177 0.13563712 -0.45961964 -0.2111492
000290 03 e6 74 bd 39 3d 9d bd 89 13 e6 3c 48 a0 ae be
       -0.05978967 -0.07677693 0.028085487 -0.3410666
0002a0 9b e0 6c 3f 22 80 fe bb 77 e0 19 bf 1c 9c 55 3f
       0.9253022 -0.0077667395 -0.6010813 0.8344133
0002b0 bc 3d 9e 3e 57 e1 62 3e 1f 94 18 bf 00 ec 51 3e
       0.30906475 0.22156273 -0.59601015 0.20500183
0002c0 07 e0 99 3e d6 b0 f2 be 32 bc ed 3c 15 87 eb 3e
       0.30053732 -0.4740054 0.029020403 0.46001497
0002d0 aa 35 85 3f 00 0a a0 3e 8c 81 1c 3e f3 fc 21 be
       1.0407002 0.3125763 0.15283793 -0.15819149
0002e0 8a 79 de 3d d9 a9 23 3e 79 5d 0f be a2 33 2c bf
       0.108630255 0.1598276 -0.140005 -0.67266285
0002f0 98 b6 7c 3e ae 81 e5 3e d4 3c 55 bd 2a 87 a4 be
       0.24679029 0.448255 -0.052059963 -0.32134372
000300 63 76 01 bf 71 73 c6 be 5b ec 30 3e 95 68 b0 3e
       -0.5057127 -0.3875995 0.17277662 0.3445479
000310 36 5d 42 3e 9b ca 92 be ea ef d5 3e 8a fc de bd
       0.1898087 -0.286702 0.41784602 -0.10888012
000320 d9 85 bf 3d 1f 55 2f 3f 3d 6e ed 3d 7c 98 1c 3e
       0.09351701 0.6848926 0.11593292 0.15292543
000330 2e bf ed 3d bb 40 c9 3c c4 eb a8 bd e5 9d 26 3f
       0.1160873 0.024566999 -0.08248094 0.6508468
000340 89 ba 36 bd 28 84 83 bc 99 06 82 3f 0b cf 60 3f
       -0.044611488 -0.016054228 1.0158263 0.8781592
000350 f8 fb 74 3e 5a b7 87 3e 2d 40 cf bd 42 d5 1c 3e
       0.23924243 0.26507074 -0.101196624 0.15315726
000360 d9 55 3f 3e 96 40 22 be 09 a4 ef bd 5e ac c5 3d
       0.18685092 -0.1584495 -0.11701209 0.09652017
000370 9c 53 1b bb 6f 0c d7 bd 7a 7f 83 3c 06 67 86 bf
       -0.0023700958 -0.105004184 0.016051996 -1.050019
000380 24 9a f8 3c 97 a9 ac 3e c0 0c 25 be 23 a3 4d be
       0.030346937 0.33723137 -0.16118145 -0.20081763
000390 6c 69 72 3e 89 b7 1f 3d c4 b1 b2 bc 59 7c c8 3d
       0.23673028 0.038993392 -0.02181328 0.097893424
0003a0 bd 9d c3 be 30 99 98 bd b1 1f ba 3e 57 76 5a bd
       -0.38206282 -0.07451093 0.36352304 -0.053335514
0003b0 eb 46 a1 3c 60 a5 e0 3e 7f c7 40 3d 6b 0d 5f be
       0.019687137 0.4387617 0.047065254 -0.21782462
0003c0 63 b2 84 3e 7f 0f 8f 3e d4 51 26 3e 2f 42 42 bd
       0.25917348 0.2794151 0.16242152 -0.0474264
0003d0 20 55 91 bf 62 dc 34 be 38 ce 49 be e0 cc df be
       -1.1354103 -0.17662194 -0.19707572 -0.43710995
0003e0 19 11 bb bd 77 08 55 be 8b 8b db bc d2 21 85 3d
       -0.091341205 -0.2080401 -0.026799938 0.06500591
0003f0 54 7e c1 be 4c 49 02 bf ed 17 25 be 22 89 e0 be
       -0.37791693 -0.5089309 -0.16122408 -0.43854624

bias f4 [10]
000000 0a 89 09 be ec 75 61 3d 09 09 83 3c ce ae 69 bd
       -0.13431183 0.0550441 0.01599552 -0.057051472
000010 ad b2 1e 3e 49 ef 96 bd 4a 03 79 bc 46 f9 09 bc
       0.15497847 -0.07369859 -0.015198538 -0.008421248
000020 b6 1e 19 be c4 20 31 bd
       -0.14953122 -0.04324414

weight f4 [10, 32, 3, 3]
000000 1c de 93 3e 2f 12 c2 be 9f 02 70 3e f0 a9 59 3d
       0.28880394 -0.37904498 0.234385 0.05314058
000010 b1 d2 54 bf c1 ac 34 3f d8 2f 4a 3f cc 89 44 bf
       -0.8313399 0.705761 0.78979254 -0.7677276
000020 40 69 25 40 e2 f4 28 3e ad ee cb be e5 0e a6 be
       2.584549 0.16499665 -0.39830533 -0.3243324
000030 f3 4c c5 3d ec 0e 61 bd 93 ea 98 bf 22 9a cb 3e
       0.096338175 -0.05494587 -1.1946586 0.39766032
000040 4a 6d a5 be 9a 35 70 bf 70 9f ba bf 7c b2 34 c0
       -0.32309943 -0.9383179 -1.4579906 -2.8233938
000050 27 7b 0a be 63 b1 6b 3e b8 b6 46 bf 8c ff a4 3e
       -0.13523541 0.23016886 -0.77622557 0.32226217
000060 ec 5a df be 97 7e 6c 3f 59 8b 1f 40 9d 0a 45 be
       -0.43624055 0.9238066 2.49288 -0.1924233
000070 22 d9 b5 3e 09 c9 d4 3e b8 f0 a1 3e a1 73 45 be
       0.35517222 0.41559628 0.31628966 -0.1928239
000080 ce b0 af 3f 17 1c fd be 2d 9b 4e 3f c0 40 38 40
       1.3725832 -0.49435493 0.8070553 2.878952
000090 9e 1f 3e be a2 fa a2 3c f7 7d e8 bc fc 4c 93 3e
       -0.18566748 0.019894902 -0.028380377 0.28769672
0000a0 a4 56 ce 3e 4f 70 ba 3e 4f cd ea be 85 fb aa bf
       0.40300477 0.3641381 -0.45859763 -1.3358008
0000b0 f5 c9 3c bf fb 56 7e be a1 69 ad be 49 25 6b 3f
       -0.7374566 -0.24837868 -0.3386965 0.9185377
0000c0 26 d7 f4 be b2 e7 4d 3e 48 9c 04 c0 a3 9f 0a 3e
       -0.47820395 0.20107916 -2.0720387 0.13537459
0000d0 89 e7 c6 bf 7c 59 07 3e a5 d2 dd be f2 b0 28 3d
       -1.5539409 0.1321773 -0.43324772 0.041184373
0000e0 77 97 6c 3e 5c 6c fe 3e 2f 45 92 3f 2c 84 97 bf
       0.23104654 0.49692047 1.1427363 -1.1837211
0000f0 15 d0 f7 be 52 3a b4 3e 52 e2 df be 6a cb 4b be
       -0.48400941 0.35200745 -0.43727356 -0.19901815
000100 ad 28 2f 3e 07 f5 9c 3e 75 c2 0f bf d9 14 86 bf
       0.1710536 0.3065569 -0.5615609 -1.0475112
000110 3b 83 4e bd fd a6 85 3f 85 e5 27 3f 49 07 9a 3f
       -0.05041812 1.0441586 0.65584594 1.2033473
000120 fb 86 e7 3d 38 28 d8 be fa 7f d3 3d 95 bb 43 3c
       0.11305042 -0.42218184 0.10327144 0.0119465785
000130 4e 4c 0f 3f b3 d3 77 3f 1c 5d 62 be f2 0c 83 3e
       0.55975807 0.968074 -0.22105831 0.25595814
000140 f4 f1 5d 3f 9c 69 80 3e a9 e2 7c 3e 94 bc 86 be
       0.86697316 0.25080574 0.24695839 -0.2631575
000150 19 de 22 bd e7 21 5f be cd 78 9a bf f8 66 ea 3d
       -0.03976259 -0.21790276 -1.2068115 0.11445421
000160 0d 0b e6 3f b5 f5 09 40 bb 62 4e 3e e2 2a 57 3f
       1.7972122 2.1556218 0.2015485 0.8404981
000170 c9 b9 06 3f e8 1a 17 3f 6b d8 17 3f d8 13 b3 bf
       0.52627236 0.5902543 0.593146 -1.3990431
000180 2a 4b c2 3e 22 23 c8 be 27 3e 9d be 81 1c 32 be
       0.3794797 -0.39089304 -0.3071148 -0.17393686
000190 d3 b5 a4 bf 9b 3a 5f bc f4 d1 d3 3a 1d d8 97 bf
       -1.2867988 -0.0136248125 0.0016160593 -1.1862828
0001a0 20 90 6b be 00 9d 4c 3e 48 cd 07 be 32 98 9d 3e
       -0.23004198 0.19981766 -0.13261902 0.30780178
0001b0 5c 5d 59 3e 53 81 1d bf 73 fa a4 3f 93 9e 2c 3f
       0.2122702 -0.6152546 1.2888931 0.67429465
0001c0 f3 41 b7 3f e0 59 f8 bf d6 20 96 3e 92 29 06 40
       1.4317001 -1.9402428 0.29321927 2.0962873
0001d0 5b 6f b1 bf 54 6c 8d 3e fa a9 09 3d 85 a4 94 be
       -1.3862108 0.2762171 0.033609368 -0.29031768
0001e0 7a 38 64 3e d3 7e 33 3f 6c 86 89 3f f0 0f fa 3e
       0.22287169 0.70115393 1.0744147 0.48840284
0001f0 f2 2d ed be 02 b8 01 40 14 cd eb bd 64 85 e4 be
       -0.46324116 2.026856 -0.11513725 -0.4463302
000200 6e 32 cd 3d 14 70 0c 3f b0 38 be be 3b 99 31 3f
       0.10019384 0.5485852 -0.37152624 0.69374436
000210 0a fc 0b 3d 1d b5 e4 3e 69 30 df bf 40 a0 da be
       0.03417591 0.44669428 -1.7436649 -0.42700386
000220 41 a2 ce 3e 9c ed 04 3e 6f ae 7a 3e d2 7c de be
       0.40358165 0.12981266 0.24480604 -0.43454605
000230 da 0b f7 bb 93 1c 85 3e 2e 8c 88 bf df cd d5 3f
       -0.0075392546 0.25998363 -1.066778 1.6703452
000240 41 19 c2 bd 20 43 43 3d c2 f8 90 3d 1c 11 a7 bc
       -0.09477473 0.047671437 0.07078697 -0.0203939
000250 2e 94 43 be 5f 20 95 3f 7e 72 37 bf b4 9c 58 3f
       -0.19099495 1.1650504 -0.71659076 0.8461411
000260 16 2c fd 3f de 26 7c bd 3b ff fa be 4a e7 87 be
       1.9779079 -0.061560504 -0.4902285 -0.26543647
000270 ea 6b 32 3e 54 9e a1 3f 7e e8 03 3f cf 53 e4 3e
       0.17423978 1.2626443 0.5152663 0.4459519
000280 19 6c a1 3d b2 ff af 3f 7e c2 8a be 42 3e 05 bf
       0.07881946 1.3749907 -0.2710151 -0.5204812
000290 8a 6a 84 be 98 21 1b be 8a c3 de 3e cf d6 1e 3f
       -0.25862533 -0.15149534 0.4350856 0.6204652
0002a0 d2 74 a1 be e1 fa 08 40 5f d0 2a 3f 16 7d bc 3b
       -0.3153444 2.1403124 0.667242 0.005752216
0002b0 6f 28 9e be 25 33 bf be 28 96 2d 3d 41 10 0d 3f
       -0.30890223 -0.37343708 0.04237953 0.55102926
0002c0 fc c2 a9 3f ed 09 11 bf 06 c6 82 3f 5f 10 08 40
       1.326263 -0.5665577 1.0216682 2.1259992
0002d0 5d f0 30 3d 7c 2b 60 3b 42 ae 6c be e9 7b 8d bc
       0.04319798 0.0034205606 -0.23113349 -0.017270999
0002e0 34 c3 54 bf c4 7e 37 bc 98 d5 22 3f c5 65 3d bf
       -0.83110356 -0.011199657 0.6360717 -0.73983413
0002f0 14 13 59 3e 5c 10 28 be 06 74 96 bc 35 df 8d bd
       0.21198684 -0.1641249 -0.018365871 -0.06927339
000300 3e c3 39 3e ac 48 38 bf 3b 7e 8e be 7a 38 71 be
       0.18140885 -0.7198589 -0.2783068 -0.235567
000310 1f 6e d8 3d 65 0e 54 be 9a 3b 12 bf 90 75 c3 be
       0.10567879 -0.20708616 -0.57122195 -0.3817563
000320 f0 c9 52 be 5e 27 d1 be b8 0c f9 3e 34 f5 1d bf
       -0.20584846 -0.40850347 0.48642516 -0.61702275
000330 45 b5 cb 3e 86 46 83 3e 66 f1 ed bf d2 00 e5 bd
       0.39786735 0.25639743 -1.8589294 -0.11181797
000340 61 cd 02 3f c2 49 af 3d 47 1c ef 3d 5b 26 be 3f
       0.51094633 0.0855899 0.11675315 1.4855455
000350 2b 3b 28 3e ab 19 cb 3e 9e e1 0a bf fb fd 46 bf
       0.16428821 0.3966802 -0.54250515 -0.77731293
000360 d8 de 37 3d 37 19 d6 3d 16 4a 7e bd ef 07 61 bc
       0.044890255 0.10454028 -0.062082373 -0.013734802
000370 06 92 45 bf e0 dc 7d bf bc 57 98 bd db a6 06 3f
       -0.7717594 -0.99165154 -0.07438609 0.5259835
000380 5c 87 dc 3d 62 a2 99 3d 9b f0 1a 3d f4 50 9b be
       0.10768005 0.07501675 0.037827116 -0.303352
000390 fe 47 21 be e9 ce 8f 3e 69 78 44 c0 e3 56 fe 3c
       -0.15750119 0.28087547 -3.0698493 0.03104729
0003a0 15 98 a2 3e 94 f4 da 3f 0a 02 cb 3c 24 42 44 3d
       0.31756654 1.7105889 0.024781246 0.04791464
0003b0 8c 5c 1f 3d 7a 34 21 3c 5f 88 83 bf db 33 38 bf
       0.03890662 0.009839172 -1.0275992 -0.71954125
0003c0 6a 9d d0 be cd c5 0e 3b f0 46 8b 3f 07 b4 a7 be
       -0.40745097 0.002178538 1.0881023 -0.32754537
0003d0 62 b3 31 bf 57 e6 29 3e bb 49 99 be 9e 8b eb 3e
       -0.6941434 0.16591774 -0.29939064 0.46004957
0003e0 3e f7 d9 bf 7a 1c 11 be dd 44 4b 3f 75 ae 77 bd
       -1.7028577 -0.14171019 0.7940195 -0.06046911
0003f0 13 6a 54 be 7e 88 d8 3e 2c af 67 bc e0 e7 ed be
       -0.20743589 0.42291635 -0.014140885 -0.4646597

bias f4 [32]
000000 f6 f8 46 3e a6 de 1c 3f e5 60 03 3f a6 9a 8e be
       0.19430909 0.61277235 0.51319724 -0.27852362
000010 b3 75 c2 3e 05 0a 3d 3f f3 5c 78 3f 02 54 0d bf
       0.37980422 0.73843414 0.9701683 -0.5520631
000020 b6 ab eb 3e 1c 01 34 3d 7f 60 04 3f 68 5a a5 3e
       0.46029443 0.04394637 0.5170974 0.32295537
000030 0c 71 d2 bd ee 22 0b 3f 3b ca 32 3e 2d 14 40 3f
       -0.10275468 0.54350173 0.17459957 0.75030786
000040 17 d6 2f 3e d1 1f 0d 3f b5 0c 0c 3f 44 bf d5 3e
       0.17171513 0.55126673 0.5470689 0.41747487
000050 b5 16 d4 3d d6 d7 27 3e d3 8d b8 3e 61 54 fb 3e
       0.103558935 0.16390929 0.36045703 0.49087813
000060 b7 5d 0d 3e 01 2a 93 3e 1e 1d ba 3d fd e4 ee 3b
       0.1380528 0.28742984 0.09087585 0.007290481
000070 6a 12 0b 3e 39 47 30 3f 6a ae 8c bd 3e 66 97 3e
       0.13581243 0.6885868 -0.06869204 0.29570192

weight f4 [32, 32, 3, 3]
000000 e1 a9 f2 3d 4e 72 52 3d b1 6c 9c be b9 3f 21 3f
       0.11848808 0.05137854 -0.30551675 0.6298786
000010 8c f3 0f be fb dd eb be 9d 44 b8 3e ae 0a 86 3e
       -0.1405775 -0.46067795 0.35989848 0.26180023
000020 e0 2d 99 bd ed a1 bb 3e ee ad 71 3e 9c f8 9b bf
       -0.07479453 0.36646977 0.23601505 -1.2185245
000030 1b b1 6e be 0a b8 1b be 72 2a 8f 3e 93 7d 2a be
       -0.23309748 -0.15206924 0.2796207 -0.16649465
000040 f2 8b 1f bf 1a 42 c0 be 26 48 22 be e1 24 60 bd
       -0.62322915 -0.3755043 -0.15847835 -0.05472267
000050 fe 9e a8 bf 1a 96 53 3d 14 6b b6 3d da 4f 3f 3f
       -1.317352 0.05165682 0.08907142 0.7473122
000060 cd c6 36 3d 9b 65 19 3e b5 61 9f 3d 12 f5 9c be
       0.044623185 0.14980166 0.07782308 -0.30655724
000070 f6 c2 a8 bd 86 53 01 bf a0 ba 66 bd 82 17 f6 3e
       -0.08240311 -0.5051807 -0.056330323 0.4806481
000080 eb 20 3b 3f f9 95 01 3f b8 b4 a3 3d c8 ac 62 be
       0.73097104 0.50619465 0.07993454 -0.22136223
000090 39 fe 69 3e d4 a6 af 3e 92 06 61 3f 1f 99 b4 3e
       0.22850884 0.34306967 0.8790065 0.35273072
0000a0 87 c0 30 3f 58 9e 39 3f 64 6e 35 bf fa 5a 69 3e
       0.69043773 0.7250724 -0.7087157 0.22788611
0000b0 7f e5 88 3f 37 93 96 be 50 8c 24 3e 6d e2 7d bf
       1.0695037 -0.2940919 0.1606915 -0.99173623
0000c0 93 50 87 3e 8d dd de 3e ae 12 8b 3f 70 a4 23 3e
       0.2642866 0.43528405 1.0865076 0.15980697
0000d0 0c 2b 8a bd af 56 92 3e 4c 49 e1 bd 4d a8 ef bd
       -0.06746492 0.2858176 -0.110003084 -0.11702023
0000e0 6e 91 90 be fa a4 a9 3d 4f 9d 52 3f 45 71 2d 3e
       -0.28235954 0.0828342 0.82271284 0.1693774
0000f0 d7 58 1f bd 68 a3 42 bf ac 1c 21 bd f2 80 da be
       -0.038903084 -0.7603059 -0.039333984 -0.42676502
000100 07 51 db bd 41 e5 03 bf 69 cb b7 3d 59 91 aa 3e
       -0.10708814 -0.5152169 0.08974344 0.33314016
000110 1a 3d b8 3f f7 97 02 3f 31 37 66 3f f4 bd ac 3b
       1.4393647 0.5101313 0.89927965 0.0052716676
000120 92 f9 0e 3f f1 27 10 3f b0 37 16 3f b1 ef 80 bf
       0.55849564 0.56310946 0.5867872 -1.0073148
000130 bf 8b 43 be 07 27 e5 3c 5e 77 7a 3e a5 88 e3 3e
       -0.19096278 0.027972711 0.24459597 0.4444019
000140 00 66 b6 bf 67 8b ff 3c 24 53 62 3f 13 2d 92 bf
       -1.4249878 0.031194402 0.8840811 -1.1420006
000150 b4 da 47 be 60 50 cc 3e b3 f8 7c 3d 2e d1 f8 bc
       -0.19517022 0.3990507 0.061760616 -0.030373182
000160 f2 3a 3a bf 7c b2 60 be ab 4c ba 3e 45 a1 82 3e
       -0.72746193 -0.21943086 0.36386618 0.25513664
000170 a8 b0 d2 3e 1a 29 de 3c 8e 8d e1 be 9e af ba 3c
       0.41150403 0.027119208 -0.4405331 0.022788819
000180 56 ea 8f 3d ee bf 32 bf 32 ed be bf 37 6d 04 bd
       0.07027118 -0.6982411 -1.4916136 -0.032330718
000190 f6 68 33 3e 66 a4 aa be c3 79 d3 3d 95 f8 ea 3e
       0.17520508 -0.3332855 0.103259586 0.45892778
0001a0 9d 4f 70 3f 73 cc 9e 3e 41 b1 bb bd 8e 44 88 be
       0.9387148 0.31015357 -0.09164668 -0.26614803
0001b0 dd 69 33 3f ef bd bb 3e 13 36 29 be d2 89 1b 3e
       0.7008341 0.36668345 -0.16524534 0.15189293
0001c0 2a 1f cf be 26 5b be 3e 27 92 2b be c5 70 24 bf
       -0.40453464 0.37178916 -0.16754971 -0.6423457
0001d0 29 7d de be 25 7b 92 3e ea 34 92 3e d4 e7 0d bd
       -0.43454865 0.28609577 0.28555995 -0.034644917
0001e0 b7 f2 79 bd fc 10 38 3f 07 2d 96 3f 4e 11 da bc
       -0.061022487 0.71900916 1.1732491 -0.02661958
0001f0 b5 b1 fd be c4 a5 ae 3c d8 c1 cd 3d 24 2e 5c 3e
       -0.49549642 0.021319278 0.100467384 0.21501976
000200 9b 6f 2f 3f 4e 33 2d bf 50 53 09 bf e0 f9 5e 3c
       0.6852967 -0.6765641 -0.5364275 0.0136093795
000210 5d 0d d0 be 53 71 34 bf 78 4d 09 be 09 29 92 3d
       -0.40635195 -0.7048542 -0.13408458 0.07136733
000220 5d 52 19 3f 6e 40 4f bf 6c f7 eb 3e 0f 7b 94 be
       0.598913 -0.80957687 0.46087205 -0.29000136
000230 a2 80 f3 3c 3e b6 77 3e 77 02 3e be ab 91 9c bf
       0.029724423 0.24190614 -0.18555628 -1.2231954
000240 81 92 b5 3e ec 10 b7 3e a9 35 79 bf 21 3a 24 3d
       0.35463336 0.35755098 -0.97347504 0.0400945
000250 db 0d 24 3f 1e 18 23 bd 74 71 1a 3e b4 8c 3f bf
       0.6408364 -0.03981792 0.15082341 -0.7482407
000260 ee f0 a3 bd 47 55 4b bd 62 ae 01 3d 9d 8f 9c 3e
       -0.08004938 -0.049641874 0.031660445 0.30578318
000270 c2 e1 de 3e c1 e1 19 be 93 7a 02 3f 7c 7d b4 be
       0.43531615 -0.15027525 0.50968283 -0.35251987
000280 db c8 4c be c0 77 96 be f8 e6 da be 70 8d 90 3e
       -0.19998495 -0.29388237 -0.4275434 0.28232908
000290 47 5d 55 3c 39 b1 b1 3d d4 fb 88 3e 21 fd 7b 3e
       0.013022727 0.08676381 0.2675463 0.2460828
0002a0 61 ac 8f be 5c ef 30 3e 76 42 5b 3f b1 6f 9b bd
       -0.28061202 0.17278808 0.85648286 -0.07589663
0002b0 e4 3e 36 bd f4 17 15 bf 40 5c ae bd fb 56 fa 3e
       -0.04449357 -0.58239675 -0.08513689 0.48894486
0002c0 28 60 35 be 87 bf 5a 3e 0a f6 5c 3f be 76 c1 be
       -0.17712462 0.21362124 0.86312926 -0.37785906
0002d0 19 49 a9 be 80 33 96 3c 6f fa 24 3e bb 47 08 3f
       -0.33063582 0.018335104 0.16111158 0.5323445
0002e0 f0 23 84 be 4a ab 1e 3d 30 0c c9 3c 17 77 d8 3e
       -0.25808668 0.038737573 0.024541944 0.42278358
0002f0 ce 92 2e bd a8 55 97 3d 14 24 d1 3e e3 66 fd be
       -0.042620473 0.073893845 0.40847838 -0.4949256
000300 ec 1c 25 bd 30 8c e5 bc c0 53 8c 3f 63 84 bf 3e
       -0.040310785 -0.028020948 1.0963058 0.3740569
000310 17 97 c8 be 84 e4 e9 bd 7c e4 c3 3d fc 22 e6 be
       -0.39177772 -0.11420539 0.09565064 -0.44948566
000320 2e aa e0 be 5b a9 ef 3d 5f cd fb 3e 64 c6 90 3f
       -0.43879837 0.11702224 0.49180123 1.1310544
000330 dd d7 97 3e fe 28 10 3f 3d c4 fd bd 64 ab 86 3c
       0.29656878 0.5631255 -0.12390945 0.016439147
000340 2a 2e af 3d 63 22 6a be b7 47 09 3e 07 ff 07 3f
       0.08553727 -0.2286468 0.13406263 0.53123516
000350 b4 1d 9e 3f d3 94 26 3e 96 44 37 be 90 26 93 be
       1.2352815 0.1626771 -0.17897257 -0.28740358
000360 6f 19 ab 3e 99 5b 62 be 17 28 c5 bf 62 a3 18 be
       0.33417842 -0.22105254 -1.540286 -0.14906076
000370 f5 aa 40 3f 15 2f dd be fc 58 dd bc 47 a1 35 bf
       0.7526086 -0.43199983 -0.02701997 -0.70949215
000380 1b 8e be be 13 f8 0f 3d 86 6a 04 be 29 2d f0 be
       -0.37217793 0.03514869 -0.1293126 -0.46909454
000390 f5 9b da 3d 91 d2 05 3f 0b 43 62 3f 37 74 1d bd
       0.10674278 0.52274424 0.8838355 -0.03844091
0003a0 46 2e 39 3f a9 7c 68 bd 0d ba d3 bd 4c 7a b2 3e
       0.7233623 -0.05675951 -0.10338221 0.3485893
0003b0 70 24 25 bf 6f 81 b7 3d 11 8c 89 3e 29 a6 66 3f
       -0.64508724 0.089602344 0.26864675 0.9009729
0003c0 c5 c7 17 3f 4c b2 29 bd af d4 0a be 15 77 4b bd
       0.592892 -0.041429803 -0.13557695 -0.049674112
0003d0 44 96 8e 3e cd f1 2b 3f e8 c0 9c bd 1b fb ae be
       0.2784902 0.67165834 -0.076539814 -0.34175953
0003e0 1c 32 a0 be 92 2a 9c bc 78 32 cc bc ca e2 f2 3d
       -0.3128823 -0.019063268 -0.02492641 0.11859663
0003f0 5e 06 15 3c 29 c0 5d 3e 1e 21 90 bf 76 6e da 3e
       0.009095756 0.21655335 -1.1260107 0.426624

bias f4 [32]
000000 fa 3d 85 3d f7 31 be be 15 5e 95 be 81 da 48 be
       0.06505962 -0.37147495 -0.2917334 -0.19614603
000010 c1 d8 8d be 3c 9b 92 be 95 7b 98 be 4a aa 9a be
       -0.27704433 -0.2863406 -0.29781786 -0.30208045
000020 94 fe af bd 3f 09 65 be a1 e8 e5 3d cb 0b 95 be
       -0.08593479 -0.22366808 0.11226011 -0.2911056
000030 8b 3b d9 be 14 7a 9b be 7d 9c 8c 3d 6d d7 05 3d
       -0.4242824 -0.30366576 0.06865785 0.03267615
000040 3b 65 30 be 6c e2 27 bf fd ce cb bd 2b a3 8a 3d
       -0.17226116 -0.6557987 -0.09951589 0.06769403
000050 2a bf 95 3d 84 3e da be a6 06 99 be 90 1e a9 be
       0.07311852 -0.4262582 -0.29887885 -0.3303113
000060 79 d5 af bd 7f 2a 9a be 2e 1e 74 be ef 95 e3 3c
       -0.085856386 -0.30110547 -0.23839638 0.027781455
000070 0f 51 76 be fb dd e8 3d 75 36 7b 3e e6 37 90 be
       -0.24054359 0.113704644 0.24532492 -0.28167647
