nonhierDiscriminate2/models/final.pth (torch_old, 209774 bytes, 18 tensors)

weight f4 [32, 1, 3, 3]
2.8144908 1.1352693 1.8549207 3.0470967 1.246528 3.6924324 2.1580842 3.6349738
4.9106917 -0.50789535 0.5704422 1.0591136 0.46283615 1.0399451 1.1388198 0.81592286
1.7814418 0.5408219 0.98565847 0.99851364 0.36302397 -0.22309618 -0.5906133 0.048315488
-1.3930547 -1.1116807 -0.4152034 -1.1185586 -1.3897758 -1.3789865 0.3493987 -0.5760687
0.14929871 0.6762668 0.6304778 0.93112755 -0.29173285 0.8537824 0.7519674 -0.004757936
1.386713 0.6113925 0.72559506 1.7954761 0.39636388 0.9017708 1.2320927 0.6519085
-0.14186709 -0.83696413 -0.9162378 -1.1628213 -1.2366195 -0.30286396 0.4429629 1.0753098
0.24735434 0.061346963 0.8481923 -0.2260893 -0.52199244 -0.43058038 -0.11405762 -0.8924652
-0.9100741 -0.9757695 0.012612653 -0.7286169 -0.6163146 0.44349718 1.077463 0.7581175
-0.0020842056 -1.189162 -1.2917843 -0.3424732 -0.8380823 -0.3496441 0.9185267 1.0360475
0.45729983 -0.44194293 0.27647242 0.32025263 -0.71089053 -0.69268996 0.50345117 -0.8784502
-0.30666417 0.71276456 0.40757376 -0.034543198 -0.09416666 0.22197604 -0.98301005 -1.04493
0.6048451 -0.21101263 -0.40101865 -7.73576e-05 1.6630181 0.7199506 -2.2929957 -0.45004076
-1.7939398 -3.6669633 -2.648075 -2.494046 -0.3887527 1.1138378 0.65904444 -2.380021
-0.9393926 -2.2894492 -2.3306038 -1.5911773 -1.5683122 -1.6791523 0.41093045 -2.476334
-1.9248714 -0.33615342 -2.939786 -2.4347625 -1.8667967 -2.5001667 -0.4345783 -0.075008705
0.5008307 -1.0296956 -0.2757652 -0.16132264 -0.36750114 0.4181922 0.060059056 -1.8932042
-1.3687729 -2.5495129 -1.1109452 -0.9853708 -1.72322 0.021518825 0.9079185 -0.3239853
0.3391308 0.868591 0.6502846 0.86551505 1.6699117 0.23587008 0.68339485 0.7681103
-0.15865165 -1.3171215 -0.29894647 -1.0201911 0.07552818 1.031834 0.4394227 0.037014242
1.6557621 0.38268068 0.11177444 -0.06448312 0.42333096 -0.5914549 -0.6966013 0.17976418
-0.25792006 -0.40411383 -0.18557392 0.14345886 0.5997885 -0.06968822 -0.85438013 -1.005285
-1.4053475 0.6307336 0.5494517 -0.3980764 0.99153626 1.0464302 1.0260221 0.7232197
1.3756242 1.0729339 0.90522134 1.1250496 0.5457866 -0.7461967 -0.4301566 -1.0148904
0.71486443 1.5176562 0.02598488 0.42327905 1.0210793 -0.41669235 0.8050166 0.8036824
-0.02527168 0.022322742 -0.016454976 -0.28525087 -0.5091288 -1.0187235 -0.9392402 -1.1157695
-0.8311668 -0.036370397 -0.450217 -0.6376151 -0.3764352 0.23134682 0.4676031 1.1324149
1.1221728 1.1238835 0.990879 -0.3453935 -0.49441963 0.092061386 -1.4867123 -1.4053824
-1.1146938 2.6754336 2.1619549 2.4305701 2.1304553 0.67529464 1.8044425 3.2504888
3.6216424 2.675538 0.6587445 0.51821417 0.22199827 -0.59256005 -0.95413244 -0.82838625
-0.041380096 -0.48928934 -0.2867106 -2.4198325 -0.5463033 -0.8771802 -1.5395244 -1.4626553
-3.1738453 1.243334 0.936189 -0.76683503 -1.1976523 -1.4613653 -1.0097271 -0.52584004
00000000: 9e20 3440 8150 913f 0b6e ed3f a203 4340
00000010: 3b8e 9f3f d050 6c40 0d1e 0a40 69a3 6840
00000020: 6324 9d40 6e05 02bf 8008 123f 0991 873f
00000030: dcf8 ec3e ec1c 853f d9c4 913f 52e0 503f
00000040: 4906 e43f 4e73 0a3f 1d54 7c3f 979e 7f3f
00000050: 47de b93e 5373 64be 6f32 17bf 76e6 453d
00000060: 9e4f b2bf 8e4b 8ebf 8a95 d4be ee2c 8fbf
00000070: 2ce4 b1bf a182 b0bf 63e4 b23e 3d79 13bf
00000080: c3e1 183e d21f 2d3f fe66 213f 605e 6e3f
00000090: 025e 95be 7c91 5a3f ef80 403f 76e8 9bbb
000000a0: d07f b13f 3884 1c3f 99c0 393f 29d2 e53f
000000b0: 35f0 ca3e 73da 663f 37b5 9d3f 7ae3 263f
000000c0: 9b45 11be 4843 56bf 8f8e 6abf 54d7 94bf
000000d0: 8c49 9ebf fc10 9bbe 09cc e23e c0a3 893f
000000e0: 754a 7d3e f446 7b3d 2123 593f f483 67be
000000f0: 4ca1 05bf 0875 dcbe 0b97 e9bd 9978 64bf
00000100: 9efa 68bf 08cc 79bf 4da5 4e3c a386 3abf
00000110: cbc6 1dbf 1012 e33e 4fea 893f fd13 423f
00000120: 2b97 08bb 7636 98bf 3059 a5bf a658 afbe
00000130: 908c 56bf 8d04 b3be 9124 6b3f 349d 843f
00000140: 3423 ea3e 5846 e2be cb8d 8d3e 27f8 a33e
00000150: ecfc 35bf 2154 31bf 2de2 003f 1de2 60bf
00000160: 1603 9dbe bd77 363f 82ad d03e 2b7d 0dbd
00000170: 73da c0bd b04d 633e 8ca6 7bbf 44c0 85bf
00000180: 21d7 1a3f b213 58be 5152 cdbe 0c3b a2b8
00000190: c7dd d43f af4e 383f 71c0 12c0 be6b e6be
000001a0: d29f e5bf 87af 6ac0 107a 29c0 739e 1fc0
000001b0: 980a c7be 3d92 8e3f 23b7 283f 4452 18c0
000001c0: 097c 70bf 5686 12c0 9d28 15c0 b3ab cbbf
000001d0: 74be c8bf 76ee d6bf 7a65 d23e 427c 1ec0
000001e0: 3062 f6bf 4d1c acbe 7425 3cc0 26d3 1bc0
000001f0: 32f3 eebf bb02 20c0 0c81 debe 2a9e 99bd
00000200: 7136 003f 11cd 83bf 1931 8dbe c331 25be
00000210: 1c29 bcbe 4a1d d63e 7c00 763d 8454 f2bf
00000220: f333 afbf 382b 23c0 7433 8ebf 4341 7cbf
00000230: 7992 dcbf 3f48 b03c 596d 683f 67e1 a5be
00000240: 8da2 ad3e fb5b 5e3f 0d79 263f 6592 5d3f
00000250: abbf d53f ed87 713e f7f2 2e3f e0a2 443f
00000260: 9475 22be 7097 a8bf 830f 99be 9f95 82bf
00000270: 85ae 9a3d 2313 843f 03fc e03e 3f9c 173d
00000280: 03f0 d33f b9ee c33e ffe9 e43d ba0f 84bd
00000290: d6be d83e 9769 17bf 7654 32bf 1a14 383e
000002a0: 190e 84be 02e8 cebe 1707 3ebe e1e6 123e
000002b0: bd8b 193f b3b8 8ebd a8b8 5abf 2ead 80bf
000002c0: 6de2 b3bf c277 213f dea8 0c3f abd0 cbbe
000002d0: 52d5 7d3f 6df1 853f b154 833f ed24 393f
000002e0: 7414 b03f e655 893f 96bc 673f a001 903f
000002f0: acb8 0b3f bf06 3fbf 7c3d dcbe eee7 81bf
00000300: 5b01 373f 8f42 c23f 3ede d43c 08b8 d83e
00000310: bab2 823f b358 d5be 9115 4e3f 21be 4d3f
00000320: 8e06 cfbc 2fde b63c 96cc 86bc 670c 92be
00000330: 4456 02bf 8865 82bf 0c72 70bf 89d1 8ebf
00000340: 59c7 54bf 20f9 14bd d882 e6be be3a 23bf
00000350: 1dbc c0be 2ee6 6c3e ac69 ef3e f9f2 903f
00000360: 5ca3 8f3f 6adb 8f3f 3faa 7d3f 6bd7 b0be
00000370: 9224 fdbe ae8a bc3d 974c bebf 92e3 b3bf
00000380: 49ae 8ebf 4e3a 2b40 785d 0a40 768e 1b40
00000390: 6159 0840 1ce0 2c3f f9f7 e63f 0208 5040
000003a0: fdc8 6740 043c 2b40 7ba3 283f afa9 043f
000003b0: 8453 633e 04b2 17bf 0642 74bf 1f11 54bf
000003c0: 2d7e 29bd 2284 fabe bbcb 92be 89de 1ac0
000003d0: 88da 0bbf e28e 60bf 230f c5bf 4a38 bbbf
000003e0: 4820 4bc0 9225 9f3f 15aa 6f3f 4d4f 44bf
000003f0: ac4c 99bf 050e bbbf bd3e 81bf 749d 06bf

bias f4 [32]
0.107070796 -0.2546175 0.2554424 0.8707087 -0.47303456 -0.1267712 0.0063641933 0.71728635
0.52248955 0.46742287 0.73939055 0.16258618 0.17069232 0.2650123 0.3731157 0.17820555
-0.35692328 0.029851744 0.49937335 0.49041903 -0.23387109 -0.104376465 0.889042 0.8562027
-0.16558973 0.04294741 0.947189 0.38747057 0.8816132 0.7940445 -0.15178525 0.50929713
00000000: ef47 db3d 3a5d 82be 59c9 823e c4e6 5e3f
00000010: 9631 f2be 4fd0 01be b98a d03b 14a0 373f
00000020: e0c1 053f 0d52 ef3e b348 3d3f fe7c 263e
00000030: f8c9 2e3e b1af 873e 0509 bf3e 847b 363e
00000040: a6be b6be a58b f43c ddad ff3e 3418 fb3e
00000050: e77b 6fbe 54c3 d5bd 4298 633f 1a30 5b3f
00000060: 5b90 29be a0e9 2f3d fa7a 723f 8b62 c63e
00000070: 67b1 613f 8046 4b3f 986d 1bbe 4c61 023f

weight f4 [32, 32, 3, 3]
0.041070253 -0.18731022 0.045004718 0.14708103 -0.18303725 0.05194317 -0.010798056 -0.098367736
0.06085324 0.112866975 -0.092958994 0.084667765 0.106146336 -0.18248972 0.22103222 -0.014360828
-0.027041731 0.204083 -0.40157714 0.2081918 -0.15407729 -0.27411348 0.56895876 -0.23409277
-0.05210022 0.21455862 -0.0923112 -0.07990662 0.5202358 0.038596462 -0.18076096 0.43563518
-0.1697949 -0.0032498634 0.27564466 -0.17498161 0.20668948 -0.09608892 0.05785541 0.23015602
-0.12945127 0.18568787 -0.0049742097 0.010292145 0.23223151 -0.2249799 0.4529304 -0.105384745
-0.15083678 0.6239162 -0.088759266 0.16671214 0.358317 -0.05611445 0.025309045 -0.14716132
0.028064463 0.13391843 0.042231496 0.019338904 0.07785309 -0.047653448 0.082377225 -0.032605145
0.56238306 0.010154288 -0.23845106 0.56405556 -0.22284046 0.0073221526 0.33126438 -0.15079626
0.01143201 0.62191564 -0.13989574 -0.12215582 0.6079415 -0.34166738 0.12209458 0.31247792
-0.21715102 -0.412026 0.1937351 -0.07348847 -0.40626222 0.40676913 -0.19119848 -0.05062591
0.12319359 -0.1354836 -0.083019525 0.29900503 -0.32604113 -0.021880455 0.4090002 -0.6054208
0.015448295 0.1613415 -0.30664295 -0.4276028 0.49427435 -0.15575026 -0.3937504 1.3223063
-0.12153567 0.07306539 0.36779886 -0.19128996 -0.36943966 0.23391989 -0.13310818 -0.3813682
0.8724193 -0.24164839 -0.05452535 0.30948153 -0.16203108 -0.4587626 0.15945357 -0.20326835
-0.75974923 0.89158547 -0.51064634 -0.27255422 0.13366254 -0.4181484 -0.49307793 0.27452636
-0.15917616 -0.49925363 0.5449317 -0.32481277 -0.16701105 0.06712487 -0.15031944 -0.21290992
0.33048883 -0.04899985 -0.48860574 1.0437291 -0.3973477 -0.15257761 0.29069313 -0.27627382
0.17401057 -0.09574122 -0.04894114 0.16518581 -0.0653171 0.22321007 0.113738805 0.004399792
0.19417423 0.040661655 -0.16610791 0.034610897 -0.03328214 -0.101301126 0.025923356 -0.041068982
-0.032906402 0.036288813 -0.39716244 0.30054572 -0.23669353 -0.33071324 0.45574012 -0.25786433
0.053618554 0.16001002 -0.1639997 -0.15105313 0.45455244 -0.33679777 -0.17602643 0.76690304
-0.46721807 0.041061666 0.18556897 -0.21331182 0.08950101 -0.13740116 0.03216197 0.21195997
-0.10692513 0.19298537 0.006954497 -0.07266338 0.13305703 0.11014069 -0.1029989 -0.10121945
0.078585304 -0.10975056 0.0022887061 -0.07420089 -0.018022351 0.016034352 -0.10499443 0.3029394
-0.34950742 -0.024394145 0.45707974 -0.3838633 0.20512529 0.17258188 -0.18635574 -0.2837967
0.41729677 -0.0140122 -0.33265036 0.4899498 -0.14218184 -0.007129354 0.21566853 -0.07999055
-0.279017 0.7555813 0.054685567 0.038249098 0.58989054 0.049111236 0.31025153 0.41423059
0.09875513 0.11968728 -0.07245049 0.07366884 0.19786486 -0.1387327 0.111443445 0.0948931
-0.031221647 0.1623916 -0.17471953 0.3114042 -0.23038693 -0.08567157 0.49535066 -0.35482064
0.14907248 0.25984663 -0.18472673 -0.24291143 0.5181505 -0.11995477 -0.49347246 1.2434167
-0.4003869 -0.16580363 0.35356247 -0.21460982 -0.09392581 0.66526353 0.12015017 -0.27059323
00000000: 4839 283d 40ce 3fbe de56 383d 699c 163e
00000010: 1e6e 3bbe 5dc2 543d 54ea 30bc 0675 c9bd
00000020: 3f41 793d cd26 e73d 4961 bebd 4b66 ad3d
00000030: 4063 d93d 96de 3abe 4556 623e ae49 6bbc
00000040: 9f86 ddbc 22fb 503e 859b cdbe 3b30 553e
00000050: 70c6 1dbe 9a58 8cbe 48a7 113f 04b6 6fbe
00000060: 0a67 55bd 41b5 5b3e a80d bdbd 15a6 a3bd
00000070: 2c2e 053f 5317 1e3d 6719 39be 930b df3e
00000080: b7de 2dbe a9fb 54bb 4c21 8d3e 612e 33be
00000090: 68a6 533e 45ca c4bd cbf9 6c3d 05ae 6b3e
000000a0: e08e 04be f624 3e3e b2fe a2bb 63a0 283c
000000b0: 19ce 6d3e 2261 66be 7ee6 e73e f5d3 d7bd
000000c0: f574 1abe f9b8 1f3f 6bc7 b5bd 96b6 2a3e
000000d0: 5375 b73e 44d8 65bd ea54 cf3c 75b1 16be
000000e0: 72e7 e53c ea21 093e effa 2c3d 9f6c 9e3c
000000f0: 7171 9f3d 4330 43bd 64b5 a83d f98c 05bd
00000100: 56f8 0f3f 2c5e 263c 842c 74be f265 103f
00000110: 4a30 64be abee ef3b 7c9b a93e 566a 1abe
00000120: 534d 3b3c dd35 1f3f d440 0fbe d52c fabd
00000130: 0ea2 1b3f 07ef aebe b90c fa3d 1bfd 9f3e
00000140: d65c 5ebe 12f5 d2be 7e62 463e 1f81 96bd
00000150: 9a01 d0be 0b44 d03e 89c9 43be 1d5d 4fbd
00000160: ec4c fc3d 36bc 0abe 2406 aabd 3017 993e
00000170: ddee a6be a43e b3bc 7968 d13e dcfc 1abf
00000180: d81a 7d3c b536 253e 4e00 9dbe c1ee dabe
00000190: 8711 fd3e ff7c 1fbe a799 c9be 5541 a93f
000001a0: b1e7 f8bd 4fa3 953d 2250 bc3e 84e1 43be
000001b0: 3227 bdbe b288 6f3e 834d 08be b142 c3be
000001c0: df56 5f3f ad72 77be f955 5fbd 5d74 9e3e
000001d0: 7aeb 25be eee2 eabe cc47 233e 9425 50be
000001e0: ed7e 42bf f23e 643f b8b9 02bf 3a8c 8bbe
000001f0: d5de 083e 8c17 d6be b674 fcbe b88e 8c3e
00000200: 13ff 22be 2c9e ffbe a580 0b3f dc4d a6be
00000210: f204 2bbe c478 893d 57ed 19be 0f05 5abe
00000220: d535 a93e 11b4 48bd 882a fabe ea98 853f
00000230: 2871 cbbe 4e3d 1cbe bbd5 943e c373 8dbe
00000240: d42f 323e f913 c4bd 8176 48bd 7826 293e
00000250: f9c4 85bd 2e91 643e e4ef e83d 212c 903b
00000260: 9cd5 463e d68c 263d 3118 2abe 28c4 0d3d
00000270: da52 08bd f776 cfbd 385d d43c f337 28bd
00000280: ddc8 06bd 94a3 143d e058 cbbe 21e1 993e
00000290: ca5f 72be 3f53 a9be c556 e93e cb06 84be
000002a0: 219f 5b3d abd9 233e 8aef 27be acad 1abe
000002b0: 19bb e83e c270 acbe 4640 34be c253 443f
000002c0: 3537 efbe 4730 283d cb05 3e3e 6a6e 5abe
000002d0: 4e4c b73d e4b2 0cbe 45bc 033d 090c 593e
000002e0: 90fb dabd f59d 453e 8de2 e33b 8ad0 94bd
000002f0: 1a40 083e 7191 e13d 16f1 d2bd 254c cfbd
00000300: 55f1 a03d e7c4 e0bd 1efe 153b a3f6 97bd
00000310: 9ca3 93bc 795a 833c 5207 d7bd df1a 9b3e
00000320: a3f2 b2be 3bd6 c7bc 5b06 ea3e bb89 c4be
00000330: 5d0c 523e 4eb9 303e 0ad4 3ebe cd4d 91be
00000340: eca7 d53e 6d93 65bc 2651 aabe b3da fa3e
00000350: 1e98 11be 5b9d e9bb 36d8 5c3e 16d2 a3bd
00000360: 51db 8ebe c76d 413f f9fd 5f3d 16ab 1c3d
00000370: 1103 173f dd28 493d 4ad9 9e3e 0816 d43e
00000380: 2140 ca3d 9b1e f53d ec60 94bd b0df 963d
00000390: 169d 4a3e f20f 0ebe 763c e43d 5057 c23d
000003a0: 8ac4 ffbc fc49 263e ade9 32be 5f70 9f3e
000003b0: 8dea 6bbe 9374 afbd 9a9e fd3e 0dab b5be
000003c0: 75a6 183e 9e0a 853e 0129 3dbe c6bd 78be
000003d0: 83a5 043f d9aa f5bd 6ca8 fcbe 4728 9f3f
000003e0: 83ff ccbe 6dc8 29be 2406 b53e adc2 5bbe
000003f0: 2d5c c0bd b64e 2a3f 4b11 f63d 328b 8abe

bias f4 [32]
0.038737293 -0.0075936997 -0.09016101 -0.037733573 0.049079753 0.02453863 0.0019792356 -0.10358232
-0.07433188 -0.08972318 0.020388883 -0.067231 -0.018856037 -0.008963056 -0.00062512635 0.031589326
-0.19740899 -0.0062044165 0.08209713 0.04829929 0.07030044 -0.05483709 0.019693475 0.0024751925
-0.0091109825 -0.0071834833 -0.021257112 -0.035156734 -0.07175584 -0.03176589 -0.0744949 -0.08567413
00000000: ffaa 1e3d 92d4 f8bb 56a6 b8bd 858e 1abd
00000010: da07 493d 3d05 c93c 10b6 013b f822 d4bd
00000020: 503b 98bd c9c0 b7bd 9606 a73c 68b0 89bd
00000030: fa77 9abc c8d9 12bc 85df 23ba cf63 013d
00000040: 9525 4abe 6b4e cbbb 8a22 a83d 7ad5 453d
00000050: adf9 8f3d db9c 60bd 3654 a13c d736 223b
00000060: 3b46 15bc 6d63 ebbb 6523 aebc 8200 10bd
00000070: baf4 92bd f31c 02bd c890 98bd eb75 afbd

weight f4 [32, 32, 3, 3]
0.026703754 0.09813355 0.36515078 0.29963744 0.14052162 0.1474396 0.30105895 0.058063418
-0.0067173117 0.31115896 0.047814514 0.5157627 0.08572541 -0.27317694 -0.12830304 -0.29248086
-0.19447868 -0.2878399 -0.19114889 -0.19165578 -0.05610272 0.013417941 -0.015109109 -0.59961605
-0.12253586 0.26647756 -0.23932074 -0.014821171 -0.10605058 -0.036209736 0.00035151144 -0.28186068
-0.05899514 -0.17416187 0.029758547 -0.08564263 0.06446242 -0.11142297 -0.061208017 0.29974452
-0.13220523 -0.19609778 -0.029664705 0.03465004 -0.056466494 -0.16345198 0.06319731 -0.04937909
-0.12703 -0.47344124 -0.6223145 -0.4245031 -0.04677965 -0.17865063 0.050389107 0.109609276
0.16543601 0.08376839 0.16225635 0.027617685 0.12226639 0.046243846 -0.13997358 0.020595225
-0.10873577 0.18929017 0.47318295 0.27476263 0.26508695 0.082155064 -0.054280974 -0.20088921
-0.10712059 -0.26995268 -0.104072146 -0.38295102 -0.4098815 -0.3974274 -0.41099694 -0.04199279
-0.41129974 -0.11214132 0.05862486 0.11078748 0.46341333 0.47405353 0.5853415 0.32873648
0.026717583 -0.22412993 0.09940054 0.20941187 0.23091507 0.26150867 0.31992576 0.17180827
0.4062144 0.08713944 -0.05799433 0.011501829 0.06477751 0.11361698 0.19312964 0.07897246
0.030677462 0.055429872 0.17796618 -0.051362433 -0.15964626 -0.2240733 0.17082436 0.005857417
-0.0717609 0.1397186 0.22407958 0.37240615 0.6027743 -0.26231426 -0.57756895 -0.2913429
-0.11180771 -0.38450232 -0.85622776 -0.062318034 0.094580665 0.08398465 0.11760307 -0.22633523
-0.010310245 -0.18756746 0.32551843 -0.046727914 -0.4736801 -0.12706082 -0.13610458 -0.15586223
-0.10920923 0.25274608 0.36144647 -0.12980056 -0.24676745 -0.10881441 -0.07369908 -0.45380852
0.019277805 -0.2560522 0.01885613 0.40192837 0.070783876 -0.04618666 -0.1600508 0.18833685
-0.10544083 0.08084955 0.18836907 0.3387612 0.3962103 0.41670683 0.0021816003 0.2433573
0.30307978 0.023623412 -0.041707426 -0.07923895 0.098937795 0.11475778 -0.13273656 -0.59598017
-0.03978269 -0.060025226 -0.26140344 -0.2252335 -0.2435799 -0.0715713 -0.15282491 -0.4167472
-0.51704043 -0.13566646 0.22715215 0.19724794 0.010354861 -0.016315484 0.26774368 0.19618867
0.16431823 -0.048205245 0.008870401 0.10308502 0.08945353 0.14385812 0.20302708 0.015350084
0.0887624 -0.05114939 -0.26590317 -0.035563666 -0.20965205 -0.082592145 -0.9377772 -0.31559026
0.4110803 -1.3145506 -0.19573215 0.19673774 -0.6401047 -0.073182024 0.2924761 0.18473572
0.1844024 0.036332548 -0.08747144 -0.06907279 -0.2424117 -0.088637315 -0.29173368 0.18159331
-0.05604422 -0.094960935 -0.45501593 0.037531868 -0.2502323 -0.6251175 0.003599125 0.061646864
0.15352188 -0.1198714 0.12827766 -0.08001892 -0.11595594 -0.29503825 -0.51672554 -0.019913012
-0.15141697 0.21475008 -0.1382297 -0.24619435 -0.042229354 -0.018392527 0.15974008 -0.4488976
-0.05685377 0.28471318 -0.281864 -0.57114357 -0.32254416 -0.02469622 -0.6564829 -0.017804295
-0.3300342 -0.24088696 0.17391394 -0.036197197 -0.01723819 0.07598649 -0.08690415 -0.11378179
00000000: d5c1 da3c 3efa c83d 0bf5 ba3e 146a 993e
00000010: e6e4 0f3e 68fa 163e 6624 9a3e e8d3 6d3d
00000020: e51c dcbb 3a50 9f3e 27d9 433d 0609 043f
00000030: ce90 af3d d9dd 8bbe df61 03be 0dc0 95be
00000040: 6b25 47be c05f 93be 89bc 43be 6a41 44be
00000050: f7cb 65bd ecd6 5b3c 328c 77bc 7080 19bf
00000060: 15f4 fabd bf6f 883e 7f10 75be 7fd4 72bc
00000070: 0c31 d9bd a950 14bd 114b b839 0b50 90be
00000080: e3a4 71bd 7d57 32be 32c8 f33c 6765 afbd
00000090: e004 843d ba31 e4bd 42b5 7abd 1d78 993e
000000a0: cf60 07be dbcd 48be 6503 f3bc 33ed 0d3d
000000b0: 6949 67bd f55f 27be 976d 813d bb41 4abd
000000c0: 2714 02be e466 f2be 0150 1fbf 7858 d9be
000000d0: 059c 3fbd 31f0 36be cf64 4e3d d47a e03d
000000e0: 0f68 293e c38e ab3d 8726 263e 7c3e e23c
000000f0: cd66 fa3d 306a 3d3d 3c55 0fbe 51b7 a83c
00000100: dcb0 debd 48d5 413e 0945 f23e b0ad 8c3e
00000110: 7ab9 873e ea40 a83d ba55 5ebd e7b5 4dbe
00000120: 0a62 dbbd 3d37 8abe c723 d5bd 2812 c4be
00000130: fddb d1be 9b7b cbbe 316e d2be a200 2cbd
00000140: e195 d2be 59aa e5bd 9f20 703d 8ce4 e23d
00000150: 8344 ed3e 25b7 f23e f1d8 153f 2650 a83e
00000160: d5de da3c 5182 65be 8392 cb3d 1170 563e
00000170: 0075 6c3e 77e4 853e 4fcd a33e 82ee 2f3e
00000180: 55fb cf3e 2a76 b23d 768b 6dbd 2b72 3c3c
00000190: 12aa 843d 05b0 e83d c7c3 453e 50bc a13d
000001a0: 4d4f fb3c 6f0a 633d c43c 363e 6a61 52bd
000001b0: 4f7a 23be 7973 65be 95ec 2e3e 93ef bf3b
000001c0: 61f7 92bd 6512 0f3e 1e75 653e 05ac be3e
000001d0: 6b4f 1a3f 0e4e 86be 8fdb 13bf e62a 95be
000001e0: 71fb e4bd 7ddd c4be be31 5bbf 3241 7fbd
000001f0: 82b3 c13d 2500 ac3d e1d9 f03d 6cc4 67be
00000200: 4dec 28bc af11 40be 5aaa a63e c565 3fbd
00000210: 3386 f2be 3b1c 02be 005f 0bbe 599a 1fbe
00000220: 17a9 dfbd ef67 813e 830f b93e 70ea 04be
00000230: 9bb0 7cbe 17da debd 8bef 96bd 9759 e8be
00000240: 7dec 9d3c 4619 83be 2c78 9a3c 8ec9 cd3e
00000250: 23f7 903d 392e 3dbd 5be4 23be 60db 403e
00000260: 5df1 d7bd 7394 a53d d2e3 403e 1c72 ad3e
00000270: 14dc ca3e 995a d53e 2ef9 0e3b a832 793e
00000280: 462d 9b3e e385 c13c 68d5 2abd 0848 a2bd
00000290: e69f ca3d 2106 eb3d 18ec 07be 2892 18bf
000002a0: 2df3 22bd 03dd 75bd acd6 85be 9ca3 66be
000002b0: 026d 79be f993 92bd 227e 1cbe e45f d5be
000002c0: c35c 04bf 26ec 0abe 939a 683e 5dfb 493e
000002d0: 6fa7 293c 0da8 85bc b315 893e afe5 483e
000002e0: 0a43 283e dd72 45bd 2955 113c 3d1e d33d
000002f0: 6a33 b73d 8b4f 133e 55e6 4f3e eb7e 7b3c
00000300: 10c9 b53d 0682 51bd 7624 88be 35ab 11bd
00000310: 07af 56be 1226 a9bd 2b12 70bf 0c95 a1be
00000320: 1e79 d23e 3243 a8bf 026e 48be 9e75 493e
00000330: e7dd 23bf 75e0 95bd 6dbf 953e 5c2b 3d3e
00000340: fcd3 3c3e 70d1 143d 3a24 b3bd 0976 8dbd
00000350: c63a 78be 7b87 b5bd 1e5e 95be 99f3 393e
00000360: a08e 65bd e17a c2bd d9f7 e8be 04bb 193d
00000370: 731e 80be b307 20bf 4cdf 6b3b 6c81 7c3d
00000380: d734 1d3e 237f f5bd 385b 033e f6e0 a3bd
00000390: 4f7a edbd 410f 97be 2048 04bf 9d20 a3bc
000003a0: 0d0d 1bbe 72e7 5b3e 168c 0dbe 5f1a 7cbe
000003b0: b0f8 2cbd edab 96bc e792 233e e8d5 e5be
000003c0: 80df 68bd edc5 913e 7a50 90be 7736 12bf
000003d0: 8224 a5be ba4f cabc 430f 28bf 50da 91bc
000003e0: 3efa a8be 12ab 76be 7f16 323e 8343 14bd
000003f0: 1b37 8dbc ce9e 9b3d cefa b1bd 6d06 e9bd

bias f4 [32]
-0.12751754 -0.1625257 0.08369346 0.05456755 -0.010750165 -0.17146537 -0.11810903 0.22707468
-0.00892902 -0.012524481 0.020133939 -0.1957981 -0.096241824 0.023415351 0.19719154 -0.10693891
-0.12171218 0.12565486 -0.09287932 -0.073828354 -0.007932654 0.05944327 0.07838679 -0.019737696
-0.063105084 0.018290889 -0.17407 0.066511616 0.09393461 0.13574277 0.013884225 0.10488731
00000000: f593 02be 236d 26be 7a67 ab3d 3982 5f3d
00000010: 7621 30bc 9e94 2fbe 26e3 f1bd 4486 683e
00000020: 064b 12bc 7b33 4dbc eeef a43c 4c7f 48be
00000030: 6f1a c5bd 8dd1 bf3c 94ec 493e ca02 dbbd
00000040: 3c44 f9bd abab 003e 8337 bebd 5233 97bd
00000050: f6f7 01bc c97a 733d 4189 a03d f3b0 a1bc
00000060: 3d3d 81bd c6d6 953c 683f 32be 3e37 883d
00000070: ca60 c03d 2700 0b3e a97a 633c 28cf d63d

weight f4 [10, 32, 3, 3]
-0.021484813 0.035877846 -0.078694455 -0.02639805 0.057997167 0.084401704 -0.011601279 -0.14215514
-0.06123506 -0.08420856 0.0516893 0.029178407 -0.3297603 -0.16217355 -0.06823617 -0.11909878
-0.0025668682 -0.058632918 0.021875024 -0.13936985 -0.09349251 -0.1432447 -0.069296 -0.06613977
0.30391854 0.09400987 0.029838957 0.23831254 0.0155422315 0.06461423 -0.14130524 -0.19752438
0.0857634 0.034481764 0.33832595 0.14066702 -0.18570618 -0.23229294 -0.12156961 -0.033290215
-0.24295744 0.03491046 0.1586765 0.0115161715 0.19487937 0.01875918 0.20627075 -0.021454278
-0.07457916 0.17739859 -0.040771402 0.13542603 -0.67439234 -0.07797239 0.007922729 -0.24471653
-0.01141356 0.4754504 -0.91584504 -0.111316174 0.31695256 -0.33215374 -0.1585974 -0.10104561
0.0874527 -0.13029897 -0.2754963 0.19459999 0.06612737 0.10302834 0.2856628 -0.0318267
0.045785345 -0.099658154 0.039876457 0.01685615 -0.054053374 -0.048917234 0.08498004 -0.16123484
0.024362832 -0.025609754 -0.1700998 0.035050567 -0.19244944 0.1469931 0.03199883 0.017702423
0.20899606 -0.11706317 -0.07922883 0.18248414 0.011971889 -0.23452477 0.03182385 0.023346687
0.3150505 0.42461765 0.1517196 0.070457846 -0.07085281 0.0068352106 -0.11461951 -0.49147028
0.03707862 -0.23912725 -0.071530506 0.049176324 -0.030265998 -0.050055344 -0.10680696 0.22392376
0.011771284 0.21962376 0.20111123 0.16079782 0.062210552 -0.30851406 -0.058510635 -0.053082164
-0.20129861 -0.013796834 0.028585538 -0.047995996 0.2032438 0.31881407 -0.23857068 0.01889134
-0.031250067 -0.02892376 0.4081235 -0.04034495 0.0052511306 -0.29387435 -0.083273254 -0.05945892
0.1291085 0.047960542 0.060033947 0.32947746 0.17661826 -0.029116968 -0.3890278 -0.043740433
-0.014605053 -0.09537021 -0.039170366 -0.2993171 -0.31834215 0.08873489 0.22436453 0.087550394
-0.010059556 0.025641149 0.106986284 0.017642105 -0.080483 -0.04381806 0.14498259 0.46697134
0.24153154 0.24810001 -0.21801169 -0.24222316 -0.14619875 -0.16885015 -0.22263816 -0.1655667
-0.028054684 0.3992262 0.30035746 -0.102478415 0.058382858 -0.03316085 -0.07844014 -0.060196217
0.014657019 0.09073696 0.15025644 0.28074747 0.0020611272 -0.14572535 0.03256185 -0.0024092812
-0.10298104 -0.12391058 0.0622525 0.66784847 0.028038006 0.17619696 0.25608218 0.031339694
0.39034027 -0.033803295 0.04909142 0.36956474 0.046888694 0.09973511 0.20327488 0.007700475
0.026848927 0.06928049 -0.31900486 -0.07592318 -0.07790741 -0.14151458 -0.01349399 -0.10646991
0.0520921 -0.05555989 -0.17899738 0.033257198 0.05411377 0.06542149 0.051660895 -0.2777213
0.0767013 -0.027607962 0.08827487 0.20953596 -0.5125721 -0.23828806 0.3423235 -0.29214162
-0.28896827 -0.008842069 -0.088763736 -0.11976717 -0.15009922 -0.12936227 -0.052214384 -0.09732867
-0.38604742 -0.03695947 0.056780484 0.11855141 0.024922445 -0.011686381 -0.1936345 -0.048526682
0.23451768 -0.05720697 0.13723324 -0.015745016 -0.13212399 0.06211132 0.017178133 0.07327084
-0.03156339 -0.17267631 -0.018936617 -0.01053412 -0.0842809 0.01107509 0.1508194 -0.2013926
00000000: eb00 b0bc a6f4 123d 8f2a a1bd b940 d8bc
00000010: 708e 6d3d cdda ac3d 4a13 3ebc 1e91 11be
00000020: 9dd1 7abd 8a75 acbd 29b8 533d 8e07 ef3c
00000030: 58d6 a8be d310 26be 68bf 8bbd 10ea f3bd
00000040: e738 28bb 1229 70bd 4033 b33c f8b6 0ebe
00000050: 0079 bfbd bdae 12be 10eb 8dbd 4a74 87bd
00000060: 369b 9b3e 3f88 c03d d470 f43c 3408 743e
00000070: d8a4 7e3c 7754 843d 52b2 10be d543 4abe
00000080: b9a4 af3d c03c 0d3d 0f39 ad3e 040b 103e
00000090: c329 3ebe 33de 6dbe 7df9 f8bd 525b 08bd
000000a0: d6c9 78be 45fe 0e3d 187c 223e 53ae 3c3c
000000b0: 758e 473e daac 993c a438 533e e2c0 afbc
000000c0: f5bc 98bd faa7 353e eaff 26bd 1fad 0a3e
000000d0: faa4 2cbf fdaf 9fbd 55ce 013c f896 7abe
000000e0: f1ff 3abc 3c6e f33e d274 6abf bcf9 e3bd
000000f0: 9b47 a23e 0e10 aabe 5b67 22be 00f1 cebd
00000100: 671a b33d 186d 05be da0d 8dbe 3845 473e
00000110: c96d 873d 8600 d33d 6542 923e b75c 02bd
00000120: 6a89 3b3d 9319 ccbd 7f55 233d e915 8a3c
00000130: 1267 5dbd 705d 48bd 040a ae3d bf1a 25be
00000140: 9094 c73c 8ccb d1bc a42e 2ebe 2f91 0f3d
00000150: 7711 45be 5c85 163e 3511 033d ac04 913c
00000160: 1003 563e d1be efbd ba42 a2bd 1fdd 3a3e
00000170: be25 443c 4327 70be ba59 023d 8d41 bf3c
00000180: 4d4e a13e 7c67 d93e 625c 1b3e 344c 903d
00000190: 471b 91bd e7f9 df3b a2bd eabd fea1 fbbe
000001a0: c0df 173d c6dd 74be 967e 92bd 1d6d 493d
000001b0: 66f0 f7bc d506 4dbd 9cbd dabd 454c 653e
000001c0: 58dc 403c 0de5 603e 1af0 4d3e 2fa8 243e
000001d0: 7ed0 7e3d 8ef5 9dbe d9a8 6fbd af6c 59bd
000001e0: 3921 4ebe 1e0c 62bc 382c ea3c 7397 44bd
000001f0: 251f 503e 993b a33e df4b 74be 03c2 9a3c
00000200: 1200 00bd 85f1 ecbc 90f5 d03e bf40 25bd
00000210: ad11 ac3b b376 96be 2b8b aabd 328b 73bd
00000220: 0535 043e 4672 443d 28e6 753d 45b1 a83e
00000230: 6bdb 343e b586 eebc a72e c7be 2b29 33bd
00000240: 084a 6fbc 7551 c3bd 1b71 20bd 1740 99be
00000250: befd a2be a3ba b53d d1bf 653e 9f4d b33d
00000260: d6d0 24bc 630d d23c a01b db3d 2d86 903c
00000270: 45d4 a4bd 917a 33bd 5176 143e de16 ef3e
00000280: 0b54 773e ee0d 7e3e 753e 5fbe 5909 78be
00000290: 20b5 15be 0ee7 2cbe 42fb 63be 518a 29be
000002a0: f0d2 e5bc 6067 cc3e 74c8 993e 34e0 d1bd
000002b0: dd22 6f3d acd3 07bd 39a5 a0bd 4f90 76bd
000002c0: fe23 703c 4dd4 b93d d3dc 193e 22be 8f3e
000002d0: fa13 073b 0739 15be 935f 053d 08e5 1dbb
000002e0: b9e7 d2bd d5c4 fdbd 7afc 7e3d 1ef8 2a3f
000002f0: f6af e53c fa6c 343e 341d 833e 0d5e 003d
00000300: aeda c73e 5375 0abd 1614 493d 9737 bd3e
00000310: 5c0e 403d ec41 cc3d 4a27 503e 4454 fc3b
00000320: 48f2 db3c eee2 8d3d 9b54 a3be 9d7d 9bbd
00000330: ec8d 9fbd 33e9 10be e515 5dbc e50c dabd
00000340: 875e 553d c492 63bd 174b 37be b338 083d
00000350: 67a6 5d3d b4fb 853d 609a 533d 7c31 8ebe
00000360: 9215 9d3d 182a e2bc 74c9 b43d 9890 563e
00000370: ed37 03bf c901 74be 0745 af3e 9693 95be
00000380: a6f3 93be 53de 10bc c3c9 b5bd 7d48 f5bd
00000390: 9cb3 19be 8b77 04be c0de 55bd 4154 c7bd
000003a0: 02a8 c5be d062 17bd a792 683d 15cb f23d
000003b0: 282a cc3c 3c78 3fbc 1f48 46be eac3 46bd
000003c0: 6725 703e db51 6abd df86 0c3e b1fb 80bc
000003d0: 834b 07be 7168 7e3d 28b9 8c3c 060f 963d
000003e0: 9d48 01bd 0fd2 30be f720 9bbc 4d97 2cbc
000003f0: 779b acbd 4b74 353c 6770 1a3e dd39 4ebe

bias f4 [10]
-0.014500951 0.05728563 0.021821676 -0.0013620661 0.08480865 0.051955782 0.02253603 -0.09118344
-0.010531027 -0.109918594
00000000: 6695 6dbc 56a4 6a3d 5fc3 b23c 5b87 b2ba
00000010: 28b0 ad3d 96cf 543d 7b9d b83c 62be babd
00000020: 548a 2cbc 001d e1bd

weight f4 [10, 32, 3, 3]
0.15118514 0.3732924 0.29054976 0.25211596 -0.0122982375 0.6025252 -0.09392069 0.8264392
2.1520476 -0.027990017 -0.18273272 0.37505224 -0.15410161 0.5924323 -0.30725834 0.35178798
0.6895939 -1.976531 0.10597063 -0.31205338 -0.3222012 -0.34401882 0.9596144 1.1317906
0.07565463 0.5176724 1.5640324 0.06725096 -0.24615684 0.39923453 -0.16306475 0.041770782
0.80075073 0.13916154 0.45634198 1.1424901 -0.15621139 -0.5838819 0.16636343 -0.08053044
-0.45844567 -0.37564024 -0.19921331 -0.90514004 1.5501701 -0.122289844 -1.288531 -0.14803247
0.046927985 -1.0379303 -0.6793639 -0.35126585 -0.4058532 1.4898362 -0.26154807 -0.017927416
0.096731104 0.22300066 -0.38445723 -0.16711365 0.17562921 0.36096308 1.9407614 0.06346654
-0.23786278 0.11932823 -0.17815234 -0.18414803 1.4691223 -0.08894795 0.25767058 0.70311743
-0.11739497 -0.027733352 -0.21922635 0.10785201 -0.0017461283 -0.82615846 0.36668903 0.8335268
1.6196554 -0.12817645 -0.2711261 0.16547337 0.0031008683 -0.9262558 -0.18234949 -0.1382961
0.39711982 1.0159256 -0.0973446 -1.3176855 0.05811728 0.25396225 1.1035507 0.38525784
-0.37680453 0.15396751 -0.46468854 0.6071485 0.31276873 -0.022804715 0.25516108 0.1004864
0.91323286 -0.42825884 0.9241349 0.66743785 -0.15641913 -0.2259539 0.6831028 0.09580169
0.73690087 0.3194554 0.08834641 -0.9944506 -1.1497605 -0.20215859 -0.11931555 0.5897525
0.06427627 -0.9865583 0.052693576 0.39348927 -0.34819162 2.126853 -0.05460536 -0.26312408
-0.2749195 -0.26404175 0.015388526 1.5061308 -0.45806602 0.518229 0.16436546 0.24621451
0.22535414 0.21846509 0.13296652 0.18725306 1.0308305 -0.066467986 0.82977945 0.86525464
-0.47153467 -0.014876121 0.54408264 -0.24613342 -0.608954 -0.44000623 0.6775145 0.58647996
1.761873 0.27850303 0.08183419 -0.3421892 0.22592092 1.0428357 -0.033841304 -0.31859618
1.3689576 1.2890502 -0.053005435 -0.07238995 0.15625277 -0.016231934 1.2989185 -0.2671582
0.010771233 1.6466327 -0.8360383 0.068106376 -0.08861025 0.35137156 0.27827752 -0.8549735
0.75729775 -0.12688199 0.15137915 1.2177786 -0.026690373 -0.39250606 0.07082381 0.29575866
-0.12644234 0.692908 0.3377762 0.18238556 1.1390402 0.27050278 -0.218358 0.08143466
0.46799982 0.60434586 1.4883713 0.24659516 -0.043375365 0.26741743 -0.05794705 -0.16215205
0.27656937 -0.16036218 0.5168735 -0.657779 0.9976988 -0.295181 -1.1037076 -0.005956407
-0.4894316 0.4522921 0.13988857 1.3175595 0.45504218 -0.6700066 0.6436362 0.0594473
0.17061383 -0.13115047 -0.046349235 0.02866798 0.12488861 0.7594145 0.2907421 -0.20495765
1.7718258 0.038207456 0.061484993 0.35968602 0.013026446 0.6355498 -0.16650239 -0.016113205
-0.3417932 -1.0895464 0.09069356 -0.36391708 -0.14922586 -0.106712796 -0.62390727 0.22434837
-0.2521954 -0.16513059 0.996799 -0.14397974 -0.6122306 0.30635273 -0.046690222 0.23028226
0.009585785 0.04772117 -0.12412854 -1.5273354 -0.4262291 -0.41926342 0.26590055 -1.144588
00000000: 47d0 1a3e 2e20 bf3e f0c2 943e 5815 813e
00000010: 8c7e 49bc 173f 1a3f 7e59 c0bd 8591 533f
00000020: 26bb 0940 524b e5bc 491e 3bbe d906 c03e
00000030: d0cc 1dbe a5a9 173f f750 9dbe 8e1d b43e
00000040: 3a89 303f f8fe fcbf 2107 d93d 76c5 9fbe
00000050: 8ef7 a4be 3c23 b0be 4aa9 753f 84de 903f
00000060: d1f0 9a3d 2e86 043f 3732 c83f dfba 893d
00000070: 8a10 7cbe 7868 cc3e 72fa 26be d717 2b3d
00000080: 00fe 4c3f 5d80 0e3e a8a5 e93e 1e3d 923f
00000090: e1f5 1fbe 4979 15bf 2d5b 2a3e 25ed a4bd
000000a0: 64b9 eabe eb53 c0be 93fe 4bbe 42b7 67bf
000000b0: f96b c63f 1973 fabd 95ee a4bf d395 17be
000000c0: 8f37 403d e6da 84bf cbea 2dbf 1ed9 b3be
000000d0: fecb cfbe f4b2 be3f a1e9 85be 84dc 92bc
000000e0: f51a c63d 495a 643e 94d7 c4be d71f 2bbe
000000f0: 25d8 333e 27d0 b83e df6a f83f bffa 813d
00000100: 4d92 73be 5c62 f43d 916d 36be 4d91 3cbe
00000110: 330c bc3f 582a b6bd 66ed 833e 81ff 333f
00000120: c66c f0bd 0e31 e3bc df7c 60be 84e1 dc3d
00000130: 58de e4ba 1f7f 53bf aabe bb3e 0362 553f
00000140: de50 cf3f b040 03be 0ad1 8abe da71 293e
00000150: f037 4b3b 1a1f 6dbf d3b9 3abe 7e9d 0dbe
00000160: 4a53 cb3e da09 823f 9b5c c7bd eba9 a8bf
00000170: 630c 6e3d 5707 823e 2641 8d3f 8440 c53e
00000180: 86ec c0be a9a9 1d3e a8eb edbe 166e 1b3f
00000190: 3923 a03e f4d0 babc 79a4 823e d0cb cd3d
000001a0: a1c9 693f be44 dbbe 1b94 6c3f 35dd 2a3f
000001b0: 562c 20be 7660 67be d3df 2e3f ad33 c43d
000001c0: 89a5 3c3f a88f a33e f6ee b43d 5194 7ebf
000001d0: 5a2b 93bf a902 4fbe b65b f4bd 05fa 163f
000001e0: 47a3 833d 168f 7cbf 38d5 573d 6d77 c93e
000001f0: 2c46 b2be 5c1e 0840 dfa9 5fbd 33b8 86be
00000200: 40c2 8cbe 7b30 87be 2820 7c3c e5c8 c03f
00000210: a187 eabe a8aa 043f 6b4f 283e a81f 7c3e
00000220: 3cc3 663e 50b5 5f3e 6028 083e 44bf 3f3e
00000230: 41f2 833f 5e20 88bd 6d6c 543f 5481 5d3f
00000240: fe6c f1be f9ba 73bc 0049 0b3f 660a 7cbe
00000250: 69e4 1bbf 7f48 e1be 9771 2d3f 8d23 163f
00000260: 0e85 e13f f397 8e3e af98 a73d 6c33 afbe
00000270: d057 673e a47b 853f 2e9d 0abd 0a1f a3be
00000280: 013a af3f 99ff a43f 3a1c 59bd 2f41 94bd
00000290: ba00 203e d5f8 84bc f642 a63f f6c8 88be
000002a0: d379 303c dcc4 d23f 9b06 56bf 5b7b 8b3d
000002b0: 4a79 b5bd f9e6 b33e 647a 8e3e 8bdf 5abf
000002c0: 44de 413f 5aed 01be 2303 1b3e 2be0 9b3f
000002d0: c5a5 dabc 8ef6 c8be 130c 913d ae6d 973e
000002e0: 1a7a 01be 6b62 313f 01f1 ac3e 48c3 3a3e
000002f0: 12cc 913f 577f 8a3e 3d99 5fbe 37c7 a63d
00000300: ac9d ef3e 69b6 1a3f f382 be3f 7183 7c3e
00000310: 5eaa 31bd f0ea 883e e359 6dbd 300b 26be
00000320: 809a 8d3e fc35 24be d251 043f 3464 28bf
00000330: 3069 7f3f f721 97be 4a46 8dbf f72d c3bb
00000340: c796 fabe d592 e73e f33e 0f3e caa5 a83f
00000350: 4afb e83e 8d85 2bbf 58c5 243f 037f 733d
00000360: 64b5 2e3e 4f4c 06be b2d8 3dbd 1dd9 ea3c
00000370: 99c5 ff3d fd68 423f 26dc 943e 6be0 51be
00000380: 30cb e23f 6c7f 1c3d b0d7 7b3d c428 b83e
00000390: e06c 553c 64b3 223f 9a7f 2abe d7ff 83bc
000003a0: 85ff aebe 4276 8bbf 8cbd b93d 5753 babe
000003b0: aace 18be 3d8c dabd 63b8 1fbf 94bb 653e
000003c0: c11f 81be fe17 29be 382e 7f3f 6d6f 13be
000003d0: 25bb 1cbf 44da 9c3e 3f3e 3fbd 1dcf 6b3e
000003e0: b20d 1d3c 4677 433d 1b37 febd ba7f c3bf
000003f0: b33a dabe b2a9 d6be 1e24 883e dc81 92bf

bias f4 [32]
-0.27448112 0.487904 0.08436475 -0.39189395 0.09472727 0.16310772 0.034918282 0.11272087
0.14210224 0.14364475 0.42310667 0.33019716 0.31327215 -0.048825864 0.4973144 0.3816046
-0.4045351 0.016416539 0.5046783 -0.022886163 -0.30873394 -0.21584432 0.065554745 0.5646373
-0.18888338 0.19300085 -0.1505724 0.44546705 -0.112683944 0.23113318 0.11216234 0.8639791
00000000: ca88 8cbe 8ece f93e 6dc7 ac3d 53a6 c8be
00000010: 5f00 c23d b605 273e 7906 0f3d 33da e63d
00000020: 4083 113e 9c17 133e 70a1 d83e 9a0f a93e
00000030: 3565 a03e a1fd 47bd fe9f fe3e ae61 c33e
00000040: 3a1f cfbe fa7b 863c 9932 013f c37b bbbc
00000050: 6012 9ebe 4b06 5dbe 9141 863d 128c 103f
00000060: a56a 41be 04a2 453e a72f 1abe 4214 e43e
00000070: d7c6 e6bd 2dae 6c3e 5eb5 e53d bc2d 5d3f

weight f4 [32, 32, 3, 3]
0.12703905 0.5380523 -0.41244337 0.53057396 0.34429315 0.25482404 0.33025226 -0.16931114
-0.48726326 0.05412194 -0.0014500223 -0.4352602 -0.42817903 0.39755803 0.0067986795 0.010902828
0.1770909 -0.32298902 -0.35957947 -0.22830899 0.20872742 -0.25572842 -0.10256746 -0.22486141
-0.045075063 0.39776656 0.5583209 -0.18903098 0.009698716 -0.57251763 -0.08329026 0.91370714
0.3211857 -0.020861622 0.21049817 -0.44836664 0.45552987 0.23722422 0.13147427 -0.39145106
0.04107689 -0.72811896 0.18907194 0.35698244 0.3057807 -0.20674396 -0.2111371 -0.11300295
-0.34768963 0.12188347 -0.033114962 0.131299 0.16967006 0.24783249 -0.09630384 0.61044806
0.7250091 -0.2325399 0.45086813 -0.52629316 -0.13952754 0.42364386 0.088332854 -0.12678568
0.054042656 -0.20420325 -0.6717353 0.02881779 -0.43161875 0.100562416 0.27832294 0.06910331
-0.16187197 -0.053508922 -0.2942441 0.28678444 0.33714017 0.4782052 -0.0344024 -0.41279617
-0.770001 -0.09882569 -0.20231979 0.4255345 -0.14240722 0.8056933 0.79739517 0.17477179
0.13535857 -0.7346222 -0.07345739 0.25790098 0.16680679 0.42585102 0.49425623 0.17127967
-0.3607493 -0.2352357 -0.25558034 -0.4370402 -0.027970022 -0.01489412 -0.49581185 0.29040784
-0.25183025 -0.031413503 0.15857063 0.26422557 0.14487343 0.0961898 -0.6239974 -0.04135404
0.7019884 0.61646867 -0.061097823 0.10313505 -0.5483843 -0.3780173 -0.17215997 -0.23751107
-0.5005355 0.5948535 0.19479233 0.10312176 0.07392571 -0.02484822 -0.19308504 -0.18863049
0.13850212 0.10233414 0.3438756 0.21901348 -0.23824428 -0.31943023 -0.47594208 0.18403873
0.3802741 -0.38968748 0.5427463 0.31194544 0.21849136 0.2420485 -0.18981963 -0.7692564
0.28170136 0.3369934 -0.38870877 -0.48892918 0.20161174 -0.9745557 0.026558975 0.37155446
0.04313531 -0.3576522 -0.42400178 -0.42931452 -0.16193813 0.52134335 0.581179 -0.11215367
-0.22272724 -0.42225474 0.064915024 0.2787496 -0.2671564 -0.5373444 0.18554339 -0.20553032
0.07532778 0.57883143 0.40812525 -0.3939109 -0.09774324 -0.8279007 0.14755641 0.67524993
-0.03411406 -0.054587156 -0.0886497 -0.6074724 0.6119081 0.60334533 -0.45658177 0.5642125
0.25059482 0.09824645 -0.027397433 -0.04155397 -0.62559223 -0.60459936 -0.30917755 -0.1643596
-0.42880017 0.4444878 0.9098387 0.10371819 -0.31693268 -0.10321932 -0.33134332 0.26355255
0.39491245 -0.29173926 0.0037632869 -0.20304866 0.084837064 0.39338753 0.5711842 -0.3188419
0.23933993 0.026755761 -0.18571188 0.5229761 -0.18988973 -0.2374916 0.1466733 0.07006139
-0.05612539 0.6815665 -0.019485328 -0.034628216 0.43172505 -0.6397195 -0.59810865 0.99733573
-0.6521318 -0.24072765 0.031737488 -0.3352147 -0.37801382 0.48110184 -0.19282937 -0.003634757
0.14584881 0.10988743 -0.44427276 -0.13255046 0.5991243 -0.37519425 -0.15548515 -0.14946242
-0.13441432 0.41352296 0.4820494 -0.008072613 0.5264074 -0.35132837 0.65230334 0.34415868
0.35900217 0.08482788 -0.35924911 -0.4003901 -0.477101 -0.196329 -0.13982323 -0.42497525
00000000: 8616 023e ccbd 093f c72b d3be b2d3 073f
00000010: 3147 b03e 4c78 823e d316 a93e e65f 2dbe
00000020: 927a f9be f8ae 5d3d ad0e beba 6dda debe
00000030: 483a dbbe ba8c cb3e 75c7 de3b c6a1 323c
00000040: 5157 353e d15e a5be cd1a b8be d5c9 69be
00000050: a4bc 553e d6ee 82be e30e d2bd 1242 66be
00000060: a1a0 38bd 0fa8 cb3e 1eee 0e3f 5691 41be
00000070: 5de7 1e3c 8490 12bf 1594 aabd b6e8 693f
00000080: 7472 a43e fee5 aabc d58c 573e 5090 e5be
00000090: 363b e93e e8ea 723e 31a1 063e 466c c8be
000000a0: 3e40 283d 0166 3abf 139c 413e 67c6 b63e
000000b0: 4a8f 9c3e b0b4 53be 5334 58be 176e e7bd
000000c0: 6004 b2be 0a9e f93d 8ea3 07bd 3f73 063e
000000d0: fdbd 2d3e cdc7 7d3e f33a c5bd 5346 1c3f
000000e0: 329a 393f f11e 6ebe 30d8 e63e 26bb 06bf
000000f0: 4fe0 0ebe d9e7 d83e dbe7 b43d 1bd4 01be
00000100: d55b 5d3d a81a 51be d8f6 2bbf 4913 ec3c
00000110: 22fd dcbe abf3 cd3d 5880 8e3e 0986 8d3d
00000120: c4c1 25be 2c2c 5bbd 2aa7 96be 69d5 923e
00000130: a39d ac3e 50d7 f43e 88e9 0cbd 055a d3be
00000140: c91e 45bf 2065 cabd eb2c 4fbe a8df d93e
00000150: 33d3 11be eb41 4e3f 1722 4c3f 60f7 323e
00000160: 709b 0a3e 3310 3cbf d470 96bd 990b 843e
00000170: 66cf 2a3e 2509 da3e 270f fd3e f063 2f3e
00000180: 22b4 b8be a1e1 70be 6ddb 82be bcc3 dfbe
00000190: 6321 e5bc 7806 74bc 0ddb fdbe 56b0 943e
000001a0: e5ef 80be 72ab 00bd 5760 223e 9348 873e
000001b0: b359 143e 28ff c43d 4bbe 1fbf db62 29bd
000001c0: 83b5 333f e4d0 1d3f b641 7abd 7838 d33d
000001d0: ea62 0cbf 7c8b c1be b44a 30be 1a36 73be
000001e0: 1823 00bf 5248 183f a477 473e 8031 d33d
000001f0: 5d66 973d 7f8e cbbc 16b8 45be 5a28 41be
00000200: 80d3 0d3e 9094 d13d 7610 b03e 1245 603e
00000210: 4ff6 73be 5c8c a3be aeae f3be a674 3c3e
00000220: 49b3 c23e 1e85 c7be 6cf1 0a3f 50b7 9f3e
00000230: 33bc 5f3e 90db 773e 1460 42be fded 44bf
00000240: 293b 903e 668a ac3e d604 c7be ed54 fabe
00000250: 4f73 4e3e 7b7c 79bf 3592 d93c 633c be3e
00000260: a7ae 303d 301e b7be c316 d9be 1dcf dbbe
00000270: 1cd3 25be c276 053f 26c8 143f d3b0 e5bd
00000280: 9c12 64be c631 d8be 2bf2 843d 44b8 8e3e
00000290: b9c8 88be 678f 09bf 16ff 3d3e 8a76 52be
000002a0: 7345 9a3d 4c2e 143f cbf5 d03e b1ae c9be
000002b0: 9c2d c8bd 4df1 53bf 0719 173e 2edd 2c3f
000002c0: 2fbb 0bbd c896 5fbd f98d b5bd 5083 1bbf
000002d0: 02a6 1c3f d774 1a3f 16c5 e9be 3b70 103f
000002e0: f74d 803e 6f35 c93d 9570 e0bc 7f34 2abd
000002f0: d026 20bf 06c7 1abf 854c 9ebe e24d 28be
00000300: b28b dbbe e893 e33e 30eb 683f 346a d43d
00000310: 0045 a2be a764 d3bd d5a5 a9be 5cf0 863e
00000320: f731 ca3e d95e 95be 7aa1 763b fdeb 4fbe
00000330: 0ebf ad3d 176a c93e 2139 123f 3f3f a3be
00000340: 8715 753e e62e db3c 412b 3ebe c3e1 053f
00000350: 7472 42be ff30 73be 8731 163e 597c 8f3d
00000360: bde3 65bd 247b 2e3f b29f 9fbc 51d6 0dbd
00000370: 110b dd3e a8c4 23bf a61d 19bf 6551 7f3f
00000380: 1cf2 26bf 4f81 76be 2bff 013d 43a1 abbe
00000390: 078b c1be fb52 f63e 1075 45be 1a35 6ebb
000003a0: 6459 153e a90c e13d b877 e3be 4fbb 07be
000003b0: 3660 193f 7619 c0be 8037 1fbe ad0c 19be
000003c0: e8a3 09be 48b9 d33e 2ecf f63e fe42 04bc
000003d0: a3c2 063f 50e1 b3be 5afd 263f 9135 b03e
000003e0: 22cf b73e 3dba ad3d 80ef b7be eeff ccbe
000003f0: 9546 f4be 780a 49be d22d 0fbe 5b96 d9be

bias f4 [32]
0.0371364 -0.31987596 -0.29999316 -0.3385741 -0.33487165 -0.24898572 -0.32115683 -0.21087128
-0.01673405 -0.15648068 0.042957094 -0.27246365 -0.30302307 -0.2178416 -0.030135069 -0.0629027
-0.24953917 -0.07589004 -0.20988934 0.08973868 -0.015088427 -0.16241053 -0.41674367 -0.43531144
-0.116956666 -0.2675012 -0.27509433 -0.07620298 -0.21138884 -0.29237127 0.08720056 -0.24968408
00000000: 561c 183d c8c6 a3be b498 99be 9659 adbe
00000010: 4c74 abbe 1df6 7ebe ab6e a4be a4ee 57be
00000020: d915 89bc 793c 20be c7f3 2f3d 5b80 8bbe
00000030: d725 9bbe de11 5fbe d2dd f6bc 21d3 80bd
00000040: 3287 7fbe 3d6c 9bbd 3bed 56be eac8 b73d
00000050: 7335 77bc f24e 26be 6d5f d5be 24e1 debe
00000060: fa86 efbd ebf5 88be 2ad9 8cbe 4f10 9cbd
00000070: 5176 58be b0b1 95be 3596 b23d 2fad 7fbe

weight f4 [32, 32, 3, 3]
-0.4647763 0.14924057 0.5974574 -0.053333692 0.25633848 0.19981039 -0.37955326 -0.19388294
-0.12415058 -0.100953095 -0.25387627 -0.83106625 -0.34582132 -0.5149458 -0.5902786 -0.20349602
-0.49277353 -0.24661505 -0.08395426 -0.0776892 -0.028930198 0.20071954 0.39131367 0.3011156
0.5234263 0.2901963 0.0876988 -0.048678104 -0.08265159 0.017714504 0.10538191 0.21209943
0.17261954 0.39116323 0.23657827 0.04085886 0.04896726 0.089713134 0.052152757 -0.3752737
-0.31534332 -0.22659177 -0.22918849 -0.13404351 0.11916061 0.0091412775 0.013061072 -0.13194863
-0.21127595 -0.41038147 -0.022190474 -0.23904319 -0.11829483 0.20082873 0.1501431 -0.23383434
-0.7949941 -0.3894867 -0.7454585 -0.14175138 -0.6622643 -0.6091794 -0.30099505 -0.08292748
-0.0078108944 0.25273177 -0.2308707 -0.29899544 0.5037174 -0.03418196 -0.04261283 0.67194617
-0.44409037 -0.6063923 0.005623225 -0.22377436 -0.49833027 0.15825854 0.53925586 0.4630595
0.3886728 0.29752842 0.006986714 0.30572048 0.62426037 0.44701833 0.381404 0.6468514
0.64140105 0.3195312 0.060879517 -0.042914283 0.0796431 0.33120894 0.2842927 0.085284345
0.5933314 0.21548764 0.112515524 -0.22334066 -0.16069917 -0.46230668 0.26765937 -0.30534935
-0.5920805 -0.36163118 -0.20198372 -0.061951704 -0.19295448 0.010690874 -0.032596372 -0.49520284
-0.53110385 -0.061534207 -0.5228139 -0.32891124 0.22710979 -0.08485405 -0.3064436 -0.008812669
-0.3756958 -0.586555 -0.54398924 -0.3369308 0.064685814 0.69879574 -0.008182712 -0.075772084
-0.13925815 -0.2802632 -0.35720956 -0.04700313 -0.14304227 0.03519847 0.29982433 0.01169503
-0.1000429 0.11316812 0.077245526 0.5185168 0.16591309 0.021209689 0.30606663 -0.14727588
0.5857273 0.2004354 -0.5537019 0.3391343 -0.5922596 -1.1663535 -0.30968064 -0.7032082
-0.8757856 0.0019312031 0.0013616834 0.027002256 -0.56578594 -0.4295143 -0.077331014 -0.3329368
-0.5313521 0.14281626 -0.16535333 0.18898335 0.025847776 -0.45652285 -0.11848423 -0.15474758
-0.6190796 -0.46467397 -0.26627105 0.11566066 -0.046950236 -0.007984584 0.39207864 0.11855037
0.04183931 0.44243252 0.057264827 0.32518786 0.35373953 0.0948906 0.04739646 0.53562933
0.5502659 0.46753934 0.9704152 0.44940135 0.1546874 -0.036426973 -0.004057488 -0.06614146
-0.25117782 -0.25812697 0.035341196 -0.30591044 -0.06364029 0.2623261 0.23694672 0.08642475
0.2963803 0.525634 0.48880664 0.30033132 0.4317237 0.41975385 0.19141188 -0.22755891
-0.29809922 -0.68375033 -0.5029717 -0.4136857 -0.281296 -0.294428 -0.33497417 -0.11934864
-0.22792467 -0.36977583 -0.1117467 -0.17983997 -0.63920456 -0.7432972 -0.567085 -0.6939122
0.17038903 0.075552166 -0.14357232 0.18353197 -0.3811168 -0.23463424 -0.15227251 -0.43592086
-0.13351193 0.3738734 0.6317758 0.30370414 0.18623762 0.9848836 0.6084821 0.51879317
1.3144526 0.67642665 0.32351485 -0.512543 -0.32950342 -0.11003734 -0.9119218 -0.7611622
-0.6123169 -1.09667 -0.6773178 0.025065947 0.35510147 -0.090148635 0.1454342 0.25177813
00000000: 29f7 edbe 85d2 183e f8f2 183f 6e74 5abd
00000010: cc3e 833e 189b 4c3e ce54 c2be 4089 46be
00000020: a942 febd 7fc0 cebd 12fc 81be c2c0 54bf
00000030: 7e0f b1be 7dd3 03bf 801c 17bf 4361 50be
00000040: d04c fcbe a888 7cbe 36f0 abbd 841b 9fbd
00000050: 06ff ecbc 6c89 4d3e 445a c83e d32b 9a3e
00000060: 44ff 053f 9c94 943e 6e9b b33d b162 47bd
00000070: 3d45 a9bd 021e 913c 79d2 d73d 9830 593e
00000080: 2dc3 303e 8c46 c83e 9341 723e 9f5b 273d
00000090: e591 483d 85bb b73d 219e 553d e023 c0be
000000a0: ae74 a1be ac07 68be 63b0 6abe b442 09be
000000b0: 7a0a f43d 4cc5 153c 1bfe 553c 8b1d 07be
000000c0: b958 58be 851d d2be ccc8 b5bc bdc7 74be
000000d0: 8f44 f2bd 0ca6 4d3e 1dbf 193e 4572 6fbe
000000e0: bc84 4bbf cd6a c7be 5ed6 3ebf 4627 11be
000000f0: 278a 29bf 2ef3 1bbf 061c 9abe e2d5 a9bd
00000100: 88f2 ffbb 0f66 813e 5e69 6cbe ee15 99be
00000110: a0f3 003f 6202 0cbd ca8a 2ebd aa04 2c3f
00000120: d05f e3be 873c 1bbf 0843 b83b 1b25 65be
00000130: 2525 ffbe 870e 223e ac0c 0a3f 2316 ed3e
00000140: 1f00 c73e a555 983e cef0 e43b 6587 9c3e
00000150: 87cf 1f3f 96df e43e 6347 c33e 0e98 253f
00000160: dc32 243f 9899 a33e cd5c 793d e3c6 2fbd
00000170: ec1b a33d 3894 a93e d08e 913e 8fa9 ae3d
00000180: 91e4 173f cba8 5c3e 8a6e e63d 6ab3 64be
00000190: 538e 24be 76b3 ecbe a60a 893e c056 9cbe
000001a0: 9692 17bf b927 b9be d2d4 4ebe 12c1 7dbd
000001b0: dc95 45be c728 2f3c c683 05bd 3a8b fdbe
000001c0: 6cf6 07bf 4b0b 7cbd 22d7 05bf 0e67 a8be
000001d0: 788f 683e f6c7 adbd 2de6 9cbe 0363 10bc
000001e0: 335b c0be 7828 16bf e142 0bbf 3282 acbe
000001f0: ff79 843d 47e4 323f c810 06bc 652e 9bbd
00000200: b099 0ebe a87e 8fbe 2ce4 b6be 5b86 40bd
00000210: ac79 12be 452c 103d 9382 993e 839c 3f3c
00000220: 4be3 ccbd b0c4 e73d e732 9e3d 84bd 043f
00000230: 1fe5 293e f1bf ad3c c4b4 9c3e 7dcf 16be
00000240: 39f2 153f f03e 4d3e 68bf 0dbf 03a3 ad3e
00000250: 539e 17bf 124b 95bf 768e 9ebe 7405 34bf
00000260: 7c33 60bf 6c20 fd3a 837a b23a d633 dd3c
00000270: 59d7 10bf 4ce9 dbbe b95f 9ebd b176 aabe
00000280: b106 08bf 6d3e 123e 6252 29be da84 413e
00000290: b7be d33c 5dbd e9be dca7 f2bd 2676 1ebe
000002a0: 007c 1ebf bfe9 edbe ae54 88be 7fdf ec3d
000002b0: e44e 40bd c6d1 02bc 88be c83e 89ca f23d
000002c0: b25f 2b3d 8486 e23e 868e 6a3d 067f a63e
000002d0: 591d b53e 0156 c23d ca22 423d 011f 093f
000002e0: 3ade 0c3f 5161 ef3e 216d 783f ef17 e63e
000002f0: 6066 1e3e 7334 15bd adf4 84bb 2c75 87bd
00000300: 619a 80be 3829 84be eec1 103d 4ba0 9cbe
00000310: d755 82bd 9b4f 863e 29a2 723e 76ff b03d
00000320: 29bf 973e f38f 063f dd44 fa3e 07c5 993e
00000330: e40a dd3e fae9 d63e 7a01 443e 3405 69be
00000340: 76a0 98be 430a 2fbf c1c2 00bf 9dce d3be
00000350: 0806 90be 44bf 96be bc81 abbe 0f6d f4bd
00000360: 1665 69be 4253 bdbe 74db e4bd f827 38be
00000370: e9a2 23bf ba48 3ebf 7c2c 11bf 3ba4 31bf
00000380: 767a 2e3e 18bb 9a3d 9f04 13be ceef 3b3e
00000390: be21 c3be f543 70be 53ed 1bbe 0531 dfbe
000003a0: 5ab7 08be 566c bf3e 0fbc 213f 1c7f 9b3e
000003b0: 13b5 3e3e 5521 7c3f 7cc5 1b3f a1cf 043f
000003c0: fc3f a83f 4c2a 2d3f bda3 a53e 0536 03bf
000003d0: acb4 a8be 425b e1bd b573 69bf 87db 42bf
000003e0: cdc0 1cbf af5f 8cbf b364 2dbf 1a57 cd3c
000003f0: dccf b53e d99f b8bd b4ec 143e 10e9 803e

bias f4 [32]
0.028481038 -0.29095608 0.16981193 0.20546114 -0.15286165 -0.20747851 -0.26692936 -0.054354817
-0.112685874 0.34076756 0.18118624 -0.022580616 -0.29474413 -0.27964574 -0.1964248 0.1639563
-0.035562877 -0.16895004 -0.16879843 0.1808996 0.4464569 -0.17126825 0.30631128 -0.32385406
-0.20384598 -0.21983023 0.63343054 -0.46393675 0.31440458 -0.28772202 -0.039687887 0.47168258
00000000: 1151 e93c 32f8 94be 2ee3 2d3e 6864 523e
00000010: c487 1cbe 3f75 54be f7aa 88be 28a3 5ebd
00000020: dac7 e6bd 1679 ae3e e388 393e fcfa b8bc
00000030: b4e8 96be ba2d 8fbe 9523 49be 29e4 273e
00000040: 61aa 11bd 3d01 2dbe 7fd9 2cbe bf3d 393e
00000050: 0096 e43e f260 2fbe d5d4 9c3e 33d0 a5be
00000060: 00bd 50be 2d1b 61be 8128 223f 1e89 edbe
00000070: a3f9 a03e 4d50 93be c48f 22bd 6180 f13e
