nonhier30boystotal/models/final.pth (torch_old, 212775 bytes, 18 tensors)

weight f4 [32, 1, 3, 3]
00000000: d537 8040 8b64 e93f 4504 d93f 59f9 a540
00000010: 0e9a 9a3f 1103 6a40 7f6c 8b40 8834 8b40
00000020: 2402 9540 2f55 1fbf 9341 e53e 4916 3a3f
00000030: a34a 963e 181e 613f ef13 9a3f e7f9 bd3e
00000040: b7bd b33f 93ae bb3e 6ac7 c63e 6e1e 5e3f
00000050: 04d5 ab3f 7cb3 2fbf 3b36 31bf 9941 933f
00000060: ad7a adbf e439 48bf 79e0 a53e 995d 1bbf
00000070: c505 88bf d1d8 b5bf ff08 a83e 8dc7 48bf
00000080: 9be5 b63d 6391 e43e e6ac c83e 245e 763f
00000090: d8a8 323e b6db 6b3f 3999 773f e649 ba3d
000000a0: 3f72 733f fa4b 893f e0e9 443f ae1c df3f
000000b0: 593e 903f 13f6 fd3e 72a5 713f 16c2 133f
000000c0: 662c a0be 8651 62bf 8de2 41bf 7016 86bf
000000d0: 40b0 65bf 987d ee3d 5c43 883f 6448 793f
000000e0: f1cd a43f 5631 9a3f 500e e93f 02af 263f
000000f0: 52b9 c93e 494f 01bf 07ad 88bf fe2e 0dbf
00000100: 61a1 dcbe eed2 9ebf c2d9 a03f 65fa 5f3f
00000110: bd87 b8bd bef1 143f 231e 9a3f 3559 973e
00000120: e801 003f 8661 72bf 6a88 9dbf 7b72 1fbd
00000130: ae3a 5fbf 4362 c6be b03b 3a3f 473c 283f
00000140: b61d a53e 674e 87be ea61 a33c 0a19 f8be
00000150: fdc7 84bd 248d 26bf 8c7f 2abe 8375 d1be
00000160: 2d86 1fbe e64f e03e 84fb 633f f368 4b3e
00000170: 48ae cfbe 82af 823f 8e45 46bf fc82 c1bf
00000180: 5fc2 4e3f e77c 0dbf 1cbc 86bf dd23 ffbf
00000190: 3972 fa3e 5bea 40be ba39 15c0 5f66 81be
000001a0: fe9a b7bf 18a2 21c0 98ed f3bf 0a5e 07c0
000001b0: 0b70 ccbe 78af b43c bf9b 753f 103c 38bf
000001c0: 82bb 04bf 0adf 81be d147 10bf d6b4 2abe
000001d0: 6d6e d93e 4888 ccbf 2fbf 82bf ec9e fabf
000001e0: 0ce3 7fbf a424 c9be 1344 9cbf d449 eabf
000001f0: cb22 bfbf 7206 b0bf 5e7c 27bf c2eb 37bf
00000200: 2cbc 0e3e 7664 51bf 6d23 9cbe 5cbd 533e
00000210: bf17 c4be 5f0f 053f b373 0b3f b719 f5be
00000220: 0069 4bbf 080d f9bf d48c 6ebe b06e 37bf
00000230: 593d 4fbf e903 35bf de6d 9bbe 9acc d5be
00000240: 18a7 013f 0a5d 9f3f aeac b03e 0f70 8c3f
00000250: c6ae d43f 9f48 18be 4264 803f c43d 1f3e
00000260: bad6 6bbf f24b c1bf b62f 88bf d946 c3bf
00000270: 3ccf f23e dc9e 2e3f 32d1 2b3f 40ea a23f
00000280: bcc7 0640 8784 b43f 75a2 9f3d 7c6c 60be
00000290: 5bef 443f e080 43bf 6c93 65bf 852d 193f
000002a0: d65c 0abf 9493 fcbe f927 763e 519f fc3e
000002b0: ba30 f33e 58e5 34be 02d2 0fbc a802 2bbf
000002c0: f443 85bf fa2e 9c3e 60c8 6cba 69ad 37bf
000002d0: 9f76 733e 057a af3f e88c 433f a69c a5bd
000002e0: d437 a63f 2b8d 2c3f 571a 82bf ec77 3fbf
000002f0: 57db 7fbf e8e8 9c3e e2d9 61bf 0451 84bf
00000300: 42d5 0640 ea5f ea3f 15f7 c73f e8fb 483e
00000310: e15e bb3e b984 243f 8181 213f f7dc d73e
00000320: 2076 8cbe ef53 53bc 3c29 21be dd0f a8be
00000330: ba1d c4be 8883 48bf b0c9 25bf a5ba 3dbf
00000340: 9b5b 54bf 2f08 fabe 74a6 b8bd 93a4 e3be
00000350: be13 e7be a197 87bd 2a46 853e c208 7c3f
00000360: ad67 8d3f 4aea 863f 9027 893f f6b3 f2be
00000370: a860 27bf 168a 243d 3411 cabf bd97 a5bf
00000380: 9290 8bbf 5005 623e 0f8a 62be cf18 0dbf
00000390: 89e5 eebe 3b54 89bf 673a 6dbf 53ed 513e
000003a0: c190 1c3e 18af eb3e c91c 413f 23fe a03e
000003b0: 0582 a53e 0fba 65be 70ac 81bf 1741 58bf
000003c0: 6462 aa3d 4650 3abf d46f 02bf 76d9 c0bf
000003d0: 6440 44bf e726 90bf 2bba 44bf 9a51 47bf
000003e0: 2a10 0cc0 7717 343f cca9 173d ed6e 93bf
000003f0: 43bc 4dbf 3fac 9cbf 68fd 89bf a06c 0cbf
4.0068154 1.8233808 1.6954428 5.186688 1.2078264 3.6564372 4.356994 4.3501625
4.6565113 -0.62239355 0.44776592 0.72690254 0.29353818 0.87936544 1.2037333 0.37104723
1.4042271 0.36656627 0.38824016 0.8676518 1.3424382 -0.68633246 -0.69223374 1.1504394
-1.3553063 -0.78213334 0.32397822 -0.60689694 -1.0626761 -1.4206792 0.32819363 -0.7842949
0.089305125 0.4464217 0.3919441 0.962374 0.17447221 0.9213213 0.96718174 0.09096126
0.950962 1.0726311 0.76919365 1.7430627 1.1269027 0.49601802 0.94393075 0.57718027
-0.31283873 -0.88405645 -0.75736314 -1.0475597 -0.8972206 0.11645049 1.0645556 0.97376084
1.2875348 1.2046306 1.8207493 0.6511079 0.393992 -0.50511605 -1.0677804 -0.5514983
-0.43091872 -1.2408121 1.2566454 0.87491447 -0.09010265 0.5818137 1.2040447 0.29560247
0.5000291 -0.9468006 -1.2307255 -0.038927536 -0.87198913 -0.38746843 0.72747326 0.65716976
0.3224923 -0.26427004 0.01994415 -0.48456603 -0.06483457 -0.65059114 -0.16650218 -0.40909967
-0.15578528 0.43810958 0.8905566 0.19864254 -0.40562654 1.0209811 -0.7744988 -1.5118098
0.80765337 -0.5526871 -1.0526156 -1.993282 0.4891527 -0.188394 -2.3316483 -0.25273415
-1.4344175 -2.5255184 -1.9056883 -2.1151147 -0.39929232 0.022056326 0.95940775 -0.7196665
-0.51848614 -0.25365478 -0.56359583 -0.16670546 0.4246706 -1.597909 -1.0214595 -1.9579749
-0.9995582 -0.39285767 -1.2208275 -1.830378 -1.4932493 -1.3751967 -0.65424144 -0.7184411
0.1393897 -0.81793916 -0.30495778 0.20677704 -0.38299367 0.5197658 0.5447342 -0.4787118
-0.7945709 -1.9457102 -0.23295909 -0.7165327 -0.80952984 -0.7070909 -0.3035726 -0.4175766
0.5064559 1.2450268 0.34506744 1.0971698 1.6615837 -0.14871453 1.0030596 0.15550905
-0.9212452 -1.5101302 -1.063956 -1.5255996 0.47423732 0.6821115 0.6711608 1.2727737
2.1059408 1.4102944 0.07794658 -0.21916384 0.7692773 -0.7636852 -0.8967807 0.5983508
-0.54047906 -0.49331343 0.24038686 0.493403 0.47498113 -0.17665613 -0.008778097 -0.6680093
-1.0411363 0.3050459 -0.0009032544 -0.7174898 0.23775719 1.3709112 0.7638688 -0.08086519
1.2985787 0.67402905 -1.0164288 -0.7479236 -0.9994406 0.30646443 -0.8822309 -1.0337224
2.1067662 1.8310521 1.5622278 0.19627345 0.36595824 0.6426502 0.6308823 0.4216077
-0.27433872 -0.012898429 -0.15738386 -0.32824603 -0.3830393 -0.783257 -0.64760876 -0.7411292
-0.8295228 -0.4883437 -0.090161234 -0.44461498 -0.4513225 -0.06620718 0.26030093 0.98450863
1.1047264 1.0540249 1.0715199 -0.47402924 -0.6538186 0.04017075 -1.57865 -1.2936932
-1.0903494 0.22072339 -0.22122978 -0.5511598 -0.46659496 -1.072883 -0.9266724 0.20500688
0.15289594 0.46032023 0.7543455 0.3144389 0.3232576 -0.22434257 -1.0130749 -0.8447432
0.08319548 -0.7277874 -0.50951886 -1.5066364 -0.7666075 -1.1261872 -0.7684657 -0.7785889
-2.1884866 0.70348305 0.037027165 -1.1518227 -0.8036539 -1.2240065 -1.0780458 -0.5485325

bias f4 [32]
00000000: 129a 1f3d 8262 73be 90cc be3e 595a 303f
00000010: 250a cfbe 731e b23d 50f5 8abc 5749 6cbe
00000020: 3dc5 eb3e 6598 2c3f f19f 393f b02d 6d3e
00000030: 20e3 f73e 2e30 663e ee7e 4f3f 6936 553e
00000040: 75b1 c1be 76c6 1e3e 7a8b d83e 1bfe 283f
00000050: 18f5 81be 9e00 79bd 7325 613f 6cc9 813f
00000060: c35b a7bd 2677 8c3f b8b5 543f 7fa3 d53e
00000070: 00da 803f 66e6 903f d5c0 abbd a659 fd3e
0.038965292 -0.23768046 0.37265444 0.6888786 -0.40437427 0.08697214 -0.016962677 -0.23074852
0.46048918 0.67420036 0.72509676 0.2316196 0.4841547 0.22479317 0.81053054 0.20821537
-0.378307 0.15505394 0.42293912 0.66012734 -0.25382304 -0.060791604 0.8794777 1.0139594
-0.08171799 1.0973861 0.8308978 0.417263 1.0066528 1.1320312 -0.08386389 0.4948246

weight f4 [32, 32, 3, 3]
00000000: c295 d03d 2b54 6c3d 48d9 21be 1540 0e3e
00000010: 6969 4cbc 0e6a e33d 7c9b a7bd 5eda c73d
00000020: 0edc b8bc 7120 bbbc e08c 8cbd 39e1 6cbe
00000030: 87db 8b3d 1edd d9bc 716f bbbc 2e76 eabd
00000040: 27a6 2a3e 9d83 213d 0986 ebbd 0847 2b3e
00000050: a7be dc3e 7329 29be 3165 31be 3111 bf3d
00000060: a2c3 09be af5a 82be 8b8c 10bd 2bcf 09be
00000070: ca6e 0abd 97ac ef3e 8695 c73c 0f81 563e
00000080: 4ae7 9b3e 14bc b0bd b21e 4bbe 7f31 a1bd
00000090: 2d92 4c3d 0613 cabd 880f 9fbe 44d4 343e
000000a0: c87c 40bc 3046 c6bc 22b4 29be 4ef3 3d3e
000000b0: 9e4e 153d 294e a1bd c21f 093e 8c4a 913e
000000c0: c3cc a2be e80b 46be 3f4e 8f3d daf7 ccbc
000000d0: 3978 74be a521 bfbd 7fc9 863d aa2d b13d
000000e0: 3165 aebd 4546 ef3d 9d15 4f3d 072a 03be
000000f0: 2f25 7e3c 2b21 de3d d869 2f3d c68e 1b3d
00000100: ef88 d8bd 9323 ffbc c512 d1bd ad58 2d3d
00000110: 4699 8fbd 9b7f 12be 3713 6dba 877e febc
00000120: 1566 13bd 627e d13d 3981 fc3e 1c4c 13bd
00000130: 46d0 d53d d515 163e 4a7d 36bd 5e91 d9bd
00000140: aa28 afbd de4c 7cbd 26f4 b13d c8e8 ee3e
00000150: a983 05be fa19 1abd 4c81 f13d 0bde c5bd
00000160: fc67 2bbe 0ab7 28bd cd49 5e3d 5c17 923e
00000170: d0c7 2b3f f5fb 803c 7685 593e ecce d6bd
00000180: 3043 c03d 5513 03be e1d4 e83b 5c20 9cbe
00000190: ba64 d5bd ed99 d43e 1721 d8be 7384 c9bd
000001a0: 8c15 9fbe 5eba 003e de4b b2be 128d 9e3d
000001b0: a3d4 17be 9ddb aa3d dd75 da3e efa9 2cbe
000001c0: 2f71 dabd 46e3 e13d 20ac c1bd 99ab 12be
000001d0: 9f4e 36bd 7844 68be ef2d 30be b6e9 3b3f
000001e0: 2918 d4be 1421 c4bd 3e1e b9be 212d d33c
000001f0: 6241 e2be 51ae 29bd 33be 37be f5b6 c23d
00000200: 2081 e03e b9d3 19be 9711 cbbc 11de 143e
00000210: 37a1 49be 4ec8 64bd 6d2c 05bc 1472 48be
00000220: 4415 65be 7a57 343f 4f46 95be 4e82 cdbb
00000230: 5ccb 2fbd 3210 c4bd b12a ccbe 7dd2 dbbd
00000240: 63d5 1c3e 6f4a 9db9 450d 7ebe d1e8 963d
00000250: 1571 003e 1047 89bd 7242 a63c 0fbf 993e
00000260: a5c1 093e 8518 d8bc f7f7 22be 4844 92bc
00000270: 747e a1bb 4291 583d 8cf2 c9bc c742 38bd
00000280: f191 953d f4a5 5ebd 4c7a bbbd 9b68 643e
00000290: d0d7 b73e 796d c9bd f0e0 8ebd 00a0 503e
000002a0: 6e0f a0bc e759 b1bd af6c 89bd 6dce 053c
000002b0: 721b 6a3e 4b81 fa3e 3104 e3bd 9579 ad3d
000002c0: 2bb7 633c 1891 193d c3b9 19be 49fc 0cbd
000002d0: c8ce 833c cec8 2c3d 2cbc 31bd cc55 a9bc
000002e0: 2e82 85bc aa13 63bd 8e7e cfbd 15ef 4cbd
000002f0: 4104 87bd f728 6e3d e9ca afbc 6abc 19be
00000300: 20d2 023e 7052 c9bc 0abd abbd 295e 72be
00000310: 3efc a43d fdce 28be 0d64 2c3d 9f8d 883e
00000320: bad2 113f ecbb 93bd 74e5 123d 92a9 883d
00000330: 5f0c 443b a922 61be 76ba 95bd a4b8 d2bd
00000340: 4562 983c d22d f63e 53b8 35bd f41d 8a3d
00000350: e2b1 473e 9827 1ebd 909b 56bd e53e 4bbb
00000360: 4868 a3bd 2910 b93e e322 8d3e c5c5 14be
00000370: 3895 77be 480d 9b3d 3d49 86bd 9fb4 4cbd
00000380: 57cb 203d 1ea4 aabd 3ff9 e33d 03b1 e43e
00000390: 1ae5 18bc 59b6 523d 3ef5 d83d cf6e 663c
000003a0: 51f5 a5bd f8cb 253d 92b7 e3bc c206 563e
000003b0: 79df ed3e a915 fabd 5253 823c 56e4 8b3d
000003c0: 1430 8b3c ac0b 01be eacb 3dbd f797 71be
000003d0: 6dad 61be adf8 043f 84ee 9dbe da6f fe3c
000003e0: caa7 44be ab04 78bc c9ca 5cbe 097a c53d
000003f0: ae66 2bbe 8d8d c9bc edc1 f93e 93fc b5bc
0.10184814 0.057697456 -0.15805542 0.13891633 -0.012476304 0.11104213 -0.08183953 0.09758447
-0.022565868 -0.022842618 -0.06862807 -0.2313279 0.06828981 -0.026594695 -0.022880288 -0.11448322
0.16664945 0.039432157 -0.115001746 0.16726315 0.43114206 -0.16519718 -0.17323758 0.09329451
-0.13453534 -0.2545981 -0.035290282 -0.13457935 -0.033797063 0.46811363 0.02436329 0.2094767
0.30449897 -0.08629623 -0.19835928 -0.07870769 0.04994409 -0.0986691 -0.31066537 0.17659098
-0.0117485 -0.02420339 -0.16572621 0.18549845 0.03645193 -0.07876236 0.13391021 0.28377187
-0.31796846 -0.1934048 0.06997346 -0.025020529 -0.23873986 -0.09332589 0.06581401 0.08651288
-0.085153945 0.11683325 0.05055772 -0.12809001 0.015511795 0.1084617 0.04282555 0.037977956
-0.10572993 -0.031144893 -0.10208658 0.042320896 -0.070116565 -0.1430649 -0.0009043696 -0.031066192
-0.035986025 0.10229184 0.4931734 -0.035961255 0.10440116 0.14656766 -0.04455308 -0.1062343
-0.08552678 -0.061596744 0.08689146 0.46661973 -0.13038506 -0.03762243 0.117922395 -0.09661492
-0.16738886 -0.041190185 0.0542696 0.28533447 0.67101765 0.015745142 0.21242318 -0.10488686
0.09387815 -0.12800343 0.0071054553 -0.30493438 -0.10419603 0.41523686 -0.42212746 -0.09839716
-0.31071126 0.12571093 -0.34823507 0.07741751 -0.14827208 0.08342669 0.42668048 -0.168617
-0.10666119 0.11029677 -0.09456658 -0.14323272 -0.044508573 -0.22682369 -0.17205022 0.7340349
-0.41424683 -0.09576622 -0.36155885 0.025778355 -0.44190508 -0.041426007 -0.17943649 0.095075525
0.43848515 -0.15022172 -0.02478866 0.14537837 -0.19690405 -0.055855088 -0.008128268 -0.19574767
-0.22371393 0.7044598 -0.29155204 -0.006271637 -0.042918548 -0.095734015 -0.3987632 -0.10733507
0.15315776 -0.0003000083 -0.2480975 0.07368625 0.12543137 -0.06703007 0.020295355 0.3002858
0.13452776 -0.02637888 -0.15914904 -0.017854825 -0.0049284045 0.052872904 -0.024651788 -0.04498556
0.07303227 -0.054357484 -0.09154186 0.22305529 0.3590684 -0.098353334 -0.06976497 0.20373535
-0.019538607 -0.08659726 -0.06710183 0.0081668915 0.22862032 0.48926768 -0.11084784 0.084704556
0.013898651 0.037491888 -0.15012269 -0.034420285 0.016089812 0.04218369 -0.043392345 -0.020670794
-0.016297426 -0.055438675 -0.1013156 -0.050032694 -0.06592608 0.058144536 -0.02145906 -0.1501328
0.12775469 -0.024575442 -0.08385666 -0.23668732 0.08055924 -0.1648521 0.042087603 0.26670548
0.5696217 -0.07213578 0.035863355 0.06672968 0.00299146 -0.21985878 -0.07310955 -0.10289124
0.018601546 0.48081833 -0.04436524 0.06743994 0.1950145 -0.03861198 -0.05239445 -0.003101283
-0.079788744 0.36145142 0.2756568 -0.14528568 -0.24178016 0.075708926 -0.06556938 -0.04997694
0.03925642 -0.08332084 0.11131524 0.446663 -0.009331966 0.05144343 0.10593651 0.014064505
-0.08103431 0.040477723 -0.027797494 0.20901015 0.4645956 -0.122111626 0.01590887 0.06830661
0.016990699 -0.12602109 -0.046337046 -0.23593126 -0.22038813 0.5194195 -0.30846035 0.031059194
-0.19204631 -0.015137832 -0.21561731 0.09642417 -0.16738388 -0.02460363 0.48780766 -0.022215163

bias f4 [32]
00000000: 6c73 dd3c 934e 4b3d 3bac 76bd f95b 1f3d
00000010: 7874 a63d e158 2cbd 39f7 463d 14e0 e5bc
00000020: 8d91 77bd f088 debd a71d 4c3d 181b a7bc
00000030: b5a1 cd3c 44af c5bc d7bd 173c 4c5e 703c
00000040: 6248 08be 904e b73c 8190 2d3d 6a05 1ebc
00000050: bfd3 a03c 7413 eebd fe63 943c 985e 223d
00000060: 3806 cdbc 7337 57bc 0ba0 303b f9c3 81bb
00000070: 306f 933c 2cba 423d efd1 1abd ee8a 6ebc
0.027032577 0.04963548 -0.060222846 0.03890607 0.081276834 -0.04207695 0.048575614 -0.02806095
-0.060441542 -0.108659625 0.049832966 -0.020398661 0.025101522 -0.024131425 0.00926157 0.01467092
-0.13308862 0.022376329 0.042374138 -0.0096448455 0.019632218 -0.11624804 0.018114086 0.039640993
-0.02502738 -0.013135779 0.0026950862 -0.0039601293 0.017997354 0.04754083 -0.037797865 -0.014559491

weight f4 [32, 32, 3, 3]
00000000: 4a21 603d 3b65 75bd 6fe9 193e 4291 de3d
00000010: a8bf 9e3e 1a08 733e 4c1c 203e 0672 3abd
00000020: 89a5 db3e f02d 6c3e 6c27 bb3e 535f e73d
00000030: 4955 3d3e 628b 963e 7d04 fdbd 4ed6 1cbe
00000040: 12f0 dd3d 1ec9 76bf dfa8 87bd 3663 3a3d
00000050: ebad de3e b872 92bd 7f4a 2dbe 04ea d0be
00000060: f3eb e0bd a20a a0bd b03a 29be 382f 713c
00000070: 1dfe fa3d 2161 7c3e 8fe9 b83d 33d8 9c3d
00000080: 5096 0c3d b3f5 313e 9460 d6bd 280c ea3d
00000090: 7e55 0cbe f64d 46be 78ea 97be 6daf 913e
000000a0: 801f 5d3d 6886 983d d3d0 37be fd09 91be
000000b0: d84b 183d 41ce 35be 2cfb 86be 578c 6f3e
000000c0: d6f8 883d d8bc d6bb 5319 c5bd 7ad1 0e3e
000000d0: 154f 6bbe 03fe eebc c7c9 9e3d 5efe c3bd
000000e0: 5908 483e 985f 903e 481d 643d 521b 483e
000000f0: d8c1 9d3e 2e4a 82be fccd dc3d a8ba 7f3e
00000100: 9412 8f3b 057e 87bd d85c d73d 5ec1 e7bd
00000110: cd0e e0be 7bae 833d 74f2 46be ee5f 843e
00000120: 6083 ffbc aae6 743d 3986 c23e a099 bcbd
00000130: 5fd1 d23d 33cd f23e 6e51 203d 3f3a 2fbc
00000140: 501f 2c3d c607 eebd 58f6 04be a806 ab3d
00000150: e7dd bcbd e60c 773d 7164 a83e 60cc 7dbe
00000160: a8f7 6fbd 41d9 263d dd52 9b3b 0d1b d53d
00000170: e89c 11be af40 e23e 03e8 583e d3f2 d6be
00000180: c18a 473e 49e1 393d 0bdb 073f 3c8e cabd
00000190: 93bb b3bd 7504 c43e 3ff0 3f3d e8f9 c03d
000001a0: 049f bbbd 4c12 353d f1d3 c63d ab3e 62bd
000001b0: ab6a 7ebe e5b5 22bd bcbc 9bbe 3f42 a43e
000001c0: 98b4 35be 1d08 423e 5be7 af3c 0a9e 1bbf
000001d0: 9a01 84bd 0e46 d53c 9e4e 16bc c271 1ebe
000001e0: d07e bcba 2c4d 963d 2396 8a3d 5c72 1dbe
000001f0: a1e3 6abd 9c37 0fbe a81b 5c3c d4a6 4dbe
00000200: 1e25 97be a29a 07bc e174 f0bd 61ec b43d
00000210: 1e33 6abe 2b73 d33d 4517 ed3d 9730 8b3d
00000220: 7d30 063d f21c dd3c 9b58 ce3e 873c 693e
00000230: 1045 5fbe f45e 23be 8b6f 52be 0ceb 25bf
00000240: 6b61 0c3e aa72 aebe 61f6 ffbe 95d2 3cbe
00000250: 593b ebbe 27ac 413e a670 acbd 168d 81be
00000260: 4fb0 ebbc 750e a0bc 3bbd 7fbe 50d5 9dbe
00000270: e554 483b 6a21 17be 0a98 373e b215 69be
00000280: bea1 b53c 3268 22bf fbe6 b9bd 784c e2be
00000290: 0a96 a7be ed64 5b3d 25fd b3be f838 cabe
000002a0: a948 5e3e 65ce 35be 3d83 1dbd b2a2 d43e
000002b0: 6029 a93e 7769 c7bd 26f6 093c ab40 833d
000002c0: 4280 abbd 6c6d bebe 07ae 923e 8934 cabd
000002d0: ecf4 09bd 0ec6 84bc 266b 713e 0507 8bbd
000002e0: 36fa 7f3d 2e73 083f 2dfe 1fbd c3dc dbbd
000002f0: bbaf 873e d6c2 e23c d85f bf3d b2ab 68be
00000300: 6497 55be 2dae b4be 3f45 8a3e b2e4 243e
00000310: 3c59 473e 4146 c1be 7fe1 853d f6e7 713d
00000320: 5c4c f7bd d808 db3d 2e13 8c3c 0e61 8c3d
00000330: 719d 443e 2c89 16be 2d16 6fbd 098e 0abe
00000340: 49aa d93c 55a0 9ebe 7a66 a0bd c904 813b
00000350: fe83 f83d a68f 71be 9bc3 c6be e737 90be
00000360: 08e9 883d f7e7 39be 9ea2 f13d c2ce 133e
00000370: ed79 8cbd e9a6 3b3e b34a 59be b4ad a73d
00000380: 25db 88be 17bc 1e3d 3dea a1bc a01f c1bd
00000390: fb14 893d 0dc9 b1be 5135 a2be 3068 f3bd
000003a0: 3341 1abe d060 3e3e 57a4 6cbd 5aa1 71bd
000003b0: 707e ad3d c54d 863c f5ca 223e ede1 023f
000003c0: 346e 1dbc 0819 c0be 746d 6dbe 0952 e2bd
000003d0: 6033 1fbe 0ad0 803e d608 bcbd cc4e e53d
000003e0: 20ab b73e 7793 dbbc 4360 883d 5ef3 5f3e
000003f0: 3d13 b53d f88c 9dbd 5aaa e73c f433 4e3e
0.054719247 -0.059910994 0.15030454 0.108675495 0.31005597 0.23733559 0.15635794 -0.045518897
0.4289973 0.23064399 0.36553514 0.112974785 0.18489565 0.29403216 -0.12354372 -0.15316126
0.108368054 -0.9640063 -0.066240065 0.04550477 0.43492064 -0.07150787 -0.16922949 -0.4080354
-0.10982504 -0.07814528 -0.16526294 0.0147207305 0.122554995 0.24646427 0.09028923 0.07658424
0.034323037 0.17378883 -0.104676396 0.114281 -0.13704488 -0.19365677 -0.29671073 0.28454152
0.05398512 0.07447511 -0.17950754 -0.28327933 0.037181705 -0.17754461 -0.26363504 0.23393379
0.06688087 -0.0065532736 -0.09623971 0.13947096 -0.22979386 -0.029173857 0.0775333 -0.09570001
0.19534434 0.28197932 0.055691987 0.19541672 0.30811954 -0.2544722 0.10781476 0.24973547
0.0043662284 -0.06615833 0.105157554 -0.11316179 -0.43761292 0.06429764 -0.19428426 0.2585444
-0.031190574 0.05979029 0.3799303 -0.09208989 0.102938406 0.4742218 0.039140157 -0.010695039
0.04202205 -0.116225764 -0.12984598 0.08350879 -0.09222012 0.060315035 0.3288913 -0.24784994
-0.058585793 0.040734533 0.0047401027 0.1040555 -0.14220011 0.44189975 0.21182255 -0.41982135
0.19486524 0.045380864 0.5306861 -0.0989041 -0.08776011 0.3828465 0.046859976 0.09422666
-0.09161189 0.044206902 0.09708393 -0.055235546 -0.24845378 -0.03972425 -0.3041743 0.32081792
-0.17744672 0.18948407 0.021472624 -0.60788023 -0.06445618 0.026034381 -0.009174017 -0.15473083
-0.0014381055 0.07338938 0.067669176 -0.15375656 -0.05734599 -0.13986057 0.013434328 -0.20083171
-0.29520506 -0.008276613 -0.11741043 0.08834148 -0.22871062 0.10324701 0.11576704 0.06796377
0.032761086 0.026991341 0.40301976 0.22776996 -0.21803689 -0.1595419 -0.20550363 -0.6481178
0.13709037 -0.34071857 -0.4999266 -0.18439706 -0.45943716 0.18913327 -0.084199235 -0.25302953
-0.028770594 -0.019538144 -0.2497453 -0.30826807 0.003056818 -0.1475884 0.17929092 -0.22762182
0.022171851 -0.6344024 -0.09077259 -0.44198966 -0.32731658 0.053563047 -0.3515407 -0.3949659
0.21707405 -0.17754515 -0.038455237 0.41530377 0.3303938 -0.09736913 0.008420503 0.06408819
-0.083740726 -0.37192857 0.28648397 -0.098733015 -0.03368084 -0.016207721 0.2357603 -0.06788448
0.06249448 0.5330075 -0.03906076 -0.10735466 0.2650126 0.027680796 0.093444526 -0.22721747
-0.20858532 -0.35289136 0.27005956 0.16102865 0.19467634 -0.37748912 0.065371506 0.059059106
-0.12075111 0.10695046 0.01709899 0.06854449 0.19200684 -0.14700764 -0.058370758 -0.13530745
0.026570456 -0.309817 -0.07832046 0.003937338 0.121345505 -0.23589954 -0.3882111 -0.2816765
0.06685072 -0.18154894 0.11798595 0.1443434 -0.06859193 0.1832539 -0.21219902 0.08187428
-0.26729694 0.038753595 -0.019765014 -0.0942986 0.06693455 -0.34723702 -0.31681302 -0.118851066
-0.15063934 0.18591619 -0.057773914 -0.058991767 0.08471382 0.016394505 0.15897734 0.51125985
-0.009608794 -0.37519097 -0.23186284 -0.11050803 -0.15546942 0.2515872 -0.09181373 0.1119667
0.35872746 -0.026803715 0.066589855 0.21870181 0.0884156 -0.07692903 0.028279472 0.20137006

bias f4 [32]
00000000: b44d 8dbd ddbf 9cbd b5b9 e0bd d314 2bbe
00000010: 377f ccbd 1028 75bd c652 8cbc 4665 63bc
00000020: b202 2f3d 4ffb 5bbb 65a7 a33d 5b49 30bd
00000030: 96ca b2bc e8c4 c13d 760e b7ba 0921 58bd
00000040: 3182 ac3a b00c 0cbd 070f 023d 6b59 bdbc
00000050: 0869 eebd a503 2e3c c962 68bc 855d afbc
00000060: 8ac4 363d 4da3 31bd f530 d3bd 0aa3 4b3c
00000070: 0005 d7bd 6be7 c4bd 36e7 7f3d e02a 273d
-0.06899586 -0.076537825 -0.10972921 -0.16707163 -0.09985202 -0.05985266 -0.017129313 -0.013879126
0.04272718 -0.003356654 0.07990912 -0.043038707 -0.021825116 0.09461385 -0.0013966102 -0.05276588
0.0013161359 -0.034191787 0.031752612 -0.023113927 -0.11641127 0.010620986 -0.0141837085 -0.021406898
0.044621028 -0.043368626 -0.10312072 0.012429008 -0.104990005 -0.09614452 0.06247636 0.040812373

weight f4 [10, 32, 3, 3]
00000000: d1a8 6eb9 38a2 26be 5ae6 4bbe 74eb 56be
00000010: 05f1 d23e a2c9 283e 2833 90be 1cdd 003d
00000020: f862 80bd 6858 6fbd 97f2 823d b95f 12bd
00000030: e918 033f 5c0d 033f 8f92 3a3e 48c4 f7bd
00000040: 1c6b acbd 026a 4bbd 3ef7 ea3d 9ef2 753d
00000050: 7d97 0d3e 177e 733d 96da ef3e d4e0 00b9
00000060: 78d2 6e3e c17a f53d 75a2 593e 0b78 cd3e
00000070: 1202 75ba 762d 8abd ddc5 773e c009 a3bd
00000080: a159 34be a630 8fbe 17af 22be 1b9c b53d
00000090: 7567 7cbd 6db4 0a3e 8b3f 4ebb 2414 87be
000000a0: 587a a33e bcd6 a93c 5f3f de3e 47c7 7d3f
000000b0: 52ff 3dbe ffc1 bd3e dfa2 9b3e efb1 523d
000000c0: d2c6 af3e edfa 513f 1ed3 053e 4a1e f4bc
000000d0: e0e7 0c3e 65b6 923c 93c0 473e c031 aebe
000000e0: c40e ddbb 8989 4e3d 5a1b febe 5176 1cbe
000000f0: 7526 6bbd e9f6 2abf a3aa 46bd 3a23 fc3d
00000100: 99ad ac3e d322 073d 33ae f5bc 64df 8c3e
00000110: 00a7 da3c ed21 0b3f 8df5 613e 6a99 27be
00000120: a716 073e 5187 a2be 3af8 ff3c 8cbe dcbc
00000130: 4e56 ddbe 3d4e 9abe 38ce 58bd 799b 29be
00000140: 6c48 c4be f69f 503e 5b80 db3d a526 e6bd
00000150: 1a89 dbbd 7ace abbc 6cbc 8b3c e387 21be
00000160: 8256 0fbf f2d5 86be 53e5 0dbe 50c1 b8be
00000170: 31f2 7cbe e043 2b3e 5a48 023e 13b2 8c3e
00000180: 4968 e0be b7d1 51be 89c1 1fbe df3b 10bd
00000190: 3b13 003c b19c 5e3d 0a03 033f b6be a73d
000001a0: 7a35 433e 6ddb e3be ee8a 87be aa6b e03d
000001b0: ba69 68be fef6 84be 735b 6dbd 4220 863e
000001c0: a3f5 08be 05e6 713e a6f8 3bbe 9e18 05bf
000001d0: 0952 ebbd 22c8 d1bd f3df 46be 2f01 14bd
000001e0: e071 9fbc 19fc 1bbe c139 183e 18b4 c9be
000001f0: 116d babe 9ac9 fb3d 9f00 953d 12cf 2ebd
00000200: a1bb a7be df9f ae3e b028 31be 9e29 3f3f
00000210: 0284 07be 0106 80be 706d 8a3e 585a 57bd
00000220: 58b8 64be a304 403d 7968 41be 0edb 8f3d
00000230: f40b ba3d 6164 b6be 4379 bd3e 8ffd 1dbe
00000240: 7783 cdbc f4a0 3b3c 7b18 1dbd 3dbc aabe
00000250: 265a 45be 3d93 18be 8c52 7b3d b0a7 cb3e
00000260: 804c 863d a459 0d3e 27c4 4b3e c1ff cf3d
00000270: c959 5dbe 8d40 9e3d 1a5a a9be 6105 733e
00000280: b69f 8a3e 6b2e 17bd 86e8 f8bd 6d36 8ebe
00000290: 0b8b 09be 426a b33d ab35 003f 45b2 833c
000002a0: 4692 bbbe 874f 84be 8498 0c3d 7265 19bd
000002b0: 0c88 8abd 133a 523d fe03 753c f586 033f
000002c0: 47fa 57be f5b7 f43e 8cf6 af3c 50eb 663e
000002d0: cf4b 5abe b98d fa3d 6bfa d23d bf1a 543b
000002e0: ae27 e23e 73df e53e 9e0c fa3e e7e0 913f
000002f0: 5943 d0bc a905 80be 03d0 3abe a870 8ebc
00000300: 5c39 6d3e 562f 0b3f 4c2e 9bbc b8e3 6b3d
00000310: 777c e13e bb37 ca3d 5610 4a3d 6a55 13be
00000320: 8868 f1bd 8e0e f83e 6f8f 913d a088 903e
00000330: 3f1b 86be c9c0 73be 2eca 0ebd 3fdc 343f
00000340: 3c64 1c3e 6ff6 bfbd cf35 28bd d986 203d
00000350: bcc5 3d3d deb0 673e 66e7 993e 8d19 a8bd
00000360: fdbb 79bd 7922 87be 42e9 963d 55f7 e8bd
00000370: 5983 0d3e 38c7 84be 5b72 a13e 54fe 083e
00000380: 19c5 1ebe 4511 1a3e 5938 abbe 11ec 20bc
00000390: f978 c7bd ede2 96be d865 0d3c b9cc 2cbd
000003a0: 0ecc 6fbf 3c43 9a3d 0df5 f83d ff00 e23d
000003b0: 5b72 e73d 78cc 1cbe ac0b 6fbf 9de2 283d
000003c0: fee9 a03e 1b7d ecbe 1765 7abc e3ca 6bbd
000003d0: 8d99 51bb a489 0c3e 9a09 c23d 9893 c73c
000003e0: 06e4 233e 193a 833e 13f7 8b3c a620 4f3e
000003f0: 74c8 d53e 08ec 21be 9a68 cabd b18e f23d
-0.00022760338 -0.16272819 -0.19912091 -0.20988256 0.41199508 0.16483167 -0.2816403 0.031460866
-0.06268877 -0.05843392 0.063939266 -0.03573582 0.51209885 0.5119226 0.1821997 -0.120979846
-0.08418867 -0.049661644 0.11472939 0.06004583 0.1382732 0.05944642 0.46846455 -0.00012290786
0.23322475 0.11986304 0.21253379 0.40130648 -0.0009346317 -0.06746952 0.24196573 -0.07960844
-0.17612316 -0.27966803 -0.15887104 0.088676654 -0.0616221 0.1354539 -0.003147098 -0.26382554
0.31929278 0.020732276 0.43407723 0.991322 -0.18554428 0.3706207 0.30397698 0.051439222
0.34331375 0.8202351 0.13068816 -0.0297996 0.13760328 0.017909238 0.19507055 -0.3402233
-0.006746145 0.050424132 -0.49630243 -0.15279509 -0.057409722 -0.66783005 -0.048502576 0.123114064
0.33726195 0.032992195 -0.029990291 0.27514184 0.02669096 0.5434864 0.22066326 -0.16367117
0.13192235 -0.31743863 0.031246293 -0.026946329 -0.43229908 -0.30137816 -0.05293104 -0.16563214
-0.38336504 0.2037352 0.10717841 -0.112378396 -0.107195094 -0.02097248 0.01705762 -0.15774493
-0.55991375 -0.26335102 -0.13857011 -0.36084986 -0.24701764 0.16725111 0.12722912 0.2747961
-0.43829563 -0.20490156 -0.15601172 -0.035213348 0.007817085 0.05434865 0.5117651 0.08190672
0.19063368 -0.44503346 -0.26473182 0.10958035 -0.22696581 -0.2596969 -0.05794854 0.26196486
-0.13374953 0.23622902 -0.1835657 -0.5199069 -0.11490256 -0.102432504 -0.19421367 -0.03613394
-0.01946348 -0.15232886 0.14865781 -0.39395213 -0.36411336 0.12294312 0.07275509 -0.042677946
-0.32760337 0.34106347 -0.17300677 0.7467288 -0.1323395 -0.2500458 0.2703662 -0.052576393
-0.22335947 0.046879422 -0.1888751 0.07024203 0.09084311 -0.35623458 0.37006578 -0.15428756
-0.025087101 0.011451948 -0.038353425 -0.3334674 -0.1927267 -0.14899917 0.06135802 0.39776373
0.0655756 0.13803726 0.19899045 0.10156203 -0.21616282 0.07727156 -0.33076555 0.2373252
0.27074975 -0.036909502 -0.12153725 -0.277759 -0.13431947 0.087605014 0.5008189 0.016076216
-0.36635035 -0.25841925 0.034325138 -0.03745026 -0.0676423 0.051324915 0.014954565 0.51377803
-0.21091567 0.47796598 0.021479867 0.22550702 -0.21317981 0.12234063 0.1030167 0.0032364575
0.44170898 0.4489704 0.4883775 1.139676 -0.025422739 -0.25004318 -0.18243413 -0.017387703
0.23166412 0.54369104 -0.018942975 0.057590216 0.44040272 0.09873911 0.049331985 -0.14388052
-0.11787516 0.48448604 0.07107436 0.28229237 -0.26192662 -0.2380401 -0.034860782 0.7064857
0.15272611 -0.09373175 -0.04106694 0.0391911 0.046331152 0.22626063 0.30059355 -0.082079984
-0.060970295 -0.26393488 0.07368709 -0.113753 0.13819636 -0.25933242 0.3153256 0.13378268
-0.15504874 0.1504565 -0.33441427 -0.009821908 -0.097398706 -0.29470006 0.0086302385 -0.042187426
-0.9367074 0.07532355 0.12156115 0.11035346 0.113011084 -0.15312374 -0.93377185 0.04123174
0.31428522 -0.46189198 -0.015282891 -0.057566535 -0.0031982393 0.1372438 0.094744876 0.02436237
0.16004953 0.25630262 0.017085588 0.20227298 0.41754496 -0.15812695 -0.098832324 0.118436225

bias f4 [10]
00000000: 445c b7bc ee89 af3c abca 9d3a cfe6 61bd
00000010: 533f 093c f48c 1abc ecca f93c de79 69bd
00000020: ed5f 083d 4952 4e3d
-0.022382863 0.021428075 0.0012038549 -0.055151757 0.008376914 -0.00943302 0.030492269 -0.057000987
0.033294607 0.050371442

weight f4 [10, 32, 3, 3]
00000000: ec30 b8be 3c03 12bf e630 c0be 5c68 1bbf
00000010: 9e54 e53e 53ce 033f 14f2 0abf 4020 18be
00000020: 2b41 903f bbdf 8b3d e3fd a83b 8c94 e2bc
00000030: b877 26bd a1a3 abbe 6239 9dbf 5e59 023e
00000040: e2bf 2c3f e362 45bf 39e8 b1be 1765 66be
00000050: 51d5 013d 288f c5be 2b8d 673e 3e53 fdbe
00000060: 0974 91be 0b6e 85be 9344 813f cbf0 733c
00000070: 22dd a53e fbee d9bd 3a76 8c3e 9018 743f
00000080: 3b5c 0a3f 4609 9e3e c6bc fd3f c411 213f
00000090: ce77 8dbe 2a43 99be 57a6 c2be 01da ecbf
000000a0: 9533 723e e180 9c3e 2bda a13e 6daf 6d3e
000000b0: ebbe 3a3e 25fe c83d 2f30 7abe fb95 f53e
000000c0: a3c4 9cbd 4d08 63bd 7f98 173e e59e cbbe
000000d0: 9cbd 5d3f 9591 06bd a003 f63e f81f 1e3e
000000e0: d88b 4d3f 7db4 4a3e 7657 7dbd f06c 813e
000000f0: 8001 c2bb b879 413f e35e fdbe e61f 56be
00000100: 5502 5fbe 1b0a a83e 7518 97be 3596 12be
00000110: 86a0 7e3d e0a6 c23e 9461 49be 5cd6 c03f
00000120: 992a e0be da98 51be 9be0 183d b31a 85be
00000130: 198c d6be 0f4b 293f 1981 46be 9b18 fc3d
00000140: c59a 753f cd4d 963d 36e5 0fbe 8ae4 da3b
00000150: e565 afbf 95a7 78be 335f 2f3e f81b 3dbe
00000160: 6a0f fe3e 3637 353e 26ba b93d f111 98be
00000170: 180d ac3e 1864 253f a9aa 883c 68ff 9cbf
00000180: f883 723d 07fd 2f3f c2c4 19bf 8de5 783e
00000190: 1a7f 5fbe c775 2bbc 6d45 f43e a43f 5ebe
000001a0: a995 c3be 7d73 38bf e347 cc3d c602 ca3f
000001b0: 13f0 bebe 984b 2b3c 9468 34bf f9a8 763f
000001c0: 39f7 34bf 1a0e 0a3f ac54 d13e b441 8abe
000001d0: 21c0 2b3d 7749 55be 1490 1abe b341 88be
000001e0: 221e f0bd 1747 d93e 69f2 e13e b90e 3a3f
000001f0: 3ec0 6a3f efaf 833e ff1a 7f3e d9a8 d6be
00000200: 7874 243f 2bca 0dbf ab17 70be cc5b 87be
00000210: 75be fa3d c228 983e 08f8 9d3f b1c0 b9be
00000220: 4747 54be 326b 793e dca1 613d a4ea 483d
00000230: 828a 8cbd 892a 40be f6a4 5c3e f1a6 8d3f
00000240: e5b6 293e 9c94 c83f abe2 28bf 822a 803e
00000250: 1c43 da3e ac8b 6c3f 419d b9be ac38 bbbe
00000260: b68c adbe c01d fabd e132 1b3e 1ecc 4cbf
00000270: 0331 89be f3f1 debe a3f6 3c3f 32da 3ebd
00000280: caa6 203f 4dac 26bf c82d 66be f8a0 68be
00000290: e031 1b3e f48d 3fbe 9dc1 01bf dd39 d63e
000002a0: 1a48 c7bd ece1 5c3e 1ace bdbd 1aab 12be
000002b0: 0414 263e 6a98 3d3e 6ac6 c1be f8a4 ae3d
000002c0: 8c8d a2be 89bf 443f e63b 293f aeaf 413f
000002d0: 0943 a33e 6b06 893e ef9b ef3d e33c 64be
000002e0: ea5f a33e 3641 053e 9fac 57bd 293a 80bf
000002f0: fb3e f43e bda8 e93d 8412 513e 843c 16bf
00000300: b6b3 4dbf 9e37 30bd 7881 a0be 8391 b4be
00000310: 4007 debe a951 273f c10b 173d e96f f3be
00000320: 6558 90bf e7c3 10be 6555 fabc 121d c7be
00000330: 722c e7ba 6e22 3a3f 209c 7cbf b1a0 c03e
00000340: 6cf3 e63e cb4f 553e 7879 9bbe b34e acbe
00000350: 0fa5 c03e c07d e7be eade dabd 663c 1abe
00000360: d9b7 b03e 5e62 2dbb 30f3 113e e66b 12be
00000370: c291 773d 81cc bf3e 421e b6be 8dc6 d73d
00000380: 4b32 a93f 75df 893e d4ed 72be 35cf b8be
00000390: 49aa c3bd 2546 b23e 0835 29bf 1f14 9d3e
000003a0: 7315 763f eac4 84be e09d 40be e089 fb3d
000003b0: 090b 7ebe aa2e a7bd 44aa 80be a957 f93e
000003c0: 90d6 8fbe b36f ebbe 00bf 0e3f 2cb8 593d
000003d0: d901 3fbf c883 8dbd a357 e6bd d8c4 f6be
000003e0: 404f 71bf f6cd 3abe 87b0 b2be 5c3e aebc
000003f0: 66fe 95be 7a94 f3be e1b6 a03e afea c4bb
-0.35974824 -0.57036185 -0.37537307 -0.60706115 0.4479112 0.514867 -0.5427563 -0.14856052
1.1269888 0.068297826 0.005157219 -0.027658723 -0.040641516 -0.33523276 -1.2283137 0.12729403
0.6748029 -0.77104014 -0.34747484 -0.224995 0.031697575 -0.38585782 0.22612445 -0.4947757
-0.2840884 -0.2606052 1.0099052 0.0148889525 0.32395273 -0.10641285 0.2743395 0.9534998
0.5404698 0.3086645 1.9823234 0.62917733 -0.27630466 -0.29934055 -0.38017532 -1.850403
0.2365249 0.30567077 0.3161176 0.23211451 0.18236892 0.09814099 -0.24432443 0.4796599
-0.07654693 -0.055427838 0.14804266 -0.39769664 0.86617446 -0.03285368 0.4804964 0.15441883
0.8029151 0.19795413 -0.061850987 0.25278425 -0.005920589 0.75576353 -0.49486455 -0.20910606
-0.21778233 0.3282021 -0.29510847 -0.14315112 0.062164806 0.3801794 -0.1966613 1.5065417
-0.437825 -0.20468464 0.037323575 -0.25996932 -0.4190376 0.66130155 -0.19385184 0.123093806
0.95939285 0.07339058 -0.14052281 0.006680076 -1.3702971 -0.24282677 0.1712616 -0.184677
0.49621135 0.17696843 0.09068708 -0.29701188 0.3360374 0.64605856 0.01668294 -1.2265444
0.059207886 0.68745464 -0.60065854 0.24306317 -0.21825829 -0.010465092 0.47709218 -0.21703964
-0.3820012 -0.7205122 0.09974649 1.5782096 -0.37292537 0.010455035 -0.70472074 0.9635158
-0.7068973 0.5392777 0.40884912 -0.27003253 0.041931275 -0.20828806 -0.15094024 -0.26612625
-0.117244974 0.4243705 0.44130257 0.72678715 0.9169959 0.25720164 0.24912642 -0.41925696
0.6424022 -0.5538661 -0.23446529 -0.26437223 0.12243358 0.29718596 1.2341318 -0.36279824
-0.20730315 0.24357298 0.055086 0.049051896 -0.06862356 -0.18766226 0.21547303 1.1066571
0.16573675 1.5670352 -0.6597087 0.2503243 0.42629325 0.9240062 -0.36252788 -0.36566675
-0.33896416 -0.122127056 0.15156128 -0.7999896 -0.26795205 -0.43543968 0.7381384 -0.046594806
0.627545 -0.6510666 -0.22478402 -0.22717655 0.15155745 -0.18706495 -0.50686055 0.4184102
-0.09730549 0.21570557 -0.092678264 -0.14323083 0.16218573 0.18515173 -0.3784669 0.08527559
-0.31748617 0.7685476 0.6610702 0.7565869 0.3188708 0.2676271 0.11699664 -0.22288851
0.31909114 0.13013157 -0.05265486 -1.0017749 0.477043 0.114091374 0.2041722 -0.5868609
-0.8035234 -0.04302179 -0.31348777 -0.35267267 -0.43364906 0.6535898 0.036876444 -0.47546318
-1.1276976 -0.14137231 -0.030558297 -0.38889366 -0.0017637147 0.72708786 -0.9867573 0.37622598
0.4510759 0.2083122 -0.3036611 -0.33653793 0.3762593 -0.45213127 -0.10687049 -0.15062103
0.34515265 -0.0026456336 0.14252925 -0.14298972 0.06044174 0.37460712 -0.3556996 0.105359174
1.3218473 0.26928297 -0.23723537 -0.36095586 -0.09553964 0.3481914 -0.66096544 0.30679414
0.9612648 -0.25931484 -0.18810225 0.12282157 -0.24808897 -0.08163197 -0.25129902 0.48699692
-0.28093386 -0.45983657 0.5576019 0.053154156 -0.74612194 -0.06909901 -0.11247184 -0.48197055
-0.9426155 -0.1824263 -0.34900305 -0.02126997 -0.29295653 -0.47574216 0.31389526 -0.006009422

bias f4 [32]
00000000: 17b0 f63e 3b53 843e a2fd 043e 67c5 9bbd
00000010: 94b2 823e 3ad7 7b3e b8d2 81be af52 c4bd
00000020: 5936 53be 74b9 513e be2a a73e f0c5 763d
00000030: 6436 98be e026 813e 32af a93e a43e b83e
00000040: 7e1c c83e 1018 57be bc15 b43d 6661 90bd
00000050: f540 0a3f 3acd 723e 516f f83d b4a7 76bd
00000060: 74dc 0b3e 390d 2c3f d82c 5c3e 0d73 55be
00000070: 7ce8 9f3d 7776 853e 218f 70be bd3a 9c3d
0.4818122 0.2584475 0.12987378 -0.07606011 0.2552687 0.24593821 -0.25356078 -0.09586083
-0.206262 0.20480901 0.32649797 0.06024736 -0.29728997 0.25224972 0.33141476 0.3598529
0.39084238 -0.21005273 0.08793208 -0.07049827 0.54005367 0.237111 0.12130607 -0.060218528
0.13658315 0.67207676 0.21501482 -0.2084467 0.07808015 0.26066944 -0.234921 0.07628391

weight f4 [32, 32, 3, 3]
00000000: ee02 d23e 3071 383e cde7 e73e a398 a63e
00000010: 19b1 d1be b053 30bf 6eac 263e 6a73 0dbe
00000020: c953 82be 681e b4be b649 363d 8ecd cabe
00000030: 802b a0be fd19 c6be a116 543f c027 653e
00000040: 72c1 9d3e ed4c 6c3d 2b38 6ebe fbf6 1fbf
00000050: eec0 cb3d e2de e33e 3c86 363f 56a0 143f
00000060: 5eca 383d 3be1 32be 5a71 163f b8c2 88be
00000070: 8bd1 833e 6083 8b3e 13cb 01be ce4d f7bd
00000080: 228b ab3f 1e0b ba3e 2e19 59bf 0ffd 20be
00000090: f9d8 2f3e b389 14bf 3902 ad3e 8b2e 973e
000000a0: 2e0a 0e3f 7796 073f 2377 643e 4295 9abe
000000b0: 34d8 3f3e 9585 08be e79f d5be a79c 25bd
000000c0: 412e fcbe 7e99 543f 9683 973f dd7f 97bd
000000d0: 4b0f 33bd 5fdb c73e 32ff e9be 2d6d 09be
000000e0: 4ed1 2c3e 096c ca3e 918f cd3d d4d2 5f3f
000000f0: f1c0 7c3e 44e2 44bf cf9e 713f 252e 97be
00000100: adbe acbe ebf4 433e a945 923e 2256 263f
00000110: ca1c 573f db00 a53d 1558 bbbe 748e 083f
00000120: 91fb 913e 61be 183f 7e06 f53e 6208 2d3d
00000130: fd97 70bf 78f9 febd ee26 f0be 27a1 cebd
00000140: 13b9 56be f3de 35bf db17 9dbe c45e 273e
00000150: 4d83 81be 371a 9ebd 71c3 a53f f3f9 3a3e
00000160: 4739 fdbc d6ce 493e 444a a7bd c01a 1c3f
00000170: 6162 8c3e 4afc 2ebe 30c4 f6be c9bf 003d
00000180: f00b b6be 4ca9 013e 728a 2f3d 3f9b 9b3e
00000190: 80e8 00bf 786b 4a3d 5c54 e83d f4b6 cc3e
000001a0: 1ddd 5a3f 8df7 e23e 9385 fbbe 4da3 3bbe
000001b0: cc55 7dbe 4a64 94bd 6362 f53d b388 bdbd
000001c0: d0be 26bf 396f a63f 6ef7 e43e e26a 283e
000001d0: 5327 9e3e 47e1 bfbe 2678 24bf d12a a03e
000001e0: 7018 f6be ad3e 4bbc b6d8 9d3f fa11 a83e
000001f0: 222c f8bd 7e6a 96be 2726 d9bd 56db db3e
00000200: 81bd 1e3e 1cba e2be 9229 1bbf 8ebb 46bc
00000210: 044b a6be 7af4 f33d e8ba b53c d5f9 b23d
00000220: 1926 fd3e cf26 003f 6380 063f 54d6 92be
00000230: 51a1 9dbf 1949 fcbd bd07 5dbd 7ecf bbbe
00000240: cbfb c1be fb64 14be 8502 7fbe 26b0 18be
00000250: 97c0 d13d ad90 2b3f 0a98 6c3e 8ba6 16bf
00000260: 7ef5 fa3e db0b 893d e4a4 c93e 0910 e13e
00000270: 39ab 9dbe 0f5b 61bf 78b2 1b3f 10f7 913e
00000280: 857d 163f 23a3 95be 97e3 0cbe c6f9 f7be
00000290: 194c a83e 1c1d e73e f8dd 1c3f e4dd 2e3f
000002a0: 6b9f 1e3e 1e81 11bf c88f 673f c10b d2be
000002b0: e37c 243f b662 153f f18d 69be 9ec3 84bf
000002c0: cc6b 0b3e 4391 6abe 8b2c c43e 8547 6dbd
000002d0: 6422 eb3e a207 ae3e f41f f03e 676c c73e
000002e0: 32d0 2abf 6de5 52bf 1e5d 8bb9 f1c4 27bd
000002f0: cc2d 4bbe 6d9e 26be 4525 08bf 6137 273f
00000300: 1675 a5be 22e8 533f f39a 753f 8094 0d3e
00000310: 7eb4 04be b0e7 4a3e 1cf8 58be 4652 bfbe
00000320: bcd4 df3d 66f3 fcbe a59a 573f ebfa c23f
00000330: 6f31 dabd c6b2 133c c165 503e f9a0 fe3a
00000340: c481 a8be 916d 5dbc 870d d3bd 5f63 533f
00000350: 0e77 133f b19a 093e cae3 4e3e 74de dbbd
00000360: 289e 91be 66df 2d3e 5cf4 7b3f f107 febe
00000370: 38e7 9bbe 3aff ac3f 3a3d 29be 3ed2 debe
00000380: c5ba e23e 72d6 77be e3b9 0ebf 31e2 f63e
00000390: 66e9 793e bd1b 843f 9c80 053f 257b 69bd
000003a0: af54 afbe 3d64 97be abc5 26be fc03 e2be
000003b0: 43cd 863e 528c b4be b08a 2f3f 52f6 ab3f
000003c0: f9d6 fdbd 5b9e 81be ff2a 363f 094b ed3e
000003d0: 0ad9 3b3f 38a3 2b3e 0a4a b43d c5f8 4cbf
000003e0: 942b b8bd a1fc 40be d38f f83d e55e 18bf
000003f0: 68dd a2be 9fa5 92be e0b2 5b3e 29da 32bf
0.4101786 0.18011928 0.45294037 0.32538328 -0.40955427 -0.68877697 0.16276714 -0.13813558
-0.25454548 -0.35179448 0.04450389 -0.3960995 -0.31283188 -0.38691702 0.8284703 0.22378445
0.3081165 0.05769055 -0.23263614 -0.6248624 0.09948908 0.44505984 0.71298575 0.58057153
0.045114867 -0.17468731 0.5876671 -0.2671106 0.25745806 0.2724867 -0.12675123 -0.12075387
1.3401835 0.36336607 -0.84804046 -0.15721534 0.17172612 -0.5802261 0.33790758 0.29527697
0.5548428 0.52963966 0.22311072 -0.30192 0.18734819 -0.13332208 -0.41723558 -0.0404326
-0.4925404 0.8304671 1.1837032 -0.07397435 -0.043715756 0.39034554 -0.4570251 -0.13420554
0.16876718 0.3953555 0.10037149 0.87431073 0.24682976 -0.76907754 0.9438295 -0.29527393
-0.33739224 0.19136398 0.2856877 0.6497518 0.84028304 0.08056804 -0.3659064 0.53342366
0.28512242 0.59665495 0.47856516 0.042244323 -0.93981916 -0.12449926 -0.469047 -0.10089331
-0.20969038 -0.7104332 -0.30682263 0.16344744 -0.25295487 -0.07719844 1.2950269 0.1825941
-0.030911101 0.19707808 -0.08168462 0.6097832 0.27418807 -0.17088428 -0.48196554 0.0314329
-0.35555983 0.12662238 0.04285664 0.3039188 -0.50354767 0.049418896 0.11344215 0.39983332
0.8549364 0.4432949 -0.49125347 -0.18324013 -0.2473976 -0.07245691 0.119816564 -0.09254589
-0.65134907 1.3002692 0.44720024 0.16447023 0.30889377 -0.3747656 -0.6424583 0.31282666
-0.4806552 -0.01240508 1.233176 0.32826215 -0.12117793 -0.29378122 -0.1060298 0.42940778
0.15501978 -0.44282615 -0.60610306 -0.012129677 -0.32479107 0.119118646 0.02218385 0.08739058
0.4944313 0.5005922 0.5253965 -0.28679144 -1.2314855 -0.1231863 -0.053962458 -0.3668174
-0.37887415 -0.14491646 -0.24903305 -0.14910945 0.10241812 0.6701763 0.23104873 -0.58847874
0.4901542 0.066917144 0.39383614 0.43957546 -0.30794695 -0.8802957 0.60819197 0.28508806
0.5878528 -0.29226026 -0.13758694 -0.4843275 0.32870558 0.45139396 0.612762 0.6830733
0.154905 -0.5683764 0.9045377 -0.41024593 0.6425306 0.58353746 -0.22808053 -1.0372198
0.1361534 -0.22906975 0.38315234 -0.057929534 0.45924675 0.33990198 0.46899378 0.38949892
-0.6672393 -0.82381326 -0.00026581524 -0.040959302 -0.19841689 -0.16271372 -0.5318187 0.65318877
-0.32315892 0.8277608 0.9593956 0.1382618 -0.12959477 0.19814944 -0.21188396 -0.37367457
0.10929248 -0.49404448 0.84220344 1.5232824 -0.1065396 0.009014791 0.20351316 0.0019426636
-0.32911503 -0.013514892 -0.103053145 0.82573503 0.5760354 0.13437916 0.20204082 -0.10735789
-0.28440976 0.16979751 0.9841974 -0.49615434 -0.30449843 1.3515389 -0.16527262 -0.43519777
0.4428312 -0.24202898 -0.5575239 0.48219445 0.2440544 1.0320965 0.5214937 -0.057002205
-0.34244296 -0.29568663 -0.16286342 -0.44143665 0.26328477 -0.35263306 0.68570995 1.3434546
-0.123945184 -0.25316128 0.71159357 0.4634631 0.7337805 0.16761482 0.08803184 -0.8006709
-0.08992687 -0.1884637 0.12136807 -0.595198 -0.31809545 -0.28641984 0.21454954 -0.69864136

bias f4 [32]
00000000: 12f7 963d 1ede ebbe e812 5bbe e59e b4be
00000010: 2803 67be f5fc 92bd a72a 8bbe 9bff 29be
00000020: 09c2 bebd 82a6 bbbd 5ef8 9abd 2027 47be
00000030: 23da 72be 2952 54be 1dc3 b3bd 9b59 b3bd
00000040: ddea 2ebe 5268 9fbe f719 d7bd 197b 0ebe
00000050: bcde 7bbc 7470 c5bd 8fe9 82be 1c6d 83be
00000060: ddec 7dbe ed00 34be 2a6a 3bbe 0def 51be
00000070: 84d5 21be fd2b 6fbe 1b81 913c 5b69 4bbe
0.07371344 -0.460679 -0.21393931 -0.35277477 -0.22559798 -0.07177154 -0.2718098 -0.16601412
-0.09314353 -0.09162618 -0.075669035 -0.19448519 -0.23716025 -0.20734467 -0.08777449 -0.08757325
-0.1708178 -0.31134278 -0.10502999 -0.13914146 -0.015372928 -0.09640589 -0.25568816 -0.2566918
-0.24797387 -0.17578478 -0.18302217 -0.20501347 -0.15804106 -0.23356624 0.017761758 -0.19864409

weight f4 [32, 32, 3, 3]
00000000: 3949 3abe e67e 303e 6129 25be 2f2b 693e
00000010: 00fe c53e 1cb6 b1bb c7dd 97bd 7fd9 c6bc
00000020: 1158 80be 1571 dbbe 82fe a0bc b7ff 123e
00000030: 10e5 28bf e63d 43be e9a3 873d 67fc 39bf
00000040: a5e4 c5be e517 423d 3c7f 883d d5ff cebc
00000050: 0d2a 86be 99b9 053f 271a 6e3e 7066 97be
00000060: 7875 243f 8a54 483e d7bf 3c3c b837 593e
00000070: 3b32 1e3a 499e 60be d282 0a3f c43c 293e
00000080: f38c 93be 95f1 173f a0e5 5f3e a3c2 f63c
00000090: 9564 61be 5880 7e3e 9724 b73e 3102 bbbe
000000a0: ffab 64bd 5518 853e 3145 9abe 755a 61be
000000b0: 1d7c 7c3e c39f adbe f8eb 63bc 48ef 6e3e
000000c0: b8e9 21bf a6ec 4ebe 2b4e 9f3e 2236 04bf
000000d0: 719a 5dbe 6b20 ee3d 004c d8be 4102 e3bd
000000e0: 09af f43d dea4 fdbe ad04 8bbe 0a0c ab3e
000000f0: e288 1dbf 61d5 bdbe 91b0 d93d 20d1 1abf
00000100: d278 0abe 8985 25be 2174 96bf 06ac 26bf
00000110: 3233 023e c750 b83e d2fb 4ebe a9fd 2a3f
00000120: 0631 82bf 83e4 16be 8b77 663c a9cf cdbc
00000130: 4939 91be 05b5 1fbd 3080 1fbd 5a2f 3b3f
00000140: 40d5 993e aa3f 923e 124a 75be 1f38 b2be
00000150: 3198 583f fed5 693e 49a1 89be a0da 643f
00000160: 06af bc3e c1ff 483d 2321 c03d f4dd fabc
00000170: 9e8c 70be 40ae 753f ab14 683e f198 8fbd
00000180: 95ff dc3e 896f 7c3e 9c07 b0bd 405f 93be
00000190: 99f2 91be 4cdd 953e 6e84 8c3d 793c 12bf
000001a0: 5c56 8c3d d405 4ebf f365 10bf 5d36 afbd
000001b0: ac9b f1be c36b 113d 11a5 503e 7a22 0dbf
000001c0: e4c1 41be 80e4 993e 86ae f2be c70e 67be
000001d0: cd95 3f3e 6831 723e 3e8c cbbd d521 6abe
000001e0: 4379 f739 0cb0 54be 909b d6bd fa91 5e3e
000001f0: 07ba f93c d0f5 313e 9e98 dabe 7e0e 39be
00000200: b7ba 843e d20b 3abf 967a 81be 5246 783e
00000210: 7955 06bf e6fe da3c 028c a63d f876 a13e
00000220: 5dd4 233d 61d5 6bbe 838c bc3e fdb9 a83e
00000230: 03f3 bcbe aaf1 eb3e bd29 7c3e 9531 ccbd
00000240: ed1e b6be e96f 8cbd 6483 c5bd ab3f a9bf
00000250: 3207 0cbf b5ac e8be 9cae 96bf 9a06 3abf
00000260: b916 47bf 386f 8cbe 6443 473e 5f1d 963e
00000270: b3f4 53bf b768 34be 4be7 3a3e 693b e9be
00000280: 584e ccbe d95f 673d 7df9 32be abfe cc3e
00000290: 0f75 903d d3bd 29bf e88e c43d 23b8 9f3e
000002a0: a0d6 d2be 6231 94be c2ec 84bd 3ce3 f63e
000002b0: e30a 93bd 40d5 0ebd 9d59 913f eae8 303e
000002c0: 4a6b a0be 34e5 303f d637 debc c79c 423e
000002d0: 22c5 b73e 6a08 da3c d958 2fbe 88c9 283f
000002e0: f3e6 9d3e e71e 78be 98b0 4b3f 6769 873e
000002f0: d2c7 033e ef00 f6be b04b 1bbe 8242 8b3e
00000300: 512e 5ebf 324e 3cbe 95b6 653e ab0f 38bf
00000310: 9929 6cbe 9471 263e d049 c33e 4265 2a3d
00000320: 7514 72be ca0c 7b3f 6b4b db3e 4956 b6bd
00000330: e109 213f 2524 d33e f47b a63d 7295 f2be
00000340: 315a 0fbe 89b6 763d 9d3b 50bf 4ce0 82be
00000350: eadb a43d 2e36 57bf efd8 a8be 0695 e1bd
00000360: 4b22 9c3e 5af5 85bd b090 183e 7c77 3cbf
00000370: 04d7 6fbe dec9 683e bf50 f0be bd7b 03bf
00000380: d256 9abe b133 a3be 770c dcbd ba46 f13e
00000390: 2dfb 3cbf 636e 69be d667 d13e e57f 53bf
000003a0: 568f a1be 95ac 703e dbbd b43f 6887 b53e
000003b0: 395a cf3e 6167 d83f 4d68 123f ca3f 853e
000003c0: 3a9c d83f ae9a 2d3f 5d58 ed3e 1f6f 1abf
000003d0: c72e 84be 2831 003e 4f0d 84bf f975 d8be
000003e0: 6243 173e 2b2a 18bf 2635 04bf 9b99 383e
000003f0: 6c1a 3a3f aeed af3d 5ce0 f2bb 202a 253f
-0.18191995 0.17235908 -0.16129066 0.2277038 0.3867035 -0.0054233205 -0.074153475 -0.024273632
-0.2506719 -0.42859712 -0.019652609 0.1435536 -0.6597452 -0.19066581 0.0662306 -0.7265076
-0.38651004 0.04738607 0.06664893 -0.025268475 -0.26203957 0.52236325 0.23252164 -0.2957034
0.64241743 0.19563499 0.011520348 0.21212661 0.00060347066 -0.21935381 0.54105866 0.16527086
-0.28818473 0.59353 0.21864939 0.030122107 -0.22011025 0.24853647 0.35770103 -0.3652511
-0.05582809 0.25995126 -0.30130914 -0.22007163 0.2465672 -0.3391095 -0.01391124 0.23333466
-0.6324725 -0.20207462 0.31114325 -0.516451 -0.21640946 0.11627277 -0.42245483 -0.11084414
0.11947448 -0.49539846 -0.27152005 0.33407623 -0.6153699 -0.37076858 0.106293805 -0.6047535
-0.13522652 -0.16164221 -1.175419 -0.65106237 0.12714842 0.35999128 -0.2021325 0.66793305
-1.0171211 -0.14735608 0.014066587 -0.025123434 -0.28364018 -0.038990993 -0.03894061 0.7311913
0.3004551 0.28564197 -0.23954037 -0.34808442 0.84607226 0.22835538 -0.26880863 0.89396095
0.36852282 0.04907203 0.0938132 -0.030623414 -0.23491141 0.9596901 0.22664134 -0.07011593
0.43163744 0.24651922 -0.085952014 -0.28783607 -0.285054 0.292704 0.068611965 -0.57123524
0.06852409 -0.80477643 -0.5640556 -0.08555291 -0.4718908 0.03550316 0.20375468 -0.5513073
-0.1892162 0.30057144 -0.47398776 -0.22564231 0.18709488 0.2365166 -0.099388584 -0.22864468
0.00047201858 -0.20770282 -0.1047889 0.21735373 0.030484213 0.17378926 -0.42694563 -0.18071935
0.25923702 -0.72674286 -0.25288838 0.24245575 -0.5247417 0.026732873 0.08132173 0.31536078
0.039997447 -0.23030616 0.36825952 0.32954398 -0.36904153 0.46082813 0.24625297 -0.099703945
-0.3557047 -0.06857283 -0.096442014 -1.3222555 -0.5469848 -0.45444265 -1.1772037 -0.72666323
-0.7776905 -0.27428603 0.19459301 0.29319283 -0.82795256 -0.1761807 0.18252294 -0.4555314
-0.39903522 0.05648789 -0.17477985 0.40038046 0.07053577 -0.66305274 0.0959757 0.31195173
-0.4117937 -0.28943926 -0.064904705 0.4822024 -0.07179811 -0.03487134 1.1355473 0.1727635
-0.31331855 0.69099736 -0.027126234 0.19005118 0.35892588 0.02661534 -0.17123736 0.6593251
0.30840263 -0.24230538 0.79566336 0.26447603 0.12869194 -0.48047587 -0.15165591 0.2719918
-0.86789423 -0.18389204 0.22432931 -0.7189891 -0.23062743 0.16254264 0.38142252 0.041600473
-0.23640616 0.9806639 0.42830977 -0.08903176 0.629057 0.41238514 0.08129111 -0.47379643
-0.13999249 0.060232673 -0.8134096 -0.2556175 0.08049758 -0.84067047 -0.32978007 -0.11014752
0.30494913 -0.06540938 0.14898944 -0.7361982 -0.23421866 0.22733256 -0.46936604 -0.51360685
-0.30144364 -0.31875375 -0.10744565 0.47124273 -0.73820764 -0.22796015 0.40899533 -0.82617027
-0.3155467 0.23503335 1.4120439 0.3545487 0.40498522 1.6906549 0.571904 0.2602523
1.6922677 0.6781415 0.46356478 -0.6032581 -0.25816938 0.12518752 -1.0316561 -0.42277506
0.14771798 -0.59439343 -0.516436 0.18027346 0.72696567 0.08590256 -0.0074119996 0.645174

bias f4 [32]
00000000: 96fa 7c3e 0084 86be f182 0b3e fe89 573e
00000010: 7b6f 49be 4586 76be b224 53be 5bab 4ebe
00000020: ee4d dcbe 2af9 373e 52ed 413e 472a 89be
00000030: 83bc 80be ba27 57be 1176 65be b4bc 483e
00000040: 1159 c9be 1d3b 40be 7d1b 5bbe cfc1 b53e
00000050: d640 9c3e ab7e 46be 9267 973e e7b4 9ebe
00000060: 1172 86be 271f 6dbe 5544 e43e 7927 84be
00000070: 64df 9c3e a9b0 47be 46ff 2bbe a78e a33e
0.24704966 -0.26272583 0.13624169 0.21048734 -0.19671433 -0.24074657 -0.20619467 -0.20182554
-0.43028206 0.17966142 0.18938187 -0.26790068 -0.25143823 -0.21011248 -0.2240832 0.19603235
-0.39325765 -0.1877255 -0.21397205 0.35499427 0.30518216 -0.19384257 0.29571205 -0.30997393
-0.262589 -0.23156415 0.44583383 -0.25811365 0.30639184 -0.19500984 -0.16796598 0.31944773
