nonhierdiscriminate/models/proto42.pth (torch_old, 209774 bytes, 18 tensors)

weight f4 [32, 1, 3, 3]
000000 69 51 ee 3f 82 52 46 3f 8f 7f 92 3f f7 19 19 40
       1.8618594 0.77469647 1.1445178 2.3922098
000010 dd 47 a9 3f de 6f 29 40 ae 1a d6 3f 03 1d 0e 40
       1.3225056 2.6474528 1.6726892 2.2205207
000020 61 28 20 40 e6 68 ec 3c f5 90 f9 3e 48 6d 77 3f
       2.5024645 0.028858613 0.48743406 0.96651125
000030 b4 12 65 3f 4c 94 83 3f 85 0d e0 3f c4 77 74 3f
       0.89481664 1.0279632 1.7504126 0.9549525
000040 8d 80 db 3f ef d3 83 3f ef ea 46 3e da 78 ee 3e
       1.7148606 1.0299052 0.19425558 0.46576577
000050 31 d4 a0 bd e5 7e 43 bf 28 5c 31 bf b2 72 03 bf
       -0.07852972 -0.763655 -0.69281244 -0.51346886
000060 67 3d a6 bf 26 31 28 bf 66 e1 d9 be 18 75 13 bf
       -1.2987489 -0.65699995 -0.42554778 -0.57600546
000070 4b 00 a4 bf 27 8e bb bf ff 5f 7c 3e c9 45 6a bf
       -1.281259 -1.4652756 0.24645995 -0.91512734
000080 bd 35 4a bd 63 8b 33 3f a8 1f 03 3f 6c de 5e 3f
       -0.049367655 0.7013456 0.5122018 0.8705814
000090 fb fa b5 3e df 1a 43 3f 2a 6d 71 3f c1 52 ef 3e
       0.35543045 0.7621288 0.94307196 0.46742824
0000a0 fe 4f 9a 3f 4a e7 a0 3f 7d 1b 82 3f fa 25 00 40
       1.2055662 1.2570584 1.0164639 2.002318
0000b0 64 5f a3 3f ef ef 15 3f 46 c3 6b 3f ef f8 ba 3e
       1.2763486 0.58569235 0.9209484 0.36518046
0000c0 ac 58 87 be 38 4e 3d bf 93 2b 7a bf 03 0c 99 bf
       -0.2643484 -0.7394748 -0.9772274 -1.1956791
0000d0 6c 9a 82 bf 5b 2d 48 be d8 6a d9 3e 42 4f 26 3f
       -1.0203376 -0.19548552 0.42464328 0.6496469
0000e0 6a 65 9c 3e 23 94 fe 3e f4 3d 3e 3f c0 bf 89 be
       0.30546123 0.49722394 0.7431328 -0.26904106
0000f0 fb 2b f9 3d 2d 4f cc be 0a b9 b4 be 55 3a 93 bf
       0.12166592 -0.39904156 -0.35297424 -1.1502177
000100 b6 13 ba bf 06 43 a1 bf 76 56 00 be bf e9 3d bf
       -1.4537265 -1.2598579 -0.12532982 -0.74184793
000110 dc 6f ab be af 52 00 3f b0 5d 9c 3f 97 fa 8a 3f
       -0.3348378 0.50126165 1.2216091 1.0857724
000120 e4 11 62 3e ce 7f 35 bf 1f 7d 86 bf 42 33 15 bf
       0.22077137 -0.7089814 -1.0506934 -0.5828134
000130 07 7f 80 bf e1 8b ed be 63 e6 31 3f c1 4c 54 3f
       -1.0038766 -0.46395782 0.6949217 0.8292962
000140 70 08 b7 3e d7 b4 8d be 60 12 b2 3d be 6d 50 3d
       0.35748625 -0.27677032 0.08694911 0.05088591
000150 dc 96 19 bf 3f 45 4d bf 90 a2 7b 3e 42 71 5b bf
       -0.5999582 -0.80183786 0.24573731 -0.8571969
000160 e2 28 66 be fc 5f 16 3f ef 8d 49 3f 69 9d 76 3e
       -0.22476533 0.5874021 0.787322 0.24083485
000170 ef 4c 47 3d a9 f0 a7 3e 8f 51 86 bf 9c 4f 8d bf
       0.048657354 0.32800797 -1.049364 -1.103992
000180 04 82 b1 3e 09 88 18 bf 4b 5e 19 bf 44 55 c5 be
       0.34669507 -0.59582573 -0.59909505 -0.38541615
000190 fc 62 bb 3e 25 62 8c bd 44 fe a4 bf cf 89 51 bf
       0.36598957 -0.06854657 -1.2890096 -0.81850904
0001a0 55 5e 9d bf 2a 67 ee bf d3 70 b9 bf c2 e0 82 bf
       -1.2294413 -1.8625233 -1.4487556 -1.0224841
0001b0 fb b1 b8 3d 78 fb b0 3e fb 8f 50 3f b2 22 07 bf
       0.09018322 0.34566855 0.81469697 -0.52787316
0001c0 b3 3c b5 be c6 c8 23 bf fb 54 6c bf d4 3f fb be
       -0.35397872 -0.6397823 -0.9231717 -0.49072134
0001d0 1f 32 14 be db 81 4f bf f7 b3 7a be 3e 9a 9f bf
       -0.14472245 -0.8105752 -0.24482714 -1.2468946
0001e0 c1 13 8c bf 05 ba 8d bf be 06 cb bf 61 c2 bb bf
       -1.0943528 -1.1072394 -1.5861433 -1.4668695
0001f0 79 0e 9e bf a5 ac 7a bf 27 6a b0 be 02 c1 af be
       -1.2348167 -0.97919685 -0.34455988 -0.3432694
000200 11 50 52 3f fb 00 86 bf df ba cf be 50 87 ad 3e
       0.8215342 -1.0469049 -0.4057226 0.33892298
000210 7a 32 65 bf af ba 1b 3e cb 8a 9b 3e e3 71 32 bf
       -0.89530146 0.15207933 0.30379328 -0.6970503
000220 d4 af 7f bf 30 4d d4 bf 9d e8 4f bf bd 30 93 bf
       -0.9987767 -1.6586056 -0.81214315 -1.1499249
000230 1a 80 4d bf 3b 51 3b bf 12 e1 34 3e 04 5d 1e bd
       -0.8027359 -0.7317082 0.17663983 -0.038662925
000240 1e 7d f4 3e b5 5e 1a 3f bc fa e4 3e 22 02 a3 3f
       0.47751707 0.6030076 0.44722545 1.2735026
000250 31 b3 bb 3f ee 50 e4 3d 5e a9 8e 3f e6 ae 2a 3f
       1.466406 0.111482486 1.1145437 0.66673124
000260 4c 73 0d be 07 eb 7d bf 79 d6 0c bf b9 81 65 bf
       -0.13813514 -0.9918675 -0.5501476 -0.89651066
000270 01 7f ba 3e 61 02 bf 3e 18 b6 e9 3e ec e7 2e 3f
       0.3642502 0.37306502 0.4564674 0.68322635
000280 24 76 d9 3f 0f 91 62 3f 51 95 81 3e c7 fc 88 be
       1.6989179 0.8850259 0.25309232 -0.26755354
000290 3b e7 d2 3e 5c c0 0e bf f8 f4 60 bf b4 e9 52 3e
       0.4119204 -0.5576227 -0.8787379 0.20596963
0002a0 4a 49 ab be a7 dd e6 be a2 e2 59 bb 69 43 a3 3e
       -0.33454353 -0.45090982 -0.0033246656 0.31887367
0002b0 29 aa 0f 3f 6f e4 76 bd 28 9c fa be 70 75 3a bf
       0.5611902 -0.060276445 -0.48947263 -0.72835445
0002c0 2a bf 82 bf a2 28 3c 3e f4 37 de 3d be a8 21 bf
       -1.0214589 0.18374875 0.10850516 -0.63148105
0002d0 48 91 50 3f 63 a4 2c 3f 27 4d 75 3f 46 f2 74 3f
       0.8147168 0.67438334 0.9582085 0.9568218
0002e0 e3 52 be 3f 9e ef ac 3f ba 36 95 3f ed b3 8c 3f
       1.4869045 1.3510625 1.1657326 1.0992409
0002f0 2a d7 07 3f c8 40 0f bf f9 e8 23 bf 40 29 03 bf
       0.5306269 -0.55958223 -0.64027363 -0.5123482
000300 2f d5 1a 3f 85 bf 56 3f 7d 8c c8 3e 3c 9d 3e 3f
       0.6048154 0.83885986 0.39169684 0.7445867
000310 d4 cf 43 3f 09 fa 28 3e 35 4e 6a 3f cd 7f 2f 3f
       0.76488996 0.16501631 0.91525584 0.68554384
000320 42 ca 97 bd b1 b3 8b bc 15 31 0f be 40 29 ba be
       -0.074116245 -0.017053457 -0.13983567 -0.36359596
000330 c6 e2 08 bf 82 ea 8e bf c5 bb 70 bf 33 db 35 bf
       -0.5347103 -1.1165316 -0.94036514 -0.71037596
000340 1d 3f 47 bf c0 94 59 be 5b e2 c8 be ed 31 2c bf
       -0.7783068 -0.2124815 -0.39235196 -0.6726368
000350 0d 85 09 bf e2 42 67 bc 60 26 a3 3e 29 47 6d 3f
       -0.53718644 -0.014115067 0.31865215 0.92686707
000360 77 20 81 3f 59 c5 4a 3f ec b3 49 3f 04 d4 a0 be
       1.0088032 0.7920738 0.78790164 -0.31411755
000370 03 86 0f bf 68 3e d1 3d 3d 70 ab bf 07 ba 95 bf
       -0.5606386 0.10216981 -1.3393627 -1.1697396
000380 fb fa 53 bf a7 0d fd 3f f8 f3 b2 3f b3 33 e3 3f
       -0.8280484 1.9769791 1.3980703 1.7750152
000390 12 11 eb 3f cf ac ad 3f a1 5c 0c 40 6e c0 1e 40
       1.8364584 1.3568362 2.1931536 2.480495
0003a0 8a f5 1c 40 be 5f 12 40 5e 50 47 3f 10 6e c3 3e
       2.4524865 2.2870936 0.77857006 0.3816991
0003b0 19 a4 59 3d b3 9a e7 be 65 63 82 bf b4 45 6d bf
       0.05313501 -0.45235214 -1.0186583 -0.92684484
0003c0 6c b8 8b 3c 74 ab 02 bf 7c 4a a5 be 07 50 a2 bf
       0.017055713 -0.51042867 -0.3228339 -1.2680672
0003d0 8b 3f eb be 67 b2 b1 bf 1d f7 c4 bf a1 ed 98 bf
       -0.45946917 -1.3882569 -1.5387913 -1.1947519
0003e0 c3 9d f3 bf f7 fa c4 ba 21 3d df bc b3 b7 fd be
       -1.903252 -0.0015028407 -0.027250828 -0.49554214
0003f0 dd 2b ad bf 52 7a de bf 39 18 76 bf a8 10 46 bf
       -1.3529011 -1.7381079 -0.9613071 -0.77369165

bias f4 [32]
000000 1b 53 eb 3d 1f 20 80 be 7e c2 5e 3e 72 ae 55 3f
       0.114904605 -0.25024506 0.2175388 0.8346931
000010 ef 27 dc be ce ea 52 3d b8 fc 42 bd bb 17 1f 3f
       -0.42999217 0.05149346 -0.047604293 0.62145585
000020 55 61 ac 3e 3c 64 19 3f 8e a7 3f 3f 5f ce 6a 3e
       0.33668008 0.5991857 0.74865043 0.22930287
000030 a2 cf b6 3e b9 d4 83 3e e5 6e df 3e c1 e4 31 3e
       0.35705286 0.25748232 0.43639293 0.17372419
000040 cd 7e bc be 04 74 06 3d 66 8e d3 3e 6d a5 0a 3f
       -0.3681549 0.032825485 0.4131958 0.5415867
000050 b5 e3 8f be f9 61 f0 bd 02 c2 57 3f 31 13 6d 3f
       -0.28103414 -0.11737437 0.8428041 0.9260741
000060 3c 45 f4 3d a6 66 cc bb b4 75 75 3f 87 fd cb 3e
       0.11927268 -0.0062378226 0.95882726 0.39841864
000070 74 62 85 3f 64 89 6d 3f 5a 79 4d be 0f fc db 3e
       1.042067 0.92787766 -0.20065823 0.42965743

weight f4 [32, 32, 3, 3]
000000 b6 1e 85 3c 16 13 6b 3c b0 c2 1d be ce 69 65 3d
       0.016249996 0.014347812 -0.15406299 0.056009106
000010 73 af 3c 3d f4 7b ec bc ac 0f af bd 10 26 26 bd
       0.04606576 -0.0288677 -0.08547911 -0.040563643
000020 f2 b4 f9 bd d1 3c 0b bd 62 f2 c7 bc 3f fe 8f be
       -0.12192716 -0.033993546 -0.02440757 -0.28123662
000030 a1 74 e5 3c ff d6 5e 3d 7a 93 ec bc 55 53 9b bd
       0.028009715 0.054404255 -0.028878916 -0.07584254
000040 83 84 82 3b bb a4 bb bd f4 4c 8f bd bc d1 d6 3d
       0.003983082 -0.09162279 -0.069970995 0.104892224
000050 c6 63 db 3e 68 f1 55 be b9 df 4b be ef 10 54 3d
       0.4284956 -0.2089287 -0.19909562 0.05177396
000060 81 b0 53 bd a6 f1 ae bd 3f b0 b4 3d 78 88 29 bd
       -0.051682 -0.085421845 0.08822679 -0.041389912
000070 fe a0 b6 3e 5b 88 35 3f 95 dc e2 39 4c 37 cb 3d
       0.35669702 0.70911187 0.00043270426 0.099226564
000080 ba ca 56 3e 36 b7 af bb 4f 7b 82 bd 88 9a 95 39
       0.20975772 -0.0053624166 -0.063711755 0.0002853463
000090 30 5c df 3c 4b c1 46 bd 6e 68 aa be 43 49 de 3d
       0.027265638 -0.048524182 -0.332828 0.10853817
0000a0 5d 9c ba 3d 88 96 aa bd dd 10 b3 bd fc 50 15 3d
       0.09111855 -0.08329493 -0.08743451 0.036454186
0000b0 7a f6 a3 bd 64 d3 d8 3c 85 f6 3e 3e 8d bc ce 3e
       -0.08005996 0.026467986 0.18648727 0.40378228
0000c0 89 46 a0 be b4 ee e8 bd 4f ad 34 3e 6c 36 fa 3c
       -0.31303814 -0.11373654 0.17644237 0.030543528
0000d0 86 5c 81 bd e7 71 21 bd 48 d8 87 bd 89 27 34 be
       -0.063164756 -0.039415266 -0.06633049 -0.17593206
0000e0 47 f5 70 be 28 14 55 3d cb 89 03 3d 18 76 1b be
       -0.23531066 0.052021176 0.03211383 -0.15181768
0000f0 7a 4a 31 3d 30 ee 7d bd ba e3 4a bd ad 9b b5 bc
       0.043283917 -0.06199473 -0.049533583 -0.022168959
000100 b0 c0 b5 3e 27 07 35 3f 0b 21 1a be 53 7e b6 3c
       0.3549857 0.7071404 -0.15051667 0.022277033
000110 e1 f4 9a 3d 44 05 21 bd e6 13 41 bc 6b c1 09 bd
       0.07566238 -0.039311662 -0.011784529 -0.033631723
000120 20 e6 d3 3c 40 53 b9 3e cc e0 38 3f 4b 4a d9 bd
       0.025866568 0.36196327 0.7221801 -0.106098734
000130 0f 07 c1 bd 44 a5 1e 3e cf ab b5 bd 87 3d 5a bd
       -0.094251744 0.15492731 -0.088706605 -0.053281333
000140 f1 25 2c 3d 91 9a 69 bd 3c 92 96 3e 5b 09 bb 3e
       0.04202837 -0.05703217 0.29408443 0.36530575
000150 e5 a9 43 be c8 94 9f bd 5d 41 01 3c 25 a5 e9 bd
       -0.19107778 -0.0779205 0.007889119 -0.11408452
000160 c0 00 de bd 63 b7 41 bd 3a 61 1c 3e da 67 75 3e
       -0.10839987 -0.04729403 0.15271464 0.23965397
000170 46 50 10 3f fc 51 d9 bc 74 37 c1 3d 33 71 3f 3d
       0.5637249 -0.026528351 0.09434405 0.046738815
000180 dc e9 7d bd dc ab aa bc 86 79 b6 bd 22 6f fd bd
       -0.061990604 -0.020833902 -0.089098975 -0.123747125
000190 d5 92 cf bd 7a 44 d3 3e 00 da 5c be 5a 2d 8e be
       -0.10135428 0.4126318 -0.21567535 -0.27768975
0001a0 a7 28 01 3c 65 d7 be 3d 88 be 05 bd 4c 05 dd 3d
       0.007883227 0.09318427 -0.032652408 0.10792026
0001b0 c0 23 34 bd 97 c8 37 3e 7c a7 e1 3e 79 b7 28 be
       -0.043979406 0.17947613 0.44073093 -0.1647624
0001c0 6b 1f b3 bd 5a 6b b1 3d a8 0d 1d bd 18 4d 16 ba
       -0.08746227 0.08663054 -0.0383431 -0.0005733534
0001d0 3c 6e 1b bd db 28 5e be de a2 83 be 0a 0b 5c 3f
       -0.037946925 -0.21695273 -0.25710195 0.85954344
0001e0 71 25 4a be e8 28 be be 48 f9 9e bd 9c 6a f9 3b
       -0.19740845 -0.37140584 -0.077623904 0.007611586
0001f0 06 7f 0e be b2 45 a7 3d f8 d4 22 be 9c 51 ae 3e
       -0.13915643 0.0816759 -0.15901554 0.34046638
000200 f3 a7 d9 3e bd 5a 75 be e5 15 99 bc cd de c3 bc
       0.42510948 -0.23960395 -0.018687198 -0.02390995
000210 c8 45 28 be c2 fa 9f bd 04 9f 32 bd 30 fd 56 be
       -0.1643287 -0.078115 -0.04360868 -0.20995021
000220 0d da 6c bd 0c b4 6c 3f dc 86 f5 bd 8f e2 a1 be
       -0.057825137 0.9246223 -0.11988613 -0.31618163
000230 de 27 b4 3d 00 69 10 be 90 c7 7f be ba 9e 7d bc
       0.087966666 -0.14102554 -0.24978471 -0.015479738
000240 2f ed 8f 3c 27 88 04 be c5 ba ba be cf 96 28 3c
       0.017569153 -0.12942563 -0.3647062 0.010289862
000250 2e 8a 07 3e 54 2c a0 bc f9 f7 31 3d 89 68 b9 3d
       0.13236305 -0.019552387 0.043449376 0.090531416
000260 e3 44 cc bc d3 7a 06 be fc 75 12 be 0d 16 37 be
       -0.024935191 -0.13132791 -0.1430282 -0.17879505
000270 73 0a a2 3c 86 70 6c bd 1e 3d 17 be 6b ed 98 bd
       0.019780373 -0.0577245 -0.14769408 -0.07467159
000280 f0 b6 35 bd b9 ef ca bd d6 29 55 bd ad cd 97 3e
       -0.044363916 -0.09909005 -0.05204185 0.29649106
000290 e2 ce d4 3e e2 8d 24 be 69 72 2f 3d 35 95 d3 3d
       0.4156409 -0.16069749 0.04283372 0.10331193
0002a0 9b 87 60 bc 87 bc 16 bc 20 8b 23 bd f6 79 f9 3d
       -0.013704206 -0.009200222 -0.0399276 0.12181465
0002b0 38 24 8d 3e 22 84 0e 3f 41 d9 e4 bd f4 93 4c bc
       0.27566695 0.5567037 -0.111742504 -0.012486447
0002c0 c5 68 ef 3d 31 b1 97 3c ff f1 4b bc 48 04 6d bb
       0.11689905 0.018517109 -0.012447833 -0.0036165882
0002d0 47 41 6e 3c f5 77 7d bd ea 80 92 be 90 e1 ad 3d
       0.0145419305 -0.061881978 -0.2861398 0.08490288
0002e0 d2 c6 0c 3e ab 5e 80 bc 63 ab 6b bd 1f ea a9 3c
       0.13747719 -0.015670141 -0.057536494 0.02074152
0002f0 2f 48 b7 bd 51 64 e0 bd 84 53 00 be 0b 24 82 be
       -0.08949315 -0.10956634 -0.12531859 -0.25418124
000300 9f 4e 8d 3d ab 18 71 bd 84 a7 1b be 7b b3 0a be
       0.068997614 -0.058861416 -0.15200621 -0.13545029
000310 73 ea 18 bc 41 c7 ea bd 46 5d 9d 3d af ce 4b 3e
       -0.009333241 -0.11463786 0.07683806 0.19903062
000320 35 55 ce 3e f4 4c 4e bd 6b 96 6f 3d 13 9f dc 3d
       0.40299383 -0.050366357 0.05849306 0.107725285
000330 53 8e 0b bd e6 4e 24 be e4 38 d0 bd 57 51 d0 bc
       -0.034071278 -0.16045722 -0.10167101 -0.02542941
000340 61 2d b2 3e 31 8a 19 3f 25 54 b3 bd be a0 3b bb
       0.34800246 0.5997649 -0.08756284 -0.0028629745
000350 ce c4 96 3d 05 44 73 bc f6 f9 ed 3c 74 1b b1 3c
       0.07361756 -0.01484776 0.029049855 0.021619536
000360 34 49 13 bd 58 b9 80 3e f8 e3 79 3e e3 54 d0 bd
       -0.035958484 0.25141406 0.2440337 -0.10172441
000370 70 ff 62 3d c5 bd ce 3d 50 06 08 3d 57 bd e9 3c
       0.055419385 0.100947894 0.033209145 0.028532667
000380 46 29 93 3c 1c 65 dd 3d 68 35 b9 3d 88 a6 1c be
       0.017964017 0.10810301 0.090433896 -0.15297902
000390 20 d6 c3 3d 79 aa b7 3d b6 10 55 3b a5 30 ed 3c
       0.095623255 0.08968062 0.0032511181 0.02895386
0003a0 dd 28 79 3d 97 4f 85 bc 2b 51 f8 3d 45 d3 a3 3e
       0.060829986 -0.016273303 0.121248566 0.31997123
0003b0 e5 1b 09 3f 80 59 a6 bd 22 14 7d 3d a8 29 0f 3e
       0.5355819 -0.081225395 0.06178678 0.13980734
0003c0 1b 0c 91 3c 32 7d 1c 3d 7e 29 0d bd a5 5f 84 be
       0.017705968 0.038205333 -0.0344634 -0.2585422
0003d0 c6 a3 54 be df 4b 42 3f cb bc 00 be c8 31 9e be
       -0.207656 0.7589702 -0.12572019 -0.30897355
0003e0 ed c5 be bd 3f b3 aa bd 54 68 28 be 9d 62 be 3d
       -0.09315095 -0.0833497 -0.16446048 0.09296153
0003f0 8a 1a d0 bd 64 90 d1 3e 98 98 2a 3f 81 2d e7 bd
       -0.10161312 0.40930474 0.6663909 -0.11287976

bias f4 [32]
000000 ab 26 97 bb c8 f6 04 3c 5c e5 b7 bc 8b b2 80 bd
       -0.004612764 0.008115478 -0.022448234 -0.06284054
000010 9d 33 06 3d 94 7c 94 bc af 87 ab bb 28 1b 02 bd
       0.032764066 -0.01812581 -0.0052346806 -0.03176418
000020 39 8a 5d bd 42 7f 2c bc ec 84 15 bc 4e c9 89 bd
       -0.054086898 -0.0105283875 -0.009125929 -0.06727849
000030 9d 41 ae 3c a6 74 69 bb 30 6e e6 3d 9c 7f c7 3c
       0.021271521 -0.0035622506 0.11251485 0.024352841
000040 f0 df 12 3b a0 77 f7 3c 22 7e 4c 3d dc d9 45 bb
       0.002241131 0.030208409 0.049924977 -0.0030189669
000050 dd f8 f4 3c e4 7a 30 be 3f 87 6c 3c db 6e b1 3c
       0.029903824 -0.17234379 0.014436542 0.021659305
000060 8e ec 59 bd 51 ad 92 ba e2 19 05 3d 4f de 1d 3d
       -0.05320411 -0.0011190568 0.032495387 0.038542088
000070 11 37 cd 3c e6 8e 6f bc 5f a0 a1 3c a9 49 e2 bd
       0.025050672 -0.014621472 0.019729791 -0.11049206

weight f4 [32, 32, 3, 3]
000000 59 39 7c 3e 6a 19 96 3e 22 e1 26 3e 52 04 8f 3d
       0.24631251 0.29316264 0.16296819 0.06983246
000010 26 2c bc be ff 1c 2d bd 6c fe bb bd c5 89 ce 3d
       -0.36752433 -0.04226398 -0.091793865 0.10084871
000020 c2 05 78 be 62 1f 81 bd c8 f0 90 bd 2f 89 b9 3d
       -0.24220946 -0.06304814 -0.070771754 0.09059369
000030 4a 5e a7 3c 3b ca 5b be 9b 75 be be d5 6f 3c be
       0.020430703 -0.21463864 -0.371991 -0.18402036
000040 2e 9e 9e 3d 90 ac dd be 9a 98 88 bd 97 76 8b 3d
       0.07745014 -0.43295717 -0.066697314 0.068097286
000050 7a e9 d6 3d d6 22 20 bd ce bf a2 be 00 98 54 be
       0.10493751 -0.039095722 -0.3178696 -0.20761108
000060 98 d0 0c be 86 94 8d 3d 76 50 09 be 58 15 48 bd
       -0.13751447 0.06913094 -0.134096 -0.04884848
000070 1a ad e0 bc 53 f2 53 3f 06 21 67 3c 52 9f 32 be
       -0.027426291 0.8279163 0.0141069945 -0.17443588
000080 45 29 09 bf 89 9b 87 be c5 e8 8b bc 2e b4 e1 3c
       -0.535786 -0.2648585 -0.017078767 0.027551737
000090 c2 d4 25 3e c8 cc 35 3e fa 94 ad be 9c 52 01 3e
       0.16194442 0.17753899 -0.33902723 0.12629169
0000a0 22 d0 c4 3e 57 b4 8b 3e cf ac f0 3d 1f 54 df be
       0.38440043 0.27286026 0.117517106 -0.43618867
0000b0 00 10 dc bd 7f 8e c0 be 0b 72 3c bd 4e dd db bc
       -0.10745239 -0.37608716 -0.046007197 -0.026838925
0000c0 2f 4a 3f be 58 7e 50 bd f9 68 c3 be b5 40 34 be
       -0.18680643 -0.05090174 -0.38166025 -0.17602809
0000d0 23 65 87 3d 58 62 a0 bd 08 6d 1e 3e 64 5b 3f 3e
       0.06611087 -0.078312576 0.1547128 0.18687207
0000e0 68 85 8f bd f3 1a 8f 3e a2 5c 95 3c 38 8a 90 3d
       -0.07007867 0.27950248 0.018232647 0.07057613
0000f0 a4 ca 93 3e 5e 8d a6 bd 1d 07 95 be b7 3c 9e bc
       0.2886554 -0.081324324 -0.2910699 -0.01931606
000100 37 9c c0 3c c3 7c da 3d 96 1e c5 bd e2 45 b3 be
       0.023511989 0.10668328 -0.096249744 -0.35014254
000110 06 b1 3c 3e f0 8f 2e be 08 da 43 be 55 af b3 bd
       0.18426904 -0.17047095 -0.19126141 -0.08773676
000120 ec f6 e6 3c d0 2b ca 3d 3d 9f 86 bb cb 47 51 3d
       0.028193913 0.09871638 -0.004108338 0.051093858
000130 24 a8 36 be b5 d9 2f 3e 7f 6c 66 bd 4d 10 ea 3d
       -0.17837578 0.17172892 -0.056255814 0.114288904
000140 8b 7b a2 be a2 4b 8c be 9e 8c bf bd 4f 86 e1 3e
       -0.3173488 -0.27401453 -0.093529925 0.44047782
000150 95 e3 71 be 99 3b c5 bd 1d f3 b6 be 1e be 19 3d
       -0.23621972 -0.09630508 -0.35732356 0.037534826
000160 91 5f a2 3e 23 ef 50 3e 07 70 31 3e b4 79 90 3d
       0.31713536 0.20403723 0.17327891 0.07054463
000170 3b e0 99 bc 44 45 d8 3e d9 c4 40 3e 9a 65 98 3d
       -0.01878368 0.42240345 0.18825091 0.07441254
000180 79 32 be 3d 06 b5 a9 bb cc 89 a1 be ce d0 85 3e
       0.09286971 -0.0051790504 -0.31550443 0.26135868
000190 99 18 6e 3e 63 62 15 3e a0 0f ac 3e fd e9 cc 3d
       0.23251571 0.14588313 0.3360567 0.10005567
0001a0 6b f1 b5 3d 5b f0 0a 3e da f1 25 3e 1d 2c cd bd
       0.088839374 0.13568251 0.1620554 -0.100181796
0001b0 e4 4b d5 be 70 e4 90 be 24 a2 c6 be 38 e3 16 be
       -0.41659462 -0.28299284 -0.38795578 -0.14735115
0001c0 24 5e 99 be 86 bc 06 bf 4a a2 c8 be 38 16 33 3e
       -0.29954636 -0.52631414 -0.39186317 0.17488945
0001d0 63 6d a8 bd ea 36 13 3e 7a fe c0 3d 38 1b 36 bd
       -0.08223989 0.14376417 0.094235376 -0.04445955
0001e0 b5 c7 52 be 7f d8 16 3d 66 01 8d bd c7 24 fc bc
       -0.20583995 0.03682756 -0.06885032 -0.030779256
0001f0 9f fc 68 3e 04 b7 8b be 46 23 f1 3e d8 3f 25 3e
       0.22752617 -0.27288067 0.47097224 0.16137636
000200 4c 15 a6 be 2b fa c8 bc 7a 4f ae 3e de f0 08 bd
       -0.32438123 -0.024533352 0.3404501 -0.033432834
000210 09 d7 c0 3e 21 b8 ee 3b f6 db 91 be 99 ba 61 3d
       0.3766406 0.0072851335 -0.2848813 0.055109594
000220 bc 9b 9d 3e 93 73 1a 3e 0b 7f e1 bd 6d e6 9d be
       0.30782878 0.1508315 -0.1101056 -0.30839863
000230 20 3b 4f be 89 41 ce 3d 6f 3c 00 be 68 3b 00 bc
       -0.20237398 0.100710936 -0.12523054 -0.007826664
000240 47 80 3b 3e 3a 3b 4b 3d 37 4e 2c 3c 1d 50 de 3e
       0.18310653 0.04961703 0.010516695 0.43420497
000250 08 4a 3b bd 54 7a aa bc e2 6b cc 3d f4 47 97 3c
       -0.0457249 -0.020810284 0.099815145 0.018466927
000260 85 00 74 be 8b a4 45 3e 42 54 f9 3d a7 73 90 bd
       -0.23828323 0.1930105 0.12174274 -0.07053309
000270 5c 49 bc 3e 9e 35 0c 3d 2b 73 54 bc 4a c7 7d 3e
       0.3677472 0.03423082 -0.012966911 0.24783054
000280 e5 e5 b5 bd ac 9c ce be 47 96 99 3e a2 39 96 3d
       -0.088817395 -0.40353906 0.29997465 0.07335211
000290 66 94 ea bd c1 30 87 3d 12 e4 28 bd aa 91 7a bd
       -0.11454086 0.06601096 -0.04123313 -0.061174072
0002a0 4e 44 7b bd e8 49 ce 3d fa 09 3d be 54 f1 b4 3d
       -0.061344437 0.1007269 -0.18460837 0.08835092
0002b0 21 e1 27 be 6f 5c d2 3e c2 90 82 3e 40 60 cb 3c
       -0.16394474 0.41086146 0.25501066 0.024826169
0002c0 36 4c 93 be 0c 41 dd bc 23 bd 3a bd 42 f1 58 3e
       -0.28769082 -0.027008556 -0.04559053 0.21185783
0002d0 b5 74 d8 bd 07 eb b1 3d 7c 8c f0 3c 17 d1 49 be
       -0.10569135 0.08687406 0.029363863 -0.19708668
0002e0 2f 80 63 be bb 7a 2f 3c 57 7d 99 be 7a fc 5a be
       -0.22216867 0.010710414 -0.2997844 -0.21385375
0002f0 1b 96 fc 3d 4c 77 51 bd 7c 75 9f bc df 71 63 3f
       0.12333318 -0.05113916 -0.0194652 0.8884563
000300 f4 d4 1c be 65 fe 8b be 9b 4b 20 bf 42 4f 5c be
       -0.1531561 -0.27342525 -0.62615365 -0.2151461
000310 12 06 0b 3d 0c 30 7d 3d 7d a7 4c be f0 52 b9 3e
       0.033941336 0.0618134 -0.19985767 0.3619609
000320 aa 15 90 be 7c da bc bd 1a 03 93 be 95 3f 33 bf
       -0.28141528 -0.0922136 -0.28713304 -0.70018893
000330 7a 38 21 be 59 7b 21 3f 5d 64 ec 3d 62 20 b8 be
       -0.157442 0.6307884 0.1154258 -0.35962206
000340 0a 6a b9 bd 9a 53 ae 3c 18 58 ad be 02 85 28 be
       -0.090534285 0.021280099 -0.33856273 -0.16456988
000350 da b5 42 be a0 33 88 be 88 66 a7 bd d9 00 ad 3d
       -0.19014683 -0.26601887 -0.08173853 0.08447427
000360 68 0b 10 3e 87 a1 08 3e f8 fb b9 3e d3 9b c5 3c
       0.14066851 0.13342868 0.3632505 0.024122154
000370 2a 05 80 be 38 50 e2 bd 72 8c 85 3d a1 32 23 3e
       -0.2500394 -0.11050457 0.065209284 0.15937282
000380 e7 5e fe 3c 86 64 72 be 08 14 25 be 38 68 e1 3d
       0.031051112 -0.23671159 -0.16120923 0.11006206
000390 9b 6e a6 3c 14 bf 93 be 10 8a ec be 32 a7 40 be
       0.020316413 -0.2885672 -0.46199083 -0.1881378
0003a0 c5 9e 37 3e 1e d0 45 3b 8c 4e e9 3d 61 39 2f 3e
       0.1793166 0.0030183862 0.11391935 0.17111732
0003b0 e0 cf f3 3e be d6 dd 3d dc 31 dc be be 04 4d bf
       0.47619534 0.108319744 -0.4300679 -0.8008536
0003c0 30 4c 02 bf 29 4c bf 3e a8 a3 80 be 0f cf 3c be
       -0.508975 0.37362793 -0.2512486 -0.18438362
0003d0 e5 93 d1 be 02 ed f1 3e 01 d6 3a be e5 67 b5 bd
       -0.40933147 0.47251135 -0.18245699 -0.08857707
0003e0 9b ef c4 be d7 4a bf 3c 5d 60 0a 3e 27 f5 15 bd
       -0.38464054 0.023351116 0.13513322 -0.03661075
0003f0 28 55 6a be 28 6c 7a be 91 bf 6a bd 0b 59 1e be
       -0.22884047 -0.24455321 -0.0573116 -0.15463655

bias f4 [32]
000000 cb 98 2c bd d3 98 33 be b5 36 00 bd 74 61 c2 bd
       -0.042137902 -0.17538767 -0.031302173 -0.09491244
000010 08 9a b5 3d 3c d0 25 bd 83 95 ba bc ea ef 8a 3d
       0.0886727 -0.04048179 -0.02277637 0.06784041
000020 4c fc c1 bd df 9f 04 be 16 fe 6f bd 4d 07 1d be
       -0.0947195 -0.12951611 -0.058591925 -0.15334816
000030 e6 26 dc bd e8 1d 0c bb 9b 76 a2 3b ee 89 92 bd
       -0.10749607 -0.002138013 0.0049579865 -0.07155214
000040 ff 1e ae bc db 4f 12 be f3 5f 17 3b ca de 83 bd
       -0.021255014 -0.14288275 0.0023097962 -0.06438978
000050 0e aa 97 bd 3e d1 c0 3d 0e 9f 31 bd b3 41 a7 3d
       -0.07405482 0.0941491 -0.043364577 0.08166828
000060 1e 74 80 bd ac c1 f9 3c 5f ff 21 be 01 e3 c7 3c
       -0.062721476 0.030487858 -0.15820073 0.024400236
000070 aa 3e b6 bc ea 87 23 bd e0 ef 0b 3e 83 b4 72 3d
       -0.022246677 -0.03992454 0.13665724 0.05925418

weight f4 [10, 32, 3, 3]
000000 c9 ed af bd 87 d4 51 3d 10 b6 ee bd 9f d7 9c 3e
       -0.08590276 0.051228072 -0.116558194 0.30633256
000010 22 3e 4a be 38 bc 8f 3e 2b 58 51 3e 1e c1 36 bd
       -0.19750264 0.28073287 0.2044379 -0.044617765
000020 f9 d5 5b be 1b cc ff 3c 28 84 af bc 5c 05 33 be
       -0.21468343 0.031225255 -0.021425322 -0.17482513
000030 1f e3 11 bd 58 b1 34 3e af 6f d5 3c e5 82 d1 3e
       -0.03561699 0.17645776 0.026054231 0.40920177
000040 59 f2 60 bd e1 b7 c9 3d 03 f2 44 3d 76 a3 b9 bd
       -0.05491862 0.09849525 0.048082363 -0.09064381
000050 84 6c d1 bd 97 27 0a bf 83 bb aa bd f4 d3 5f 3e
       -0.10225776 -0.5396666 -0.08336546 0.21858197
000060 18 5a b8 3e fd 22 5d bc 41 89 26 3e b7 6c e2 3e
       0.36006236 -0.013497111 0.16263296 0.44223568
000070 d4 cf 07 3e 4d 7d 4b be 6a 5d e7 be 1d 48 1e 3d
       0.13262874 -0.19872017 -0.45188457 0.03864299
000080 bb c8 25 be 9c 99 e2 3e 41 1b a9 3e 14 70 d7 3d
       -0.16189854 0.4425782 0.33028606 0.10519424
000090 fe 87 88 be 3c a2 ea bc 76 0f 7e bd 93 5b 4c be
       -0.26666254 -0.028641813 -0.062026463 -0.19956808
0000a0 5d d9 34 be aa 7f 03 bd a6 93 83 3d 07 d3 87 be
       -0.17661043 -0.03210417 0.06424646 -0.2652819
0000b0 0e da e6 3c cc ab 3b 3e de 46 41 3e 2e 60 93 3d
       0.028180148 0.18327254 0.1887469 0.07196079
0000c0 9e 0c 5c be 2f 44 42 3e 53 37 10 be 73 a7 96 3e
       -0.21489188 0.18971322 -0.14083605 0.2942463
0000d0 e9 da 94 3e df 8e e7 3c eb 6c d6 bd 24 94 2d bf
       0.29073265 0.028266368 -0.10469993 -0.6780417
0000e0 6b eb 6b 3d 19 85 50 be 8e ef 85 bf 5b 3e 89 bc
       0.05759756 -0.20363273 -1.0463731 -0.016753366
0000f0 ad 11 21 3e 38 55 ba 3e c0 d0 eb bd 17 92 25 be
       0.15729399 0.36393142 -0.11514425 -0.1616901
000100 99 b7 84 bc 26 26 e9 3c 3b f2 97 be 27 a6 a2 3d
       -0.016200827 0.028460573 -0.29676995 0.07941847
000110 2d db 3a bc 90 de 80 3e f9 f7 07 be 36 e7 53 3e
       -0.011404795 0.25169802 -0.13278188 0.20693669
000120 9b 2e 30 3d 78 1d 1c be 6d 5d 07 3e 68 3c 40 be
       0.043013196 -0.15245616 0.13219233 -0.18773043
000130 31 d5 16 3d 89 05 d8 bd c4 d5 29 3d 47 63 32 be
       0.03682441 -0.10547931 0.04146363 -0.17420684
000140 24 32 86 3e 58 e7 24 3e 7c 4f 15 3e f8 ad e3 bc
       0.2621013 0.16103876 0.14581102 -0.027792916
000150 1c 0e 96 3e 7f 9b 0a bf 8d 95 2a bd 0a 97 2e 3e
       0.2930764 -0.5414352 -0.04164653 0.17049804
000160 95 78 04 bc 53 7a 9d bd 13 ce 0b 3e 5d 78 9a 3c
       -0.00808539 -0.07689347 0.1365283 0.018856222
000170 c4 d2 69 3b 01 c3 3e be 3f 53 37 bc 3b b6 9c bd
       0.0035678605 -0.18629076 -0.011189281 -0.07651945
000180 1e 2d da 3e 3f 11 9d 3e 74 98 c7 3d 4a 8d 01 be
       0.42612547 0.3067722 0.09745875 -0.12651554
000190 61 3c ff bd a0 25 21 bd a9 3f 02 bf a5 9f 36 be
       -0.12462688 -0.039342523 -0.5087839 -0.17834337
0001a0 2c 9c 86 be b7 6b b0 3c 16 c6 ad be ab e4 ef 3e
       -0.26291025 0.021535737 -0.3394019 0.46854147
0001b0 8b 75 09 be 08 f9 12 bc 0f 09 cf be 65 0c 2a 3e
       -0.13423745 -0.0089705065 -0.404366 0.1660629
0001c0 20 61 1e be 0a 4c 37 3f 33 cc ad bc 74 af 2e bc
       -0.15466738 0.716004 -0.021215534 -0.0106619485
0001d0 7b 81 d6 3d a0 a8 0c bd 31 78 55 3e d8 e7 9b be
       0.10473915 -0.0343405 0.2084663 -0.3045032
0001e0 0a 96 64 be be bc 04 be bc 93 fd bd 99 82 15 3f
       -0.2232286 -0.12962624 -0.12381694 0.584024
0001f0 2f 01 6b 3e a2 84 bd 3e e0 00 bc bd c7 b3 29 3c
       0.2294967 0.37015253 -0.091798544 0.010357804
000200 19 dd 24 be c2 d8 a2 be d2 6a 84 3f 11 ab 84 3e
       -0.16099967 -0.31805998 1.0345099 0.25911763
000210 58 e8 a1 bd fe e3 16 bf e6 9e d1 bd 84 c8 20 be
       -0.07905644 -0.5894164 -0.102353856 -0.1570149
000220 d2 d8 f9 3d 47 a8 fc bd 6c 65 28 be 2b cb c6 3e
       0.12199558 -0.12336784 -0.1644494 0.3882688
000230 b5 17 49 3c 3d 94 8f 3e f4 70 cc 3d 34 1a 1d be
       0.012273719 0.28042784 0.099824816 -0.15342027
000240 4a b1 0f bd 96 79 8e 3e 20 0a 9d bc 05 bc 73 be
       -0.035081185 0.27827138 -0.019169867 -0.23802193
000250 86 9b e4 bd 20 8d 16 3d b0 59 1d 3f bd 86 f8 3e
       -0.11162476 0.03675568 0.6146498 0.48540297
000260 33 53 af 3c a3 dc 27 bd bd 81 48 bf 98 ef 19 be
       0.021401977 -0.0409819 -0.78322965 -0.15032804
000270 f4 eb 99 be 65 6c 7b bc 04 8a da bd 7c 6a 35 3e
       -0.3006283 -0.0153456675 -0.10670856 0.17716402
000280 fb 1b 9b 3e 4d 45 88 3e c5 e0 73 bc a4 b2 7f be
       0.30294785 0.26615372 -0.014885132 -0.2497049
000290 21 09 25 3d bd 81 2f 3d 3a 24 42 be ce d1 7a 3d
       0.04029191 0.042848337 -0.18959132 0.06123524
0002a0 0b b3 2f be 7d ee 32 be 84 71 59 bd fd 33 05 3e
       -0.17158143 -0.17473789 -0.053086773 0.13008113
0002b0 a0 ba 85 3d ca a5 39 be 36 e1 73 be 1d e2 74 be
       0.065297365 -0.1812965 -0.2381638 -0.2391438
0002c0 d7 65 48 3b 0b 3d 3a 3e 01 12 9c 3e e6 a9 37 3e
       0.003057828 0.18187349 0.30482486 0.17935905
0002d0 ba 35 6b 3e 32 fe 4a be d1 92 28 bd 53 b7 5b bd
       0.22969714 -0.1982353 -0.04115564 -0.05364163
0002e0 ef 9d 86 be 57 bf f9 bd c0 95 0e 3f 86 bb 00 3f
       -0.2629237 -0.12194698 0.5569725 0.5028614
0002f0 37 21 b6 3e 07 93 a2 3d ce ae 65 3e c9 5d ab bb
       0.35572216 0.079381995 0.22429964 -0.005229686
000300 42 6a 32 3e 8d 6e 8e 3e 1c 56 23 bd 77 72 86 3e
       0.17423347 0.2781872 -0.039877042 0.26259205
000310 d2 c5 c9 3e ed 03 ae 3d d8 87 d0 3e 31 46 ca be
       0.39408737 0.084968425 0.4072864 -0.39506677
000320 f7 15 7e bd c7 b6 cc 3d 3c 5b 32 bf 11 cd 80 3d
       -0.062032666 0.099957995 -0.6967046 0.06289113
000330 fc 3e b6 3e 33 f0 60 3e a5 19 18 bd 85 32 ba bc
       0.35594928 0.21966629 -0.03713383 -0.022729168
000340 d3 5d a5 be 7c 16 d3 3d be 3c f5 3d ad 03 af bd
       -0.32298145 0.10307023 0.11974476 -0.08545623
000350 72 e6 01 3f 83 4c bb bd 26 9c a4 be 82 21 0b be
       0.50742257 -0.09145453 -0.32150382 -0.13587001
000360 fe 28 ed 3b 1d 01 8e 3e 1e df d1 bd 55 39 fc 3d
       0.0072375527 0.27735224 -0.10247634 0.12315623
000370 11 48 59 bf b3 a9 25 bd f2 16 ea 3c e4 3b 65 be
       -0.8487559 -0.04044504 0.028575394 -0.22386128
000380 c9 38 d4 bb 98 f8 d8 3c a0 07 a0 bd 0d 5d 94 3d
       -0.006476496 0.026485726 -0.07813954 0.072443105
000390 83 0b 5a be ec 8a 4c bd 17 7e b9 bd cc 7c b3 3c
       -0.21293454 -0.049937174 -0.09057253 0.021910094
0003a0 d5 a0 88 3d 3f 92 14 3e 58 b0 98 bd b3 94 b2 3e
       0.06671301 0.14508913 -0.0745551 0.34879074
0003b0 c5 d4 89 bd 03 a8 c6 bd bc 8b 84 3e f5 14 36 be
       -0.06730036 -0.097000144 0.2588786 -0.17781432
0003c0 e4 01 53 bd f0 d4 b2 3e c3 44 c8 3e 24 eb 6c 3d
       -0.051515475 0.34928083 0.3911496 0.057841435
0003d0 c3 38 0d be a5 a1 62 3e 93 39 6b be f8 f7 04 3e
       -0.13791184 0.22131975 -0.22971182 0.12985218
0003e0 6f 39 10 be 0a 76 7b bd 86 3e 66 be 09 70 7f 3c
       -0.14084409 -0.061391868 -0.22484788 0.015590676
0003f0 51 05 ae be 0d 4c c0 bd bc b6 14 3e a6 94 83 bd
       -0.3398843 -0.093895055 0.14522833 -0.06424837

bias f4 [10]
000000 4e 09 68 bd 9b fe 51 3c c7 0f 81 3d c7 71 09 bd
       -0.0566495 0.01281705 0.063018374 -0.033555772
000010 be f4 8d 3d 05 ef 9f 3c d4 2e 97 3d 1c 77 e5 bc
       0.069314465 0.019523153 0.07381979 -0.028010897
000020 db ac 94 bc c2 6f 25 3c
       -0.01814883 0.010097446

weight f4 [10, 32, 3, 3]
000000 82 fe bc be 7b 74 a8 3d 95 42 e5 3e 63 03 af bd
       -0.36912924 0.08225342 0.4477736 -0.08545568
000010 43 18 20 3e f9 a4 25 3f 72 a9 84 be 83 53 68 3f
       0.15634255 0.64704853 -0.25910527 0.9075243
000020 43 9f cd 3f be c9 86 be 8d d8 c9 bd 34 a2 68 be
       1.6064228 -0.26325792 -0.09855757 -0.22718126
000030 85 c5 9f be 89 c4 88 3e 1c 04 da 3d de 73 5f bd
       -0.31205383 0.26712444 0.10645315 -0.05455386
000040 ef 51 0f 3f 4b 66 5e bd 69 7e 99 3d ce ee 12 be
       0.55984396 -0.054296773 0.07494814 -0.1434891
000050 7b bf de bd 40 43 51 be 8f 1b 02 3f e7 5c 02 3e
       -0.10876366 -0.2043581 0.508233 0.12730752
000060 d8 67 ba 3d c4 b4 83 3e 89 44 1f 3f 00 b2 90 bd
       0.09101838 0.2572385 0.6221395 -0.07065201
000070 e0 ea bd be 68 9d 74 3e 04 21 89 bf 3c 9a b1 3d
       -0.37093258 0.2388817 -1.07132 0.08671996
000080 c5 ef 58 3e fa a1 4c 3e bf f0 c9 bd b0 d0 43 3f
       0.21185215 0.19983664 -0.09860372 0.76490307
000090 29 d2 54 3d b6 66 4c 3e 9a cb 83 3e 02 3d 1c bd
       0.051958237 0.19961056 0.25741273 -0.03814412
0000a0 a6 ba e8 b9 a5 96 d7 be f8 50 6f be 8d 25 e2 3e
       -0.00044389552 -0.4210712 -0.23370731 0.44169274
0000b0 88 7b 93 3f 69 3d d2 3b 1c ef 87 be 34 6a 40 3e
       1.1522074 0.006416012 -0.26549613 0.18790513
0000c0 f3 00 c7 bd a9 1d 0c bf 17 85 8b bf 7c 16 3e be
       -0.09716978 -0.5473276 -1.0899991 -0.18563265
0000d0 f2 ad 5a 3f c2 e4 c4 3f db d6 81 3e ae e9 0d 3e
       0.8542167 1.5382311 0.25359234 0.13858673
0000e0 34 54 ba be 5a 3c 71 3e 89 c3 f8 bc 85 f5 cc bf
       -0.36392367 0.23558179 -0.030366676 -1.6012427
0000f0 3d a8 f4 3e 93 a7 c8 3e de e5 36 3f 28 90 19 3e
       0.47784606 0.3919035 0.714445 0.14996397
000100 57 f7 0f bd 45 e5 cf be 79 f4 52 be 45 31 e0 bc
       -0.03514799 -0.40604606 -0.20601071 -0.027367244
000110 e8 a3 f0 3d da b0 aa bc 99 b7 0d 3f fb 48 0a 3f
       0.11750013 -0.020836283 0.5535827 0.5401761
000120 cf aa df be 11 dc f2 3d c3 a4 03 bf e9 f8 c9 3e
       -0.43685004 0.118583806 -0.5142328 0.39447716
000130 ad f6 94 3e 63 e8 92 bf 3f ee 4b 3e 38 1c 34 3f
       0.2909445 -1.1477169 0.19915102 0.7035556
000140 63 a3 72 3f 91 ad 21 bd cd 9d 81 bd 96 d4 04 3f
       0.9478056 -0.039472166 -0.06328926 0.5188688
000150 7b 8f 1c 3e 97 40 a7 be 6f b8 f7 be 21 a9 ae bc
       0.15289108 -0.32666466 -0.483829 -0.021320881
000160 ff 35 b8 3f 06 c5 97 3f 99 68 a2 bc d4 10 91 3e
       1.4391478 1.1857002 -0.019825267 0.2833315
000170 37 e4 54 3f 74 67 40 3d 3a af e2 3e 52 e3 8d 3e
       0.8316073 0.04697366 0.44274312 0.27712494
000180 06 60 a6 be 41 4c 6f bd 61 9b 5f be 90 7e e7 3e
       -0.32495135 -0.05842233 -0.21836616 0.45213747
000190 8f 4e 9c 3e 00 99 ac 3e 23 db d8 3d e8 73 18 be
       0.30528685 0.3371048 0.10588672 -0.14887965
0001a0 7a 7f 73 3f 6b 9a 49 bb 27 bc 34 3e ba 49 6a 3f
       0.9511639 -0.0030762206 0.176499 0.9151875
0001b0 b5 e3 9a 3e 44 64 a1 3c df a6 30 be ca 6e 5a 3e
       0.30251852 0.01970113 -0.17251156 0.21331325
0001c0 6b f5 0a 3f 53 63 38 3e 60 30 1a 3f 5f fa 10 bf
       0.5428073 0.18006639 0.60230064 -0.56632036
0001d0 d3 2e fa be 55 ec dc bd 61 ed ca be a3 c1 6d be
       -0.4886385 -0.10787264 -0.3963423 -0.23218398
0001e0 c3 22 67 be a1 b7 ab be bd 15 5b bf 4d 1b b0 3e
       -0.22571854 -0.33538535 -0.85580045 0.3439583
0001f0 c3 40 81 bd 65 a8 a9 3f 7b 13 88 3e e8 e8 73 be
       -0.063111804 1.3254515 0.26577362 -0.23819315
000200 03 3b 4d 3e 5c 21 04 3e b4 07 78 bd 08 73 7c 3f
       0.20042042 0.1290335 -0.06055422 0.98613024
000210 90 1b 04 bf 5c e7 d5 3c 31 d6 6a 3e 02 93 9e 3d
       -0.5160456 0.026111297 0.2293327 0.07742883
000220 c0 ef 9e 3e f6 29 12 3f 65 14 6d 3e bb 76 45 3c
       0.3104229 0.5709528 0.23152311 0.012052233
000230 5d ec 42 3f 51 33 24 bd eb 6d 9f 3d 2a 2f 61 3f
       0.7614191 -0.040088 0.07784637 0.8796259
000240 fa 7e 54 be 19 02 c0 be 3d fb 28 3d b5 54 14 be
       -0.20751563 -0.375016 0.041255224 -0.14485438
000250 66 da 0f bf 65 03 de be d3 f1 a5 3d 36 e7 f4 3c
       -0.56192625 -0.43361965 0.08102765 0.029895406
000260 f5 9e 99 3f 74 6a 45 3e 1c 89 cf 3d 7b 82 0b be
       1.2001635 0.1927889 0.101335734 -0.13623993
000270 5b 2d 5b be 18 66 29 3f fe 95 44 3e df 1b e3 3e
       -0.2140402 0.6617141 0.19197842 0.443572
000280 30 c1 70 3d 00 05 37 3f d6 f6 6e be 05 a9 18 bf
       0.058777988 0.71492004 -0.23336348 -0.59632903
000290 62 99 df be 11 ef d1 be 91 ec d2 3e ef 83 6d be
       -0.4367171 -0.41002706 0.4119611 -0.2319486
0002a0 90 bc b0 bd a6 9a 49 3e 4c a7 be bd 32 d5 0d be
       -0.086297154 0.196879 -0.09309253 -0.13850859
0002b0 df d9 29 be 36 23 09 3e 7f 80 6a be 3c 01 19 bf
       -0.16587017 0.13392338 -0.2290058 -0.5976751
0002c0 82 dd 55 bf 6b c4 70 3d 91 bc 5e 3f 56 60 75 3f
       -0.8354112 0.05878107 0.8700648 0.9585012
0002d0 df 67 83 3d 03 66 98 be 59 32 b7 be 1e 76 dc bd
       0.06416296 -0.2976533 -0.357806 -0.107647166
0002e0 45 fe a5 3d ba 51 6d 3d 34 1e 6e bd 3e ab bf be
       0.08105139 0.05793927 -0.058134273 -0.37435335
0002f0 45 8a 9a 3f 1b c8 16 be b5 aa 4b 3e 28 b9 4a 3d
       1.2073447 -0.14724772 0.19889338 0.049492985
000300 4c cb c3 bd 94 d5 6b be 81 42 04 bc 25 e4 86 bf
       -0.0956026 -0.23030692 -0.008072496 -1.0538374
000310 a7 37 1a 3f 58 ea bc 3f c6 b8 3e be 0b ea 93 be
       0.6024117 1.4759016 -0.18625173 -0.28889498
000320 6b ef fb 3e 10 ae 91 be fc 25 06 3e 50 e9 80 bf
       0.492061 -0.28453112 0.13100427 -1.0071201
000330 9e 4f c6 bd c0 42 ad 3d 07 92 8a bf 51 ad b5 bd
       -0.096831545 0.08459997 -1.0825814 -0.08870948
000340 8c 54 82 3d 5e 50 19 be 63 5f 08 3e c2 02 1c 3f
       0.06363782 -0.14972064 0.13317637 0.6094171
000350 67 6d c5 be 56 e3 d2 3d 1e 18 50 bd 4f 32 c8 3e
       -0.3856003 0.10297267 -0.05080425 0.39100882
000360 56 d2 92 bd 4b ce 7f bc b4 97 fe 3d e2 15 a4 bd
       -0.07169025 -0.015613149 0.12431279 -0.08011986
000370 5a 1c b9 3c 8d 9e c0 3e de 78 69 3e 1b 93 ab 3f
       0.022596527 0.37620965 0.22800013 1.3404268
000380 ef b8 5f 3d 70 a5 9c bc dc a0 e7 be 97 7c a6 3e
       0.054619726 -0.019121855 -0.45239913 0.3251693
000390 a9 22 e9 bd 1b 30 2f 3d 6c c5 3f be bf 0f c0 3e
       -0.11383564 0.042770486 -0.18727654 0.37512013
0003a0 83 56 cc bd d7 cb 6b bf 00 b6 f5 3e 92 b5 9e bd
       -0.09977438 -0.9210791 0.47990417 -0.077494755
0003b0 3b d7 21 3e de eb 3a be ad 73 91 be 10 04 68 3e
       0.1580476 -0.18254039 -0.28408566 0.226578
0003c0 51 f9 c8 3d fd b2 94 3f 7e b9 80 3f 48 b4 c4 bc
       0.09813178 1.1617123 1.0056608 -0.024011746
0003d0 cf 96 da bd a8 b4 d9 3e ba af c0 bc e6 41 36 be
       -0.10673296 0.42520642 -0.023521293 -0.17798576
0003e0 3f 0b 8e bc 74 42 76 3e f0 04 00 3e da d6 01 bf
       -0.017339347 0.24048787 0.12501884 -0.5071846
0003f0 f6 53 b7 be 39 c8 14 bf 9b 8b d1 bb 2e 9d f0 be
       -0.35806245 -0.58118016 -0.006394816 -0.4699492

bias f4 [32]
000000 69 a5 08 be 9e c7 72 3e 2c 59 bc bd cb be 7c be
       -0.13344349 0.2370896 -0.09196696 -0.24682157
000010 3c f2 45 be bd f4 ad 3d b7 90 d7 bd 00 42 3a 3e
       -0.19330686 0.08493946 -0.10525649 0.1818924
000020 c9 fb a0 3e 50 e2 84 3d 37 8e 98 3e 94 76 fa 3e
       0.31442097 0.06488478 0.29796 0.48918593
000030 c7 01 88 bd 92 24 d4 3e ba 39 1d 3f 68 6f fd 3e
       -0.06640964 0.4143415 0.6141621 0.4949906
000040 e9 55 79 3e 3f b4 bf 3e 7e a9 04 3e 53 16 b1 bd
       0.24349178 0.37442204 0.12955281 -0.08646836
000050 92 6e a3 3d 5a 45 0b bd 25 66 dc 3d e8 98 06 3d
       0.07980074 -0.034001686 0.1076167 0.032860667
000060 2c c2 c0 bd 05 a6 0d bd bf 59 08 be c3 94 74 3d
       -0.09412035 -0.034582157 -0.13315485 0.059712183
000070 fe 5f 4b 3c a2 64 b6 3e d0 d0 06 bd 88 53 17 3f
       0.012413023 0.35623652 -0.032913983 0.59111834

weight f4 [32, 32, 3, 3]
000000 3a b3 05 3e 95 53 4b 3e c2 47 ea 3d 50 fa 92 3e
       0.13056651 0.19856103 0.11439468 0.28706598
000010 35 64 b4 3e 29 cd 28 3e 62 82 ae 3d 9e 80 98 bd
       0.35232702 0.16484512 0.08520962 -0.07446407
000020 c7 d9 55 bf f8 54 1e 3e 88 35 3b 3e 32 19 11 be
       -0.83535427 0.154621 0.1828214 -0.14169767
000030 2a e7 2b be e2 77 9a 3e 5b b1 83 3d 36 59 b0 bd
       -0.16787401 0.30169588 0.06430312 -0.08610766
000040 21 c7 83 3e 11 9d 88 3d d4 7d 12 bf b0 b6 6e be
       0.2573786 0.06670583 -0.5722325 -0.23311877
000050 e1 f0 b6 3c 66 cb e7 be 02 d6 34 3c 73 31 f1 bd
       0.022331657 -0.45272368 0.011037352 -0.1177701
000060 57 13 e4 bb e2 c6 db 3e db 13 45 3f ff 8e f0 be
       -0.0069603133 0.42925173 0.7698342 -0.46984097
000070 32 c8 3b 3e 0f e3 17 be 06 f8 42 3d 96 ca 2d 3e
       0.18338087 -0.1483271 0.047599815 0.16971812
000080 98 9c 28 be ea 92 34 bd 4f 59 94 3e 3c 68 ab 3e
       -0.16465986 -0.04408542 0.28974387 0.33477962
000090 c2 20 a5 3e 60 14 c2 3e 45 73 17 3e e9 9a 9b be
       0.32251555 0.3790617 0.14790066 -0.30391625
0000a0 af ba 91 3e 23 e3 72 bd 4d 40 c7 bd a5 66 d4 3e
       0.2846274 -0.059298646 -0.09729061 0.41484562
0000b0 88 56 13 3c 79 c1 e2 be 14 aa b1 3d 65 b5 3f 3e
       0.008992799 -0.44288233 0.08675018 0.1872154
0000c0 2f ac e8 be 31 17 53 3e 5f 0e 8b be c0 62 9b 3d
       -0.45443866 0.20614316 -0.27159402 0.075871944
0000d0 d6 b0 b6 3e 77 b1 02 3f de 72 a7 be 15 09 7e 3e
       0.3568179 0.5105204 -0.32704824 0.24808152
0000e0 f3 04 06 3e 01 52 b1 be 32 ca 63 3e 37 87 bc 3d
       0.13087825 -0.34632877 0.222451 0.09205478
0000f0 57 85 05 bf 58 8d 8f 3e 51 e8 a8 bd c6 6f 03 bf
       -0.52156585 0.28037524 -0.08247436 -0.5134243
000100 f0 9f d5 3d 13 c3 e0 3d 92 31 02 bf d9 98 e5 3d
       0.10430896 0.109747075 -0.5085689 0.11210794
000110 ad 4f 68 be 79 30 11 3d f1 65 f0 3e e2 2f 0c 3f
       -0.22686644 0.035446618 0.46952775 0.54760563
000120 3f 51 4c be 15 5e 83 3d 41 7b c1 be cf 5c 23 3e
       -0.19952868 0.06414429 -0.37789348 0.15953372
000130 96 5c 5f 3e 5b a5 b1 3e 58 83 9b be a2 fc ce bd
       0.21812662 0.3469647 -0.30373645 -0.1010678
000140 30 2a af be d7 fa 8b be b7 f1 4a 3e c8 13 54 be
       -0.34211874 -0.27339813 0.1981877 -0.20710671
000150 4f 67 ce 3e ec 91 d1 3e ef d2 56 3e 3b c3 8e be
       0.40313193 0.40931642 0.20978902 -0.27883324
000160 9b 79 a1 3e fd 15 2e 3d 11 bb 67 be 85 2e 1a 3e
       0.3153809 0.04250144 -0.22629954 0.15056808
000170 d6 95 28 be c9 83 65 3e 80 6e 52 3e 0b 80 8b 3e
       -0.16463408 0.22413553 0.20549965 0.27246127
000180 ee c0 9b bd 9a 52 b7 bd 0d e4 e0 be fa 64 cd be
       -0.07605158 -0.08951302 -0.4392399 -0.40116102
000190 b5 1e 89 3e e9 5b 46 3e b6 d7 de be c5 2d 96 3e
       0.2678124 0.19370998 -0.4352395 0.29331794
0001a0 72 ef 75 be 2b 38 a5 3c cd cd a9 3e 54 87 d6 3e
       -0.24017122 0.020168385 0.33164826 0.41900122
0001b0 c7 49 39 be 91 48 cd 3d d7 9f 7c be e5 91 cc bd
       -0.1809455 0.100236066 -0.24670349 -0.09988765
0001c0 89 7e 8d 3e a3 4a e3 3e 44 df 65 be f8 40 9a 3e
       0.276356 0.4439288 -0.2244845 0.30127692
0001d0 5e 64 d7 bc aa 81 27 bd f6 cc 46 bd ac 6a 35 3e
       -0.026292976 -0.04089514 -0.04853531 0.17716473
0001e0 0a d8 da 3e c7 61 df 3e f6 7d 39 3d 8c f4 2c bd
       0.4274295 0.43629286 0.04528614 -0.042225406
0001f0 f6 87 c5 3e 18 88 44 3e 98 cd 77 be 41 81 ad 3d
       0.38580292 0.1919254 -0.24199522 0.08471919
000200 bf 00 3d be b1 74 1d 3e b2 32 0e 3e 57 b4 90 3e
       -0.18457316 0.15376545 0.13886526 0.28262588
000210 af 05 0f be 28 d7 f6 bd 9e 70 51 be 1c 9e 17 be
       -0.13967012 -0.120527565 -0.20453116 -0.14806408
000220 19 c0 73 3e c9 e2 a5 be 93 f2 8c 3e 90 6a 6c 3e
       0.23803748 -0.32399586 0.2752882 0.23087525
000230 44 98 35 3e be 6b 13 be 85 6b 2c be 47 bc 30 bf
       0.17733866 -0.14396569 -0.1683789 -0.6903729
000240 74 54 56 bd 05 f3 ec 3e fc 42 c5 3d 53 23 de be
       -0.052326635 0.4627916 0.09631917 -0.43386325
000250 c5 38 3f 3e 27 5f 52 be 96 62 a4 3b f8 d2 ef 3e
       0.18674 -0.2054411 0.005016635 0.46840644
000260 dc 76 32 3e 60 69 e4 be ad 09 8d be d4 86 d3 be
       0.17428154 -0.44611645 -0.27546445 -0.41313803
000270 a1 5e d0 be 6b 5c b4 3e de f4 05 3f 8b bc 6e be
       -0.40697196 0.3522676 0.5232676 -0.23314111
000280 24 0a 3c 3d d4 f6 3e be 1b c5 d7 be 7a 6f d4 3e
       0.04590811 -0.18648845 -0.42142567 0.414913
000290 20 7d 77 3a 4a 74 0e bf ff dd 85 3e e8 e5 55 be
       0.00094409473 -0.55646193 0.26145932 -0.20888484
0002a0 ae f7 aa 3d 8d 9e 1d 3f cf ba 3b 3f 80 46 d0 be
       0.083480224 0.61570054 0.7333192 -0.40678787
0002b0 1f c2 07 3d 20 c5 47 bf 69 70 7d bd 94 6d 32 3e
       0.033144113 -0.78035164 -0.06187478 0.17424613
0002c0 53 a2 66 3e 4b 86 67 3d ea 27 38 bc 40 a7 dd be
       0.2252286 0.056524556 -0.011239985 -0.43291664
0002d0 2c 9b af 3c 2a 81 85 3e 7b 62 5f be aa c5 59 3e
       0.021436296 0.26075107 -0.21814911 0.21266809
0002e0 f0 08 3f 3e 18 c4 30 3e d0 00 d7 bd f9 7a 82 3b
       0.18655753 0.17262304 -0.10498202 0.0039819446
0002f0 9b fe 2d bf 2d d3 a9 be 87 ef 96 3d a4 29 02 3e
       -0.6796662 -0.33168927 0.07369905 0.12711197
000300 d3 f2 c6 3d 2c 20 f2 3e 4e 8f 7d be 5e 7b 96 3d
       0.09714284 0.4729017 -0.24761698 0.07347749
000310 e7 90 d0 3e b4 f3 c4 3e ca 8e 4b be 69 31 a5 3e
       0.40735552 0.3846718 -0.19878688 0.3226426
000320 e1 2b 6f 3e 94 dc 38 bf 56 64 6c 3e 86 5a de be
       0.23356582 -0.72211576 0.2308515 -0.4342844
000330 d1 f7 d7 3d 88 df f7 3e 70 53 95 3e d9 cf 9d 3d
       0.10545314 0.48412728 0.2916522 0.077056594
000340 05 ba 61 3e e9 20 4b 3e 20 0f 0c bd 50 cd bd 3e
       0.22043617 0.19836773 -0.03419411 0.37070704
000350 8c ea 87 3c f0 16 02 3e 04 1d 01 3f 26 21 7e 3e
       0.016591333 0.12704062 0.504349 0.24817333
000360 da a4 96 be e9 7c ab bd 47 12 01 3e 08 9e e6 be
       -0.29422647 -0.08373434 0.12604629 -0.45042443
000370 f9 34 c8 3d 3d 29 9c 3e 84 92 03 bf a7 69 ac 3e
       0.09775729 0.30500212 -0.5139544 0.33674356
000380 e1 b3 03 bf cc 28 fb be 6a 3c e8 3d 92 c8 e8 bc
       -0.5144635 -0.49054563 0.11339648 -0.028415952
000390 d1 58 ba be 7a 38 7e 3e a8 22 ab be a8 89 dd bd
       -0.36395887 0.24826232 -0.33424878 -0.108172715
0003a0 ab e9 99 3e 8d 20 a3 3e a5 8e d8 be c8 e5 8a be
       0.30061087 0.31860772 -0.4229633 -0.27128434
0003b0 f6 74 98 3e 3a 64 af be a9 2c 21 bb 06 f6 a3 3d
       0.29776734 -0.34256154 -0.002459327 0.080059096
0003c0 2f 53 df 3c a2 57 c7 3e 18 96 2c 3f 15 ca 85 be
       0.027261345 0.38934046 0.67416525 -0.2613074
0003d0 cd 50 f3 3d 57 62 9f be 3b 39 c9 3e 5a 35 9f 3e
       0.11880646 -0.31129715 0.39301476 0.31095392
0003e0 eb b6 99 3e a1 1b cb bd 43 c9 c5 bd c1 4b 89 be
       0.30022368 -0.09917379 -0.09657528 -0.26815608
0003f0 8f ea e7 be 40 42 08 be c0 23 2a 3e 9a c1 a5 be
       -0.45296142 -0.13306522 0.166152 -0.3237427

bias f4 [32]
000000 af 15 d4 3d 3f 42 d8 be 66 64 ba be 38 8b 93 be
       0.10355698 -0.42238042 -0.36404723 -0.28817153
000010 f3 ad bf be e1 f8 9f be cd 6d 0c be 69 52 ad be
       -0.374374 -0.31244567 -0.1371376 -0.33851936
000020 1d 23 0a ba 1d 56 7e be cb d1 77 3d ee 1d a4 be
       -0.00052695145 -0.24837537 0.06050281 -0.32054085
000030 de b7 29 be 83 35 ae be 8c a2 e7 3c 9d fa 23 bc
       -0.16574046 -0.340252 0.02827575 -0.010008481
000040 74 62 ab be 0c dc 9f be 52 04 98 be 3e 14 83 3d
       -0.3347355 -0.3122257 -0.29690796 0.06400345
000050 7e 41 4f 3d 73 23 b1 be 74 7b d5 be fa 99 c5 be
       0.050599568 -0.34597358 -0.4169575 -0.38594037
000060 04 96 29 bd d9 76 94 be de 6f af be bf db 21 bd
       -0.04140283 -0.28996924 -0.34265035 -0.039516207
000070 ac 34 92 be 6e a5 d1 be f5 df fd 3d 9b d6 ab be
       -0.2855581 -0.40946525 0.12396232 -0.33562168
