normal2/models/final.pth (torch_old, 209774 bytes, 18 tensors)

weight f4 [32, 1, 3, 3]
00000000: 4669 513e f849 49be 1411 ec3e d867 7e3f
00000010: c3a8 b73f 297e c13f aacd bf3d 3a64 bf3e
00000020: 3ce1 0bbe 22fc 433f 1649 5b3f 0ce5 613f
00000030: a18d 25bf 9b3b 95bf bbed c03d 906b 86bf
00000040: 85da 88bf 0c20 6bbe f07c b13f d97e 2cbc
00000050: 7bbf cc3e 3625 b93f f927 e93f 651f 0140
00000060: 843a d6be 999f 20bf 2354 f33e ff7d da3e
00000070: cf98 fd3e e246 9c3f 25e0 1d3f 2969 903f
00000080: 7b1f 9d3f 1fc9 893f c647 463f cadf dbbd
00000090: e2b4 d03e ff5b 2f3f c2a9 fe3e fefc 9c3c
000000a0: 0820 52be 329d 68bf ad97 c2bd f224 49bf
000000b0: 4221 8bbf f194 a540 b14b 0e40 fec3 9a40
000000c0: 8497 a040 2d82 3dbf 2bb8 aa40 fdfb 9f40
000000d0: b8b4 7f40 a12d 8840 c114 ee3d bbda 5ebf
000000e0: 6514 b5bf f228 00bf 0da8 c4bf 74d9 3fbf
000000f0: 2501 c3bf 5510 8dbf 27c8 9c3c 1263 a03f
00000100: 01e8 893f 747f edbe 3953 a73f c795 a53f
00000110: 30b3 a0be 6331 b23f 50d3 b43d 1dca a0bf
00000120: 945a 45be 4c09 043b 7c33 84bf d9e2 353e
00000130: 209c 99be 4f24 8ebf 5d02 263f 5c39 183f
00000140: f5cc 09be 2c51 9abf c771 c2bf 6503 f4bf
00000150: 9d77 d8bf e062 6ebf febc f1be 580f 9bbe
00000160: 0bf0 803f b2f1 923f 2781 933f c1a8 c0bd
00000170: c91c f6be 516e a03e 9d19 97bf d507 7bbf
00000180: 153e 713f 4c04 55bf 6ea7 21bf 5489 103f
00000190: 228b db3f 9236 b73f 53b4 2cbe 752b 6e3f
000001a0: d81c 52bd 0635 39bf b8c8 10bf 8ce1 9fbf
000001b0: 4b32 bb40 ee2e 3140 ff59 5f40 05c3 8c40
000001c0: 81ae b0be 8d27 6640 001d a140 f286 7d40
000001d0: c456 6f40 4b1e eb3f 9582 8b3f 1dd9 e03f
000001e0: fd61 303e 5f40 9c3f 2e62 1640 8baa 0f3e
000001f0: 7bd2 2a3f 6101 0c40 e2c7 173f b8e3 933f
00000200: 2f60 463f 8fb0 62bf 9d2c 4e3e 3086 a8bf
00000210: c3b1 34c0 a02d 09c0 a915 0ac0 d348 5f3f
00000220: b189 733e 807a 03bf 2b91 883f 7345 8d3f
00000230: e808 b53e 8928 e7be 7df9 6abf 4a2e 20bd
00000240: 0220 2540 b80b 3340 b05f 4e3f 4f17 9f3e
00000250: 1633 a53e 61b2 9fbf e8d8 b1bf a919 cabf
00000260: 32b6 cdbf 56cf cd3f 0fd3 843f 04d1 833f
00000270: c194 173f f7f3 86bf 5826 98be 19f8 2ebf
00000280: bfab 09c0 3842 b9bf 50e4 9cbe 6c87 23bf
00000290: 41c0 03bd b650 783f fc99 8d3f 11b5 da3f
000002a0: ca28 173f 412c 953d c461 a3bc c0fa cabe
000002b0: c131 e5bf 341b 6dbf 7e59 9f3f 15e6 99be
000002c0: 0fe9 c03f 1ae0 2540 1807 0840 a564 0240
000002d0: 1a18 3dbf dfc9 fbbf 1155 28bf f322 6dbe
000002e0: e622 cfbf b669 b33e d842 d03f 6bfd 163f
000002f0: 7160 d73f be3b 7e3f a508 1a3f af86 5a3f
00000300: 8182 32be ca40 633e 2a04 e53e d710 96be
00000310: 8ce0 1ebf 7d6d 77be 4cec 40bf 59f7 1abf
00000320: a48f 84bf aa68 fdbd e2e4 9abe 66b9 e0be
00000330: 4c92 e83e 3093 093f 4c47 af3e 4b74 69bf
00000340: 2c8d 88bf 444b 66be 0726 8ebe ed4f 1fbf
00000350: b083 1a3e b58f 6b3e 1b1c 3e3f b6de 683f
00000360: 1cdc 903f 7b17 8a3f 943b cd3e 1728 533f
00000370: 81f1 15bf 6e41 98bf 6c8a 763e 6c37 a1bf
00000380: a9f5 b5bf 4b49 6cbf 034d bbbf 6e1f e7be
00000390: c0df e0be 59c7 4cbf 9629 c7bd 75ea 883f
000003a0: dbaa 4a3f 6ca7 3d3f 6eca 663f 421f 323f
000003b0: 1d15 163f 7365 94be 1b61 83bf a49d 0cbf
000003c0: ca21 d9bc 5f59 51bf 8ca5 55bf 5813 69bf
000003d0: ce32 be3f 403f 663f a60e 51c0 49b8 a3bf
000003e0: 4d52 0dc0 dc10 f7be 5200 30be 86f9 6fbf
000003f0: 0c56 653f dd71 463d 9e83 5a3f 23f5 893f
0.20450315 -0.19657123 0.4610678 0.99377203 1.4348377 1.5116626 0.09365399 0.37381154
-0.13660139 0.765566 0.85658395 0.8824012 -0.64669234 -1.1658815 0.094203435 -1.0501575
-1.0691687 -0.22961444 1.3866253 -0.01052829 0.39989838 1.4464481 1.8215324 2.0175412
-0.4184152 -0.62743527 0.4752513 0.42674252 0.49530646 1.2209132 0.6167014 1.1282092
1.2275232 1.0764502 0.7745327 -0.10736044 0.40763003 0.6849975 0.4973889 0.019163605
-0.20520031 -0.9086486 -0.09501586 -0.78572 -1.0869524 5.1744313 2.2233698 4.836425
5.0184956 -0.7402676 5.3349814 4.9995103 3.9954052 4.25557 0.11625052 -0.87052506
-1.4146849 -0.5006248 -1.5363785 -0.7494118 -1.5234724 -1.1020609 0.019138409 1.2530234
1.0773927 -0.46386302 1.3072273 1.2936333 -0.3138671 1.3921322 0.08829367 -1.256168
-0.19272834 0.0020147143 -1.0328212 0.17762317 -0.30001926 -1.110483 0.64847356 0.59462523
-0.13457091 -1.2056022 -1.5190972 -1.9063536 -1.6911503 -0.9311962 -0.47214502 -0.30285144
1.0073255 1.148001 1.1523789 -0.09407187 -0.48068836 0.31334165 -1.1804692 -0.98058826
0.94235355 -0.8320968 -0.631461 0.56459546 1.7151835 1.4313529 -0.16865663 0.9303506
-0.05129704 -0.7234653 -0.5655627 -1.2490706 5.8498893 2.7684894 3.489868 4.398806
-0.34508136 3.596164 5.03479 3.9613614 3.7396708 1.836862 1.0899225 1.7566258
0.1722488 1.2207144 2.3497424 0.140299 0.6672742 2.1875842 0.5928937 1.1553869
0.77490515 -0.8855066 0.20134206 -1.3165951 -2.8233497 -2.1434097 -2.157572 0.87220496
0.23782994 -0.51358795 1.0669302 1.1036819 0.35358357 -0.45148113 -0.9178694 -0.039106645
2.5800786 2.7975903 0.8061476 0.3107247 0.32265538 -1.2476312 -1.389432 -1.5789081
-1.6071227 1.6078899 1.037691 1.0298162 0.59211355 -1.0543202 -0.29716754 -0.68347317
-2.1511075 -1.4473333 -0.3064294 -0.6387851 -0.03216577 0.96998155 1.1062617 1.7086507
0.59046614 0.072838314 -0.01994408 -0.39644432 -1.7905809 -0.92619634 1.2449186 -0.3005835
1.5071124 2.591803 2.125433 2.0373929 -0.738649 -1.9670981 -0.657548 -0.23157863
-1.6182525 0.3504159 1.6270399 0.58980435 1.6826307 0.9930991 0.6016944 0.8536176
-0.17432596 0.22192684 0.4472974 -0.29309723 -0.6206138 -0.2416286 -0.7536056 -0.6053367
-1.0356336 -0.12373479 -0.3025275 -0.43891448 0.45424116 0.53740215 0.34234083 -0.91193074
-1.0668082 -0.22489649 -0.27763388 -0.6223133 0.15089297 0.23004039 0.74261636 0.9096483
1.1317172 1.0788416 0.40084517 0.8248305 -0.5857163 -1.1894968 0.24076241 -1.2595038
-1.4215595 -0.92299336 -1.4632877 -0.45141166 -0.43920708 -0.7999168 -0.09724729 1.0696551
0.79166955 0.7408359 0.90152633 0.69578946 0.58625966 -0.2898365 -1.0264009 -0.5492804
-0.02650537 -0.81776994 -0.8345573 -0.9104514 1.4859254 0.8994026 -3.266519 -1.2790614
-2.2081482 -0.4825505 -0.17187622 -0.9374012 0.8958442 0.048448432 0.8535708 1.0777935

bias f4 [32]
00000000: e867 09bf 93df 303f 714e abbe 94b3 f7be
00000010: 1799 693f 3e95 b3bd 4818 fc3e de67 a8be
00000020: ef59 5c3f 8783 943e 12ca f13e 8452 79bf
00000030: c255 59bd 0b91 99be 4957 4c3e d550 07bf
00000040: 5ad5 b3be da29 203f 510c cbbe 9dda 45bd
00000050: eaaa 043f 1030 07bf 93be 9b3f 0c70 2e3f
00000060: a30c 113f 1916 343f a93b 353f eb92 4c3d
00000070: 7519 9bbe 00b4 093f 8223 edbd 1fd6 913e
-0.53674173 0.6909115 -0.33458284 -0.48379195 0.9124922 -0.087687 0.49237275 -0.32891744
0.8607473 0.29006597 0.4722448 -0.97391534 -0.0530603 -0.29993472 0.19955172 -0.52857715
-0.35123712 0.6256386 -0.39657834 -0.04830419 0.51823294 -0.5280771 1.2167534 0.6813972
0.5665991 0.7034622 0.7079416 0.0499448 -0.3029286 0.53790283 -0.11579038 0.28483674

weight f4 [32, 32, 3, 3]
00000000: 58bc 683d 4567 1f3e 3270 cd3d 0225 3cbe
00000010: 0dbb b1bd a5db 473e e086 22be 771f 13be
00000020: c08a 3e3d 47a9 123e 5ec5 82be 8242 64be
00000030: 39de 4e3e 0168 443e 521d 08be 33fa 2c3e
00000040: 3803 6b3e 7518 26bd 24b3 373d 38d3 0f3e
00000050: 12c7 e73d 177a 3ebe 25ee 87bc 2d3c e43d
00000060: a565 2fbe bb35 05be 4cb5 303e 17c0 163d
00000070: a9eb 6c3e 4f85 203e ddd0 84be 649d 7dbd
00000080: d4bc 1f3e fd74 83be bf4c 91be 4317 7d3d
00000090: 5096 7abd ba49 67be b4e9 4bbe 6b15 723e
000000a0: 7cbd a73d 7159 7bbe 4638 f03d 7f62 db3d
000000b0: 4249 f4bd 8ce8 ce3d 74e3 153e a9cd 593e
000000c0: 84b3 debd 5476 b73c 917c 2f3e 5787 9dbe
000000d0: 5572 94be a315 98bd 37f4 bbbd 3a96 80be
000000e0: f082 21be 485c 823e d557 cf3d e574 35be
000000f0: 30c3 873e e106 fd3e b0d8 e43d 169e bd3d
00000100: 7adf a33e eea4 853e 210f 15be e339 75bc
00000110: 2ba5 3b3e 5a5c 57bd d409 2bbe d3d2 82bc
00000120: f115 9abe d50d 71be c107 46be 9170 923d
00000130: 5955 87be 20a6 92be 2c16 8239 0124 40bd
00000140: 1a14 d7be 2e80 08be d6f5 95be af48 d33c
00000150: f875 c53e f975 1b3e 2c74 36be a945 193e
00000160: eecf 6f3e edb3 e6bd cffa 5dbe bd2e d0be
00000170: af17 1dbe 0e2d 903d a8fa 84bd 91ed 1bbe
00000180: e28a 5b3d 6de2 3b3e a649 63bd b22d cf3e
00000190: 2efe 163f 3b46 923d bc44 fcba b10c f13e
000001a0: 1064 bf3d e177 d5bd 5790 a53d ae56 9c3e
000001b0: 66a2 c63c a4d8 3c3e 22dc 483e 0d73 d9bd
000001c0: f311 223d b4b0 363e 75a5 6cbe fba1 61be
000001d0: 7e68 4fbd 7283 993d 664f 823e 26d2 033e
000001e0: 45b1 c9bd 4525 a43d 9811 793e 4938 10be
000001f0: 3eed 23be 08dc a73d 7275 983e 0a34 5539
00000200: 1da2 6dbe d468 763e b538 5e3e 9280 24be
00000210: 7da2 bb3e 3198 e33e 5ad8 d6bd 808b e63a
00000220: 8f24 aa3e f275 c53d 6c63 16be 0fd3 fa3d
00000230: e905 433e bd21 e2bc ce43 81bc 88b6 053e
00000240: cac3 913e 5b8c e63e f91f e73d 5429 e2bd
00000250: b2ed c93e 889c 453e ac0e 74be beb7 8c3d
00000260: 58de 263e 68fc 823e 4dd3 cebd bdc5 29be
00000270: 5e3e 903e 3cf3 ce3e 374b e43b b062 423e
00000280: 085f b43e bab1 7a3d 5e53 adbc 6206 5a3e
00000290: a37a bd3d 5498 61be ccc6 0f3d a0c5 293e
000002a0: 70b3 52be 1997 5dbe d48b dd3d 8cad 12be
000002b0: d962 8b3d 08f6 e33d c0ec 1fbe 252d 0abd
000002c0: dca7 0e3e be47 69be 0c8c 3ebe 6da2 e23d
000002d0: 0ed5 45be e013 99be ba89 9d3c d594 4a3e
000002e0: beef 20bd 9f70 b1bc 3f80 133e e5a3 223e
000002f0: ebf7 a03b b221 253e be9d a73e 84b2 a83d
00000300: bb9d 24be 1aac f43d 2b37 543e 9680 20be
00000310: 0033 31bd 2665 af3d d093 c5be 1de0 99be
00000320: de6b 13be 190d 6b3c be38 56be 99b5 4cbe
00000330: fc2f 873d 8629 a5bd 3b0c 80be a958 7cbe
00000340: a3cb a9be a60b 48be d84e 183e 34b8 03be
00000350: 4878 11be e826 d73d bc9f f73d 4363 e3bd
00000360: b758 893d fdfe 5cbe ef5a f8bd b695 4c3e
00000370: 6bb4 133e d3e1 0cbe abac a63d 0f37 0a3e
00000380: 5a3f 32bd 4be3 9fbe 0195 dcbe 019d edbc
00000390: 0f3b 4a3e e3e2 20be 2c56 41bd a48b 523d
000003a0: 3c3d 4e3d 8783 4ebe 34af 9e3d d84c 59be
000003b0: d215 ebbd 6a5e 913e 4178 f23d 3f4c 2dbe
000003c0: 7bdb 8e3d cc67 293e ca25 ffbd 3e15 103e
000003d0: 76b9 87bb cb0e ccbd 49fd 803e b907 89bc
000003e0: 9722 63bd b650 4a3e e8d3 f23d 041e 1fbe
000003f0: 5642 bfbd 61de a03d c9ee 493e b808 25be
0.056820244 0.15566738 0.10031165 -0.18373492 -0.08678255 0.19517381 -0.15871763 -0.14367472
0.04651904 0.14322387 -0.25541204 -0.22290996 0.20201959 0.191803 -0.13292435 0.16892318
0.22950447 -0.040550668 0.044848576 0.14045417 0.113172665 -0.18601261 -0.016593048 0.1114429
-0.17128618 -0.13008778 0.1725666 0.036804285 0.23136772 0.15675853 -0.259406 -0.061917678
0.15599376 -0.25675192 -0.28378865 0.061789762 -0.061178505 -0.22586718 -0.1991337 0.23640983
0.08190438 -0.24545838 0.11729483 0.10712146 -0.11928035 0.101029485 0.14637548 0.2126986
-0.10874084 0.02239529 0.17137362 -0.3076732 -0.28993478 -0.07426002 -0.0917744 -0.25114614
-0.15772605 0.2546103 0.101241745 -0.17720373 0.26516104 0.4941931 0.11174142 0.09258668
0.32006437 0.26102394 -0.14556552 -0.014967415 0.18324725 -0.052578308 -0.16702968 -0.01596967
-0.30094865 -0.23540433 -0.19338895 0.071503766 -0.26432303 -0.28642368 0.00024812052 -0.046909336
-0.42007524 -0.13330147 -0.2928912 0.025791494 0.38566566 0.15181722 -0.17817754 0.1496798
0.23419163 -0.11264787 -0.21677707 -0.40660658 -0.15341066 0.070398435 -0.064931214 -0.15227343
0.053599246 0.18348093 -0.05549016 0.4046455 0.589816 0.07142302 -0.0019246559 0.47079995
0.09345257 -0.10423256 0.08084171 0.3053488 0.02424736 0.18442017 0.19615224 -0.10617647
0.0395679 0.17840844 -0.23109992 -0.22034447 -0.05063676 0.07495774 0.254512 0.12873134
-0.098482646 0.08014921 0.24323118 -0.14083971 -0.1600847 0.081962645 0.29777104 0.00020332649
-0.23206373 0.24063426 0.2170132 -0.1606467 0.36647406 0.4445205 -0.104904845 0.0017589182
0.33231017 0.09641637 -0.14686364 0.122472875 0.19045223 -0.027603978 -0.015779402 0.13057911
0.28469688 0.45028958 0.11285395 -0.11043039 0.3943916 0.19297993 -0.23833722 0.068709835
0.16295755 0.25583196 -0.10098896 -0.16579337 0.28172582 0.40419948 0.006966974 0.18982959
0.35228753 0.06120465 -0.021157917 0.21291497 0.09251907 -0.22030765 0.035101697 0.16579294
-0.20576262 -0.2163967 0.10817686 -0.14324015 0.06805963 0.11130911 -0.15617657 -0.03373446
0.13931221 -0.22781274 -0.18608111 0.110661365 -0.19319555 -0.29897976 0.019230712 0.19783337
-0.039291136 -0.021660147 0.14404391 0.15882833 0.0049123666 0.16126135 0.32737535 0.08237174
-0.16075794 0.11946888 0.2072417 -0.15674052 -0.043261528 0.085642144 -0.38589334 -0.30053797
-0.14396617 0.014346384 -0.20920083 -0.19991149 0.06600949 -0.080645606 -0.2500933 -0.24643196
-0.33163175 -0.19535694 0.14873827 -0.12863237 -0.1420604 0.10505468 0.12091014 -0.11102917
0.06706374 -0.21581645 -0.12126719 0.19978985 0.14424293 -0.1375802 0.081384026 0.13497566
-0.043517448 -0.31228098 -0.4308243 -0.02900553 0.19749092 -0.1571155 -0.04720132 0.051402703
0.050351366 -0.20167361 0.07748261 -0.2122072 -0.11478771 0.28392345 0.11839343 -0.16923617
0.06975456 0.16543502 -0.124583796 0.14070603 -0.0041419817 -0.09963759 0.2519324 -0.016727315
-0.05545291 0.19757351 0.11856824 -0.15538794 -0.093388245 0.078549154 0.19719996 -0.16116607

bias f4 [32]
00000000: 732a 663d b645 6dbd a842 9abd af74 14bd
00000010: 35ff 113c 2aa9 a33d 96d5 5d3d 9e3a 2dbb
00000020: 2c4a 7eba 7de4 6e3d d35d 5a3d 6997 a3bd
00000030: 6efd 55bd 0daa f6bd 69c7 923d 2cbf ae3c
00000040: 0a07 873d 3301 e23c 8ff2 c0bb 520c e1bc
00000050: 137d 90bb 7b39 cebb 4ebd b7bc 27b6 7d3d
00000060: 07d0 1cbc b4ee d63d 2c49 883d ae5d c93b
00000070: a471 443c 376c 92bd 41c3 e0bd 7686 2ebd
0.056192826 -0.05792781 -0.07532245 -0.03624409 0.008910944 0.0799125 0.05415877 -0.0026432644
-0.00097003835 0.058323372 0.053312134 -0.079878636 -0.052243643 -0.12044153 0.07166941 0.021331392
0.065931395 0.027588462 -0.0058882902 -0.027471695 -0.0044094413 -0.0062934733 -0.022429135 0.061941292
-0.009571082 0.10494748 0.066545814 0.0061452007 0.011989985 -0.071495466 -0.10974742 -0.0426087

weight f4 [32, 32, 3, 3]
00000000: 2c44 51bd 51b5 4cbe fd52 ddbe cf38 8a3e
00000010: 3c42 873b 6a8b d7be 80c9 403e dfe8 3b3e
00000020: cf70 14be 2fa0 743d 74dd f9be 0718 023d
00000030: 6813 7cbd ffdc 86be 3222 10be 3374 2f3d
00000040: 5808 903e 2622 bd3e 66dc 173d bb9f 543e
00000050: 1c76 42bd 76a1 043d b7f2 a3be 7af0 6d3e
00000060: 0802 42bd 5f9b b5bc 835d e6bc 7f48 24bd
00000070: ca4d da3d eec3 1c3e 9bac a5b9 3f65 e63e
00000080: 1b43 983e 8444 95bd 0516 613e ed57 5bbe
00000090: d820 aabe 775d 95bd f1c4 44be ca0b 28bc
000000a0: 175f 81be 82da c5bc 3aea 08bd aee6 aabc
000000b0: 9434 623e 2030 38be 0a1c 823d 48fc e73d
000000c0: 6c0f 073d acb4 c5bb a3cf 0abe 02bb 363d
000000d0: 91a8 123e 61d4 2a3d b6ae 48be e7f7 aabd
000000e0: 48a1 09bf 053a d2bd 8f43 dfbe bacd 113d
000000f0: 6104 90bd 59e0 65be 094b 593e 4ead f1bd
00000100: bd6a 273e cf45 70be 5735 543e 8e4f aa3d
00000110: a70b 663e 6a9b 043e 572a a13d 2d07 08bd
00000120: 184e d6be c319 a0be 48cb 58be 1eae 863e
00000130: e352 3bbe 8ae9 f9bd d8de 903e dba8 293f
00000140: 4f2b 10be e017 d2bd e5cb ccbd d027 33bf
00000150: 23e9 773e f678 92bc 395d 293d fe5f aa3d
00000160: 243e a3bd ccb0 d0bd e436 71bd 9046 a93d
00000170: 482c cebd f7d8 623e 0f0f 783e c727 6ebe
00000180: 6691 20bd a1e6 c6bd d1e4 383e 3bc4 2abd
00000190: 3da5 853d 7aea b5be e35b 993d 79f4 13bf
000001a0: 6c78 a8bc 9d5c ec3d 0a87 a0bd 9bc4 e93d
000001b0: d346 07be 5f5d 1e3e 7333 db3d 4f80 073e
000001c0: 639d 113e 89f1 a1be fb3c aebd 6bdd 933d
000001d0: dfd0 1fbe 99bf e0bd 0d1c 21bf 4875 d63d
000001e0: 928e cebd 66ed 99bd d08d 12be 30e5 033c
000001f0: be6a 95be dc4a aebe 1617 763e 81a4 bb3e
00000200: 9372 923d 317c b63e 62ae 2e3e a7e9 fe3e
00000210: 63de 423e 9fcf 583e d5c5 0b3e c928 febb
00000220: 0f67 c03f 7c52 ce3e 791a 383f 15dd 4f3e
00000230: 149d e83e 8268 913d 4311 593e 2943 54bd
00000240: 9f29 0cbd 385a b5be 8f0a a83d 0be4 b5be
00000250: c2e2 f43d 9d71 e8bc 73b9 b63d 7fdf cc3d
00000260: 57ea d3bd f09d 85be 01d2 86bd a93d 20be
00000270: 5c7a 9f3e e784 143b 2a52 a73c 41b4 49bd
00000280: 0ddf 7c3e 63dd e4be d8f3 b73d a6ab e0bc
00000290: b47f b83e 917f 383f fcbc 333f 784b 083e
000002a0: 88d8 0cbd 28c0 fe3d a9b8 963e b927 09be
000002b0: fe4c dcbd 9b74 ad3e c7e6 f63c 6cde a83e
000002c0: 33b2 c3be a702 81be 09db 0ebd 1bb5 02be
000002d0: 2aa8 963c 243a 893d 41cf 80bd eb42 4f3e
000002e0: 86a8 c23e 206e 8d3e c57c ccbd 55a9 493d
000002f0: 484c 4fbe 9eac e4bd dcb8 493e 86e8 8cbe
00000300: 70f7 fd3e 952d 25bc c0bc 293e ed16 46bd
00000310: e94a f33d 86e9 ac3e daa8 0ebe 7c74 093e
00000320: a860 b6be 1df6 cc3d d104 b9be 405a 56be
00000330: a580 02bd c145 51be 4b3d 4f3e d18a 5ebe
00000340: 615e ae3d b8b5 993d 76a2 ae3e fc92 f83e
00000350: 1486 98bd b907 8a3c f37e 643e 6488 d13e
00000360: 9843 85be 86e9 81be 6534 c93e aecd 953d
00000370: 6096 aa3e 8486 9cbd ffce e8bc 478b e53d
00000380: 9b89 d5bc 692d e6bd f007 873e 40f4 3d3e
00000390: 25f5 973e c1b1 b43e 01a6 fa3c 0a8a 41be
000003a0: 1079 9f3e 728e ba3e 32e1 96bd 6186 3f3e
000003b0: f917 84bd 955b d8bd bfd0 c2bd 3c92 38be
000003c0: 22e8 183e 052d d13e 936d 003e 6fa6 d53c
000003d0: 06b0 b3be 4a93 64be ec85 c53e 45ca 20be
000003e0: e649 97be 3382 053d 664d 073d 33f4 9abe
000003f0: cdbe 273e 7f4a a23e b39a 33bd 1486 b43d
-0.051090404 -0.19991042 -0.43227378 0.26996467 0.004127769 -0.42098552 0.18826866 0.18350552
-0.14496158 0.059723075 -0.48801768 0.031761196 -0.061541945 -0.26340482 -0.14075544 0.042835426
0.28131366 0.36940116 0.037075423 0.20764057 -0.04747592 0.032380544 -0.32021114 0.23236266
-0.04736522 -0.022168813 -0.028120762 -0.0401082 0.10659368 0.15309116 -0.00031599854 0.4499912
0.29738697 -0.07288459 0.21981056 -0.2142026 -0.33228183 -0.07293218 -0.19215752 -0.010256717
-0.2526786 -0.024152044 -0.0334265 -0.02086195 0.2209037 -0.17987108 0.06353004 0.11327416
0.03297369 -0.0060335007 -0.1355577 0.04461194 0.14322115 0.041706447 -0.19597897 -0.08348065
-0.5376172 -0.102649726 -0.4360623 0.035596587 -0.07032085 -0.22448863 0.2122003 -0.11800633
0.16349311 -0.2346413 0.20723473 0.08315955 0.22465383 0.12949911 0.07869404 -0.03320997
-0.41856456 -0.31269655 -0.21171296 0.26304716 -0.18293338 -0.12202747 0.28295016 0.6627328
-0.14079021 -0.1025846 -0.09999827 -0.69982624 0.24210028 -0.017879944 0.04134867 0.0831909
-0.07970837 -0.10189971 -0.05889024 0.08265412 -0.1006704 0.22153078 0.24224494 -0.23257361
-0.039201163 -0.09711958 0.18056037 -0.041691046 0.06525657 -0.35530454 0.07488229 -0.5779491
-0.020565234 0.11541102 -0.07838257 0.11414453 -0.13210611 0.15465306 0.107031725 0.1323254
0.14220195 -0.3162959 -0.08507725 0.072199665 -0.15607022 -0.10974044 -0.6293343 0.104715884
-0.10085787 -0.07515983 -0.1431191 0.008050248 -0.29183 -0.34041488 0.24032244 0.36648944
0.071507595 0.35641626 0.1705871 0.49787638 0.19030146 0.21172951 0.13649686 -0.007756327
1.5031451 0.40297306 0.71915394 0.2029918 0.4543234 0.071000114 0.21197991 -0.05182186
-0.03421938 -0.35420394 0.08205139 -0.35525545 0.11957313 -0.028374488 0.089220904 0.10003566
-0.10347431 -0.2609706 -0.06583024 -0.15648521 0.3114804 0.0022662224 0.020424921 -0.04924417
0.24694462 -0.44700155 0.089820564 -0.027425598 0.3603493 0.7206965 0.7021024 0.13310039
-0.034386188 0.12438995 0.2943776 -0.13394059 -0.107568726 0.33878025 0.03013934 0.32982194
-0.38221893 -0.25197336 -0.034876857 -0.12764399 0.018390734 0.067005426 -0.062895305 0.20240371
0.38019198 0.2762308 -0.099847354 0.049233753 -0.20243943 -0.111657366 0.19699425 -0.2752115
0.49602842 -0.010081668 0.16575909 -0.048361707 0.11879522 0.33771914 -0.139316 0.13423342
-0.35620618 0.1000788 -0.36136487 -0.20932865 -0.031860966 -0.20436765 0.20238225 -0.21732642
0.08514095 0.07505363 0.34108323 0.4854964 -0.074474484 0.016849386 0.22314052 0.4092437
-0.26028132 -0.25373477 0.39297786 0.07314621 0.33317852 -0.07642844 -0.028419016 0.11208206
-0.026066592 -0.1123913 0.26373243 0.18550205 0.29679218 0.35291865 0.030596735 -0.18900314
0.3114705 0.36436802 -0.07367171 0.18703605 -0.06449885 -0.10564343 -0.095124714 -0.18024534
0.14932302 0.4085466 0.12541799 0.026080338 -0.35095233 -0.22321811 0.38578737 -0.1570216
-0.29548568 0.03259487 0.033032797 -0.30264434 0.16381378 0.3169746 -0.043848705 0.08814636

bias f4 [32]
00000000: d2b1 793d bb92 8e3b aee8 92bc 6986 593d
00000010: ddf4 e83c e14e eb3c 575e 1d3d 12c5 bebd
00000020: 757b 34bd 4e30 b83c 6303 4a3d 4f59 1bbd
00000030: 5493 023d 5c47 413c 3def 3b3c ab70 8c3d
00000040: 0a30 123c 975a ee3c 024a ad3d c396 36bb
00000050: 1d5b 843d 9a8f 55bc a18d 5cbc ba47 513d
00000060: e4ea 9f3c 180d bb39 8ad9 a13d 93bd 003c
00000070: 35fd 16bd b864 ff3c 2247 533d 2591 063c
0.0609606 0.0043509877 -0.017933216 0.0531067 0.028437072 0.028724136 0.038420048 -0.09314932
-0.04406305 0.022483971 0.049319636 -0.03792697 0.031878784 0.011796799 0.011470613 0.06857427
0.008922586 0.029095931 0.084613815 -0.0027860857 0.06462691 -0.013034726 -0.013461501 0.051093794
0.019521184 0.00035677175 0.079028204 0.007857698 -0.03686257 0.031175956 0.05158151 0.008213316

weight f4 [10, 32, 3, 3]
00000000: 1cdd dc3e f203 8abc ac77 f9bd c4bb 4cbf
00000010: 6f9f eb3e b7ea df3e 4e6b 80be e335 e0be
00000020: 876a 42be 3f13 92be 2e72 efbd 4705 663d
00000030: 6f59 413e 7bd6 283e 6f2b 1ebe 66f5 2e3e
00000040: 923a 0ebb 8f92 953e c9eb e53e 0636 873f
00000050: 59a0 55bd 5f95 743f 40e6 0ebf f7e8 2fbf
00000060: f621 563d c4dc 7c3e 1990 63be bb47 62be
00000070: 8c71 ddbe 68f4 adbd 3fbd 903d 94b8 b1be
00000080: 0f1d 76bd 6f4a 7e3e ba72 bb3d 6cd8 b83d
00000090: 04f9 a5bd 8400 17bf e5cc 87bd 7c36 1f3e
000000a0: b9dc 38be 213b 933e 8a6f ca3d cb61 a2be
000000b0: b8b2 1a3d d342 0abd 1c84 ecbe 8d88 133e
000000c0: a201 5c3f d6ad 9c3e b024 62be 6a4c 49be
000000d0: e03e 0d3e 16c8 633d aa58 6c3b bb13 92be
000000e0: 8dcc 46be 170a 2abf 555b d53d 7337 17bd
000000f0: 102f 09be bab3 74be 5af0 453e b17b ea3d
00000100: 50e9 73bc 6815 ef3d 9db4 e73d 7648 37bf
00000110: 7ae4 b93e 1b70 05be f407 22bd 3a97 e5bd
00000120: 1671 353c 6ec4 0bbf 4133 21be a8d7 0b3f
00000130: 76cf 83bb da0e a23d 27e7 3b3e 992f ecbc
00000140: 7d45 8abd 6067 283e c9fd 6e3d 95ae 943e
00000150: c223 a53d fd06 843e 97d2 43be c1a5 b5be
00000160: 4d1f 4cbe 6e3c dabd 5363 383e 8e0f 3e3e
00000170: a0f9 9e3e 7ba1 133f 57b2 883d e554 4fbe
00000180: 68d2 7fbe 193c 9ebe 11e7 213e 2781 d5bd
00000190: 2932 bd3e a421 093d 9e93 0f3e c7f6 babe
000001a0: cda7 38bc 6a5a 3ebe 3a16 0abf 4722 e23c
000001b0: 972e 01be 7c91 05be 3cd2 2f3f 950b b93e
000001c0: ea6a 77bd a797 a2bd 34f6 74be 9e64 8cbb
000001d0: cc96 893d a356 7bbc 0bfd 8a3e fe5f 1ebd
000001e0: 47b8 bc3e 04b5 543b 8ac2 543e c80b 9fbd
000001f0: 4f82 2b3e 11b3 d0bb 129c a23d cff7 e4be
00000200: 570f 34be fe0d c63e 1108 ecbd 75f1 a23e
00000210: 7d3e f43b c30c f63e 3330 f3bc 5910 1b3f
00000220: 90bc 063f 4b1c 193c 901a 68bf 490f 97be
00000230: 7e77 1b3e 368b 17bf 26cd edbe c9cd 58be
00000240: 9520 40be caa9 8b3e e193 413e 003f 423f
00000250: 2d2f f9bd d57d 6fbe 607f adbe a9fd 18be
00000260: a025 e83e 8ee9 f5be 9d41 f9bd 2ae0 923e
00000270: e632 2cbf 56a4 45bf 9a48 fcbd 895d e0bc
00000280: b10a 353e d429 913d 1d3e 5cbe 4ace 14be
00000290: fe81 f03d b120 fb3e 9f8c 3f3f 29a9 be3e
000002a0: 8888 393d 81b9 91be fadd 503d d559 1ebe
000002b0: bfe6 83be d2f8 81be fc40 fcbe 180a 3ebf
000002c0: a19a 483e 3cfa a73e 4a88 bbbe 6195 ebbc
000002d0: 1df6 fcbc 6a3d 46bd f509 93bd 687d dcbe
000002e0: 8def 0dbe 0028 cfbd 1582 a33e 9afc 083f
000002f0: f4f3 9e3e 0a1a 7abe b2c4 353e e38e bd3e
00000300: 30ae 7c3f 001d 493c fe85 32bf 7781 2abf
00000310: fd18 2e3e cce4 133d 7c3b af3d 9d7b a8bd
00000320: 1931 8bbd 08b6 98be eab8 953d a074 8c3e
00000330: 40ab 58be 44d0 663e 5711 cf3e 3f48 a43c
00000340: 56d9 1a3f 090f ba3d a0d3 3d3e 1af6 e4bd
00000350: 04e6 c2be 16e8 633d 8410 d7bc 6fe6 d1bd
00000360: f5fc 503f 4839 073f 02f1 18be be02 003f
00000370: cee3 4cbe 368d 063e fbf5 2c3d f47c 043d
00000380: 39cf f5be 07ee 153f 86c9 5e3f b556 43be
00000390: 368a c03e e747 1a3e 3160 583e e1b7 24be
000003a0: 232a 58bd ce02 443e c8dd a73d c54c 003d
000003b0: e10e 883e 2509 bfbc f42c 0e3d 748d 06bf
000003c0: 1de9 70be 07f3 b5bd b323 523e 1fdc c3bd
000003d0: 5850 64bb 947e 3a3d 5e6d 79bd a3a4 75bd
000003e0: 751d dc3d d8a1 2ebf b6b9 5bbe 7872 12be
000003f0: 9273 a53d 33b8 5abe f579 b6be 20ff 17bf
0.43137443 -0.016847584 -0.12181029 -0.7997401 0.46020076 0.4373376 -0.25081867 -0.43791112
-0.1898595 -0.2853031 -0.116917 0.056157377 0.18881772 0.16488068 -0.15446256 0.170858
-0.002170239 0.29213378 0.44906452 1.0563362 -0.052154873 0.9554042 -0.55820084 -0.6871485
0.05227848 0.2469359 -0.22222938 -0.22097676 -0.43250692 -0.084938824 0.07067346 -0.34711134
-0.060086306 0.24833082 0.09152742 0.09025654 -0.081041366 -0.5898516 -0.066308774 0.15548128
-0.18052949 0.2875605 0.09884556 -0.31715235 0.037768096 -0.033755135 -0.4619454 0.14407559
0.8593999 0.30601376 -0.22084308 -0.19658056 0.13793516 0.05561074 0.003606359 -0.28530678
-0.19413967 -0.66421646 0.10417811 -0.036918115 -0.13396859 -0.23896685 0.19329968 0.114493735
-0.014887169 0.11674005 0.11313746 -0.7159494 0.36307126 -0.13031046 -0.039558366 -0.11210485
0.011074325 -0.545966 -0.15742208 0.5462594 -0.004022534 0.07912989 0.18349896 -0.02883129
-0.06751535 0.16445684 0.058347497 0.29039446 0.08063461 0.25786582 -0.19123302 -0.35478023
-0.19933815 -0.10656057 0.18006639 0.18560621 0.31049824 0.57668275 0.066746406 -0.20247228
-0.24982607 -0.30905226 0.15810801 -0.104250245 0.36952332 0.033479348 0.14021155 -0.365164
-0.011270476 -0.18589178 -0.53940165 0.027604235 -0.12615429 -0.13043779 0.6868017 0.3614165
-0.060404696 -0.07939082 -0.23922044 -0.0042844554 0.06718215 -0.01534048 0.2714618 -0.038665764
0.36859342 0.0032456527 0.20777336 -0.07765919 0.16748928 -0.0063690026 0.07939924 -0.44720313
-0.17583977 0.3868255 -0.11524976 0.31824842 0.0074537382 0.4805661 -0.02968607 0.6057182
0.52631474 0.0093451245 -0.9066553 -0.2950385 0.15182301 -0.59196794 -0.46445578 -0.21172251
-0.18762429 0.27277976 0.18904068 0.7587738 -0.12167201 -0.23387845 -0.33886242 -0.14940514
0.45341206 -0.4802975 -0.12170718 0.2868665 -0.67265165 -0.7720388 -0.12318535 -0.027388351
0.1767986 0.07088056 -0.2150807 -0.14531818 0.11743544 0.4904838 0.74823946 0.37238434
0.045296222 -0.2846184 0.050992943 -0.15463956 -0.25761983 -0.25385147 -0.4926833 -0.7423415
0.19590236 0.328081 -0.36627418 -0.028757753 -0.030879075 -0.048398413 -0.071796335 -0.43064427
-0.13860913 -0.10115051 0.31935182 0.5351044 0.31045496 -0.24423996 0.17750815 0.37023076
0.9870329 0.012274981 -0.69735706 -0.666038 0.1700172 0.03610687 0.085562676 -0.08226702
-0.06796474 -0.2982638 0.0731066 0.27432728 -0.21159077 0.22540385 0.40442917 0.02005398
0.6048788 0.09084899 0.1853776 -0.11179753 -0.38066113 0.055641256 -0.026252992 -0.1024903
0.8163598 0.5282178 -0.14935687 0.50004184 -0.20008776 0.13139805 0.042226773 0.032345727
-0.4800966 0.58566326 0.8702625 -0.19076045 0.37605447 0.15066491 0.21130444 -0.16085769
-0.05277456 0.19141695 0.08196598 0.031323213 0.26573852 -0.02331979 0.03471084 -0.5255959
-0.23526426 -0.088842444 0.2052143 -0.09563469 -0.0034837928 0.04553087 -0.060895316 -0.059971463
0.10747806 -0.68215704 -0.21457562 -0.14301479 0.08078684 -0.21359329 -0.3563992 -0.59373665

bias f4 [10]
00000000: 9b72 f5bc 56fb 67bd 0eab cd3c 3ec5 a3bd
00000010: 175f 1a3c 219f 78bd ccfe b03d cb9d 543d
00000020: 8f95 a73d d032 93bd
-0.029961875 -0.056636177 0.02510598 -0.07996605 0.009422085 -0.060698632 0.08642349 0.051908296
0.08182823 -0.07187426

weight f4 [10, 32, 3, 3]
00000000: 16a6 65be a7c4 5bbf e105 26be 2ec6 73be
00000010: 2c01 abbe 8ceb ff3d a2a6 27be 08ff 71be
00000020: af2d ad3f 2391 8bbe 0ed2 d9bf 38a0 10be
00000030: 18b5 c63e 8316 da3d d221 97be 1420 f43d
00000040: 0c97 b23e 6615 08c0 9da1 5abd 5dac 26bf
00000050: e21c 3c3e 42c4 b0bc 5941 723e 1098 fe3d
00000060: 6538 08bf 8709 60be 4f4b a4be ca72 69bf
00000070: df10 ebbe dcd8 d0be 8dd5 a6be 0833 0a3f
00000080: 4177 cdbe 768d d13f 38db 2a3d 9739 88bf
00000090: 6f31 0fbe 8a57 0dbf 58a0 20be f1d2 9e3e
000000a0: a397 083e cf85 f63e e2ff febe 8f95 37bf
000000b0: 24c9 ab3f b223 0b3d 3db6 83bd 1f02 933e
000000c0: b288 1f3e 2d07 1cbf 4101 af3e 88ec 0dbe
000000d0: b598 30bf 3ef8 013f c959 253e cbe4 d7be
000000e0: d577 13bf e414 c7bb 50cd fcbc 4d20 cfbd
000000f0: 6417 31be 1ee6 32bf c9ed 59bf 7a2c 21be
00000100: 2acb cfbe f173 7cba 37bf 303e a5c2 c23d
00000110: 1e19 2dbd db35 86bc 2f62 603e 1466 86bf
00000120: b89f 89be 11bc 673f 1010 a0be c30d d33e
00000130: 3977 eb3d 6fdb 98bf f2cc 823e ad5c dabc
00000140: a28a 823f b4a3 d1bd ff4e 1ebe ff89 49be
00000150: 8384 d9be 0046 123f 6a21 5dbe ecd7 073f
00000160: 4f07 8bbe a882 03bf cacc 873e 3ea0 fbbd
00000170: b624 1ebe 5043 15be 5775 2cbf 59a4 f3be
00000180: 63be 0b3f 61f9 2abe e941 453f 0e2c f93c
00000190: 6096 243f c25e 4e3e 5706 8abd a87c adbe
000001a0: d9b0 fcbe 9cc9 f63e ca2d 2cbe 49e0 463e
000001b0: 14db 89be 67b9 483e 69c8 0b3f 644f 36bc
000001c0: be5b cf3e 5024 8bbf 26b8 00bf 8be8 92bd
000001d0: a926 08c0 f2d9 6ebe f0b8 4bbf 7a50 663e
000001e0: 01d5 8dbe cb0e 2f3e aa94 303f a5e3 323e
000001f0: 1f95 7abf 8a8e 24bf 488e 893c 8a5b 8abe
00000200: 2e2c 43be 2d9c 26bf 79af 0abe f0d1 a43f
00000210: 4794 4a3b 4112 ec3e 2384 e0bf a8cb 57be
00000220: b931 623e f484 d6be 96a5 033e 5945 003f
00000230: a53d 3a3f c018 953e 1289 81be ad2c 8cbf
00000240: 137f a53e af88 afbd c7db 2a3e 3870 b2be
00000250: da18 07be 80c8 533f 0153 27be ece5 b7be
00000260: f7a3 fbbf 47e0 1cbe 7cf0 74be fc6c fabd
00000270: 667b 57bc 917b 24be 66de 9bbe 7354 97bd
00000280: d148 f9bc a2c0 31bf 2a50 563e 153c 06be
00000290: 7fd1 e1be c863 dbbe 23b2 23be 7405 a63e
000002a0: 43cd 673e 5de1 b9bd e921 46bf 856f 30be
000002b0: 0457 00be c609 763e 4518 373e 4ac6 91be
000002c0: a359 153f 98fc e4be efc4 39bd 9cad 3dc0
000002d0: 4779 263d 8e0b 5f3e c4c2 fd3e 5158 15bf
000002e0: 69bf 34be 6744 ad3e 8a64 b9be 6fcb 43be
000002f0: 36c1 abbd 72b2 87be 1b28 073e 8cad 8dbe
00000300: 3372 bbbd 56b9 05bf fc64 bf3d f41f 75bd
00000310: 52c1 89bd fb0f 3ac0 a278 c03b f91f 77be
00000320: 1114 29be 1d72 e23e 353d 353e bda8 db3e
00000330: 1d11 ca3e 56db 973e e34d 9f3f c037 f6bd
00000340: 75d1 483e 55d5 bebe e665 0dbe aa04 28be
00000350: f038 223e f1a0 323e f04e d33e ec7f 83bf
00000360: 7be6 233e 4c88 d1be 2e4d f13e 03fa d4bc
00000370: 8861 cf3e 6877 633f e49e 0abe 2cee 20bf
00000380: 5352 8a3f 8415 0fbe a542 29bc 661c 5e3e
00000390: 0246 72bf 0982 86bd 55da 4cbd f09d 94bd
000003a0: d7cd 46be ee56 0cbf 2b76 fcbe 501f 82bd
000003b0: 763e c7be a059 053f 5f7c 123e 53b3 2d3e
000003c0: d001 e4be d76b aebf 9ae4 17c0 0d3d 9a3e
000003d0: 69c4 a8bd e0b7 7ebe f694 6f3f 2aec 903e
000003e0: c234 2f3f 52a3 b6be 5bec 89bf a6c5 42bf
000003f0: bbdd c7be a4c0 2c3f 1adf ecbe 9fc1 b03d
-0.22426638 -0.8584694 -0.1621318 -0.23806068 -0.33399332 0.12496099 -0.16372159 -0.23632443
1.3529567 -0.27259168 -1.7017229 -0.14123619 0.3881004 0.10648825 -0.2951799 0.11920181
0.34880865 -2.126306 -0.053376783 -0.65106755 0.18370393 -0.021577958 0.2365774 0.12431347
-0.5321105 -0.21878634 -0.32088706 -0.9119078 -0.4591131 -0.4079045 -0.325848 0.5398412
-0.40130046 1.6371295 0.04171297 -1.0642575 -0.13983701 -0.552117 -0.15686166 0.3102031
0.13339095 0.48148963 -0.49804598 -0.71712583 1.3420758 0.03396959 -0.064312436 0.28712556
0.15579489 -0.6094845 0.34180644 -0.13859761 -0.6898301 0.5076941 0.16147532 -0.42166743
-0.57604724 -0.0060754884 -0.03085962 -0.10113583 -0.17294079 -0.6988238 -0.85128456 -0.15739623
-0.4058469 -0.0009630314 0.17260443 0.09509782 -0.04226028 -0.016383102 0.21912454 -1.0499902
-0.26879668 0.9052134 -0.31262255 0.41221437 0.11497349 -1.1941966 0.25546986 -0.02665552
1.0198557 -0.10236302 -0.15459822 -0.19681548 -0.4248391 0.5713806 -0.21594778 0.53063846
-0.27154014 -0.5137124 0.2652343 -0.12286423 -0.15443692 -0.14576459 -0.67366546 -0.47586325
0.5458738 -0.16696693 0.77053696 0.030416515 0.64291954 0.20153335 -0.067394905 -0.33884168
-0.49353674 0.4820069 -0.16814342 0.19421495 -0.26924956 0.19601975 0.54602677 -0.011127327
0.4049968 -1.0870457 -0.5028099 -0.0717326 -2.1273596 -0.23325327 -0.7957907 0.22491637
-0.27701572 0.17095487 0.68976843 0.17469652 -0.9788379 -0.6428 0.016791478 -0.27022964
-0.19059822 -0.65082055 -0.135435 1.2876568 0.0030911134 0.46107677 -1.7540325 -0.21073782
0.2208928 -0.4189831 0.12856135 0.50105816 0.7275031 0.29120445 -0.2529989 -1.0951134
0.32323512 -0.08570992 0.16685401 -0.3485124 -0.13193074 0.82727814 -0.16340257 -0.35917604
-1.9659413 -0.1531993 -0.23919863 -0.12227818 -0.013151979 -0.16062762 -0.30443114 -0.07389154
-0.03043023 -0.6943456 0.20929018 -0.13108857 -0.44105145 -0.42849565 -0.15985923 0.32426035
0.22636895 -0.09076188 -0.7739549 -0.17230041 -0.12533194 0.24027166 0.17880352 -0.28471595
0.583399 -0.44723964 -0.045353826 -2.9637213 0.040643003 0.21781752 0.49562657 -0.58337885
-0.17651142 0.3384125 -0.36209518 -0.19120573 -0.083864614 -0.2650333 0.13198893 -0.27671468
-0.09152641 -0.52235925 0.09345433 -0.059844926 -0.06726326 -2.9072254 0.0058737556 -0.2413329
-0.16511561 0.44227687 0.1769913 0.42902175 0.3946618 0.29659528 1.2445644 -0.12022352
0.19611152 -0.37272134 -0.13808402 -0.16408029 0.15842032 0.17444207 0.41271162 -1.0273414
0.1600589 -0.409243 0.47129196 -0.025998121 0.40504098 0.88854074 -0.13537174 -0.6286342
1.0806373 -0.13973051 -0.010330831 0.2169052 -0.94638073 -0.06567771 -0.050012905 -0.07256687
-0.19414459 -0.54820144 -0.49308905 -0.06353629 -0.3891484 0.5208988 0.14305256 0.16962938
-0.44532633 -1.362666 -2.3733277 0.30124703 -0.08240587 -0.2487483 0.9358667 0.2830518
0.6843988 -0.3567148 -1.0775255 -0.7608284 -0.39036354 0.67481446 -0.46263963 0.0863068

bias f4 [32]
00000000: 8e23 88bc 9907 17bf 4a61 e6bc b976 0d3f
00000010: b53a 383d 0e6c e53b b048 62bd 56f3 da3d
00000020: a466 39bc ac84 22be 25e9 a1bc 14cb 843e
00000030: dd08 10bf 93d1 983e 8c90 3f3e f3fa e33c
00000040: 6576 79be bbb3 14bd 0052 d43c 67f5 0e3d
00000050: c2f6 99bd 48dd 7ebe 3456 d43e ae75 283d
00000060: fbd2 b43e ef2b ae3e 3b40 953c 6ac5 c03e
00000070: 3366 82bd 282d ddbe 4f70 d93e 74a8 23be
-0.016618516 -0.5899597 -0.028122563 0.5525928 0.044977862 0.0070014065 -0.0552451 0.10690944
-0.011315975 -0.15870923 -0.019764492 0.25936186 -0.56263524 0.29847392 0.18707484 0.027829623
-0.2436157 -0.036304217 0.025918007 0.034902003 -0.075177684 -0.248891 0.41472018 0.041127853
0.35317215 0.34017894 0.018219104 0.37650615 -0.06367149 -0.43198514 0.42468497 -0.15982229

weight f4 [32, 32, 3, 3]
00000000: 4b4b 46bd 4f02 8c3f 3ea8 d63d 82c9 4b3e
00000010: 8168 af3f d938 b9bf ccc1 12be f39b 2f3f
00000020: 573a 6b3e 18ac 863f 7ade 853f 9cfe adbf
00000030: bb01 5e3f 5da9 59bd 62b3 94bf 827f ac3c
00000040: f0a9 c4be 2cb4 4bbe e893 d13e d85e a53e
00000050: 3984 873f 1361 813e dcb1 ccbe 56b0 85bd
00000060: c8da 4ebe c850 d7be 9c3c 153f 845e 17be
00000070: 8088 883f 76ee 18bf 104e 4d3f 4c3f 753f
00000080: 9925 193e 099a f23d c2e8 693d 0c82 d0be
00000090: 9a66 183f 4ccc 133f 3a44 93be e1c1 e3bd
000000a0: 1a2f c73e 8661 993f 7d9a cfbb c898 0ebe
000000b0: e6d9 cbbe 11ce 85bc f326 9f3f 34e5 c5be
000000c0: 77c8 133e e4e0 b63c 502e a2bf 20ad d6be
000000d0: d287 673f 6751 a03e 8252 073f ec1c 343e
000000e0: 2cfb 9ebe 5bc8 883f e3aa 74bc 0058 c0bf
000000f0: d3ad b43e a389 82be bf83 d2be fcce 16be
00000100: 0d6c 9a3f d318 d5be 2c58 753e 7545 e03c
00000110: dc7c b9bf 9c6c 09bc ddad 713f 7bae 80bd
00000120: b1bd 9c3d f79c 483f 9947 bc3e 1182 20be
00000130: 4a31 213e 516c 6c3e bfc2 2bbe ece0 0ebe
00000140: e91f a33e 8fd9 44bd 9b8d c53e 3c13 71be
00000150: da2f 4d3e 451a 9b3e a129 503f 2404 f83c
00000160: 86ed d0be 31f5 09bf 7646 e73e f302 ce3f
00000170: ca05 113f 13e7 82be 1440 2abe 77d2 68bf
00000180: 2b9b 05be 5b54 99bd 34d7 cb3e 8939 0a3f
00000190: 5ea3 84bd 395f 2f3e f6a4 863e e065 1cbe
000001a0: 8931 2ebd 5c58 293f 7413 16bf 49ff a1be
000001b0: 46e6 533f 19e5 753f febe 29be acbb c5be
000001c0: a95d 6d3e 8eb2 3ebe 6d32 933e a349 cabd
000001d0: be97 08be f54c ae3d 89f2 9a3f 8d93 6f3e
000001e0: 492e 0abe a4ce 5abe 55c1 a5bf a915 edbc
000001f0: b5f3 533f afd2 21bf bd6c 643f b453 ba3f
00000200: 89e5 a4be 4044 6d3f e44a b93d a0b9 d7bf
00000210: 3aad a0bd a047 13bf 0374 2cbc 8bc3 92be
00000220: 0dd5 ca3f c1c2 623e 3177 f6be a794 2cbf
00000230: 1e70 76bf 4d50 05bf 1690 86bf 479b 16bf
00000240: 3025 debe c8d3 bb3d 2900 7bbe 8002 c23e
00000250: 76cc a63d f5b3 1b3f 6d3d 73be 4182 f1be
00000260: da8c c23d ffe8 da3e 30b8 923f 3696 a8bf
00000270: aded 393f 7f20 a4bd 6fa6 acbf e74a 56be
00000280: b57d 553f e9ea a6be 9ffd 4b3e 8641 b93e
00000290: acc4 803f 63d5 043e 83cf 9cbe f86c 363e
000002a0: fb26 a8be 9baa 41be 314d f83e ac55 cc3e
000002b0: 806b 043e 7949 79be 7c65 593e 7b09 18be
000002c0: d0aa a1be 89ee 563d 6221 81be 2781 653e
000002d0: a063 39be 0e46 653f 0a76 d23f 57a0 123c
000002e0: 50b4 07be 6f8e df3e f648 55be 480d 993d
000002f0: 0ed5 3f3e 47c5 b43e 711b b63f de1b ca3f
00000300: 2bcd 32be 64c5 4ebf 1f30 16bf a5f0 3dbd
00000310: d45d 17bf d073 16bf 5a41 163d 284f ad3e
00000320: a459 773f 48c7 83bd 3942 4a3e 9a07 e83e
00000330: 39cc e4be 4278 cabd e7f2 303f c0b5 38bf
00000340: e73d 5d3e 8229 4dbf e2c0 c93e e835 c73d
00000350: aaa9 7c3f c400 003e ee4a 77be be45 163e
00000360: 5a28 773e f3bc 36bf 8238 413e 59b5 0d3f
00000370: 83c3 9dbd 21be 8abf c892 443d 07cd 52bf
00000380: 3d66 3bbe 9147 91bb 1121 453e c0ec 3abe
00000390: df08 9e3e 54c9 033e ddfe 313e de96 90be
000003a0: 7630 bcbe c5be 4abd 2fc5 0a3d 97b3 c73d
000003b0: 25ac b83e ae51 393e 8532 923b 94c3 b73e
000003c0: 1d37 633d 93b9 9dbe e48a 15be e54b aa3d
000003d0: 82dd 683f 962d f83f a163 44be 79ff 8dbe
000003e0: 0bd2 22bd bc4e f8be afb7 76be 2606 013f
000003f0: f822 22bf fd05 f83e 2aba a2bd 24c1 883f
-0.04841165 1.0938205 0.104813084 0.19901088 1.3703767 -1.4470474 -0.1433174 0.68597335
0.22971474 1.0521269 1.045852 -1.3593326 0.8672139 -0.053140033 -1.1617243 0.021056894
-0.38410902 -0.19892949 0.40933156 0.32298923 1.0587226 0.25269374 -0.39979446 -0.06527774
-0.20200646 -0.4205382 0.5829561 -0.14782149 1.0666656 -0.5973886 0.8019724 0.9579971
0.14955749 0.11845786 0.05710674 -0.40724218 0.5953156 0.5773361 -0.2876299 -0.11120964
0.38903123 1.1982887 -0.006335555 -0.13925469 -0.3981468 -0.016333612 1.2433761 -0.3865143
0.1443194 0.022324033 -1.2670383 -0.4192896 0.9044162 0.31312105 0.5286027 0.17589158
-0.31051004 1.0686144 -0.014933321 -1.5026855 0.35288867 -0.25495633 -0.4111614 -0.14727396
1.2064224 -0.41620502 0.23959416 0.02737687 -1.4491229 -0.008387711 0.9440592 -0.062832795
0.07653368 0.7836451 0.36773375 -0.15674616 0.15741459 0.23088194 -0.16773508 -0.13952988
0.31860283 -0.048059043 0.385846 -0.23542494 0.20037785 0.3029348 0.8131352 0.030275412
-0.40806216 -0.5388976 0.45170945 1.609465 0.5664946 -0.2556692 -0.16626006 -0.90946144
-0.13047473 -0.07486793 0.39812624 0.5399404 -0.06476472 0.17126168 0.2629773 -0.15273237
-0.04252771 0.6615045 -0.58623433 -0.3164008 0.82773244 0.960527 -0.16576764 -0.38619745
0.2318026 -0.186228 0.2874941 -0.09877326 -0.13339135 0.08510772 1.2105266 0.2339613
-0.13494219 -0.2136789 -1.2949625 -0.028940992 0.8279374 -0.632121 0.8922842 1.4556794
-0.3220637 0.92682266 0.090474874 -1.6853523 -0.0784554 -0.57531166 -0.010525706 -0.28664812
1.5846268 0.22144605 -0.4813781 -0.67414325 -0.9626483 -0.52075654 -1.0512722 -0.58830684
-0.43387747 0.091712534 -0.2451178 0.37892532 0.081444666 0.6082147 -0.23753901 -0.47169688
0.094995216 0.42755887 1.146246 -1.3170841 0.7262829 -0.08014011 -1.3488292 -0.2092701
0.8339494 -0.32601097 0.19920968 0.36182803 1.006002 0.12972026 -0.3062707 0.17815006
-0.3284224 -0.18912737 0.48496392 0.39909112 0.12931633 -0.24344434 0.2123012 -0.14847367
-0.31575632 0.05247358 -0.25220782 0.22412549 -0.1810441 0.8956002 1.6442273 0.008949361
-0.13252378 0.43663356 -0.20828614 0.07473236 0.18733618 0.3530676 1.4227124 1.5789754
-0.17461078 -0.80769944 -0.58667177 -0.046372075 -0.59127545 -0.58770466 0.036683418 0.33849454
0.96621156 -0.06434494 0.19751824 0.453183 -0.4468706 -0.098862186 0.6912064 -0.7215233
0.21605645 -0.8014146 0.3940497 0.09727079 0.98696387 0.12500292 -0.24149677 0.14675042
0.24136487 -0.71382064 0.18869212 0.5535484 -0.077033065 -1.0839273 0.047991544 -0.82344097
-0.1830072 -0.00443358 0.19250895 -0.18254375 0.30866143 0.1286977 0.17382379 -0.28240103
-0.36755723 -0.04949834 0.033879455 0.09751051 0.36068836 0.18097565 0.004461589 0.35891402
0.055472482 -0.30805644 -0.14603764 0.08315257 0.90962994 1.9388912 -0.1917863 -0.27733973
-0.039751094 -0.4849757 -0.24093507 0.50400007 -0.6333461 0.4844207 -0.07945664 1.0683942

bias f4 [32]
00000000: 3118 56bc 51d9 2a3e a235 99be f56a 97be
00000010: c5be abbe a633 1dbe b611 183d e25c a43d
00000020: 5258 c2be e0e8 d1be d869 74bc 35a2 edbe
00000030: a916 89be 8106 ecbb 84f3 473e 0ca4 fcbd
00000040: 35c5 b5be 8e6c 1e3e 6d9c bfbe 3231 7dbe
00000050: 0159 a5be 06ce b9be 7030 7dbe 5497 93be
00000060: 1eb3 a2bc c711 c6be db51 77be 4cd6 abbe
00000070: d014 23be ce87 dbbd 245e c1be d28a d2be
-0.013067291 0.16684462 -0.2992373 -0.2957379 -0.33543983 -0.15351734 0.037126265 0.080255285
-0.37958008 -0.40997982 -0.014917813 -0.46412817 -0.267751 -0.0072029238 0.19526488 -0.12335977
-0.3550202 0.15471098 -0.3742403 -0.24725798 -0.32294467 -0.36289996 -0.24725509 -0.28826392
-0.0198608 -0.38685438 -0.24152319 -0.33561933 -0.15925908 -0.10719262 -0.37767136 -0.41121536

weight f4 [32, 32, 3, 3]
00000000: 7298 663e a4a0 2d3e 7145 d03c 3462 633e
00000010: ffcf 503e dd9c 873e f89d f93e bf8c 183e
00000020: cfa0 883e 701e 2abc d019 9abe 21c8 cdbe
00000030: c59b 4a3d 6a6c a9be 436a 86be 5205 12bf
00000040: 74ed bcbe a129 05bf f669 b03e 8317 693e
00000050: e8f1 963e 4390 9d3e caca 6f3e 2ead 0f3f
00000060: b298 be3e 87a4 053e fd99 de3e 969e b13e
00000070: 2fef 2f3e 4461 503e 3222 aa3e 59e5 653e
00000080: b842 c23e 8111 c93e fa83 683e 4372 4d3e
00000090: 2666 ecbe 637a b7be 97f6 dabe 6751 e2be
000000a0: ea89 bebe eb56 4dbe 2f8a aebe cf85 16be
000000b0: 94d1 d3bd eb9f 96bd a328 083e fb0d 16bf
000000c0: ac4c f8be 07d0 c5be 18be d6be 05dd b1bd
000000d0: c7c4 99be 5264 e1be 03c7 913e 0f40 2d3e
000000e0: 5532 8f3e 9b84 c63e d6e2 483e c0a4 6c3e
000000f0: 8d5e ba3e 3ce1 a23e 786d 1b3e 5ccd 3ebe
00000100: c846 97be b273 e4bd 8731 d2be 0132 84be
00000110: 7c99 54be 745c 3abe 519f 1abe b16b bf3d
00000120: 5c8e 00bf b86a 4cbe 1207 05be b24e 13bf
00000130: fea4 6abe 8349 c33d 5f90 853e d496 a3bd
00000140: 2c23 3a3e ae79 97be 738f 51be 8694 10be
00000150: ae54 82be 6f93 49be 8c00 93be 9066 a7be
00000160: c148 a9be d3c2 8abe 3104 2fbe 184e 33be
00000170: a67e 81be d6c0 ebbe f950 13be 11e7 81be
00000180: 8615 77be 55c8 86bd 28a7 15bd ea34 523e
00000190: a5ec 1e3e 0a1c 363d e5fb b53e b708 973d
000001a0: b382 263e e805 da3e 72db 543d 8e1c 8a3e
000001b0: 1c02 66bd abba 91bd a133 49bd 807b a0be
000001c0: eb0c e3bd b4d5 69be b814 a7be 2829 e8bd
000001d0: af7d 69bd 4a7c cc3d eea1 cebd a794 d13d
000001e0: f146 ae3e 3752 2f3e badd 673e 22eb fe3e
000001f0: c7a4 253e 2def 293d 7171 aabe bede 88be
00000200: 5018 9abe 3c96 b2be 032c 3dbe 34ee 33be
00000210: 767d 3ebe c70a 03be 40c7 1abe 5160 cb3d
00000220: 8ecc 793d 4429 9fbd 128b 833e 3023 193d
00000230: 0790 233e 3ed3 0d3f 9a73 b63d 7605 2e3e
00000240: 88c9 a9bc 131c ae3d 4e08 27bc 2a32 813e
00000250: ae08 dc3b bb90 463e ea46 173f ec60 ee3d
00000260: cac8 693e f584 32be 2850 17be 843c 46be
00000270: 9058 c3be 2ab3 74be 4918 28be fded 10be
00000280: 6e58 fabd 2d2c d4bc 981b e13d eaba 103e
00000290: f177 103e 67a9 9a3e 27ea f13d bdb2 5b3e
000002a0: 5fd7 a53e db33 193e 7e51 f63d 35c9 9a3e
000002b0: 1322 703e a5ed 1d3e a59f a83e 1396 fb3d
000002c0: 581f 743e 2cc7 b43e 7e6e 183e a131 843e
000002d0: ec02 b0be 58f9 8ebe 5c0d 84be ff51 b6be
000002e0: e5b5 98be b021 6bbe b098 c4be d766 9ebe
000002f0: 84df 74be b61d 94be 0edb 50be b735 78be
00000300: b510 d23d 87b6 40be 8236 89be 9c52 33be
00000310: 9672 17bd 4666 1abe 0552 c13d 32ee ed3d
00000320: 3815 b2bd 251a a83e 0774 f73d 3718 113e
00000330: 16ba d83e 5660 1b3e fc82 c63d 8a3b d9bd
00000340: afb8 27be 0025 4dbc 9461 35bd 1f0a 17be
00000350: 0a4f a3be bae0 18be 446e 743d ae2e edbd
00000360: b4a9 4ebe abd7 05bf 2d10 43be 252b f2be
00000370: dee9 bbbe 15a6 e2be 4854 4dbe 3237 e6bd
00000380: dc9d b1be 8d98 5c3f 8902 c7bc 8b61 69bd
00000390: 35f3 d9be 5880 acbd da7f 2bbd 049a b53e
000003a0: 0f8d 06bc c4c7 b2be 3e00 3a3e 7b33 853e
000003b0: 9390 0e3e e182 a03e edcf 1e3e 66ec 5b3e
000003c0: a8a8 e53e e48c 7c3d b54f 5d3e 9bb7 e5be
000003d0: 9685 b6be d197 e4be 9917 c9be 769b 64be
000003e0: 23bb 6dbe 0380 44be 9895 e3bd 0c3c 70be
000003f0: 6aa6 9dbe 680e 65be 511a 3fbe 2030 cdbe
0.22519091 0.16955811 0.025423737 0.2220543 0.20391844 0.26486865 0.48753333 0.1489744
0.26685187 -0.010383233 -0.30097818 -0.4019175 0.04946496 -0.33090526 -0.26252946 -0.5703937
-0.36899912 -0.52016646 0.34455842 0.22762875 0.29481435 0.30774125 0.23417202 0.56123626
0.37225872 0.13051043 0.4347686 0.34691304 0.17181085 0.20349604 0.33229214 0.2245077
0.37941527 0.39271167 0.22706595 0.20063119 -0.46171683 -0.3583556 -0.42766258 -0.4420273
-0.37214595 -0.20052688 -0.340898 -0.14699481 -0.10342708 -0.07354721 0.13296752 -0.5861508
-0.48495996 -0.38635275 -0.41941905 -0.08684734 -0.30032942 -0.4402185 0.28472146 0.16918968
0.27968088 0.38773045 0.19617781 0.23109722 0.36400262 0.31812465 0.15178478 -0.18633026
-0.2954619 -0.1115488 -0.4105341 -0.258194 -0.20761675 -0.1819933 -0.15099837 0.093467124
-0.50217223 -0.19962585 -0.12990978 -0.57541955 -0.22914502 0.095355056 0.2608671 -0.079877526
0.1817748 -0.29585022 -0.20464878 -0.14119157 -0.2545523 -0.19685148 -0.28711355 -0.32695436
-0.3306332 -0.27101764 -0.17091443 -0.17510259 -0.25291938 -0.4604556 -0.14386357 -0.25371602
-0.24129304 -0.06581179 -0.036536366 0.20527998 0.1551996 0.044460334 0.35543743 0.07374709
0.16260795 0.4258263 0.05196709 0.2697491 -0.056154355 -0.07115682 -0.049121503 -0.31344223
-0.11086448 -0.22835428 -0.32632995 -0.11335975 -0.057004627 0.09984644 -0.100894794 0.10233431
0.340385 0.17121206 0.22643176 0.49788767 0.16176139 0.04148786 -0.33289674 -0.2673244
-0.30096674 -0.34880245 -0.1847382 -0.17571336 -0.18602547 -0.1279708 -0.1511507 0.0993048
0.060986094 -0.07771543 0.2569204 0.037387073 0.15972911 0.55400455 0.08908768 0.1699427
-0.02072598 0.085014485 -0.010194851 0.25233585 0.006714902 0.19391148 0.5909258 0.1163958
0.22830501 -0.17433532 -0.14776671 -0.19359022 -0.38153505 -0.2389647 -0.16415514 -0.14153285
-0.12223898 -0.02589997 0.10991591 0.14133802 0.14108254 0.3020737 0.11812239 0.21454902
0.32390878 0.14961188 0.12027262 0.30231634 0.23450498 0.15422685 0.329343 0.12284484
0.23840082 0.35308206 0.148859 0.25819114 -0.3437723 -0.2792461 -0.25791442 -0.35609433
-0.29826275 -0.2296207 -0.3839774 -0.30937836 -0.2391339 -0.28928918 -0.20396063 -0.2423924
0.10257093 -0.18819629 -0.267994 -0.17511982 -0.036974512 -0.15078077 0.09439472 0.11617698
-0.086954534 0.32832447 0.12082677 0.14169393 0.42329472 0.15173468 0.09692952 -0.10607059
-0.16379045 -0.0125210285 -0.04428251 -0.14749955 -0.3189624 -0.14929476 0.05967547 -0.11581169
-0.20181924 -0.5228221 -0.1904914 -0.47298542 -0.36701864 -0.44267336 -0.20051682 -0.112409964
-0.3469075 0.86170274 -0.024293201 -0.05697779 -0.42568365 -0.08422917 -0.041869976 0.35469067
-0.008212342 -0.34918034 0.18164155 0.2601584 0.13922338 0.31349853 0.15509005 0.21476898
0.44855237 0.0616578 0.21612437 -0.44866642 -0.35648793 -0.44647077 -0.39275816 -0.22324929
-0.23215918 -0.19189458 -0.11112517 -0.23460406 -0.30791026 -0.22368777 -0.18662383 -0.4007578

bias f4 [32]
00000000: e022 373d 34b2 61be 5bd0 8a3e 6f3d 0a3e
00000010: a6d1 8bbe 04cc 78be 7f76 f33d 583f 0bbe
00000020: 8df7 afbd 6915 eabd af56 9ebe 4103 023e
00000030: 0ae6 0ebe dbb4 703d 6a0a 4dbe dc85 923d
00000040: dd21 e83d 644c 3fbe cac5 3b3e a194 003e
00000050: 0b4c 4fbe 7a95 fcbd 3eab b33d 5f6d 0cbd
00000060: e595 a9be 23ee b73d 886d 173e b9b1 d5be
00000070: 488a 7abe f462 55be 34ab 60be 4bd8 8abe
0.044710994 -0.22040635 0.27112088 0.13499998 -0.27308387 -0.24296576 0.11887836 -0.13598382
-0.085921384 -0.11429865 -0.3092551 0.12696554 -0.1395494 0.058766227 -0.20023504 0.07154438
0.11334584 -0.18681484 0.1833717 0.12556697 -0.20243852 -0.12333198 0.08772896 -0.034283992
-0.33122173 0.08980968 0.14787877 -0.41737154 -0.24466813 -0.20838529 -0.21940309 -0.27118143
