hierDiscriminate/models/proto42.pth (torch_old, 215408 bytes, 21 tensors)

weight f4 [32, 1, 3, 3]
0	0x3fa4f01e	1.2885778
1	0x3f20c722	0.6280385
2	0x3f34901c	0.70532393
3	0x3fe105cd	1.7579895
4	0x3fac13c1	1.3443528
5	0x4009fa5c	2.1559057
6	0x3f9bd914	1.2175622
7	0x3fcb09b3	1.5862335
8	0x4000b8dd	2.0112832
9	0xbec567ab	-0.38555655
10	0xbcf10fcb	-0.029426476
11	0x3e91bd72	0.28464848
12	0x3f5a7c37	0.85345787
13	0x3f6b7dc9	0.9198881
14	0x3fc2becd	1.5214478
15	0x3f63efcc	0.89037776
16	0x3fb91a56	1.4461162
17	0x3f666bea	0.90008414
18	0xbd6ab119	-0.0572978
19	0x3ef302a5	0.47462955
20	0xbf2c460a	-0.6729437
21	0xbf61cbf4	-0.8820183
22	0xbf491e89	-0.7856222
23	0xbf8a8224	-1.0820966
24	0xbffab7c3	-1.958733
25	0xbfa6b11a	-1.3022797
26	0xbf6848b7	-0.90735954
27	0xbf8dadec	-1.1068702
28	0xbfda1ab4	-1.7039399
29	0xbfaf3732	-1.3688719
30	0x3d80f4a5	0.06296662
31	0xbf73b78e	-0.9520196
32	0x3ec9b96a	0.39399272
33	0x3f06fa28	0.5272546
34	0x3ef12713	0.47100124
35	0x3fa2cc93	1.2718681
36	0x3ec3c8a2	0.38239008
37	0x3ed3c01e	0.4135751
38	0x3f256dde	0.6462077
39	0x3f505522	0.813799
40	0x3f91e3b0	1.139761
41	0x3fa7836f	1.3086985
42	0x3fadfec6	1.3593376
43	0x3fd999b6	1.7000034
44	0x3fa84f41	1.3149186
45	0x3e41ef2c	0.18938893
46	0x3f00e1a4	0.503443
47	0x3e5377a6	0.20651111
48	0xbf25795c	-0.64638305
49	0xbf934ff8	-1.150878
50	0xbf35386d	-0.70789224
51	0xbf51a74d	-0.81895906
52	0xbefbe944	-0.49201405
53	0x3f0291bd	0.5100363
54	0x3f879623	1.0592693
55	0x3f02c457	0.5108084
56	0xbeb7be25	-0.35887256
57	0x3ec74b71	0.38924745
58	0xbe56f654	-0.20992404
59	0xbfb87a2d	-1.4412285
60	0xbe337b7b	-0.17527573
61	0xbf89fbcb	-1.0779966
62	0xbf85159c	-1.039722
63	0xbe7111ef	-0.23541997
64	0xbf054b25	-0.52067786
65	0xbf50c133	-0.815448
66	0xbdc867ea	-0.09785445
67	0xbfa077b8	-1.2536535
68	0xbf48bb07	-0.7841038
69	0xbcf92ef4	-0.030417897
70	0x3ee81406	0.45327777
71	0x3f0360be	0.5131949
72	0xbe3ff5f1	-0.18746163
73	0xbfbddc79	-1.4832908
74	0xbfc56476	-1.5421283
75	0xbeef93ba	-0.46792394
76	0xbf848ff0	-1.0356426
77	0xbe2f0915	-0.17093308
78	0x3f50cb17	0.8155989
79	0x3f6e7243	0.931431
80	0x3f30e9f6	0.69106996
81	0xbda967cd	-0.082717516
82	0x3e8fe0b3	0.2810112
83	0x3e0a110d	0.13483067
84	0xbeee5608	-0.46550012
85	0xbf4c09af	-0.79702276
86	0x3e83dc40	0.25753975
87	0xbf81a29a	-1.0127747
88	0xbf0d48db	-0.55189294
89	0x3ebbc2ec	0.3667215
90	0x3f4ef6d4	0.8084538
91	0x3d540df9	0.051771138
92	0x3e588790	0.21145463
93	0x3e9b1336	0.30288094
94	0xbfb6b6ad	-1.4274498
95	0xbf8a24b4	-1.0792451
96	0x3e5cf818	0.21579015
97	0xbf602d73	-0.8756935
98	0xbf286376	-0.65776765
99	0xbf46d455	-0.7766774
100	0xbd940d6e	-0.07229124
101	0xbf31bd01	-0.6942902
102	0xbfa956e1	-1.3229638
103	0xbf86c6cf	-1.0529422
104	0xbf9ddb76	-1.2332599
105	0xbfe4e61b	-1.7882723
106	0xbf9d1955	-1.2273356
107	0xbf697b98	-0.91204214
108	0x3bc52410	0.006016262
109	0x3e5481ac	0.20752591
110	0x3ea37796	0.31927174
111	0xbf38ad1c	-0.72139144
112	0xbf351f24	-0.7075064
113	0xbf8fa815	-1.122317
114	0xbf986e59	-1.1908675
115	0xbf362105	-0.71144134
116	0xbe901851	-0.28143552
117	0xbf837bae	-1.0272119
118	0xbef126bf	-0.47099873
119	0xbfcc747f	-1.5973052
120	0xbfa12bfc	-1.2591548
121	0xbf987865	-1.1911741
122	0xbfc3e02e	-1.5302789
123	0xbfd81e5e	-1.6884267
124	0xbf9bb218	-1.2163725
125	0xbf92deb7	-1.1474217
126	0xbecd240e	-0.4006657
127	0xbf0799df	-0.52969164
128	0x3f26a30c	0.6509254
129	0xbf8d1ab9	-1.102378
130	0xbef8a809	-0.485657
131	0x3f051c8d	0.5199669
132	0xbf729c41	-0.94769675
133	0x3dadb26d	0.08481298
134	0x3f0468a4	0.5172217
135	0xbf6feb5c	-0.93718505
136	0xbf892c93	-1.0716728
137	0xc000e000	-2.0136719
138	0xbf6b021d	-0.918001
139	0xbf8e75c2	-1.1129687
140	0xbf85135b	-1.0396532
141	0xbf3b74eb	-0.7322528
142	0x3e4cd43f	0.2000284
143	0xbed30907	-0.41217825
144	0x3ea638bc	0.3246516
145	0x3f255a30	0.6459074
146	0x3f257a79	0.64640003
147	0x3fa44192	1.283251
148	0x3fde385f	1.7360953
149	0x3eb59784	0.3546716
150	0x3ecf0c1f	0.40438935
151	0xbe619684	-0.22030073
152	0xbf199142	-0.5998727
153	0xbed69c80	-0.41916275
154	0xbe9e6f91	-0.30944493
155	0xbedbf83b	-0.42962822
156	0x3f6aae12	0.9167186
157	0x3f2fa4af	0.6861066
158	0x3f9934ad	1.19692
159	0x3f80748e	1.003557
160	0x3fd5b70d	1.6696488
161	0x3f98dbf1	1.1942121
162	0x3e8833cb	0.26602015
163	0xbd534518	-0.051579565
164	0x3df632e1	0.12021423
165	0xbeed166c	-0.4630617
166	0xbf20e9dc	-0.6285684
167	0xbe12a160	-0.14319372
168	0xbf419c65	-0.75629264
169	0xbf63829f	-0.88871187
170	0xbef24041	-0.47314647
171	0x3da76cc4	0.08175042
172	0x3ec10001	0.37695315
173	0xbe06dfc3	-0.13171296
174	0xbf560685	-0.836037
175	0xbf909db8	-1.1298132
176	0xbf8e6ffb	-1.1127924
177	0xbdddee6d	-0.10836492
178	0x3b1646e0	0.0022930428
179	0xbee187ca	-0.4404891
180	0x3f06d85f	0.52673906
181	0x3f3daca8	0.7409158
182	0x3f96b3f9	1.1773673
183	0x3f2bbac2	0.67081845
184	0x3fcad1b8	1.5845251
185	0x3fec5a32	1.8465025
186	0x3f3b3bcc	0.7313812
187	0x3f0545e1	0.5205975
188	0x3ec445ce	0.38334507
189	0x3e570e71	0.21001603
190	0xbf044baf	-0.51677984
191	0xbf2fe69b	-0.6871125
192	0x3db697af	0.0891565
193	0xbf2a9222	-0.6662923
194	0xbf260bd9	-0.6486183
195	0xbe1f5fea	-0.15563932
196	0xbe92746a	-0.28604442
197	0xbd84e121	-0.064882524
198	0x3f676cbe	0.904003
199	0x3f0ef68f	0.5584497
200	0x3d5482f3	0.051882695
201	0xbe650a65	-0.22367246
202	0xbf1fc6f1	-0.62412935
203	0xbeba144c	-0.3634361
204	0xbf4b3922	-0.7938405
205	0xbfb05d7b	-1.3778528
206	0xbf627745	-0.8846324
207	0xbf3bf17a	-0.7341534
208	0xbf87add3	-1.0599922
209	0xbf01ae56	-0.5065664
210	0xbe94160c	-0.2892307
211	0xbf52c15c	-0.82326293
212	0xbeff7274	-0.49892008
213	0x3bc495a6	0.005999285
214	0x3e31d6ec	0.17367142
215	0x3f7546e3	0.9581129
216	0x3f8fe0ab	1.1240438
217	0x3f7d137e	0.9885787
218	0x3f65ec64	0.8981383
219	0xbe68c630	-0.22731853
220	0xbf14e011	-0.581544
221	0xbe1684dc	-0.1469912
222	0xbfd0d3af	-1.6314601
223	0xbfcd7c76	-1.6053607
224	0xbfa4edd4	-1.2885079
225	0x3fb7914b	1.4341215
226	0x3f91a825	1.1379439
227	0x3fbe88a2	1.4885447
228	0x3faff0fc	1.3745418
229	0x3fb7ac5e	1.4349477
230	0x3fe2fedd	1.7734028
231	0x400f1b09	2.236025
232	0x40140686	2.3128982
233	0x4009a6b1	2.150799
234	0x3f732a4a	0.94986403
235	0x3eba4e8d	0.36388054
236	0x3ead9290	0.3390088
237	0xbf005f55	-0.50145465
238	0xbfb80a34	-1.4378114
239	0xbf45d22e	-0.77273834
240	0xbe880e82	-0.2657357
241	0xbf799308	-0.97489977
242	0xbe8ac6f5	-0.27104917
243	0xbf74b180	-0.95583344
244	0xbecf7913	-0.4052206
245	0xbfd7fc2a	-1.6873829
246	0xbfa9d891	-1.3269216
247	0xbf851f48	-1.0400171
248	0xbffda34c	-1.9815459
249	0xbf04eac2	-0.5192071
250	0xbef450fd	-0.4771804
251	0xbf86d172	-1.0532668
252	0xbf80b131	-1.0054075
253	0xbfe37822	-1.7771037
254	0xbf8fa21d	-1.1221348
255	0xbf2977ea	-0.661986

bias f4 [32]
0	0x3dd6c178	0.1048612
1	0xbe81c2bf	-0.25343892
2	0x3eb9e224	0.36305344
3	0x3f8a3101	1.0796205
4	0xbed186a3	-0.40923032
5	0x3edfac49	0.4368613
6	0x3fb1b060	1.388195
7	0x3f818407	1.0118417
8	0x3f36d2b4	0.7141526
9	0x3f1b02d1	0.6055117
10	0x3f98a8e7	1.1926545
11	0x3e96545f	0.29361245
12	0x3f03612b	0.5132014
13	0x3e994e86	0.2994272
14	0x3f757aa5	0.95890266
15	0x3e9b9e35	0.3039414
16	0xbecd900d	-0.40148965
17	0x3b5389eb	0.003227825
18	0x3ee3d6db	0.4449986
19	0x3f37913d	0.7170599
20	0xbe753785	-0.2394696
21	0x3fae4c6a	1.361707
22	0x3f9bb51b	1.2164644
23	0x3fa26c88	1.2689371
24	0x3e76538a	0.24055305
25	0xbcba556d	-0.022745812
26	0x3f922dd8	1.142024
27	0x3ee59048	0.4483664
28	0x3f94256e	1.1573923
29	0x3fa3cb87	1.2796487
30	0xbe34cea1	-0.17656948
31	0x3f0fc2c7	0.5615658

weight f4 [32, 32, 3, 3]
0	0xbd52a034	-0.051422313
1	0xba18780f	-0.000581623
2	0xbdd3a27c	-0.10333726
3	0xbb2b1277	-0.0026103535
4	0x3b9d5eaa	0.0048025446
5	0xbd481848	-0.04885128
6	0xbb373cc1	-0.0027959796
7	0x3dbd3530	0.0923866
8	0x3dd543b7	0.10413306
9	0xbd1b3deb	-0.037900846
10	0x3b6c499a	0.0036054612
11	0xbe7596cf	-0.2398331
12	0xbd286d0a	-0.041119613
13	0xbbdc580b	-0.0067243627
14	0xbc1845d5	-0.009293993
15	0x3cbec22b	0.023285946
16	0x3e23518f	0.15949081
17	0x3e4a57db	0.19760077
18	0xbe424533	-0.1897171
19	0x3c759c7b	0.014990921
20	0x3ed2537f	0.41079327
21	0xbdbbfe43	-0.09179356
22	0xbc0839f6	-0.0083146
23	0x3da9592f	0.082689635
24	0xbe734fac	-0.23760861
25	0xbe96a14e	-0.2941994
26	0xbe71928a	-0.23591056
27	0xbeba97a5	-0.3644382
28	0x3c7a2867	0.015268422
29	0x3f02a76f	0.51036733
30	0x3dc418f2	0.095750704
31	0x3e303f4f	0.1721165
32	0x3ec1cf45	0.37853447
33	0xbdc9a815	-0.09846512
34	0xbea36d89	-0.31919506
35	0xbe8f0a50	-0.27937555
36	0x3bb1e50b	0.0054289154
37	0xbcfe30b7	-0.031029088
38	0xbe97df12	-0.29662377
39	0x3d1715e3	0.036886107
40	0x3c96995c	0.018383674
41	0xbd9acf0c	-0.07559022
42	0x3c2e12d8	0.01062461
43	0x3e4b5a1c	0.19858593
44	0x3e4f9239	0.20270623
45	0xbe0a8481	-0.13527109
46	0x3dafb844	0.08580068
47	0x3ec3409a	0.38135225
48	0xbdc18fc2	-0.09451248
49	0x3daa4fed	0.08316026
50	0x3e29733d	0.16547866
51	0xbe23894e	-0.15970346
52	0xbe850e90	-0.25987673
53	0xbe871a03	-0.26387033
54	0xbe033ec3	-0.1281691
55	0x3e0f8245	0.14014538
56	0x3ea84b4d	0.3286995
57	0xbd2d9be6	-0.042385004
58	0x39f23924	0.0004620041
59	0xbe0a454b	-0.13502996
60	0xbda6785b	-0.08128425
61	0xbe63dcf3	-0.22252254
62	0xbe4f1d3d	-0.20225997
63	0xbe2c085f	-0.16800068
64	0x3de2a025	0.110657014
65	0x3f080599	0.5313354
66	0xbcf246c4	-0.02957476
67	0x3da30104	0.07959178
68	0x3e63f14d	0.22260018
69	0xbe3a1f86	-0.18176088
70	0xbe8abc8c	-0.27096975
71	0xbeab78cb	-0.33490595
72	0xbe89a544	-0.268839
73	0x3e2011a7	0.15631734
74	0x3f0efe75	0.5585702
75	0x3d2cf65e	0.04222714
76	0x3d978305	0.07398037
77	0x3e970928	0.29499173
78	0xbe26b352	-0.16279343
79	0xbea6a3d6	-0.32546872
80	0xbebc41c9	-0.3676894
81	0xbdd5dfcf	-0.10443079
82	0x3d572dd7	0.05253395
83	0x3ed8bf3d	0.42333403
84	0xbd018633	-0.031622123
85	0x3cff32a1	0.031152071
86	0x3d762035	0.06008931
87	0xbe66857c	-0.22511858
88	0xbe6fe086	-0.23425493
89	0xbe530427	-0.20607053
90	0xbdbfd36a	-0.09366496
91	0x3e0e49e6	0.13895378
92	0x3f1412e7	0.5784134
93	0x3d8005f8	0.062511384
94	0x3dcb50f8	0.09927553
95	0x3d81b984	0.063342124
96	0xbe19434f	-0.14967082
97	0xbe374ef9	-0.1790122
98	0xbe9b83d9	-0.3037403
99	0xbe33c255	-0.175546
100	0x3c6b5013	0.014362353
101	0x3ecd56fb	0.40105423
102	0xbd84d9c8	-0.06486851
103	0x3da0833a	0.078375295
104	0x3e4b7611	0.19869258
105	0xbe23ed15	-0.16008408
106	0xbe9381f9	-0.288101
107	0xbeb4c254	-0.3530451
108	0xbe18affa	-0.1491088
109	0x3d5a55ad	0.053304363
110	0x3ef0c335	0.4702393
111	0xbcfd7ba9	-0.030942755
112	0x3cfae03f	0.030624507
113	0x3e1536a1	0.1457162
114	0xbe5e2288	-0.2169286
115	0xbe37b4fb	-0.17940132
116	0xbe9215d3	-0.28532276
117	0xbe41a10d	-0.18909092
118	0xbd3186c7	-0.043341424
119	0x3ee47906	0.44623584
120	0xbd39866b	-0.045294207
121	0x3db2c129	0.087282486
122	0x3e28a4c0	0.16469097
123	0xbe0ed79d	-0.13949437
124	0xbe6dc5df	-0.23220013
125	0xbeaaf43b	-0.33389458
126	0xbe6530da	-0.22381917
127	0x3d8fe9c0	0.07027006
128	0x3edb0051	0.4277368
129	0xbca716c1	-0.020396592
130	0x3d9cba2a	0.076526955
131	0x3d833da7	0.064082436
132	0xbe8a51e2	-0.27015597
133	0xbe392ddc	-0.180839
134	0xbe4d95c8	-0.20076668
135	0xbe8115cd	-0.25211945
136	0xbd7bc603	-0.061468136
137	0x3f07b2bf	0.5300712
138	0xbc4106d0	-0.011781409
139	0x3cf76872	0.03020117
140	0x3e44ae06	0.1920701
141	0xbe3fe698	-0.18740308
142	0xbe7f5d84	-0.24938017
143	0xbe9c795a	-0.30561334
144	0x3d5990dc	0.053116664
145	0xbd2a450d	-0.04156976
146	0xbe92c55b	-0.28666195
147	0xbd0ad806	-0.033897422
148	0x3daec9a0	0.08534551
149	0x3d12ce39	0.0358412
150	0x3e20bee6	0.15697822
151	0x3e66e006	0.22546396
152	0x3e44225a	0.19153729
153	0xbd309ff6	-0.0431213
154	0xbd8c2bb8	-0.06844276
155	0xbe21ebd4	-0.15812618
156	0xbd01376e	-0.031547002
157	0x3c05c0f4	0.008163679
158	0xbd10d4c1	-0.035359148
159	0x3d6cf69c	0.057852373
160	0x3e257fe0	0.16162062
161	0x3dfc1252	0.12308182
162	0xbe21fdb3	-0.15819435
163	0x3d690576	0.056889974
164	0x3eee5f52	0.465571
165	0xbcfeb76a	-0.031093318
166	0x3db91955	0.09038035
167	0x3e04eb7e	0.12980458
168	0xbdeebd3b	-0.116571866
169	0xbe0f9466	-0.14021453
170	0xbe633331	-0.22187497
171	0xbe0a1641	-0.13485052
172	0x3dd84e5a	0.105618194
173	0x3f06c0e8	0.526381
174	0xbb7811ef	-0.0037852486
175	0x3d89c01d	0.06726096
176	0x3e14143e	0.14460847
177	0xbdfdb64d	-0.12388287
178	0xbe67417f	-0.22583579
179	0xbeaea13e	-0.34107393
180	0xbb5057af	-0.0031790545
181	0xbcbb3078	-0.02285026
182	0xbe67a4fb	-0.22621529
183	0x3cf8ed89	0.030386703
184	0x3da92f5c	0.08260986
185	0xbbe82f18	-0.007085692
186	0x3c8cb750	0.017177254
187	0x3e1bc0d3	0.15210275
188	0x3e0c69c5	0.13712223
189	0xbe4d851a	-0.20070305
190	0x3dcb46c2	0.09925605
191	0x3ed87b3f	0.4228153
192	0x3cde19fc	0.027112
193	0x3d264644	0.040594354
194	0x3df262f4	0.1183528
195	0xbe56c9c4	-0.20975405
196	0xbe318aaf	-0.1733806
197	0xbeb2597a	-0.3483389
198	0xbd6d62d4	-0.057955578
199	0x3db92983	0.09041121
200	0x3eebd1f7	0.46058628
201	0x3c6b99cd	0.014379931
202	0x3d3c1a08	0.045923263
203	0x3dd815d4	0.105510384
204	0xbe0fa9aa	-0.14029565
205	0xbe6868a8	-0.22696173
206	0xbe7e1f26	-0.2481657
207	0xbe56a5ef	-0.20961736
208	0x3da48a4d	0.08034191
209	0x3ef4705c	0.47741973
210	0x3d82eeb6	0.06393187
211	0x3da911b1	0.082553275
212	0x3e4db5a6	0.20088825
213	0xbde46356	-0.11151759
214	0xbe5054da	-0.20344868
215	0xbe91d9e3	-0.28486547
216	0xbe0785dc	-0.13234657
217	0x3de697e4	0.112594396
218	0x3eb87e28	0.3603375
219	0xbb96b34b	-0.00459901
220	0xbb82c1ae	-0.0039903736
221	0x3d279c85	0.040920753
222	0xbe459cee	-0.19298145
223	0xbe1127e2	-0.1417537
224	0xbe65e2d0	-0.22449803
225	0x3c501bb7	0.01270192
226	0x3d885ce5	0.06658343
227	0xbdabbf73	-0.083861254
228	0x3cec7d9a	0.028868485
229	0x3cea5ba3	0.028608149
230	0xbc57ccfd	-0.013171432
231	0x3db72b42	0.08943798
232	0x3e20eb0b	0.15714662
233	0x3e3aa663	0.18227534
234	0xbdae72d2	-0.08517994
235	0x3e07f5ec	0.13277406
236	0x3f0dc835	0.55383617
237	0x3ce4f559	0.027949022
238	0x3de42f89	0.11141879
239	0x3e279d0a	0.163685
240	0xbdff1170	-0.12454498
241	0xbe12e1bf	-0.14343928
242	0xbe8ef0b6	-0.27918023
243	0xbe8269fc	-0.25471485
244	0xbd901473	-0.070351504
245	0x3eff2f19	0.4984062
246	0xbd30163f	-0.042989966
247	0x3ca6c46f	0.020357339
248	0x3df674f1	0.120340236
249	0xbe666652	-0.2249997
250	0xbe984bee	-0.2974543
251	0xbeb6c84c	-0.3569969
252	0xbebd0e5c	-0.36925018
253	0x3dcb97dc	0.09941074
254	0x3f0f266d	0.5591801
255	0x3d5b1a36	0.053491794

bias f4 [32]
0	0x3d7098b7	0.05873939
1	0x3bfa9c6f	0.007648043
2	0xbba8afd1	-0.005147912
3	0x3d811af1	0.06303967
4	0x3c4dc2a1	0.01255861
5	0x3d51ca6c	0.051218435
6	0x3c3a609e	0.011375574
7	0xbd608a74	-0.05481954
8	0xbddd258b	-0.107981764
9	0xbbf896a8	-0.007586319
10	0xbc7ef800	-0.0155620575
11	0x3d53b7ea	0.051689066
12	0x3d2ecf83	0.042678367
13	0x3b46b076	0.0030317581
14	0x3bceab35	0.0063070306
15	0x3c888008	0.016662613
16	0xbd1c0c99	-0.03809795
17	0x3d003bcc	0.031307027
18	0xbd362b8f	-0.044475134
19	0xbd9e895a	-0.077410415
20	0xb993f575	-0.00028220905
21	0xbe295031	-0.16534497
22	0x3bda52df	0.006662711
23	0xbd96fd66	-0.07372551
24	0xbd69a428	-0.057041317
25	0xbd0345d3	-0.03204901
26	0x3d3e1bce	0.046413235
27	0x3dc03363	0.09384801
28	0xbd2335f4	-0.039846376
29	0xbd21aa55	-0.039469082
30	0x3c9c7ed2	0.019103441
31	0xbd919301	-0.07108117

weight f4 [32, 32, 3, 3]
0	0xbcb0d5d9	-0.021586346
1	0x3d487bb6	0.048946105
2	0x3db70811	0.089370854
3	0xbe262468	-0.16224825
4	0xbee7cb0d	-0.45272103
5	0xbe962536	-0.29325265
6	0x3d36a91d	0.044594873
7	0xbbac2275	-0.005253131
8	0xbed78e59	-0.4210079
9	0x3d6505b7	0.055913653
10	0xbd2e73b3	-0.042590808
11	0xbd20b05f	-0.0392307
12	0xbdbbce6e	-0.09170233
13	0xbe00ff2c	-0.1259734
14	0xbe059b36	-0.1304749
15	0x3d3745b3	0.044744205
16	0x3f69ea06	0.91372716
17	0x3f3b64fd	0.7320097
18	0xbe094636	-0.1340569
19	0xbe2f52b0	-0.17121387
20	0x3e0e66db	0.13906424
21	0x3c3355cd	0.0109457495
22	0xbe6e5d99	-0.23277892
23	0xbe34e731	-0.17666318
24	0x3d1e3801	0.03862763
25	0xbcf2da10	-0.029644996
26	0xbe64fb55	-0.223615
27	0xbcd54c26	-0.026037287
28	0x3dab948b	0.08377942
29	0x3e111847	0.14169417
30	0x3e356bdf	0.17716931
31	0x3ea01d66	0.3127243
32	0xbd850267	-0.06494599
33	0x3d307d11	0.043088023
34	0x3bf36acd	0.007428503
35	0x3d774559	0.06036887
36	0x3e0c8971	0.13724305
37	0x3f3333ad	0.70000726
38	0x3dd21457	0.10257786
39	0xbd1b820c	-0.03796582
40	0x3ea89048	0.32922578
41	0x3e845ccc	0.25852048
42	0xbeae898e	-0.3408932
43	0xbe306ffb	-0.17230217
44	0xbe3a257d	-0.18178363
45	0xbe33ffdf	-0.17578076
46	0x3d1b1a5f	0.037866946
47	0x3e0e22c1	0.13880445
48	0xbd22dfd8	-0.039764255
49	0x3eb68d0a	0.3565448
50	0xbd1e279d	-0.038611997
51	0x3e06ef37	0.1317719
52	0x3eef3479	0.4671972
53	0x3f4d6caa	0.80243933
54	0xbe3d6aec	-0.18497819
55	0xbdff5693	-0.124676846
56	0x3e983abb	0.29732308
57	0xbd193d66	-0.03741207
58	0xbe534281	-0.20630838
59	0x3c0c09ee	0.008547289
60	0x3e5400c6	0.2070342
61	0xbd967103	-0.07345774
62	0xbeb049d9	-0.3443134
63	0x3d51af1f	0.0511924
64	0x3e0e9a8d	0.13926144
65	0x3e12e109	0.14343657
66	0x3e5c270d	0.21499272
67	0xba863089	-0.0010237853
68	0x3e7fa0fe	0.24963757
69	0xbe0bbb97	-0.13645779
70	0x3cd5c2a6	0.026093792
71	0x3ddc44dd	0.10755322
72	0x3de7a2a1	0.11310316
73	0x3e8c8ecd	0.27452698
74	0x3ec07409	0.37588528
75	0x3d0eec6a	0.03489343
76	0x3dc7d6c6	0.09757762
77	0x3e162d96	0.14665827
78	0x3dbd610b	0.09247025
79	0xbab307e6	-0.001365897
80	0x3e60b96a	0.2194573
81	0xbe3f8efd	-0.1870689
82	0x3e34911a	0.17633477
83	0x3e9e6292	0.30934578
84	0xbd5e9e62	-0.054350264
85	0x3d9f667c	0.07783219
86	0x3eb44386	0.35207766
87	0x39440fa7	0.00018697848
88	0x3e88fc98	0.26755214
89	0x3eb541d8	0.35401797
90	0x3c872fea	0.01650234
91	0xbe588e15	-0.2114795
92	0x3cd6f80e	0.026241329
93	0x3c4877a7	0.012235559
94	0xbe83e3f6	-0.25759858
95	0xbe8d940d	-0.27652016
96	0xbc981435	-0.018564323
97	0x3e1db7d3	0.15402155
98	0xbcb89875	-0.022533635
99	0xbe6a5d5f	-0.22887181
100	0xbc834c72	-0.016027663
101	0x3ea13e56	0.3149287
102	0x3daeab02	0.08528711
103	0x3ec74a95	0.3892409
104	0x3d9cbce9	0.07653219
105	0x3d297655	0.041372616
106	0x3e436bff	0.19084166
107	0x3e127bff	0.14305113
108	0xbc9cb66a	-0.01912995
109	0xbe54fa94	-0.20798713
110	0x3c60ac6f	0.013712986
111	0x3d787086	0.060654186
112	0x3ea58ceb	0.32334074
113	0xbca372c4	-0.019952185
114	0x3d3611ff	0.044450756
115	0x3eab9eae	0.335195
116	0x3f56765e	0.83774364
117	0xbe1a1334	-0.15046388
118	0xbe9c3d3c	-0.30515468
119	0xbe69c82a	-0.22830263
120	0x3d93c0b0	0.072144866
121	0xbe754173	-0.23950748
122	0xbe51f408	-0.20503247
123	0xbd13bf27	-0.03607097
124	0x3e8e6b94	0.2781645
125	0xbdadcb14	-0.08486
126	0xbdb2e665	-0.087353505
127	0xbe92fe7a	-0.28709775
128	0xbe197bf9	-0.14988698
129	0xbe071b56	-0.13194022
130	0xbdffee6c	-0.12496647
131	0xbd0a6f6b	-0.033797663
132	0xbe0305ee	-0.12795231
133	0x3f320631	0.695407
134	0x3ef3e057	0.47632095
135	0xbe260396	-0.16212305
136	0xbe970e46	-0.29503077
137	0xbe1be343	-0.15223412
138	0xbd34ba65	-0.044123072
139	0xbecdcf8e	-0.40197414
140	0xbd2a0f76	-0.04151865
141	0x3d5323d9	0.05154786
142	0x3e0232d0	0.12714696
143	0xbc3aa19e	-0.011391072
144	0x3d12aa0a	0.035806693
145	0x3d2140c9	0.039368425
146	0x3e5f65c0	0.21816158
147	0x3d2fcd3a	0.04292033
148	0x3d64f5c4	0.055898443
149	0xbd9f98f0	-0.077928424
150	0x3d931a79	0.07182784
151	0x3d9b24c4	0.07575372
152	0x3e3f39d7	0.18674408
153	0xbe19671b	-0.14980738
154	0xbe34ed91	-0.1766875
155	0xbde45433	-0.11148872
156	0xbda27407	-0.07932287
157	0xbef2e692	-0.47441536
158	0xbdf3b808	-0.119003356
159	0x3da7d40f	0.08194744
160	0x3db3822a	0.08765061
161	0xbc19f65a	-0.009397114
162	0xbd2fc543	-0.042912733
163	0xbd59285c	-0.053017005
164	0xbd8a8fd8	-0.06765717
165	0x3d3812f0	0.044939935
166	0x3e4ed046	0.20196638
167	0xbd76e939	-0.060281012
168	0x3e1a0fcd	0.1504509
169	0x3e4fbccf	0.20286869
170	0x3e32bfdb	0.17456
171	0xbde55c47	-0.11199241
172	0xbdf2b2f0	-0.11850536
173	0x3e70af95	0.23504479
174	0xbddb58cc	-0.10710296
175	0xbd7af028	-0.061264187
176	0x3e634305	0.22193535
177	0x3c5a531e	0.013325481
178	0x3e566044	0.2093516
179	0x3e72b243	0.23700814
180	0xbdecd48f	-0.1156398
181	0x3e18bda0	0.14916086
182	0x3e8936ec	0.26799715
183	0x3d9ee01d	0.0775759
184	0x3efb737d	0.49111548
185	0x3cdc2cd2	0.02687684
186	0xbd06703f	-0.03282189
187	0xbe368279	-0.17823209
188	0xbe6d9590	-0.23201585
189	0x3cc88002	0.024475101
190	0x3e9ae834	0.30255282
191	0x3ec40d8d	0.38291588
192	0x3df84570	0.12122619
193	0x3f01ed5b	0.507528
194	0xbd738aa9	-0.05945841
195	0x3e90eb75	0.2830464
196	0x3d2b0f29	0.041762505
197	0x3ef5f487	0.48038122
198	0x3d0f0261	0.034914378
199	0xbe00a688	-0.12563527
200	0x3d3d65fe	0.046239845
201	0xbc955c13	-0.018232381
202	0x3e9edf74	0.31029856
203	0x3e7a11f7	0.24420916
204	0x3cb28088	0.021789804
205	0x3e22dcfc	0.15904611
206	0x3ed17509	0.40909603
207	0xbe03401a	-0.12817422
208	0xbc705c6c	-0.014670473
209	0x3e3ab894	0.18234473
210	0xbd48fbd9	-0.049068306
211	0x3ee63166	0.44959563
212	0xbda5a449	-0.080879755
213	0xbc059d97	-0.008155248
214	0x3f279421	0.654604
215	0x3ec3ba2c	0.38227975
216	0x3ea99073	0.33118019
217	0x3f36a13e	0.71339786
218	0x3eb5b5b0	0.3549018
219	0x3e37aaf3	0.17936306
220	0x3d7f9cbb	0.06240533
221	0xbcdeb6e3	-0.027186817
222	0x3daf9acb	0.08574446
223	0x3f28a710	0.6587992
224	0x3e507200	0.20355988
225	0xbe43768d	-0.19088192
226	0xbdcf354a	-0.10117586
227	0x3e47f881	0.1952839
228	0x3e116d4a	0.14201847
229	0x3d698b9e	0.057017915
230	0xbe108239	-0.14112176
231	0x3d50f87b	0.05101822
232	0x3db41f54	0.08795038
233	0xbe812665	-0.25224605
234	0x3e1f3476	0.15547356
235	0x3eec3ff3	0.4614254
236	0x3dbb7041	0.0915227
237	0x3ca8f787	0.020625843
238	0x3e0a6384	0.13514525
239	0x3e89e8af	0.26935336
240	0xbe413f84	-0.18871886
241	0x3e8094da	0.25113565
242	0x3f0c75d6	0.54867303
243	0xbed9f8fb	-0.4257277
244	0xbf12adb7	-0.5729632
245	0xbc163032	-0.009166764
246	0xbea8bc12	-0.32955986
247	0xbe9adad2	-0.30245072
248	0xbc9f4ca5	-0.019445727
249	0xbe26e294	-0.1629737
250	0x3d07d11e	0.033158414
251	0xbd89cca9	-0.06728489
252	0xbdde3059	-0.10849065
253	0xbdd15224	-0.10220745
254	0x3e7e7510	0.24849343
255	0x3e0e6084	0.13904005

bias f4 [32]
0	0xbe3c5755	-0.1839269
1	0xbd1d0dba	-0.03834317
2	0x3d1d62c5	0.038424272
3	0x3d354d35	0.044263083
4	0xbd144b71	-0.03620476
5	0xbdb98526	-0.09058599
6	0xbda67bfc	-0.08129117
7	0xbe16c82c	-0.14724797
8	0xbcfb6284	-0.030686624
9	0xbd0835f6	-0.033254586
10	0x3da4f87c	0.08055207
11	0x3d5e50d6	0.05427631
12	0xbe204a49	-0.15653338
13	0xbd18e4da	-0.037327625
14	0x3d8b12d8	0.067907035
15	0xbdbcd716	-0.09220712
16	0x3cd6b757	0.02621047
17	0xbe532494	-0.20619422
18	0xbadf3c3d	-0.0017031502
19	0xbc1760f8	-0.009239428
20	0xbe202365	-0.15638502
21	0x3cbbf8a5	0.022945711
22	0xbdac35a1	-0.084086664
23	0x3dbb2494	0.09137836
24	0x3ce92fa4	0.0284651
25	0x3d25d6a5	0.040487904
26	0xbda30598	-0.07960051
27	0x3dcffa00	0.101551056
28	0x3d4161af	0.0472123
29	0xbe1925f4	-0.14955884
30	0x3cb3afc5	0.0219344
31	0x3d7df672	0.062002607

weight f4 [10, 32, 3, 3]
0	0x3ef96cad	0.48715726
1	0x3e486aa7	0.19571935
2	0xbe78eff0	-0.24310279
3	0xbe429bdf	-0.19004773
4	0xbcd0304d	-0.025413657
5	0xbe965ca0	-0.29367542
6	0x3d850e66	0.06496887
7	0x3dc8ad4b	0.09798678
8	0x3e8b2cd6	0.27182645
9	0x3e79aecc	0.24383086
10	0xbea08a55	-0.3135554
11	0xbd9bab46	-0.07601027
12	0x3e8a41c6	0.27003306
13	0xbea08d6b	-0.31357893
14	0xbc454dcc	-0.012042474
15	0xbe243c05	-0.1603852
16	0xbead9ab3	-0.3390709
17	0xbec545fe	-0.38529962
18	0x3edff4f8	0.43741584
19	0xbeb0d2cc	-0.34535825
20	0xbedece02	-0.43516546
21	0x3f2e40d2	0.6806766
22	0xbe5ca3d8	-0.21546876
23	0xbd6a2368	-0.057162672
24	0x3d20cb18	0.039256185
25	0xbe51a524	-0.20473152
26	0xbe53173d	-0.20614333
27	0xbcca8b7c	-0.024724714
28	0xbeccb950	-0.39985132
29	0x3d4696cb	0.04848365
30	0x3dfd6713	0.123731755
31	0xbea10455	-0.31448618
32	0x3e50361a	0.20333138
33	0xbd42c16d	-0.047547746
34	0x3eb32cdc	0.34995162
35	0xb9ea9c1c	-0.0004474827
36	0xbdf99470	-0.12186515
37	0xbd50d9b4	-0.050988868
38	0xbcf2b48c	-0.029627107
39	0x3e47a59e	0.19496772
40	0x3d73491b	0.05939589
41	0xbe2b0df6	-0.16704544
42	0xbe010442	-0.1259928
43	0x3d39a007	0.04531863
44	0x3e7ce3de	0.246963
45	0xbe091482	-0.1338673
46	0xbe896284	-0.26832974
47	0xbd3f6b01	-0.046732906
48	0x3ccacd79	0.02475618
49	0xbefdb954	-0.49555457
50	0xbc851401	-0.01624489
51	0xbda228de	-0.07917951
52	0xbf920589	-1.1407939
53	0xbe19e99c	-0.15030521
54	0xbdf8da02	-0.12150957
55	0xbe8e6f3d	-0.27819243
56	0x3e0afbed	0.13572665
57	0xbe3060b6	-0.17224392
58	0x3eed357b	0.46329865
59	0xbe47b2a6	-0.19501743
60	0xbd89680d	-0.06709299
61	0xbec8478c	-0.39117086
62	0xbe2bfa5d	-0.16794725
63	0x3ef475d9	0.4774616
64	0x3dd486d4	0.10377279
65	0xbe34d74a	-0.17660251
66	0xbdfd7b4f	-0.12377035
67	0xbe1f5b77	-0.15562235
68	0x3e671e85	0.22570236
69	0x3e8c0add	0.27352038
70	0x3ded79db	0.11595508
71	0x3e214c39	0.15751733
72	0xbf00b6cb	-0.5027892
73	0xbe905a3e	-0.2819385
74	0xbdb8e794	-0.09028545
75	0x3f242c7c	0.6413038
76	0x3e69fca5	0.22850282
77	0xbd6d411f	-0.057923432
78	0xbbca7191	-0.006178089
79	0x3d457cd0	0.048214734
80	0x3de753ab	0.11295255
81	0xbe7ca127	-0.2467085
82	0x3f1d1b66	0.6136993
83	0x3e200be8	0.15629542
84	0xbe8257e5	-0.25457683
85	0xbeb21796	-0.3478362
86	0x3e97d43c	0.2965411
87	0x3e1dab82	0.15397456
88	0xbecc6e65	-0.39927974
89	0xbe790c06	-0.24320993
90	0xbe519fb0	-0.20471072
91	0x3e62800a	0.22119156
92	0x3f577bec	0.84173465
93	0x3f074c6b	0.5285098
94	0x3e7431e5	0.23847158
95	0xbfa03e2c	-1.2518973
96	0xbe46a381	-0.1939831
97	0xbe125063	-0.14288478
98	0x3ddcd860	0.10783458
99	0xbf07c506	-0.5303501
100	0xbd9d67ed	-0.07685838
101	0x3eaf3554	0.34220374
102	0x3e1a7803	0.15084843
103	0x3ec231b7	0.37928554
104	0xbe44be0b	-0.1921312
105	0xbd3390af	-0.043839153
106	0xbe861ddb	-0.26194653
107	0xbd5c33b1	-0.053760234
108	0x3fb2ed87	1.3978738
109	0xbe854677	-0.26030323
110	0xbf1cfe64	-0.6132567
111	0xbe41fcdb	-0.18944113
112	0xbebd65ad	-0.36991635
113	0x3ec7a7bc	0.3899516
114	0xbd16096b	-0.036630075
115	0x3db196ee	0.08671366
116	0xbda1ccad	-0.07900367
117	0x3fd1a8b4	1.6379609
118	0x3f5d8c0d	0.86541826
119	0xbf8b2ddd	-1.0873371
120	0x3ea955a6	0.33073157
121	0x3e9f7966	0.31147307
122	0xbe906cff	-0.28208157
123	0x3ea84d3b	0.32871422
124	0x3e9563f0	0.2917781
125	0x3e8b7f69	0.27245644
126	0x3ec1b8f1	0.37836412
127	0x3e7603af	0.24024843
128	0xbe0f334e	-0.13984415
129	0xbdcd8ba3	-0.10036399
130	0x3edf5db9	0.43626192
131	0xbdc27530	-0.09495008
132	0xbc8b89a1	-0.0170334
133	0x3cd5a4bf	0.026079534
134	0xbd835a8b	-0.06413754
135	0x3d8fe709	0.07026488
136	0x3f0032e8	0.50077677
137	0x3dfd3c2c	0.123649925
138	0x3e8d8454	0.2764002
139	0xbec1a7be	-0.3782329
140	0xbe118437	-0.14210592
141	0x3cc59de9	0.024123149
142	0xbe9a3b56	-0.30123395
143	0xbe661fab	-0.22473018
144	0x3f195116	0.5988935
145	0xbda0847d	-0.0783777
146	0xbed69638	-0.41911483
147	0xbf501c85	-0.8129352
148	0xbf0004cd	-0.50007325
149	0x3e251bcd	0.16123886
150	0xbe191cf6	-0.14952454
151	0xbe304845	-0.17215069
152	0xbe17aa37	-0.14811026
153	0x3f8b4d35	1.0882937
154	0x3f84c6f1	1.0373212
155	0xbf1b557c	-0.60677314
156	0xbeca1306	-0.3946764
157	0x3d9b1c09	0.07573707
158	0x3ea48acb	0.3213714
159	0x3e2aa889	0.16665854
160	0x3f527318	0.8220687
161	0x3e5059ee	0.20346805
162	0x3eeba6d0	0.46025705
163	0x3edadb89	0.42745617
164	0xbe47aac7	-0.1949874
165	0x3f02539e	0.5090884
166	0xbe3cdc35	-0.18443377
167	0x3e07b491	0.13252474
168	0x3ea72edf	0.32652947
169	0x3dd8ec92	0.10591997
170	0xbda63b5d	-0.081167914
171	0x3e6a43d3	0.22877435
172	0x3ee35d6d	0.44407216
173	0x3e2cb6fc	0.16866678
174	0x3d188844	0.037239328
175	0x3e4259a0	0.18979502
176	0xbcf0d7fd	-0.029399866
177	0xbe58db76	-0.21177468
178	0x3ecef9ae	0.40424865
179	0x3de6eb69	0.1127537
180	0x3f6e5696	0.9310087
181	0xbdaa9756	-0.08329646
182	0xbedcd7a0	-0.4313326
183	0xbee00637	-0.43754742
184	0xbdb8c07c	-0.090210885
185	0x3eab98a7	0.33514902
186	0xbe2aac24	-0.16667229
187	0xbe120eba	-0.1426343
188	0x3e8dd1a7	0.27699015
189	0xbcb91656	-0.022593658
190	0xbc2ac2e5	-0.010422443
191	0x3e138389	0.14405645
192	0xbf444c3c	-0.76678824
193	0xbe1a1250	-0.15046048
194	0x3fa445a1	1.2833749
195	0xbd7147db	-0.058906417
196	0x3e9f2883	0.31085595
197	0x3e06b6e5	0.13155706
198	0x3f2322cc	0.6372497
199	0xbdcca2de	-0.09992002
200	0xbf011964	-0.5042937
201	0x3b820055	0.0039673247
202	0xbe01c727	-0.12673627
203	0x3e267ae5	0.16257818
204	0xbd9e450b	-0.07728013
205	0xbc5f3315	-0.013623019
206	0xbe56fd4c	-0.20995063
207	0xbe794040	-0.24340916
208	0x3e9883b7	0.2978799
209	0x3e25b437	0.16182028
210	0xbce42095	-0.027847568
211	0x3dc04a57	0.09389179
212	0x3e095bbe	0.13413903
213	0x3bd284de	0.0064245304
214	0x3efc75d4	0.49308646
215	0xbe7337ed	-0.23751803
216	0x3d004da2	0.031324036
217	0xbcd3d4d4	-0.02585832
218	0xbcf89346	-0.030343663
219	0xbf0f3987	-0.55947155
220	0x3e802425	0.25027576
221	0x3eef1cac	0.46701562
222	0xbd21da96	-0.0395151
223	0x3eda773e	0.426691
224	0x3d4b7bea	0.04967872
225	0xbea8b750	-0.32952356
226	0xbcab063c	-0.020876996
227	0xbd3070d4	-0.04307635
228	0x3f2ab302	0.66679394
229	0xbe250efe	-0.16119
230	0xbf08b134	-0.5339539
231	0x3e0761b4	0.13220865
232	0x3e243d02	0.16038898
233	0xbe2582ab	-0.16163127
234	0x3f1bf57e	0.60921466
235	0xb84d029a	-4.887823e-05
236	0xbecd000e	-0.40039104
237	0xbd43c13e	-0.047791712
238	0x3d59d243	0.053179037
239	0x3dfb4004	0.122680694
240	0xbe1548b1	-0.14578511
241	0x3e59ccb2	0.21269491
242	0x3f03fc53	0.5155689
243	0xbe2295de	-0.15877482
244	0xbf0b2e3a	-0.5436741
245	0x3e375b49	0.17905916
246	0xbd6c15ba	-0.057637908
247	0x3c8f577e	0.017497774
248	0xbd814046	-0.06311087
249	0xbf07551e	-0.52864254
250	0xbe1fd61a	-0.15609017
251	0x3da73e7c	0.08166215
252	0xbe853e9f	-0.2602434
253	0x3cf79f2a	0.030227263
254	0x3f0f12e5	0.55888206
255	0xbe1cb028	-0.15301573

bias f4 [10]
0	0xbd8d4ac6	-0.068990275
1	0xbd9a3d7a	-0.07531257
2	0x3cf90f37	0.030402763
3	0xbd12c576	-0.035832845
4	0xbd3d7809	-0.046257053
5	0xbd6a04b3	-0.057133388
6	0xbd0d7631	-0.034536544
7	0xbc552f79	-0.013011807
8	0xbd9fe533	-0.07807388
9	0x3d243b9f	0.04009592

weight f4 [10, 32, 3, 3]
0	0xbeef1809	-0.46698025
1	0xbf27668f	-0.65390867
2	0xbf322a5d	-0.6959589
3	0x3e38ccf1	0.18046929
4	0xbf03ae9d	-0.51438314
5	0x3f47e33f	0.78081125
6	0x3f131c51	0.5746508
7	0x3f98db51	1.194193
8	0xbe546087	-0.20739947
9	0xbe3e9dc5	-0.18614872
10	0xbe507254	-0.20356113
11	0xbe6e0376	-0.23243508
12	0x3f48073f	0.78136057
13	0x3e8fc670	0.28081083
14	0x3f7b2bf5	0.9811395
15	0x3e4fbc8b	0.20286767
16	0x3f1b7e67	0.6073975
17	0x3ea1bbb4	0.3158852
18	0xbf83f00b	-1.030763
19	0xc04edfac	-3.2324018
20	0xbeb557ef	-0.3541865
21	0xbeecf4ff	-0.46280667
22	0xbf1a0c40	-0.6017494
23	0x3e77a541	0.24184133
24	0x3f28a713	0.65879935
25	0xbe458a90	-0.19291139
26	0x3e074fe5	0.13214071
27	0x3da1b24b	0.07895335
28	0xbeb8ed52	-0.3611856
29	0xbeb5f2bb	-0.3553675
30	0x3f10d03b	0.56567734
31	0xbeacb8cd	-0.33734742
32	0x3f6426ce	0.8912171
33	0xbe249e88	-0.160761
34	0x3fdb64a1	1.7140085
35	0x3f47ed91	0.7809687
36	0xbed116e0	-0.40837765
37	0xbe85ae16	-0.2610938
38	0xbe52edc3	-0.20598511
39	0xbd4e629b	-0.050387006
40	0xbe904520	-0.28177738
41	0xbe49953f	-0.19685839
42	0xbed12cd3	-0.4085451
43	0xbf2e99b4	-0.6820328
44	0x3e5d8a2b	0.21634738
45	0xbea5817b	-0.32325348
46	0xbeebf5c2	-0.46085936
47	0xbe2196e9	-0.15780224
48	0x3e260c58	0.16215646
49	0xbe0aa854	-0.13540775
50	0xbe7c98bb	-0.24667637
51	0xbdcf456c	-0.10120663
52	0xbeda6779	-0.42657068
53	0xbc81eb3d	-0.01585924
54	0xbf4597f4	-0.7718499
55	0xbeb23730	-0.3480773
56	0x3dcb291c	0.0991995
57	0xbea16c84	-0.31528103
58	0xbe2ce922	-0.16885808
59	0xbd1d2dcb	-0.03837375
60	0xbf57bf6e	-0.84276474
61	0x3e271a23	0.16318564
62	0x3e0ecb0b	0.13944642
63	0xbf3d399d	-0.73916036
64	0xbf148161	-0.58009917
65	0xbf242449	-0.64117867
66	0xbe92f189	-0.28699902
67	0xbe63dc70	-0.22252059
68	0x3f775293	0.96610373
69	0xbdbdf738	-0.09275669
70	0x3fb921d7	1.4463452
71	0xbf7e7a56	-0.9940542
72	0x3cb0ba2a	0.021573145
73	0x3eedae92	0.4642225
74	0xbe529dba	-0.2056798
75	0xbd30940e	-0.043109946
76	0xbfb526af	-1.415243
77	0x3f35afef	0.7097158
78	0xbe283771	-0.16427399
79	0x3e8133d8	0.25234866
80	0xbf21dffc	-0.632324
81	0xbefa4c69	-0.4888642
82	0xbfc6cc32	-1.5531065
83	0xbedca4be	-0.43094438
84	0xbe713700	-0.23556137
85	0x3ce8ce05	0.02841855
86	0xbf57a113	-0.84230155
87	0x3e52c2a7	0.20582066
88	0x3f21ff68	0.63280344
89	0x3ea3c676	0.3198735
90	0xbe2bc6bc	-0.1677503
91	0x3e8bceb4	0.2730614
92	0xbd7ee6e3	-0.06223191
93	0xbe82d38d	-0.25552025
94	0x3ebbe22d	0.36695996
95	0x3f857fc8	1.0429621
96	0x3e3abc10	0.18235803
97	0xbec2689a	-0.3797043
98	0xbe99094d	-0.29889908
99	0x3f1bcdee	0.608611
100	0xbe0b5252	-0.13605621
101	0xbee87b7e	-0.45406717
102	0x3f2771bf	0.6540794
103	0xbf1b901a	-0.60766757
104	0x3f424347	0.7588391
105	0x3ed443d5	0.41458002
106	0x3fb9c973	1.4514602
107	0xbf5dcad6	-0.8663763
108	0x3e855711	0.2604299
109	0xbe9aa566	-0.30204314
110	0xbe42a94f	-0.19009899
111	0x3c377a8e	0.011198653
112	0x3f18e811	0.59729105
113	0xbf35e611	-0.7105418
114	0x3e943022	0.28942972
115	0xbd610580	-0.054936886
116	0xbea226b9	-0.31670168
117	0xbe81d8ac	-0.2536062
118	0xbc4d91c4	-0.01254696
119	0xbf4e7744	-0.80650735
120	0xbd7a2ee1	-0.061079863
121	0x3ede6341	0.434351
122	0x3e5ffdb9	0.21874131
123	0xbe040e79	-0.12896146
124	0xbe98cf43	-0.29845628
125	0xbeff64a0	-0.49881458
126	0xbf359098	-0.7092376
127	0xbecf069b	-0.40434727
128	0x3ee0b334	0.4388672
129	0xbd0a5724	-0.03377451
130	0x3df700b6	0.120606825
131	0xbdc66094	-0.096863896
132	0xbe81f67d	-0.25383368
133	0x3e25ee66	0.16204223
134	0xbf37a795	-0.71740085
135	0xbf15da92	-0.58536637
136	0xbee27320	-0.44228458
137	0x3e4239c9	0.18967356
138	0x3f1caf6d	0.6120518
139	0x3e2cc0b9	0.16870393
140	0x3f251da4	0.64498353
141	0xbeadd5d3	-0.33952197
142	0x3f959946	1.16874
143	0xbea716a8	-0.32634473
144	0xbc94a95d	-0.018147165
145	0xbd5b087f	-0.0534749
146	0xbf15c93b	-0.5851018
147	0xbe65920d	-0.22418995
148	0x3ebf8bc9	0.37411335
149	0x3f1f2c94	0.62177396
150	0x3e43e8ff	0.1913185
151	0x3e34dee3	0.1766315
152	0x3f4e3213	0.8054516
153	0xbeabe4e4	-0.33573067
154	0xbe213f12	-0.15746716
155	0x3daf789b	0.085679255
156	0x3d64e828	0.055885464
157	0xbea1d7dc	-0.3161
158	0x3f3ea0a5	0.74463874
159	0xbe295094	-0.16534644
160	0xbed4464c	-0.41459882
161	0x3e8eb229	0.278703
162	0xbe83c01b	-0.25732502
163	0xbe5310aa	-0.20611826
164	0xbea29e7a	-0.31761533
165	0xbba0ec77	-0.0049110013
166	0x3e375fb4	0.17907602
167	0xbdce4f98	-0.10073775
168	0x3e5a79db	0.21335547
169	0x3f056439	0.5210605
170	0x3fa7cc47	1.3109215
171	0xbef97e7f	-0.4872932
172	0xbd0d7e20	-0.03454411
173	0xbedb416f	-0.4282336
174	0x3e45e8cd	0.19327088
175	0xbe4e1784	-0.20126158
176	0xbeaa8475	-0.33304182
177	0x3f04d24a	0.51883376
178	0x3ee67f1b	0.4501885
179	0xbd5133e6	-0.051074885
180	0xbdbacb83	-0.09120848
181	0xbf638df8	-0.888885
182	0xbeb9d0cf	-0.3629212
183	0x3cab5370	0.02091381
184	0xbef246f9	-0.47319773
185	0x3e976aa2	0.29573542
186	0x3f055c27	0.5209374
187	0x3f4cef28	0.80052423
188	0x3f20a617	0.62753433
189	0xbebe3372	-0.37148625
190	0xbf374dcf	-0.716031
191	0xbf36041d	-0.71100026
192	0x3e901786	0.28142947
193	0xbc606e28	-0.013698138
194	0x3e924d10	0.2857442
195	0x3eb1a91a	0.34699327
196	0x3f11bb52	0.56926453
197	0xbf3fdcee	-0.74946487
198	0xbf1f670a	-0.622666
199	0xbe887492	-0.26651436
200	0x3e43425b	0.19068281
201	0xbf3dcdf5	-0.7414239
202	0x3f1b4dae	0.60665405
203	0xbd94f6e6	-0.07273655
204	0xbeaf598c	-0.34248006
205	0x3ede1169	0.43372658
206	0xbec29583	-0.38004693
207	0xbcc4fef5	-0.024047354
208	0xbec322bc	-0.38112438
209	0xbaec7335	-0.0018039705
210	0xbe57471c	-0.2102322
211	0x3dc9edcd	0.0985981
212	0x3f59d1a0	0.8508549
213	0xbe8e3c6e	-0.2778048
214	0xbf279220	-0.65457344
215	0xbfbf130c	-1.4927688
216	0xbecc2dae	-0.398786
217	0xbf5d393d	-0.86415464
218	0xbea90904	-0.3301469
219	0x3dad2590	0.0845443
220	0xbef716e0	-0.4825964
221	0xbcbb5419	-0.02286725
222	0x3e8ebb07	0.27877066
223	0x3f9e4096	1.236346
224	0x3dd1bf80	0.10241604
225	0xbea2f9aa	-0.31831104
226	0x3e1137a5	0.14181383
227	0xbe98d642	-0.29850966
228	0x3d032dba	0.03202603
229	0x3e6f44b5	0.23366053
230	0xbe665f75	-0.22497351
231	0x3e9d36a7	0.3070576
232	0xbec56ae1	-0.38558105
233	0x3f8e4a1e	1.1116369
234	0xbfbf6867	-1.4953736
235	0xbfad881c	-1.3557162
236	0xbe22d6ab	-0.15902202
237	0xbf2f5d61	-0.6850186
238	0xbedbfc86	-0.42966098
239	0xbe55eb0d	-0.20890446
240	0x3ec91b1b	0.39278492
241	0xbf35e34b	-0.71049947
242	0x3ee2cc59	0.4429653
243	0x3cb9615e	0.022629436
244	0xbe9ece40	-0.3101673
245	0xbf5cd0c3	-0.86256045
246	0xbd8155e7	-0.06315213
247	0x3ee6a893	0.45050487
248	0xbec969be	-0.39338487
249	0x3e608468	0.21925509
250	0xbe9c63d6	-0.3054492
251	0xbe8b1f8b	-0.27172503
252	0x3ebc018f	0.3671994
253	0xbee81f47	-0.45336363
254	0xbe0868ac	-0.13321179
255	0x3b60a95b	0.0034280631

bias f4 [32]
0	0xbdaf77dd	-0.08567784
1	0x3d05472d	0.03253858
2	0xbe271d85	-0.16319855
3	0x3f1125ad	0.56698114
4	0x3ef542f4	0.47902644
5	0x3ea8aa15	0.32942262
6	0x3dc66a3f	0.096882336
7	0xbc8cb694	-0.017176904
8	0x3ead3e3f	0.33836553
9	0xbe043d83	-0.1291409
10	0x3d8d5c33	0.06902351
11	0x3cc27b05	0.0237403
12	0xbe28cba2	-0.1648393
13	0x3f0e9d92	0.55709183
14	0x3ee2fe00	0.44334412
15	0x3ec5b0c8	0.38611436
16	0x3e0ee54b	0.13954656
17	0x3f223238	0.6335788
18	0xbe9616a7	-0.29314157
19	0x3f0bfcd1	0.5468264
20	0x3bd4284b	0.00647453
21	0x3cbe9325	0.023263523
22	0x3dc2ba9e	0.09508251
23	0x3ea38b58	0.31942248
24	0xbe3b05ef	-0.18263982
25	0xbddd4330	-0.108038306
26	0x3dc7fe3e	0.0976529
27	0x3e945f8d	0.2897915
28	0x3ed59580	0.41715622
29	0x3ed0c5da	0.4077595
30	0xbcf68b38	-0.030095682
31	0x3eac7a9e	0.336873

weight f4 [32, 32, 3, 3]
0	0x3dff91f2	0.12479009
1	0xbe11b462	-0.14228967
2	0xbdb25986	-0.087084815
3	0x3dd63772	0.10459794
4	0x3c94fd08	0.018187061
5	0xbee239fa	-0.44184858
6	0x3e769748	0.24081147
7	0xbe4ad010	-0.19805932
8	0xbec04a35	-0.37556615
9	0xbe5a9cc4	-0.21348864
10	0x3d95f372	0.07321824
11	0x3e3d3bce	0.18479845
12	0xbe2aa2b4	-0.16663629
13	0xbe4ab9d8	-0.19797456
14	0x3e2242b9	0.15845765
15	0x3ec4e69f	0.384572
16	0xbd4fecdf	-0.050763007
17	0xbd3aab5f	-0.04557359
18	0xbe655692	-0.22396305
19	0x3e32855d	0.17433687
20	0xbe24e778	-0.16103923
21	0x3dd43f8b	0.10363682
22	0x3e8bfb39	0.27340105
23	0x3f5d011e	0.8632983
24	0xbb4e1b0e	-0.0031449231
25	0x3e5095e2	0.20369676
26	0x3e201d94	0.15636283
27	0xbd120c42	-0.03565622
28	0x3e38c5c9	0.18044199
29	0xbd8117a6	-0.06303339
30	0xbd9bfa06	-0.076160476
31	0x3e7efc3b	0.24900906
32	0x3f571e68	0.8403077
33	0x3e953cb5	0.29147878
34	0x3e479fcf	0.19494556
35	0xb929990e	-0.00016174113
36	0xbd09be17	-0.03362855
37	0x3d206c46	0.039165758
38	0x3f307e66	0.6894287
39	0xbdb2ec41	-0.08736468
40	0x3ebf0ade	0.37312979
41	0x3f07d4ea	0.53059256
42	0xbdab79d8	-0.08372849
43	0x3e3ab627	0.18233548
44	0xbeec7047	-0.4617941
45	0xbe1ab16f	-0.15106748
46	0x3ead4fde	0.33849996
47	0xbc3670ff	-0.011135339
48	0xbd1c7974	-0.038201764
49	0x3ea76470	0.32693815
50	0x3f55df55	0.835439
51	0x3e93b129	0.288461
52	0x3e0fece7	0.14055215
53	0x3d8d72dc	0.06906673
54	0xbe48cafe	-0.19608685
55	0xbe4afbf0	-0.19822669
56	0xbe590776	-0.21194252
57	0x3db82d67	0.08993035
58	0x3ee35314	0.4439932
59	0x3ec7ce1a	0.3902443
60	0x3e97ab49	0.29622868
61	0x3ee7c489	0.45267132
62	0xbe50b11e	-0.20380065
63	0xbe33635f	-0.17518376
64	0x3e9439ec	0.2895044
65	0x3c2b7960	0.01046595
66	0xbe11614b	-0.1419727
67	0x3e2d380c	0.16915911
68	0x3f1bda18	0.6087966
69	0x3ea630c6	0.32459086
70	0x3de7968a	0.1130801
71	0xbd9df60b	-0.077129446
72	0xbe41ae92	-0.1891425
73	0xbe1e615d	-0.15466829
74	0xbe572f55	-0.2101415
75	0xbe4a764c	-0.19771689
76	0xbe5dbbd4	-0.21653682
77	0xbebfd489	-0.3746684
78	0x3e4dee01	0.20110323
79	0x3f0b2026	0.5434593
80	0xbe6c4cbe	-0.2307615
81	0xbe4f0827	-0.20217954
82	0x3e83eb8a	0.2576564
83	0x3ccf3158	0.025292084
84	0xbdccd7c5	-0.10002092
85	0x3df3e512	0.11908926
86	0x3f072f1c	0.5280626
87	0x3eae3094	0.34021437
88	0xbc0c27e0	-0.008554429
89	0x3cceee15	0.02526001
90	0xbe8836c0	-0.2660427
91	0xbde79a6d	-0.11308751
92	0x3ebd8cee	0.37021583
93	0x3e2bbd06	0.16771325
94	0xbe8d6ead	-0.276235
95	0xbf08b6f8	-0.5340419
96	0xbe05d8de	-0.1307101
97	0xbecd6f6c	-0.4012407
98	0xbea1be62	-0.31590563
99	0xbde5bad3	-0.112172745
100	0x3e9cbba5	0.3061191
101	0x3dc65dc9	0.09685857
102	0xbda234b7	-0.07920211
103	0x3e92b642	0.28654677
104	0x3f557e38	0.8339572
105	0x3e404db4	0.18779641
106	0x3b217ff4	0.0024642916
107	0x3e26c298	0.16285169
108	0xbe51a2ae	-0.20472214
109	0x3dcc27a3	0.099684976
110	0x3f39ca82	0.7257463
111	0xbdb33e16	-0.08752076
112	0x3de221f8	0.11041635
113	0x3eca998d	0.39570275
114	0x3e3771c9	0.179145
115	0x3cb00280	0.021485567
116	0xbeea167d	-0.45720282
117	0xbdaf6781	-0.08564664
118	0x3dcd893d	0.10035942
119	0x3e3924be	0.18080422
120	0xbccd6a54	-0.025075115
121	0x3e4513ae	0.19245788
122	0x3f478db8	0.7795062
123	0x3e9ff6d7	0.3124301
124	0xbc08481c	-0.008317973
125	0x3e22c6f5	0.15896209
126	0x3b4fbb94	0.0031697499
127	0x3e0a799f	0.13522957
128	0x3eb3b924	0.3510219
129	0xbd94896b	-0.07252773
130	0xbe32390b	-0.17404573
131	0xbeb14409	-0.3462222
132	0xbd483dfc	-0.048887238
133	0xbf1f594e	-0.62245643
134	0xbf321f8a	-0.69579375
135	0xbe8d1307	-0.2755358
136	0x3d133a11	0.03594405
137	0x3e7f8a9e	0.24955222
138	0x3dedc716	0.11610238
139	0xbe2edd9b	-0.17076723
140	0xbf0570a2	-0.5212499
141	0x3dfe2a45	0.12410406
142	0xbebf5f98	-0.3737762
143	0xbe527178	-0.20551097
144	0xbd61c240	-0.05511689
145	0xbd06d70d	-0.032919932
146	0x3ef30f04	0.47472394
147	0x3d39edde	0.045392863
148	0x3ef477b0	0.47747564
149	0x3f4a6047	0.7905316
150	0xbe663ddf	-0.2248454
151	0x3eab1018	0.33410716
152	0xbd8103b9	-0.06299538
153	0xbe799ce7	-0.2437626
154	0xbe1bea21	-0.15226032
155	0x3e323b89	0.17405523
156	0x3e737cb7	0.23778044
157	0x3e3bcc75	0.18339713
158	0x3e656d1e	0.22404906
159	0x3e1fbca5	0.15599306
160	0x3eb4feba	0.3535059
161	0x3e9e5e54	0.30931342
162	0x3cb602e9	0.022218185
163	0x3e914a65	0.2837707
164	0xbcb01dfe	-0.021498676
165	0xbdc6a022	-0.09698512
166	0x3eb9ebb5	0.36312643
167	0x3f8bd0ef	1.0923136
168	0x3dfd23c4	0.123603374
169	0x3eabcc99	0.33554533
170	0x3e89fb96	0.26949757
171	0xbe03c1d3	-0.12866907
172	0xbe2ac8ec	-0.16678208
173	0x3e0db4f3	0.13838558
174	0xbe7d9144	-0.24762446
175	0xbe7f7744	-0.2494784
176	0xbf0382b4	-0.5137131
177	0x3e2b6f7a	0.16741744
178	0x3f06f5d8	0.5271888
179	0xbe8a849e	-0.27054304
180	0x3dc94700	0.09827995
181	0xbdada99d	-0.08479617
182	0xbe972bec	-0.29525697
183	0x3e311775	0.17294104
184	0xbdad0383	-0.084479354
185	0xbee0162b	-0.43766913
186	0x3e160fb0	0.14654422
187	0x3e4fe698	0.20302808
188	0x3c865212	0.016396556
189	0xbd2ae2f7	-0.041720357
190	0x3e1d717a	0.15375319
191	0x3d8f4a3f	0.06996583
192	0xbdbdcfb7	-0.09268134
193	0x3e2eadc3	0.17058472
194	0x3f163286	0.5867084
195	0x3e818b32	0.2530151
196	0xbe171096	-0.14752421
197	0x3e0d239a	0.13783112
198	0x3e57e604	0.21083838
199	0x3e44744c	0.19184989
200	0x3ce0a872	0.027424071
201	0xbd1c97d2	-0.038230725
202	0x3eb0fd39	0.34568194
203	0x3f929c48	1.1453943
204	0x3e29a521	0.16566898
205	0x3e8c5832	0.27411038
206	0x3d8fd104	0.070222884
207	0x3d772efa	0.060347535
208	0x3e656074	0.22400075
209	0x3be6615a	0.007030648
210	0x3d653898	0.055962175
211	0x3eb4f151	0.3534036
212	0x3f62e9d5	0.8863805
213	0x3e478ec7	0.19488059
214	0x3e86503e	0.26233095
215	0x3e3b25e7	0.18276177
216	0xbab9f91d	-0.0014188621
217	0xbe5572f2	-0.2084463
218	0x3df85704	0.12125972
219	0x3e4d4fbe	0.2004995
220	0x3f02dee2	0.5112134
221	0x3e74d32e	0.23908684
222	0x3ddc8d82	0.10769178
223	0x3ecf2662	0.4045897
224	0xbea13c49	-0.31491306
225	0xbd4ff4c9	-0.050770555
226	0x3e6d3d30	0.23167872
227	0x3dce8f70	0.10085952
228	0xbe288f90	-0.16461015
229	0x3eacba01	0.3373566
230	0x3f5be21e	0.858919
231	0x3d0fe9db	0.03513513
232	0xbd37c2b4	-0.044863418
233	0x3e793fd4	0.24340755
234	0x3c9e750d	0.019342924
235	0x3d53686c	0.051613256
236	0x3db8b444	0.09018758
237	0x3e1214a0	0.1426568
238	0x3e064b7e	0.13114735
239	0x3f224a46	0.6339458
240	0xbd46794b	-0.048455518
241	0x3e84c63c	0.2593249
242	0xbea959ef	-0.33076426
243	0xbc7000d3	-0.014648634
244	0x3e060d02	0.130909
245	0x3e7ec728	0.2488066
246	0x3ca7bb8a	0.020475168
247	0xbdfb39b8	-0.12266868
248	0xbf14008f	-0.5781335
249	0x3eb81445	0.35952964
250	0xbf069ab5	-0.52579814
251	0xbd8c3f87	-0.068480544
252	0xbcf9084f	-0.03039947
253	0x3e5ec299	0.2175392
254	0xbc66db3a	-0.014090354
255	0xbdb821dd	-0.08990834

bias f4 [32]
0	0x3e26e7a5	0.16299303
1	0xbe9c1ec0	-0.3049221
2	0xbe9b8721	-0.30376533
3	0xbe9f8501	-0.3115616
4	0xbe986509	-0.29764584
5	0xbe9f4997	-0.31110832
6	0xbd849370	-0.06473434
7	0xbe9b0bb8	-0.30282378
8	0x3db7c0b7	0.08972304
9	0xbe794886	-0.24344072
10	0x3e08270c	0.13296145
11	0xbe992e9f	-0.29918382
12	0xbeab9483	-0.33511743
13	0xbe95aa9c	-0.29231727
14	0x3dd6e9de	0.104938254
15	0x3ca06067	0.019577218
16	0xbe76e9d6	-0.24112639
17	0xbe8476d7	-0.25871918
18	0xbe8707f8	-0.26373267
19	0x3e00da16	0.12583193
20	0x3d9c0395	0.07617871
21	0xbeaca655	-0.3372065
22	0xbec95c1f	-0.39328095
23	0xbec5c5c8	-0.38627458
24	0xbde9a2ca	-0.11408003
25	0xbe93fd51	-0.28904203
26	0xbe830358	-0.2558849
27	0xbaa8eb19	-0.0012887447
28	0xbe87c790	-0.26519442
29	0x3d76b068	0.060226828
30	0x3e408f8b	0.18804757
31	0xbeb748ac	-0.35797632
