hierDiscriminate2/models/final.pth (torch_old, 215408 bytes, 21 tensors)

weight f4 [32, 1, 3, 3]
0	0x400482d6	2.0704856
1	0xbe1c3350	-0.15253949
2	0xbd3566d6	-0.044287525
3	0x40460d84	3.094575
4	0x3f6b3ceb	0.9188983
5	0x4000d731	2.0131342
6	0x3f5a55aa	0.85286963
7	0x3f5dd370	0.86650753
8	0x40288a6b	2.6334484
9	0xbf35b570	-0.70979977
10	0xbf28417c	-0.6572492
11	0xbef14ea9	-0.47130325
12	0x3f964970	1.1741161
13	0x3f1247a4	0.57140565
14	0x3f9e7889	1.2380534
15	0x3fb5375d	1.415752
16	0x3fcc3fc7	1.5956963
17	0x3facf455	1.3512064
18	0xbea28554	-0.31742346
19	0x3f11aed8	0.56907415
20	0xbf65f066	-0.89819944
21	0xbf8b4c29	-1.0882617
22	0xbf20afae	-0.62768066
23	0xbfb7498f	-1.4319323
24	0xc01858ad	-2.3804123
25	0xbf9d4041	-1.2285234
26	0xbf8e423c	-1.1113963
27	0xbfa810be	-1.3130109
28	0xbffe3019	-1.9858428
29	0xbfe6622d	-1.7998711
30	0x3ea881ed	0.32911626
31	0xbf467eb3	-0.7753708
32	0x3eb125dc	0.34599197
33	0x3f69692d	0.9117611
34	0x3f6bd46a	0.92120993
35	0x3fb272b3	1.3941253
36	0xbdb26f14	-0.08712593
37	0x3de30cd9	0.11086435
38	0x3f301b24	0.68791413
39	0x3f0e9d83	0.55709094
40	0x3f24b0b2	0.64332116
41	0x3fad2afb	1.3528742
42	0x3fc079e3	1.5037197
43	0x3fdbfec5	1.7187124
44	0x3faec4e6	1.3653839
45	0x3f3d196d	0.7386692
46	0x3f83bffc	1.0292964
47	0x3f160905	0.5860751
48	0xbf0d219e	-0.5512942
49	0xbfc8b078	-1.5678854
50	0xbfa5ea9c	-1.2962222
51	0xbf54308e	-0.8288659
52	0xbf1b3444	-0.60626626
53	0x3d3c765b	0.04601131
54	0x3f9c6d2e	1.2220819
55	0x3f89aba2	1.0755503
56	0x3f03568c	0.51303935
57	0x3e83b322	0.25722605
58	0xbe05b25f	-0.13056324
59	0xbf5847dd	-0.84484655
60	0xbf8c8ea1	-1.0981027
61	0xbfdeed01	-1.7416078
62	0xbf98f406	-1.194947
63	0xbe7f3452	-0.24922302
64	0xbeecf9d4	-0.46284354
65	0xbf728609	-0.9473577
66	0xbd31d1dd	-0.04341303
67	0xbf953680	-1.1657257
68	0xbf7ad49f	-0.97980684
69	0x3e892c10	0.2679143
70	0x3f5fce32	0.87424004
71	0x3f1fb819	0.62390286
72	0xbed381f2	-0.41310078
73	0xbfe50771	-1.7892896
74	0xbfc346e3	-1.5256008
75	0xbed43288	-0.41444802
76	0xbf939b2f	-1.1531733
77	0xbda1448a	-0.07874401
78	0x3f9f21ee	1.243223
79	0x3fa62c05	1.2982184
80	0x3f70fe33	0.9413788
81	0x3e88b5aa	0.267011
82	0x3f4b6034	0.7944367
83	0x3fa90949	1.3205959
84	0xbf67b5bb	-0.90511674
85	0xbfa7f149	-1.3120509
86	0x3f80c212	1.0059226
87	0xc00068d4	-2.0063982
88	0xbf866d2d	-1.0502068
89	0x3f3747b7	0.71593803
90	0x3f1795e4	0.5921309
91	0x3d1473aa	0.03624312
92	0x3bf34a40	0.007424623
93	0x3eae1f1b	0.34008107
94	0xbf8723dd	-1.055782
95	0xbf978bb7	-1.1839513
96	0x3e9bb681	0.30412677
97	0xbf1bc1ee	-0.6084279
98	0xbf386b8c	-0.72039104
99	0xbfaa5c40	-1.3309402
100	0xbdfa7227	-0.12228804
101	0xbf3d2670	-0.73886776
102	0xbfb5daa7	-1.4207352
103	0xbf214ac9	-0.6300474
104	0xbf875ba5	-1.0574843
105	0xc011915b	-2.2744968
106	0xbf8c0146	-1.0937889
107	0xbf83fe84	-1.0312047
108	0xbb1a5c75	-0.0023553644
109	0x3e81babb	0.25337777
110	0x3f20d929	0.6283136
111	0xbf841522	-1.0318949
112	0xbf8ccf17	-1.1000699
113	0xbfa975f1	-1.3239118
114	0xbfcf59dc	-1.6199298
115	0xbf8785b4	-1.0587678
116	0xbef997c5	-0.48748603
117	0xc00f6292	-2.2403913
118	0xbf27db37	-0.6556887
119	0xc0486beb	-3.1315868
120	0xc00bc132	-2.1836667
121	0xbeabedf6	-0.33579987
122	0xc04f2fc8	-3.2372913
123	0xc06ece48	-3.7313404
124	0xc00c2db2	-2.190289
125	0xc0588a5f	-3.3834455
126	0xbf9cea6b	-1.2259039
127	0xbeb2ff03	-0.34960184
128	0x3f8f4dc5	1.1195608
129	0xbfd8eb06	-1.6946723
130	0xbec8edf0	-0.39244032
131	0x3f13bd2c	0.5771053
132	0xbf51340b	-0.81720036
133	0x3f388913	0.7208416
134	0x3f2ba598	0.6704955
135	0xbfd6b8cc	-1.6775146
136	0xbfa7b6c4	-1.3102651
137	0xc010f6da	-2.2650666
138	0xbf99bc7a	-1.2010643
139	0xbf7d09ff	-0.9884338
140	0xbf272cb3	-0.6530258
141	0xbe1d0ba6	-0.15336475
142	0x3f878b07	1.0589303
143	0x3f11c9f0	0.5694876
144	0x3f28ab0f	0.65886015
145	0x3f732f2d	0.9499386
146	0xbe597549	-0.21236147
147	0x3fc0903e	1.5044019
148	0x3fefb997	1.8728513
149	0xbe902520	-0.28153324
150	0xbefb107c	-0.49036014
151	0xbf7567e3	-0.95861644
152	0xbf9cffa1	-1.2265512
153	0xbfc9b56e	-1.5758493
154	0xbf5473f3	-0.82989424
155	0xbfbf9c56	-1.4969585
156	0x3e152511	0.14564921
157	0x3f3ad4fb	0.7298123
158	0x3e3c4186	0.1838437
159	0x3f5d2b81	0.86394507
160	0x40047210	2.0694618
161	0x3f876015	1.0576197
162	0x3f872766	1.0558898
163	0x3ef2e132	0.47437435
164	0x3fc4ba65	1.5369383
165	0xbf17f1d8	-0.593534
166	0xbfb8701e	-1.4409215
167	0x3f14f4cd	0.58186036
168	0xbfaac70f	-1.3341998
169	0xbfac3222	-1.3452799
170	0xbdd282bd	-0.102788426
171	0x3e91c33d	0.28469267
172	0x3f75334e	0.9578141
173	0x3e5c4609	0.21511091
174	0xbf7ea1e6	-0.9946579
175	0xbf79e064	-0.9760802
176	0xbfb21992	-1.3914053
177	0x3da0afa3	0.07846
178	0x3ed7705f	0.4207792
179	0xbf24a1ab	-0.64309186
180	0x3bcfd3ea	0.006342401
181	0x3ebb0455	0.36526743
182	0xbde7ae84	-0.11312583
183	0x3f092211	0.53567606
184	0x3fdeca2f	1.7405452
185	0x3f1b816d	0.60744363
186	0x3ca7bc72	0.0204756
187	0xbdc618d7	-0.096727066
188	0xbf4e9d26	-0.8070854
189	0xbb121315	-0.0022289206
190	0xbf1dfeae	-0.61716735
191	0xbf6c019d	-0.9218996
192	0x3e3e4d8a	0.18584266
193	0xbeadaba6	-0.3392002
194	0xbf2fb3ef	-0.6863393
195	0xbd1206ac	-0.035650894
196	0xbd272021	-0.040802125
197	0xbdc2354c	-0.09482822
198	0x3f85e89f	1.0461615
199	0x3f3f47da	0.7471901
200	0x3dd7260c	0.10505304
201	0xbdcd26ea	-0.10017188
202	0xbeefe6bf	-0.46855733
203	0xbee7b8e4	-0.45258248
204	0xbf31fce3	-0.695265
205	0xbf96cb0d	-1.1780716
206	0xbf821eb6	-1.0165622
207	0xbf93ac51	-1.1536962
208	0xbfcd48f8	-1.6037893
209	0xbeea1543	-0.45719346
210	0xbe714b70	-0.23563933
211	0xbf6c5ac0	-0.92325974
212	0xbe9c8354	-0.30568945
213	0x3eeaba88	0.45845437
214	0x3f132783	0.57482165
215	0x3fa3e5e4	1.2804532
216	0x3fb8d550	1.4440098
217	0x3fa27ada	1.2693741
218	0x3f9bff57	1.2187299
219	0xbe0851dc	-0.13312477
220	0xbf1f81af	-0.62307256
221	0x3e07e837	0.13272177
222	0xbff62dd5	-1.9232737
223	0xbff274ae	-1.8941858
224	0xbfc13373	-1.5093826
225	0x4004660c	2.0687284
226	0x3f136af7	0.5758509
227	0x3fd52ae3	1.6653713
228	0x40365f9f	2.8495862
229	0x3ed9eac4	0.42561924
230	0x4030f903	2.7651985
231	0x4074074e	3.8129458
232	0x40291d05	2.6423962
233	0x40718c6e	3.7741961
234	0x3fcb3b47	1.5877465
235	0x3f1f8415	0.62310916
236	0x3f8bd9ed	1.0925881
237	0xbe19f314	-0.15034133
238	0xbff04af4	-1.8772874
239	0xbf21cb61	-0.63200957
240	0xbe296a8a	-0.16544548
241	0xbfc46578	-1.5343466
242	0xbf8f44b1	-1.1192838
243	0xbffd44d6	-1.9786632
244	0xbe0ad15e	-0.1355643
245	0xbfcd0ec1	-1.6020128
246	0xbfe94b1f	-1.822605
247	0xbfaadfe8	-1.3349581
248	0xc025e99d	-2.5923836
249	0x3f116fce	0.56811225
250	0x3f2e5ca9	0.6811014
251	0xbefd484a	-0.49469215
252	0xbfa3ba46	-1.2791221
253	0xbffcb231	-1.974188
254	0xbf9a7696	-1.206744
255	0xbf033168	-0.5124726

bias f4 [32]
0	0x3e3d29ba	0.18472949
1	0xbe1b8241	-0.15186407
2	0x3ed69589	0.4191096
3	0x3f567589	0.83773094
4	0xbeaa1a70	-0.33223295
5	0x3e9719fa	0.29512006
6	0x3fb8fdf6	1.4452503
7	0x3f601067	0.8752503
8	0x3f221e42	0.6332742
9	0x3f3cb16b	0.7370822
10	0x3fc89e89	1.5673381
11	0x3ec272c6	0.3797819
12	0x3f16de63	0.58933085
13	0x3e8e5dfc	0.2780608
14	0x3f832d3d	1.0248181
15	0x3eb82266	0.35963744
16	0xbe809ee7	-0.25121233
17	0x3e8ce46f	0.2751803
18	0x3f22a2c5	0.63529617
19	0x3f3d7ffd	0.7402342
20	0xbdffbe28	-0.12487441
21	0x3fd6188b	1.672624
22	0x3fb28110	1.3945637
23	0x3fbe526d	1.4868904
24	0x3d9963db	0.07489749
25	0x3e0f9147	0.14020263
26	0x3f8aab08	1.0833445
27	0x3ef52c0e	0.47885174
28	0x3f70d3b5	0.9407304
29	0x3fa78716	1.30881
30	0xbc2d8d22	-0.010592731
31	0x3f34dc9f	0.7064914

weight f4 [32, 32, 3, 3]
0	0xbd89ef8f	-0.06735145
1	0xbab562e5	-0.0013838677
2	0xbcda176c	-0.026622497
3	0xbdcea7d1	-0.10090602
4	0x3bd0f039	0.006376293
5	0x3b12e796	0.0022415868
6	0x3d037e8a	0.0321031
7	0x3e00a6d5	0.12563641
8	0x3e280aa6	0.16410312
9	0xbdcd1027	-0.100128464
10	0xbcfbb99f	-0.03072816
11	0xbdaa41f3	-0.0831336
12	0xbe080fd4	-0.13287288
13	0x3b81e3d5	0.0039639273
14	0x3d577387	0.05260041
15	0x3cc5547f	0.024088142
16	0x3e412b87	0.1886426
17	0x3e95c80b	0.29254183
18	0xbe0bd8a6	-0.13656864
19	0xbe0d210a	-0.13782135
20	0xbddb8f1c	-0.10720655
21	0x3e514c34	0.20439225
22	0x3d9bfa53	0.07616105
23	0x3ddddf97	0.10833662
24	0xbe3241f9	-0.17407979
25	0xbe76baaf	-0.24094652
26	0xbe400114	-0.18750411
27	0xbea67863	-0.32513723
28	0xbe70621b	-0.23474924
29	0x3d130bf6	0.03590008
30	0x3e7abac6	0.24485311
31	0x3eba7e72	0.36424595
32	0x3eb35915	0.35028902
33	0xbe70ccc1	-0.23515607
34	0xbee6b19f	-0.4505739
35	0xbe18ff07	-0.14941035
36	0xbcf5ddd2	-0.030012999
37	0xbd675362	-0.056476004
38	0xbe14a362	-0.1451545
39	0xbda195fd	-0.07889936
40	0x3bb7ebd6	0.0056128306
41	0xbd8d5b2a	-0.06902154
42	0xbd0680b8	-0.0328376
43	0x3e2d25c0	0.16908932
44	0x3e7f14e4	0.24910313
45	0xbde07120	-0.10959077
46	0x3d4942e7	0.04913607
47	0x3d442080	0.047882557
48	0x3e61483a	0.22000208
49	0x3e8f52d4	0.2799288
50	0x3e6a5ab5	0.22886164
51	0xbe490db3	-0.19634132
52	0xbea992f9	-0.33119944
53	0xbe7388ed	-0.23782702
54	0x3d29f6a7	0.04149499
55	0x3e85019f	0.259778
56	0x3eef1bf2	0.46701008
57	0x3e5ecc19	0.21757545
58	0x3e1e15ec	0.1543805
59	0x3e0fd60b	0.14046495
60	0xbdedb0c3	-0.1160598
61	0xbe85175a	-0.25994378
62	0xbdfc4206	-0.123172805
63	0xbe30462d	-0.1721427
64	0xbe0340b5	-0.12817653
65	0x3e618b17	0.22025715
66	0x3e861eaa	0.2619527
67	0x3ea11ce6	0.3146736
68	0x3ed1302a	0.4085706
69	0xbea9d868	-0.33172917
70	0xbecb1041	-0.39660838
71	0xbe380397	-0.1797012
72	0xbe5f75d4	-0.21822292
73	0xbe4b1352	-0.19831589
74	0x3dbdbe2a	0.092647865
75	0x3e8bc530	0.2729888
76	0x3e9fcc30	0.3121047
77	0x3eb1ee1e	0.34751981
78	0xbeaa00ff	-0.33203885
79	0xbf07ad77	-0.5299906
80	0xbe92ba98	-0.28657985
81	0x3b47651b	0.0030425254
82	0x3e177b67	0.14793168
83	0x3e311a2e	0.17295143
84	0x3e5c894a	0.21536747
85	0x3e7fb7f9	0.24972524
86	0x3d908252	0.070561066
87	0xbe6f7dea	-0.23387876
88	0xbe8fade2	-0.2806235
89	0xbdbc02be	-0.091802105
90	0xbd4b2a42	-0.049600847
91	0x3dc2b291	0.09506715
92	0x3ef7b657	0.48381302
93	0x3e9cfc0a	0.3066104
94	0x3e8ef5d0	0.27921915
95	0x3ea1a9de	0.3157491
96	0xbe684bbe	-0.22685143
97	0xbe8f53ff	-0.2799377
98	0xbe58b6b9	-0.21163453
99	0xbe37a618	-0.17934453
100	0xbe3af170	-0.18256164
101	0xbde0a6a3	-0.109692834
102	0x3e8cc897	0.27496788
103	0x3e68498a	0.22684303
104	0x3e4616e6	0.19344673
105	0xbdde5bdd	-0.10857365
106	0xbe5c42f8	-0.21509922
107	0xbe9096bd	-0.28240004
108	0xbe009cb7	-0.12559782
109	0x3d191754	0.037375763
110	0x3d0c2d11	0.034222666
111	0x3e52d100	0.2058754
112	0x3e438bab	0.19096248
113	0x3dfa9cd0	0.12236941
114	0xbe83f8c4	-0.2577573
115	0xbe1d55d2	-0.15364769
116	0xbe8623e7	-0.26199266
117	0xbe573382	-0.21015742
118	0xbeb88162	-0.3603621
119	0xbd68605a	-0.056732513
120	0x3ecd5c28	0.40109372
121	0x3e3d3e4b	0.18480794
122	0x3e8fadc8	0.28062272
123	0x3a60bc16	0.0008572949
124	0xbe19dc77	-0.15025507
125	0xbe595c66	-0.21226653
126	0xbe4f7445	-0.20259197
127	0x3cf94565	0.030428598
128	0x3dfb5c8b	0.122735105
129	0x3e5f6159	0.21814479
130	0x3e9b2196	0.30299062
131	0x3de09ed0	0.10967791
132	0xbebb0a51	-0.36531308
133	0xbe8ebea3	-0.2787982
134	0xbdff3a03	-0.12462237
135	0xbe951fe6	-0.291259
136	0xbe89d046	-0.26916713
137	0xbb6cbade	-0.0036122124
138	0x3e969578	0.2941091
139	0x3e5b6a70	0.21427321
140	0x3e57a658	0.21059549
141	0xbeab361c	-0.3343972
142	0xbef0c68a	-0.47026473
143	0xbebb391d	-0.3656701
144	0x3e160d10	0.1465342
145	0x3d864eec	0.06558022
146	0xbd41635e	-0.047213905
147	0xbe77a157	-0.2418264
148	0xbe140acf	-0.14457248
149	0x3c534513	0.012894887
150	0x3e956869	0.2918122
151	0x3ebfe68c	0.3748058
152	0x3e7c2e20	0.2462697
153	0xbe546b87	-0.20744143
154	0xbe50f5d1	-0.20406272
155	0xbde627c2	-0.11238052
156	0xbd8e0439	-0.06934399
157	0x3ba5e718	0.005062949
158	0x3e15704d	0.1459362
159	0x3d88ea2e	0.06685291
160	0x3e634b23	0.22196631
161	0x3e86978f	0.26287505
162	0xbd874a52	-0.06605972
163	0x3e33593d	0.1751451
164	0x3e5fa255	0.21839269
165	0x3e587d16	0.21141466
166	0x3ebd2dfd	0.3694915
167	0x3e16f184	0.14740568
168	0xbdb4acdb	-0.08822032
169	0xbe15d614	-0.14632446
170	0xbdec0063	-0.11523511
171	0xbe251058	-0.16119516
172	0xbd55de35	-0.052213866
173	0x3e593cd5	0.21214612
174	0x3ea8c997	0.329663
175	0x3e930333	0.28713378
176	0x3ec1fd19	0.3788841
177	0xbe5aab5c	-0.21354431
178	0xbea71063	-0.3262969
179	0xbe7ce050	-0.24694943
180	0x3ca1bd3e	0.019743558
181	0xbd16ee61	-0.03684843
182	0xbd691215	-0.05690201
183	0xbe0309a0	-0.1279664
184	0xbd9b0371	-0.07569016
185	0x3b1337c9	0.002246367
186	0x3dd0130a	0.101598814
187	0x3e5d0c74	0.21586782
188	0x3e1bb60a	0.15206161
189	0xbdf31243	-0.118687175
190	0x3caa364b	0.020777842
191	0x3e749f30	0.2388885
192	0x3e791487	0.24324237
193	0x3e34ede8	0.17668879
194	0x3e9e90ee	0.30969948
195	0xbe78b78e	-0.2428877
196	0xbe50525f	-0.20343922
197	0xbe13ea2e	-0.14444801
198	0x3d97c8d7	0.07411354
199	0x3e615a36	0.22007069
200	0x3ec76101	0.38941196
201	0x3e8e76f1	0.2782512
202	0x3e64c490	0.22340608
203	0x3e94cafb	0.29061112
204	0xbddf4639	-0.10902066
205	0xbe95ba9f	-0.29243943
206	0xbe19d690	-0.15023255
207	0xbe5c43d1	-0.21510245
208	0xbdbc35b7	-0.09189933
209	0x3de5f99b	0.11229249
210	0x3e975766	0.29558867
211	0x3ead7a95	0.33882585
212	0x3e93882f	0.28814837
213	0xbe6596fd	-0.22420879
214	0xbe828508	-0.2549212
215	0xbdfa84e7	-0.1223238
216	0x3de0c280	0.10974598
217	0x3ea90850	0.33014154
218	0x3ea5589b	0.32294163
219	0x3e16cf73	0.14727573
220	0x3ddc2f9d	0.10751269
221	0x3cef785d	0.029232198
222	0xbe318727	-0.17336713
223	0xbe72eb95	-0.2372268
224	0xbe973c69	-0.29538277
225	0xbd0c5024	-0.034256116
226	0x3d8bcf7e	0.06826685
227	0xbcfcaf3e	-0.03084528
228	0xbdc4e8ed	-0.096147396
229	0x3d19e437	0.03757116
230	0x3baba52f	0.0052381973
231	0x3ccb6bd1	0.024831684
232	0x3e00071f	0.12502716
233	0x3e48c9c1	0.19608213
234	0xbc30fd22	-0.010802539
235	0x3e2f2f5a	0.17107907
236	0x3ecc2dae	0.398786
237	0x3eaddcbe	0.33957475
238	0x3ec62394	0.3869902
239	0x3e96aff0	0.29431105
240	0xbe1f9752	-0.15585068
241	0xbe84a344	-0.25905812
242	0xbe84bb18	-0.2592399
243	0xbecc6639	-0.3992174
244	0xbe9de0d8	-0.30835605
245	0xbdbadf2f	-0.091246
246	0x3e811b1a	0.2521599
247	0x3dfc3449	0.1231466
248	0x3e1dd1c5	0.15412052
249	0xbeb8a941	-0.3606663
250	0xbeea3273	-0.45741615
251	0xbe964422	-0.29348856
252	0xbeb7c06c	-0.35888994
253	0xbe652bfe	-0.22380063
254	0x3d43922d	0.047746826
255	0x3e851448	0.25992036

bias f4 [32]
0	0x3dc38c58	0.09548253
1	0xbd23cb8a	-0.03998903
2	0xbd929ead	-0.07159171
3	0x3d2f314d	0.042771626
4	0xbc3e9fc5	-0.011634772
5	0xbd8103e3	-0.062995695
6	0xbd394bca	-0.045238294
7	0xbd9e7eb2	-0.07739009
8	0xbda19bf9	-0.078910775
9	0x3cc931e2	0.024559919
10	0xbc828f4f	-0.015937475
11	0x3ca290fc	0.019844525
12	0x3d1b443b	0.037906867
13	0xbdb7f31f	-0.089819185
14	0x3c3e3401	0.011609078
15	0xbde1a727	-0.1101821
16	0xbd0118a2	-0.031517632
17	0xbc6bdbb0	-0.014395639
18	0xbc792250	-0.015205935
19	0xbddf8084	-0.10913184
20	0xbd0013bb	-0.031268816
21	0xbe81c9c3	-0.25349244
22	0xbcc67de5	-0.024229953
23	0xbd93d60f	-0.07218563
24	0xbd908f94	-0.07058635
25	0xbe1c3c13	-0.15257291
26	0xbd0223c7	-0.0317724
27	0x3c7b4c55	0.015338023
28	0xbd0f1590	-0.034932673
29	0xbe1632ca	-0.14667812
30	0xbd94f2ee	-0.07272898
31	0xbddf16c3	-0.10893013

weight f4 [32, 32, 3, 3]
0	0x3d01d764	0.031699553
1	0x3c086409	0.0083246315
2	0x3f0051a8	0.501246
3	0xbed074c5	-0.40714088
4	0xbf060713	-0.52354544
5	0xbf060f3b	-0.5236699
6	0x3e05f0eb	0.13080184
7	0xbd9db62c	-0.07700762
8	0xbdd52e5b	-0.10409232
9	0x3d7e8ba8	0.062144905
10	0x3d725597	0.059163656
11	0x3ebbb1a3	0.36658964
12	0xbd97c150	-0.07409918
13	0xbea7cd03	-0.327736
14	0xbf1c8f75	-0.611564
15	0xbd36aee8	-0.044600397
16	0xbd994547	-0.07483917
17	0x3dcbb90b	0.099474035
18	0xbde8b433	-0.11362495
19	0x3d59324a	0.053026475
20	0x3f0b3453	0.54376715
21	0xbe2b0236	-0.16700062
22	0xbec605c0	-0.38676262
23	0x3ce50d8f	0.027960567
24	0x3bc87ca5	0.0061183744
25	0x3c6683a3	0.014069471
26	0xbdf4b318	-0.11948222
27	0xbdaf093f	-0.085466854
28	0xbe4053a0	-0.187819
29	0xbe0017a7	-0.12509023
30	0x3b866a91	0.004102059
31	0xbe6d2df2	-0.23162058
32	0xbe8ea7e0	-0.27862453
33	0x3e3329f3	0.17496471
34	0x3eeab4ac	0.45840967
35	0xbd8e261c	-0.069408625
36	0x3eb8994d	0.3605446
37	0x3e8fe566	0.28104705
38	0x3df109c0	0.11769438
39	0x3d046f13	0.03233249
40	0xbe827cf0	-0.25485945
41	0xbca99273	-0.020699715
42	0xbeaf5771	-0.342464
43	0xbf07dac9	-0.53068215
44	0xbeef86c1	-0.46782497
45	0xbece7370	-0.40322447
46	0xbe760c53	-0.24028139
47	0xbe924caf	-0.2857413
48	0xbe3605d0	-0.17775655
49	0x3e4a8aae	0.19779465
50	0xbd4f7563	-0.050649058
51	0x3dcce336	0.100042745
52	0x3e8f88a1	0.28033927
53	0x3ed3e313	0.4138418
54	0x3e03e78b	0.12881295
55	0xbe29834c	-0.16553992
56	0x3dcde1c7	0.10052829
57	0x3ed5e4a5	0.41776004
58	0x3dcc072c	0.099623054
59	0xbd9f6b79	-0.07784171
60	0x3d770e4b	0.060316365
61	0xbf208fd2	-0.6271945
62	0xbebddb95	-0.3708159
63	0xbd275e11	-0.040861193
64	0x3db55470	0.08853996
65	0x3d8e72d6	0.06955497
66	0xbe371e71	-0.17882706
67	0xbe974336	-0.29543465
68	0xbebedb78	-0.37276816
69	0xbe51008d	-0.20410366
70	0xbf0b2263	-0.54349345
71	0xbee51dc0	-0.4474926
72	0xbe10d63a	-0.14144221
73	0xbea6276a	-0.32451946
74	0xbe12dc4a	-0.14341846
75	0x3c2fe841	0.010736526
76	0xbe7d346a	-0.24727026
77	0xbda9ed3c	-0.08297202
78	0x3ced0292	0.02893189
79	0x3e5a8ff7	0.2134398
80	0xbdbbb173	-0.09164705
81	0x3e185225	0.14875086
82	0xbf3bfb08	-0.7342992
83	0xc0011d39	-2.0174086
84	0x3f17acc4	0.59247994
85	0x3e420138	0.18945777
86	0x3d3dbfe6	0.046325587
87	0x3f215354	0.63017774
88	0x3f3decaa	0.74189246
89	0x3e6ef376	0.2333506
90	0x3e83f3c7	0.25771925
91	0x3e9b5514	0.30338347
92	0x3eb7af32	0.3587585
93	0x3f323db2	0.6962539
94	0x3eeb0488	0.45901895
95	0x3ee3f527	0.44522974
96	0x3ea83d71	0.32859376
97	0x3d9b940e	0.075965986
98	0x3cd0e0c5	0.025497803
99	0xbec50628	-0.3848126
100	0xbefe5df4	-0.49681056
101	0xbf17402f	-0.5908231
102	0xbe0b06ff	-0.13576888
103	0xbe5bc367	-0.21461259
104	0xbdc85706	-0.097822234
105	0x3e7e9eae	0.24865219
106	0x3eb8a18b	0.36060748
107	0x3ea0b4d0	0.3138795
108	0xbf20d98c	-0.6283195
109	0xbf058664	-0.5215819
110	0xbf648101	-0.89259344
111	0x3e106850	0.14102292
112	0xbe86f79d	-0.2636079
113	0xbe189ec0	-0.14904308
114	0x3e70fbd9	0.23533572
115	0x3eace111	0.33765462
116	0x3d4abec2	0.049498327
117	0xbe3db36d	-0.18525477
118	0xbe9abdfe	-0.30223078
119	0xbe99e7f0	-0.30059767
120	0x3db20cd2	0.086938515
121	0xbdd43bf0	-0.10362995
122	0xbb9d4d6c	-0.004800489
123	0x3da14b65	0.078757085
124	0x3e910027	0.2832043
125	0x3e83847d	0.25687018
126	0xbeeb417a	-0.45948392
127	0xbdb85231	-0.09000052
128	0x3ea6cf0b	0.32579836
129	0xbf42588a	-0.7591635
130	0xbf3c5213	-0.73562735
131	0xbe9f52df	-0.31117913
132	0xbe828ff6	-0.25500458
133	0xbdadf7ed	-0.08494554
134	0xbe0bc0be	-0.13647744
135	0x3db0c6a6	0.08631639
136	0xbc37986d	-0.011205775
137	0x3e9f1ddf	0.31077477
138	0x3d657e6d	0.056028772
139	0xbc02c6b0	-0.007981941
140	0xbe296980	-0.16544151
141	0xbdcf38ac	-0.10118231
142	0xbe3ee99a	-0.186438
143	0xbe748ebe	-0.23882577
144	0xbdc92d94	-0.098231465
145	0x3e3e4e40	0.18584538
146	0x3e2af68e	0.16695616
147	0x3ea8416b	0.3286241
148	0x3e9e2e41	0.30894664
149	0x3e9b3c65	0.30319515
150	0x3e1f3255	0.15546544
151	0x3e20e37e	0.15711781
152	0x3f0ccd2a	0.55000556
153	0x3d73cbe4	0.059520617
154	0xbe84fe37	-0.259752
155	0x3e1049c1	0.14090635
156	0x3ee1ccc2	0.4410153
157	0x3eb43dd7	0.3520343
158	0x3e86e130	0.2634368
159	0x3d8c2997	0.0684387
160	0xbe3e513c	-0.18585676
161	0xbe02da86	-0.12778673
162	0xbd446f92	-0.047957964
163	0xbe14b56f	-0.14522336
164	0x3d6f1131	0.058366004
165	0xbe93eb2c	-0.2889036
166	0xbec34b6f	-0.3814349
167	0xbec1f5c6	-0.37882823
168	0xbdc1d435	-0.094643034
169	0xbd59e326	-0.05319514
170	0xbd88a2fd	-0.066717125
171	0x3d553865	0.052055735
172	0x3df04ddf	0.11733603
173	0x3e9c3f67	0.30517122
174	0x3e9ea9c8	0.30988908
175	0x3e4672d1	0.19379736
176	0x3ec65b45	0.38741508
177	0x3ec6ab60	0.38802624
178	0x3ef06a76	0.46956223
179	0x3e126e61	0.14299919
180	0xbd2647ca	-0.040595807
181	0x3e431038	0.19049156
182	0x3ee11699	0.43962553
183	0x3e83d8c4	0.25751317
184	0xbe20de62	-0.15709832
185	0x3cd13c00	0.025541306
186	0xbc987dec	-0.018614732
187	0xbe3c03fd	-0.18360896
188	0x3e46adde	0.19402263
189	0x3e8d874c	0.27642286
190	0x3f410316	0.75395334
191	0x3f7ded6a	0.9919039
192	0x3ea791d6	0.32728451
193	0x3efece02	0.49766546
194	0xbe0a9d4c	-0.13536566
195	0x3c161003	0.009159091
196	0x3a812198	0.0009851931
197	0xbda5cc79	-0.08095641
198	0xbe131142	-0.14362052
199	0xbde520ff	-0.11187934
200	0xbe0e393d	-0.13889022
201	0xbe13e8cb	-0.14444272
202	0xbe96cd85	-0.29453674
203	0xbed4c8a4	-0.41559327
204	0xbe1db4e9	-0.15401043
205	0xbe4a6c84	-0.19767958
206	0xbe9561e1	-0.29176238
207	0x3d3a28bb	0.045449
208	0xbd2ff249	-0.04295567
209	0x3e96fb9b	0.29488835
210	0xbdbf3444	-0.09336141
211	0xbdd1cfbc	-0.102447
212	0xbedce067	-0.43139955
213	0xbe35d7c7	-0.17758094
214	0xbf509c99	-0.8148895
215	0xbe8de294	-0.27711928
216	0x3e3652d4	0.17805034
217	0xbee1a65b	-0.44072232
218	0xbf6d0c62	-0.9259702
219	0x3ed8e2f8	0.42360663
220	0x3e8e9105	0.27845016
221	0x3e983c11	0.29733327
222	0xbe558381	-0.20850946
223	0x3eb4192e	0.3517546
224	0x3d9aeaca	0.07564314
225	0xbe0a663d	-0.13515563
226	0xbe7ad2d4	-0.24494487
227	0x3e6da92f	0.2320907
228	0x3d1036f2	0.03520865
229	0xbcda6981	-0.026661636
230	0xbf4f1616	-0.80893075
231	0xbe86ae8a	-0.26305038
232	0xbeca5b60	-0.3952284
233	0xbde45161	-0.11148334
234	0x3f19291c	0.5982835
235	0xbd430569	-0.04761258
236	0xbe1e32c5	-0.15449055
237	0x3f106e3b	0.564182
238	0x3e805bfb	0.25070176
239	0x3ed2f0cf	0.41199347
240	0x3e2d1daa	0.16905847
241	0xbe337ff5	-0.1752928
242	0xbe7b7fe4	-0.24560505
243	0xbe15e073	-0.14636402
244	0x3d44157c	0.04787205
245	0x3f14c4c1	0.5811272
246	0xbe227d8f	-0.1586821
247	0xbf09a12e	-0.53761566
248	0xbe67cc24	-0.22636467
249	0xbe473883	-0.19455151
250	0xbebad795	-0.364926
251	0xbdcce75f	-0.10005068
252	0x3eae609c	0.34058082
253	0x3ea3696c	0.31916368
254	0x3e9ea5db	0.30985913
255	0x3ee9e90c	0.45685613

bias f4 [32]
0	0xbd4dd032	-0.05024738
1	0xbe4b4fe1	-0.1985469
2	0xbd6f3b94	-0.058406428
3	0x3d1cdf73	0.038299035
4	0xbd817878	-0.06321806
5	0xbd91cb84	-0.07118896
6	0x3d811ec5	0.06304697
7	0xbe817ebd	-0.25292006
8	0x3dcbc05c	0.09948799
9	0x3da0e8d3	0.07856908
10	0xbd8fbac4	-0.070180446
11	0xbde1c1e0	-0.11023307
12	0x3bce2581	0.006291092
13	0xbd905bdb	-0.0704877
14	0x3dc868de	0.09785627
15	0x3d60deb1	0.054899875
16	0xbd654514	-0.05597408
17	0xbde6125b	-0.1123397
18	0xbde522bd	-0.111882664
19	0xbe2d7c5c	-0.1694197
20	0x3d2bd9be	0.041955702
21	0x3e0b4e8a	0.13604179
22	0x3e19cc75	0.150194
23	0xbdbbfeb5	-0.09179441
24	0xbda2ab7c	-0.07942864
25	0x3e27691c	0.1634869
26	0xbe0d30e8	-0.13788188
27	0x3cc21f88	0.023696676
28	0x3d97a32c	0.074041694
29	0xbda27fe2	-0.07934548
30	0x3df6db99	0.12053604
31	0xbdce8a9f	-0.100850336

weight f4 [10, 32, 3, 3]
0	0x3eca829d	0.39552775
1	0x3e75520f	0.23957084
2	0xbe1893f8	-0.14900196
3	0xbf07a286	-0.52982366
4	0xbedaca87	-0.4273264
5	0x3ea9c334	0.3315674
6	0xbe0e12b3	-0.1387432
7	0x3dd6055f	0.10450243
8	0x3dd788e1	0.105241545
9	0x3fdb4a69	1.7132083
10	0xbd968577	-0.07349675
11	0xbef6133c	-0.4806155
12	0xbed247eb	-0.41070494
13	0x3ee7d60c	0.45280492
14	0x3d5a224a	0.053255357
15	0x3d0680bf	0.032837626
16	0xbe2a8767	-0.16653214
17	0x3d06abdf	0.032878753
18	0x3d9b213f	0.075747006
19	0xbd399db9	-0.04531643
20	0xbe2fac84	-0.17155653
21	0xbebeb272	-0.37245518
22	0xbeec7fd6	-0.4619128
23	0x3e529582	0.20564845
24	0x3da74db3	0.08169117
25	0x3cf3ad01	0.02974558
26	0xbe130c29	-0.14360107
27	0xbf09e0e8	-0.53858805
28	0xbf12e4a6	-0.5738014
29	0x3e0c6796	0.1371139
30	0x3d4db4c8	0.050221235
31	0x3b235734	0.0024923803
32	0x3ec4b461	0.38418868
33	0xbd82994a	-0.06376894
34	0x3e309dab	0.17247646
35	0x3d8c8ed5	0.068631805
36	0xbeee49e5	-0.46540752
37	0x3f4e0702	0.80479443
38	0x3ce711a7	0.02820666
39	0x3e264d64	0.1624046
40	0x3f468e74	0.77561116
41	0xbe2c431d	-0.16822477
42	0xbd90b522	-0.07065798
43	0x3df9a3f8	0.12189478
44	0x3e9ff682	0.31242758
45	0x3ef45b2f	0.47725818
46	0xbe6aac58	-0.22917306
47	0xbe6de224	-0.23230797
48	0x3d9cd791	0.076583035
49	0xbe60c22b	-0.21949069
50	0xbe936596	-0.2878844
51	0xbda3555d	-0.07975266
52	0xbe2b289f	-0.16714714
53	0x3e424a61	0.18973686
54	0xbf1dce34	-0.61642766
55	0x3e7cee5f	0.24700306
56	0x3ea135ea	0.31486446
57	0x3dec67fc	0.11543271
58	0x3f2485d2	0.64266694
59	0xbea21dab	-0.3166326
60	0xbd03559b	-0.03206406
61	0xbd1d1b4b	-0.038356107
62	0x3d889b31	0.066702254
63	0xbd925b4c	-0.0714632
64	0xbf4e81a7	-0.80666584
65	0xbeb83482	-0.3597756
66	0x3dab5802	0.083663955
67	0xbee36f1c	-0.44420707
68	0x3d6c42a0	0.057680726
69	0xbde080e1	-0.10962082
70	0xbefd5ad6	-0.49483365
71	0xbbd7d177	-0.0065862495
72	0x3ebd0bf6	0.36923188
73	0xbd1ecc35	-0.038768966
74	0xbe9b4cf4	-0.30332148
75	0x3daa8e6e	0.083279476
76	0xbe8e46c4	-0.27788365
77	0x3df07a74	0.11742106
78	0xbe8b7b70	-0.27242613
79	0xbde0bb3e	-0.109732136
80	0xbd951ec9	-0.072812624
81	0xbf0ac3ea	-0.5420519
82	0xbd1ce110	-0.038300574
83	0x3e7e45ad	0.24831267
84	0xbf3e52b6	-0.74344957
85	0xbf6eede1	-0.93331724
86	0x3eb378d2	0.35053116
87	0xbb2bf77f	-0.0026240048
88	0x3d062188	0.03274682
89	0xbe2581a1	-0.16162731
90	0x3f7aae25	0.97921973
91	0x3f44b7fc	0.7684324
92	0xbea5b846	-0.32367152
93	0xbe99f623	-0.300706
94	0xbe177af2	-0.14792994
95	0x3dbc03f1	0.09180439
96	0x3df74f76	0.12075703
97	0xbcc28516	-0.023745101
98	0xbe57ed3b	-0.2108659
99	0x3ef023ff	0.46902463
100	0x3f6f7dfa	0.935516
101	0xbc855248	-0.016274586
102	0xbdc909bf	-0.09816312
103	0xbf684a79	-0.90738636
104	0x3e7df5ab	0.24800746
105	0x3d3a366c	0.045462057
106	0xbd2f74ce	-0.042836003
107	0x3e84b9f8	0.25923133
108	0x3f37799e	0.7166995
109	0x3d94c912	0.072649136
110	0xbf063061	-0.5241757
111	0xbe5b304a	-0.2140514
112	0x3be6e90c	0.0070468243
113	0x3d8c32ff	0.06845664
114	0xbc58462c	-0.013200324
115	0x3e3e6e38	0.18596733
116	0xbe818401	-0.25296023
117	0x3f8de252	1.1084692
118	0x3f79acdd	0.97529393
119	0xbf16df52	-0.5893451
120	0x3ed7df28	0.42162442
121	0x3e513d90	0.2043364
122	0xbe15ab66	-0.14616165
123	0x3dc81b0f	0.09770786
124	0x3e450804	0.19241339
125	0x3daa7f74	0.08325091
126	0xbeb373a2	-0.35049158
127	0xbf28239b	-0.6567933
128	0x3e266817	0.16250645
129	0xbe16f33e	-0.14741227
130	0x3f5bce98	0.8586211
131	0xbc92629e	-0.01786929
132	0x3cfe8716	0.031070273
133	0xbebba271	-0.3664737
134	0x3ea70bc4	0.32626164
135	0xbe84361c	-0.25822532
136	0xbd3b26ce	-0.045691304
137	0x3e27bf40	0.1638155
138	0xbef11cc1	-0.4709225
139	0xbe462e02	-0.19353488
140	0xbe7b1d61	-0.24522926
141	0xbe96dfee	-0.2946772
142	0xbe9b593d	-0.3034152
143	0xbe9b87bd	-0.30376998
144	0x3f578c56	0.8419851
145	0xbdb3b423	-0.08774593
146	0xbeed23b9	-0.46316317
147	0x3e8c0494	0.27347243
148	0xbe3a6eb6	-0.18206295
149	0xbdd8fcaf	-0.105950706
150	0x3d2b2fbb	0.041793566
151	0xbe30bbbf	-0.1725912
152	0xbf0e710d	-0.5564125
153	0xbeac4168	-0.3364365
154	0x3f53a93f	0.82680124
155	0x3d866610	0.065624356
156	0x3f8adbd2	1.0848334
157	0x3ef77f31	0.48339227
158	0xbe9550ca	-0.291632
159	0x3db36b2a	0.08760674
160	0x3e41d552	0.18929031
161	0xbd2bcd5c	-0.041943893
162	0x3e634a1f	0.22196244
163	0x3d6aa544	0.057286516
164	0x3e0c984a	0.13729969
165	0x3f12fc41	0.5741616
166	0x3c558131	0.01303129
167	0xbe26879e	-0.16262671
168	0xbdd1e318	-0.10248393
169	0x3e151173	0.14557438
170	0x3ee0bede	0.4389562
171	0x3edff529	0.4374173
172	0xbdb98e82	-0.09060384
173	0x3df15f14	0.11785713
174	0xbd7c5607	-0.06160548
175	0xbdd02830	-0.10163915
176	0x3dada60f	0.08478939
177	0x3e45ed4d	0.19328804
178	0xbd49f384	-0.0493045
179	0x3d57915a	0.052628852
180	0x3deebdbb	0.11657282
181	0xbeb6730a	-0.35634643
182	0x3e5ecebb	0.21758549
183	0xbe8743e9	-0.26419
184	0xbe6f4ac3	-0.23368363
185	0xbed18d93	-0.40928325
186	0xbe0522d0	-0.13001561
187	0xbd5491dc	-0.051896915
188	0xbd907537	-0.07053607
189	0x3f30fd0f	0.69136137
190	0x3ebfde1a	0.37474138
191	0xbbc4bbbc	-0.006003825
192	0xbf02e993	-0.51137656
193	0xbf302012	-0.68798935
194	0x3dcbaf68	0.099455655
195	0xbdea4111	-0.11438192
196	0xbe73b3e5	-0.23799093
197	0xbe404c7f	-0.18779181
198	0x3ded8cf3	0.115991496
199	0xbf195a78	-0.5990367
200	0xbd926125	-0.07147435
201	0x3f567e3b	0.8378636
202	0xbe9ae827	-0.30255243
203	0x3e85b791	0.26116613
204	0x3c377452	0.0111971665
205	0xbe02bb77	-0.12766825
206	0xbe8d8ccf	-0.2764649
207	0x3e0821b3	0.13294105
208	0x3f6d2b07	0.9264378
209	0xbde24c70	-0.110497355
210	0xbd829a36	-0.0637707
211	0xbf274c41	-0.6535073
212	0x3e8027d7	0.25030395
213	0x3bdfebc1	0.006833524
214	0xbd5f0c41	-0.054455046
215	0xbdacd121	-0.08438326
216	0x3e9ad228	0.30238461
217	0x3e1aadc0	0.15105343
218	0x3e4491d7	0.19196258
219	0xbf3f527f	-0.74735254
220	0xbe530320	-0.20606661
221	0xbe201127	-0.15631543
222	0xbd79e52e	-0.06100958
223	0xbd9d624a	-0.07684763
224	0x3ecb33c0	0.3968792
225	0xbf094de3	-0.5363447
226	0x3ed9a852	0.4251123
227	0xbe5e946c	-0.21736306
228	0xbedfa521	-0.4368067
229	0xbcec92dc	-0.028878622
230	0xbeb09cb1	-0.34494546
231	0x3dff4ffe	0.12466429
232	0x3dac3185	0.084078826
233	0x3e0572cd	0.13032074
234	0x3f5a1c90	0.8519983
235	0x3e3b5d8b	0.18297403
236	0xbe1dd394	-0.15412742
237	0x3e72f755	0.23727162
238	0xbd8844f0	-0.06653774
239	0xbeb496f4	-0.35271418
240	0x3e7a1bb2	0.24424627
241	0x3d7f33ba	0.06230519
242	0xbf0968f9	-0.536758
243	0x3ebe6652	0.3718744
244	0xbf2e8d18	-0.6818404
245	0xbecc9a0f	-0.39961287
246	0x3ebfca04	0.37458813
247	0xbb40086e	-0.00293019
248	0xbf05e77f	-0.5230636
249	0x3d81d7d9	0.06339998
250	0xbdb0e2bd	-0.08636997
251	0xbc2464ec	-0.010033827
252	0xbf0bae0f	-0.5456247
253	0xbdcdf842	-0.10057117
254	0x3edbd433	0.42935333
255	0xbe8880c9	-0.26660755

bias f4 [10]
0	0xbe59d686	-0.2127324
1	0xbcbae024	-0.022811957
2	0x3cc93c7e	0.024564978
3	0xbd2721c7	-0.040803697
4	0xbe0085f4	-0.12551099
5	0xbe029f35	-0.12756045
6	0xbc30b54d	-0.010785413
7	0xbbe66bee	-0.007031909
8	0xbde7b2da	-0.1131341
9	0x3d7a0940	0.061043978

weight f4 [10, 32, 3, 3]
0	0xbf681086	-0.9065021
1	0xbe795926	-0.24350414
2	0xbf7261d8	-0.9468055
3	0x3d2d2f45	0.042281408
4	0xbf189611	-0.59603983
5	0xbd8978cd	-0.06712494
6	0xbe879ff5	-0.26489225
7	0x403da314	2.9630785
8	0x3e8f6400	0.2800598
9	0xbddfd5ca	-0.10929449
10	0xbf4a850c	-0.79109263
11	0xbf3b96ca	-0.7327696
12	0x3eaafa91	0.33394292
13	0x3ce53a75	0.027981976
14	0xbd7e9f7d	-0.06216382
15	0x3d1b5189	0.037919555
16	0xbf1ae4d7	-0.6050543
17	0x3fa5c596	1.2950923
18	0xbe5cf281	-0.21576883
19	0xbf3c6728	-0.73594904
20	0x3d27f59a	0.04100571
21	0xbe756194	-0.23963004
22	0x3e9bb0fb	0.30408463
23	0xbedfeed2	-0.43736893
24	0xbeb2e9c9	-0.3494399
25	0xbf678033	-0.9042999
26	0x3f55341c	0.8328264
27	0xbdc6a4bc	-0.09699389
28	0x3ea2a5d8	0.31767154
29	0x3e530259	0.20606364
30	0x3f12cfa6	0.57348096
31	0xbf236ab5	-0.63834697
32	0x3e9e1b1a	0.30880052
33	0xbeb48539	-0.3525789
34	0x3ea145a3	0.3149844
35	0x3f4662a2	0.7749425
36	0xbf0a667b	-0.5406262
37	0xbea5a888	-0.32355142
38	0x3e8eaca3	0.27866086
39	0x3ea194a3	0.31558713
40	0x3e5f09a7	0.21781026
41	0xbf30f878	-0.69129133
42	0xbe025bcf	-0.12730335
43	0xbe1164f1	-0.14198662
44	0x3f3ab1df	0.7292766
45	0xbf1a6cbc	-0.60322165
46	0xbeaafb2b	-0.3339475
47	0xbf22afb5	-0.6354936
48	0xbeae3ac2	-0.34029204
49	0x3d06d09f	0.0329138
50	0x3e0b0bc9	0.13578714
51	0x3a29413a	0.0006456558
52	0x3e31eaef	0.17374776
53	0x404d9cd1	3.2126963
54	0xbec57503	-0.38565835
55	0xbd88d967	-0.06682091
56	0xbe05de7e	-0.13073155
57	0x3e1e26f6	0.1544455
58	0xbdbb2d3e	-0.09139489
59	0xbe66cc78	-0.22538936
60	0xbf36127d	-0.7112196
61	0xbfb4482d	-1.4084526
62	0x3e001de2	0.125114
63	0x3def4060	0.116822004
64	0x3d9f63be	0.07782696
65	0x3eb2429b	0.3481644
66	0x3ed370bf	0.41296956
67	0xbdc4a326	-0.096014306
68	0x3fa48958	1.2854414
69	0xbe88c947	-0.26716062
70	0x3fcf15f0	1.617857
71	0xc0205db0	-2.5057182
72	0xbbefd510	-0.0073191
73	0x3e30512b	0.17218463
74	0x3e910ec7	0.28331587
75	0x3ec1af89	0.37829235
76	0xbf0bb768	-0.5457673
77	0x3f392fe5	0.72338706
78	0x3e6a8a0c	0.22904223
79	0xbf4a6a7d	-0.7906874
80	0x3d1e9f64	0.038726225
81	0xbe79fae6	-0.24412116
82	0xbdc085c0	-0.09400511
83	0xbdf49d80	-0.11944103
84	0xbbac792a	-0.0052634673
85	0xbefb7319	-0.4911125
86	0x3e0bd2c0	0.13654613
87	0xbeb2e4f5	-0.34940305
88	0x3db07ff5	0.08618156
89	0x3d578fca	0.052627362
90	0x3c6cb6a5	0.014447843
91	0x3d203eeb	0.039122503
92	0x3d17b945	0.03704192
93	0xbe2e5c4f	-0.170274
94	0x3f9dd3f3	1.2330307
95	0x3ee8af32	0.45446163
96	0x3e9124d8	0.28348422
97	0xbf8bbf75	-1.0917803
98	0x3eec09e9	0.4610131
99	0xbf1bc087	-0.6084065
100	0x3e0a0a08	0.13480389
101	0xbedf3cc9	-0.43601063
102	0x3d7fb294	0.062426165
103	0x3da55c62	0.08074261
104	0x3f375d8a	0.71627104
105	0x3dd642cd	0.1046196
106	0x4093d364	4.6195545
107	0xbf544109	-0.82911736
108	0xbe8c8f1a	-0.27452928
109	0xbe6e49d1	-0.23270346
110	0x3d022e83	0.03178264
111	0x3ea8a0f2	0.32935292
112	0xbe80420a	-0.25050384
113	0xbe09112b	-0.13385455
114	0x3d146769	0.036231432
115	0xc01c410d	-2.4414704
116	0x3ebea74a	0.37237006
117	0xbe1504f2	-0.14552668
118	0xbec90d2f	-0.3926787
119	0x3ea13ea6	0.3149311
120	0x3e9fc97a	0.31208402
121	0x3e05da6d	0.13071604
122	0xbe126a6b	-0.14298408
123	0x3e22f92e	0.15915367
124	0xbf76e4ea	-0.96443045
125	0x3f9dff35	1.2343508
126	0xbd1d851a	-0.038457014
127	0x3e6e9989	0.23300757
128	0xbf33ed5c	-0.70284057
129	0xbe2d18b9	-0.16903962
130	0xbf10d1db	-0.56570214
131	0x3dd75a72	0.10515298
132	0x3e4c5b31	0.19956662
133	0x400c8d4c	2.196124
134	0xc04385aa	-3.0550332
135	0xbee4cfd1	-0.446898
136	0xbf775b04	-0.96623254
137	0x3ee10638	0.43950057
138	0x3e448919	0.19192924
139	0xbd12296e	-0.03568404
140	0x3ebf4c4e	0.37362903
141	0x3b3d3f03	0.002887667
142	0x3f0c6397	0.5483946
143	0xbfc0941e	-1.5045202
144	0x3e38f067	0.18060456
145	0xbd7164cb	-0.058934014
146	0xbed84a7c	-0.42244327
147	0xbe509229	-0.20368256
148	0x3ee00c51	0.43759397
149	0x3f58c9ac	0.84682727
150	0x3e0e4b0f	0.1389582
151	0xbc89c240	-0.016816258
152	0x3f691bf9	0.9105831
153	0xbe20c039	-0.15698327
154	0xbe6507d8	-0.22366273
155	0xbe828537	-0.2549226
156	0xbe911cd2	-0.283423
157	0x3eb629f2	0.35578877
158	0xbe42bb75	-0.19016822
159	0xbd8e4538	-0.06946796
160	0xbe293efc	-0.16527933
161	0x40487906	3.1323867
162	0x3e91e7a0	0.28497028
163	0xbe58adf1	-0.21160103
164	0xbcf19c96	-0.029493611
165	0xbd934d37	-0.07192462
166	0x3e6c7c1e	0.23094222
167	0x3db5f9f3	0.08885565
168	0x3ed8b056	0.42322034
169	0xbf9a211e	-1.2041357
170	0x3fd52798	1.6652708
171	0xbefece76	-0.49766892
172	0xbe9aae4a	-0.30211097
173	0x3dbed82b	0.093185745
174	0x3ccc33fb	0.02492713
175	0x3e4d2ba5	0.2003618
176	0xbe567117	-0.20941578
177	0xbe29fa9a	-0.16599503
178	0x3f227447	0.63458675
179	0x40137322	2.3039021
180	0x3d251794	0.04030569
181	0xbfd00a14	-1.6253076
182	0xbd9bec02	-0.07613374
183	0xbde7358d	-0.11289511
184	0xbe95e6b8	-0.29277587
185	0x3f36e7f9	0.7144771
186	0xbe485421	-0.19563343
187	0xbf4662a7	-0.7749428
188	0x3f70a0f3	0.9399559
189	0xbec4744b	-0.38369974
190	0xbf22b739	-0.63560826
191	0xbec4f55e	-0.3846845
192	0xbf00a2d8	-0.5024848
193	0xbe13c8d6	-0.14432082
194	0x3e303140	0.17206287
195	0x3f182994	0.59438443
196	0x3fe81998	1.813281
197	0xbf996f9a	-1.1987183
198	0xbe43fe24	-0.19139916
199	0xbe802ad6	-0.2503268
200	0xbf299739	-0.6624637
201	0x3d5ef917	0.05443677
202	0xbb60ce92	-0.0034302813
203	0xbc4d89ba	-0.012545044
204	0xbf05a29a	-0.52201235
205	0xbf8db7d1	-1.1071721
206	0xbebf0c63	-0.37314138
207	0x3dd52be7	0.10408764
208	0xbed754dc	-0.4205693
209	0x3e731645	0.23738964
210	0xbe8b53ac	-0.27212274
211	0x3e9bbb68	0.30416417
212	0x3f354c49	0.70819527
213	0xbf4d7e75	-0.80271083
214	0xbfca9e2a	-1.5829518
215	0xbdf7f926	-0.12108068
216	0xbd3f7ffd	-0.04675292
217	0xbe7ff34c	-0.24995154
218	0x3cef7c87	0.029234184
219	0xbde18770	-0.11012161
220	0xbe98b2cf	-0.2982392
221	0x3f33555e	0.70052135
222	0x3e1cbd9a	0.15306702
223	0x3fe2d124	1.7720075
224	0xbed89635	-0.423021
225	0xbe4f6105	-0.20251854
226	0xbd0e1a28	-0.034692913
227	0xbdb7c066	-0.08972244
228	0xbeb5bb61	-0.3549452
229	0x3e6a992d	0.22909994
230	0x3f632437	0.88727134
231	0xbe9721f8	-0.29518104
232	0xbe099de8	-0.13439143
233	0x402404f0	2.5628014
234	0xc07bbc23	-3.933358
235	0xbf377174	-0.7165749
236	0xbef64ead	-0.481069
237	0xbd8b4b57	-0.06801479
238	0xbe45d920	-0.19321108
239	0x3e428c95	0.1899894
240	0x3e032808	0.1280824
241	0xbdad6e22	-0.08468272
242	0x3f31e238	0.6948581
243	0xbf280bd3	-0.6564304
244	0xbf452d4d	-0.7702225
245	0xbe42c9d3	-0.19022302
246	0x3e95c876	0.29254502
247	0xbdaadb39	-0.08342595
248	0x3eda1c0c	0.42599523
249	0xbecff9a7	-0.40620157
250	0xbf7e0070	-0.9921942
251	0x3f8d9841	1.1062089
252	0x3c4be92e	0.012445731
253	0xbea6a90e	-0.32550853
254	0xbf84fc63	-1.0389522
255	0xbe803637	-0.25041363

bias f4 [32]
0	0xbe087639	-0.13326348
1	0x3dac54ad	0.08414588
2	0x3d0ba1e2	0.03408993
3	0x3d50bfa4	0.050964013
4	0xbe06af4a	-0.13152805
5	0x3c667aed	0.014067394
6	0x3e6ebed1	0.23314978
7	0x3db64954	0.08900705
8	0x3edee64b	0.43535075
9	0xbe0377ab	-0.12838618
10	0x3d00da3b	0.03145812
11	0xbc8ff2bf	-0.017571805
12	0xbef0b80f	-0.47015426
13	0x3ebef950	0.37299585
14	0x3ec73e3d	0.38914672
15	0x3f0ea560	0.5572109
16	0x3ea94438	0.3305986
17	0x3e96658c	0.2937435
18	0x3f0b0f11	0.54319865
19	0xbdd89143	-0.105745815
20	0x3e37e1ca	0.17957225
21	0x3f110251	0.5664416
22	0x3e9b83c5	0.3037397
23	0x3f02a58f	0.5103387
24	0x3cb2b9cb	0.021817109
25	0xbdaf2a0d	-0.085529424
26	0x3e7d1fd9	0.2471918
27	0x3e33e2d8	0.17567003
28	0x3efce435	0.49392858
29	0x3eec5878	0.46161246
30	0xbe8a8625	-0.2705547
31	0x3ee5102f	0.4473891

weight f4 [32, 32, 3, 3]
0	0x3da52a37	0.080646925
1	0xbe2d0fed	-0.16900606
2	0xbeaceab6	-0.3377282
3	0x3eb9a5c1	0.36259273
4	0x3e81aeca	0.25328666
5	0xbf2157a1	-0.63024336
6	0xbdbb398b	-0.09141835
7	0xbe3b5140	-0.18292713
8	0x3e75323c	0.23944944
9	0x3e3aabe7	0.18229638
10	0x3eb530e5	0.35388866
11	0x3e3516a6	0.17684421
12	0xbaffd5d8	-0.0019518686
13	0x3d12b340	0.035815477
14	0x3f871ed7	1.0556287
15	0xbd16be22	-0.03680242
16	0xbf157693	-0.58384055
17	0xbed2209b	-0.410405
18	0x3ac65ce6	0.0015133887
19	0x3dd72a5f	0.105061285
20	0x3dbc9c9d	0.09209559
21	0x3e91814c	0.28418958
22	0x3dbf99f7	0.09355538
23	0x3f37c643	0.717869
24	0x3ede625b	0.43434414
25	0x3ecc0bd3	0.3985277
26	0x3efb633d	0.4909915
27	0x3e00f2a8	0.12592566
28	0x3eddf58e	0.43351406
29	0xbd97b97c	-0.07408425
30	0x3d98940a	0.07450111
31	0x3dec2dad	0.115321495
32	0x3f4a31d3	0.78982276
33	0x3e896602	0.26835638
34	0xbd1f3b27	-0.03887477
35	0xbddeebcd	-0.10884819
36	0x3daf841d	0.085701205
37	0x3ec1dd25	0.37864032
38	0x3ef37190	0.4754758
39	0xbe19678c	-0.14980906
40	0x3e425cc2	0.18980697
41	0x3f600c01	0.87518317
42	0xbe54ddb8	-0.20787704
43	0xbe1544b7	-0.14576994
44	0x3d2c47a0	0.042060494
45	0x3e006f64	0.12542492
46	0x3e9f7f6f	0.31151912
47	0x3e4d4af9	0.20048131
48	0x3da32adf	0.079671614
49	0x3e84fa94	0.25972426
50	0x3f812c2d	1.0091606
51	0x3eea282d	0.45733777
52	0x3e843815	0.25824037
53	0x3f30ae6d	0.6901615
54	0x3e35049d	0.17677541
55	0xbecbdd1a	-0.39817125
56	0x3f2f7387	0.68535656
57	0x3e986455	0.29764047
58	0x3e399d2c	0.18126363
59	0x3fe157b4	1.760489
60	0x3de7a885	0.113114394
61	0x3e9b52d3	0.30336627
62	0xbd938a7c	-0.07204148
63	0x3d83ff23	0.06445148
64	0x3f08d46d	0.53449136
65	0x3e335e1f	0.17516373
66	0xbd379efe	-0.04482936
67	0x3d5e1fb0	0.05422944
68	0x3f847792	1.034899
69	0x3e36a213	0.17835264
70	0x3e261622	0.1621938
71	0x3ebcaf22	0.36852366
72	0xbe762109	-0.2403604
73	0xbf2d0e65	-0.6760009
74	0x3ef39cc9	0.47580555
75	0x3cf23a6c	0.029568873
76	0x3e71156e	0.23543331
77	0x3f0978b1	0.53699785
78	0x3f21a9fd	0.63150007
79	0x3f5cb356	0.86211145
80	0xbf69c0e3	-0.91309947
81	0x3e205d46	0.15660581
82	0x3eec3f32	0.46141964
83	0xbef6d17b	-0.48206696
84	0x3cf13e3c	0.029448621
85	0x3eb98bc4	0.36239445
86	0x3fb13c6e	1.3846567
87	0x3e009e86	0.12560472
88	0xbecfb1b8	-0.40565276
89	0x3dc7e8d1	0.09761203
90	0xbe1c5392	-0.15266255
91	0x3df3b2f7	0.11899369
92	0x3efae110	0.48999834
93	0x3e4f50c9	0.20245661
94	0xbc98625b	-0.018601587
95	0xbece3382	-0.40273672
96	0xbdd1c921	-0.102434404
97	0xbede10d4	-0.43372214
98	0xbf0a5c18	-0.54046774
99	0x3dcba6d3	0.099439286
100	0x3e9fa57e	0.31180948
101	0x3e8ac62b	0.27104315
102	0xbe38fc45	-0.18064983
103	0x3e8527a8	0.26006818
104	0x3f9c4544	1.2208638
105	0x3dcfa1fc	0.10138318
106	0x3cd5874a	0.026065487
107	0x3e464c94	0.1936515
108	0x3de7b2a3	0.11313369
109	0x3e542c26	0.20719966
110	0xbebd5cf6	-0.36984986
111	0xbec9c442	-0.39407545
112	0xbe864d15	-0.26230684
113	0x3f2d9afa	0.678146
114	0x3ea547ce	0.32281345
115	0xbecb4c85	-0.39706817
116	0xbeb409ec	-0.3516382
117	0x3e2c0b0e	0.16801092
118	0xbd43a408	-0.047763854
119	0x3e8c425e	0.27394384
120	0x3e85ea2b	0.26155218
121	0x3f8c715d	1.0972096
122	0x3daf4867	0.085587315
123	0xbdc2b1ad	-0.09506545
124	0x3e8e0dcc	0.277449
125	0x3e4ae412	0.19813564
126	0x3e35ee98	0.17766798
127	0x3c87ff9a	0.016601373
128	0x3ec6a99b	0.38801274
129	0xbeb1afac	-0.3470434
130	0xbdb97746	-0.09055953
131	0x3d5d6e97	0.054060545
132	0x3e100981	0.14066125
133	0xbf2511a0	-0.6448002
134	0xbf1286da	-0.5723702
135	0x3de3f3a0	0.11130452
136	0x3c1c8f0a	0.009555588
137	0x3a08c7f2	0.00052177825
138	0x3e111fa5	0.14172228
139	0x3d837440	0.06418657
140	0x3eae1be5	0.34005657
141	0x3de63754	0.11241022
142	0xbf6b2d63	-0.9186613
143	0xbf737ed9	-0.9511543
144	0x3d6041bc	0.05475019
145	0x3eabf20e	0.3358311
146	0xbe9b9a65	-0.3039123
147	0xbe168ef6	-0.14702973
148	0xb885bd52	-6.377198e-05
149	0x3efca60c	0.49345434
150	0x3c19cec4	0.009387676
151	0xbc86962a	-0.016429026
152	0x3ece45d5	0.40287653
153	0xbc82be70	-0.015959948
154	0xbe0e1cac	-0.13878125
155	0x3e8ade44	0.271227
156	0x3e3712e4	0.178783
157	0x3f00a79f	0.5025577
158	0x3eba3a2f	0.36372516
159	0x3dc117c1	0.09428359
160	0x3f500387	0.8125538
161	0xbe4784e2	-0.19484285
162	0x3c38cc70	0.01127921
163	0x3ef108bf	0.47076985
164	0xbe039b48	-0.12852204
165	0xbe033979	-0.12814893
166	0x3ec62aa8	0.3870442
167	0x3f8a171c	1.0788302
168	0x3e188849	0.14895739
169	0x3e81cd81	0.253521
170	0x3f3b7cf5	0.73237544
171	0x3e42be23	0.19017844
172	0xbeb915fa	-0.3614958
173	0x3d95cb57	0.073141746
174	0xbeb7e068	-0.35913396
175	0x3efb337f	0.49062726
176	0x3f02ca5f	0.51090044
177	0x3e610a75	0.21976645
178	0x3f7ba423	0.9829733
179	0xbee4e7d2	-0.44708115
180	0x3e858158	0.26075244
181	0xbd80899e	-0.062762484
182	0xbf04f93a	-0.5194279
183	0x3e0372f7	0.12836824
184	0xbdab7410	-0.083717465
185	0xbea061aa	-0.31324512
186	0x3d9fc207	0.0780068
187	0x3ecbbeae	0.39793915
188	0xbf0e4d00	-0.5558624
189	0xbd2e8e72	-0.042616315
190	0x3e8555da	0.26042062
191	0x3eaf018a	0.34180862
192	0x3d3683b8	0.04455921
193	0x3ebf86eb	0.37407622
194	0x3f082518	0.531816
195	0x3d928030	0.07153356
196	0xbe9b10b2	-0.30286175
197	0xbeaf4391	-0.34231237
198	0xbe349682	-0.17635539
199	0x3edaf23e	0.4276294
200	0x3ed3b2f7	0.41347477
201	0xbe78d2cb	-0.24299161
202	0xb79adb9e	-1.8460498e-05
203	0x3fb78448	1.4337244
204	0xbec3716c	-0.38172472
205	0xbe9cac62	-0.30600268
206	0x3e3bc19b	0.18335573
207	0x3dfb69da	0.12276049
208	0x3e68a3e5	0.22718771
209	0x3ed673be	0.4188518
210	0xbd8f56ab	-0.069989525
211	0x3dcefc4b	0.10106715
212	0x3f250ca7	0.6447243
213	0xbe1ef45d	-0.15522905
214	0x3c860fa1	0.016364874
215	0xbe6d92e9	-0.23200573
216	0xbeba0fd4	-0.363402
217	0x3ecf8f59	0.40539053
218	0x3f41a4a2	0.75641835
219	0xbca05081	-0.019569637
220	0xbcde995b	-0.027172735
221	0x3f50437e	0.81352985
222	0xbd19d380	-0.037555218
223	0x3ede3fa0	0.43407917
224	0xbe683992	-0.22678211
225	0xbca6084c	-0.020267628
226	0x3edca3ea	0.43093807
227	0xbdb778b5	-0.0895857
228	0xbe44b985	-0.19211395
229	0x3ec82aa7	0.3909504
230	0x3f840fba	1.0317299
231	0xbc11d72a	-0.008901397
232	0x3ce78a19	0.028264092
233	0x3f7b7553	0.982259
234	0xbe601245	-0.2188197
235	0x3e1eb889	0.15500082
236	0x3e838cc0	0.2569332
237	0x3e447967	0.19186936
238	0x3e526899	0.20547713
239	0x3eaf229c	0.34206092
240	0x3ec592de	0.38588613
241	0x3ea8c396	0.3296172
242	0x3cd059d0	0.025433451
243	0x3ca07591	0.01958731
244	0x3e6a10f2	0.22858027
245	0x3e168631	0.14699627
246	0x3e125a4f	0.14292262
247	0x3c954fe5	0.018226573
248	0xbed85348	-0.4225104
249	0x3ea3d35a	0.31997186
250	0xbe558953	-0.20853166
251	0xbf404c81	-0.75116736
252	0x3d8e870f	0.06959354
253	0xbda7615f	-0.08172869
254	0x3e969c62	0.29416186
255	0x3e8a0b20	0.26961613

bias f4 [32]
0	0x3dd6a58e	0.10480796
1	0xbec378af	-0.38178012
2	0xbeb9e710	-0.363091
3	0xbe9b3031	-0.30310205
4	0xbeaff66a	-0.34367687
5	0xbe9cf222	-0.30653483
6	0xbeb04732	-0.34429318
7	0xbea6fa05	-0.32612625
8	0xbda97711	-0.08274663
9	0xbe87036b	-0.26369795
10	0x3dbccc07	0.09218603
11	0xbe9d055c	-0.3066815
12	0xbe7b26c5	-0.24526508
13	0xbe18bd58	-0.14915979
14	0x3cd8990b	0.026440164
15	0xbc8661e6	-0.016404103
16	0xbe4900eb	-0.19629256
17	0xbe2b7f1d	-0.16747709
18	0xbe848301	-0.25881198
19	0x3d117353	0.035510372
20	0x3dca5a4e	0.098805055
21	0xbeacc675	-0.3374516
22	0xbebea620	-0.37236118
23	0xbea73a0a	-0.32661468
24	0xbdb71e68	-0.089413464
25	0xbe89b9dd	-0.26899615
26	0xbe9080cf	-0.28223273
27	0xbbb8cfb8	-0.0056399964
28	0xbea107a9	-0.31451157
29	0xbe99c545	-0.30033317
30	0x3e10b889	0.14132895
31	0xbeaabc49	-0.33346775
