hierarchical2/models/proto9.pth (torch_old, 215408 bytes, 21 tensors)

weight f4 [32, 1, 3, 3]
0	0x3f0b59c8	0.5443387
1	0x3d6380c3	0.05554272
2	0x3f114716	0.56749094
3	0x3f8d0d52	1.101969
4	0x3faf08a8	1.3674517
5	0x3fba5d81	1.4559785
6	0xbe0b9cdb	-0.13634054
7	0x3ea95d2b	0.33078894
8	0xbeea789f	-0.45795152
9	0x3f29d373	0.6633827
10	0x3f8297f5	1.0202624
11	0x3f4d53a1	0.8020573
12	0xbf83b1b3	-1.0288604
13	0xbf853987	-1.0408181
14	0x3dd74ac5	0.10512308
15	0xbfbdded9	-1.4833633
16	0xbf4bee24	-0.7966025
17	0x3e7f8b50	0.24955487
18	0x3fcdeb5a	1.6087449
19	0x3eaa3762	0.3324538
20	0x3ffaf39f	1.9605597
21	0x3fb2980c	1.3952651
22	0x3fd87359	1.6910201
23	0x403f5087	2.98929
24	0x3d7243a5	0.059146542
25	0xbd5ea56b	-0.054356974
26	0x3fb7cb3e	1.43589
27	0x3fe8ac57	1.8177594
28	0x3f16f562	0.58968174
29	0x3faa94e2	1.3326685
30	0x3fc5deba	1.5458596
31	0x3f9bd114	1.217318
32	0x3fc12dff	1.5092162
33	0x3f663c50	0.8993578
34	0x3f21bb7c	0.63176703
35	0x3edcde49	0.4313834
36	0xbd13720b	-0.03599743
37	0x3fc3f526	1.5309188
38	0x3f8513f3	1.0396713
39	0x3fc9956a	1.5748723
40	0x404b14af	3.1731374
41	0xbe74f0ca	-0.23919979
42	0x3f04379b	0.5164735
43	0xbf419bc4	-0.75628304
44	0xc027156d	-2.6106827
45	0x404a2615	3.1585743
46	0x3f74caf2	0.9562217
47	0x405d58fa	3.4585557
48	0x408e2f1e	4.4432516
49	0x3f9098f3	1.1296676
50	0x40cfa3b6	6.4887342
51	0x4094961d	4.6433244
52	0x407be69d	3.9359505
53	0x40ab42b2	5.3518915
54	0xbe9e6db3	-0.3094307
55	0xbe9de362	-0.30837542
56	0x3ea44497	0.3208358
57	0xbf9cdb9e	-1.2254522
58	0xbfcb2c8b	-1.5872968
59	0x3e665da6	0.22496662
60	0xbe1cb8db	-0.15304892
61	0x3eddd5e6	0.43327254
62	0x3f821e1f	1.0165442
63	0x3f93fe3a	1.1561959
64	0x3e3945d5	0.18093045
65	0xbfdb1dc5	-1.711846
66	0x3f44556d	0.7669285
67	0xbee8747f	-0.4540138
68	0xbfe80b63	-1.8128475
69	0x3f8ceb37	1.1009282
70	0x3e0d68ff	0.13809584
71	0xbf5ed6b0	-0.8704634
72	0xbf38be67	-0.7216553
73	0xbeb7ffeb	-0.35937437
74	0xbfc2f8fe	-1.5232236
75	0x3b9d352e	0.0047975993
76	0xbdb22e56	-0.08700244
77	0xbf77d67f	-0.9681167
78	0x3f1c6e2a	0.61105597
79	0x3f821999	1.0164062
80	0x3e4cd404	0.20002753
81	0xbf70b3ea	-0.9402453
82	0xbfc0594b	-1.502725
83	0xbf8873cb	-1.0660337
84	0xbf072c50	-0.5280199
85	0xbf805a72	-1.0027602
86	0x3e0916cb	0.13387601
87	0x3f638672	0.8887702
88	0x3f91a722	1.137913
89	0x3fad4923	1.3537945
90	0x3fb13dab	1.3846945
91	0xbf582952	-0.8443805
92	0xc01431c0	-2.3155365
93	0x3ee975fa	0.4559782
94	0xbfaa821e	-1.3320959
95	0xbf871e99	-1.0556213
96	0x3d15563b	0.03645919
97	0xc025f8ef	-2.5933187
98	0xbfaa85a4	-1.3322034
99	0x3f89adfa	1.0756218
100	0x3fbcc0cd	1.4746338
101	0x3fad8eb3	1.3559173
102	0x3e21b17e	0.15790364
103	0x3d020099	0.03173885
104	0xbef6d84c	-0.48211896
105	0xbff4f5cf	-1.9137515
106	0xbffd7006	-1.9799812
107	0xbfacc984	-1.3498998
108	0x3ef005fa	0.4687956
109	0xbe8963fd	-0.26834098
110	0xbf4acc6c	-0.79218173
111	0xbec500b9	-0.38477114
112	0xbf776f02	-0.9665376
113	0xbf56b499	-0.8386932
114	0x3d7e5b0e	0.062098555
115	0x3e89525a	0.26820642
116	0x3e55ae3e	0.2086725
117	0x4018e1f2	2.3887906
118	0x401864f1	2.381161
119	0x3ffd23a8	1.9776506
120	0xbf1f1d14	-0.62153745
121	0x3fce7a30	1.6131039
122	0x40a23acc	5.0696774
123	0xbff4d746	-1.9128196
124	0xbf30636e	-0.6890172
125	0x403bdabc	2.9352255
126	0x3f01dac4	0.50724435
127	0x3f9b84a5	1.2149855
128	0x3f7d8c5e	0.9904231
129	0xbf1d5c9b	-0.6146943
130	0x3f04749a	0.5174042
131	0xbef5d866	-0.4801666
132	0xc03d8bbe	-2.9616542
133	0xbff9e157	-1.9521893
134	0xbfdc21d0	-1.7197819
135	0x405f3e6f	3.4881856
136	0x3e158e23	0.14605002
137	0x3b05c79e	0.002041317
138	0x406f9fd2	3.7441297
139	0x3fecb356	1.8492229
140	0x3fb7140b	1.4302992
141	0x3fa55db1	1.2919217
142	0x3f795c63	0.97406596
143	0x4009e186	2.1543899
144	0x3f89a02f	1.0752009
145	0x3ee2a8d1	0.44269422
146	0x3e80bd25	0.25144306
147	0xbe883310	-0.26601458
148	0xbf8150d6	-1.0102794
149	0xbf43c9fd	-0.76480085
150	0xbf2fcb75	-0.68669826
151	0xbf50759d	-0.81429464
152	0xbe47e9e6	-0.19522819
153	0x3fc56721	1.5422097
154	0x3f25fb23	0.6483633
155	0x3f935f59	1.1513473
156	0x3f15a398	0.5845275
157	0xbfa9ae2c	-1.3256278
158	0x3dca9c9c	0.09893152
159	0xbf530ece	-0.82444465
160	0xc0102d65	-2.2527707
161	0xbf5f068b	-0.8711936
162	0xbfa42b84	-1.282578
163	0xbf8dceb9	-1.1078712
164	0xbef36642	-0.47538954
165	0xbda1f01f	-0.079071276
166	0x3eb66f8d	0.35631981
167	0x3fd34b4a	1.6507351
168	0x3fb06044	1.3779378
169	0x3fbc85f3	1.4728378
170	0x3f380058	0.71875525
171	0xbec0f105	-0.37683883
172	0xbf9e8d94	-1.2386956
173	0x3cd6243f	0.02614033
174	0x3f98a742	1.1926043
175	0xbf6fbc38	-0.93646574
176	0x3fe5d82f	1.7956599
177	0x404646c7	3.09807
178	0x402b4726	2.6762176
179	0x40266dc4	2.6004496
180	0xbfa81c78	-1.3133688
181	0xbf556e18	-0.83371115
182	0xbfce3de9	-1.6112643
183	0xbfa763d1	-1.3077337
184	0xbfd18862	-1.6369746
185	0xbfa3efb1	-1.2807523
186	0x3ee2e5f5	0.44316068
187	0x3dc965e6	0.09833889
188	0x3f88e7a7	1.0695695
189	0x3faf45c5	1.3693167
190	0x3f81fa32	1.0154479
191	0x3f427c12	0.75970566
192	0xbf4f456c	-0.80965304
193	0xbf8970a2	-1.0737498
194	0xbea1d87a	-0.3161047
195	0xbfc9ee42	-1.5775836
196	0xbf9676d7	-1.1755017
197	0x3d8cc05e	0.06872629
198	0xbfe354dd	-1.7760273
199	0xbf3d5fcf	-0.7397432
200	0xbfc60d59	-1.5472823
201	0x3dbb9fd6	0.09161346
202	0x3f74408a	0.9541098
203	0xbed2a4ce	-0.4114136
204	0x4004ebcb	2.0768917
205	0x40091d1c	2.1424017
206	0x3e8127a5	0.2522556
207	0xbfa0fbed	-1.2576882
208	0xbfbbcc98	-1.4671812
209	0xbf2ef638	-0.6834445
210	0xbe1aec1d	-0.15129133
211	0xbf0c834b	-0.5488784
212	0x3e363586	0.17793855
213	0x3edd57d3	0.43231067
214	0x3f7537fe	0.9578856
215	0x3f895a09	1.0730602
216	0x3f9d558e	1.2291734
217	0x3f8dc7ff	1.1076659
218	0x3f849bee	1.0360086
219	0x3fb24e14	1.3930078
220	0xbf57e371	-0.84331423
221	0xbf63aa3c	-0.8893163
222	0xbde5ee0f	-0.11227047
223	0xc0142ea0	-2.3153458
224	0xbfdab0ee	-1.7085245
225	0xbfb88ca2	-1.4417918
226	0xbfdb0c7d	-1.7113186
227	0xbf65f6aa	-0.89829504
228	0xbeee2c0d	-0.46517983
229	0xbec55f4b	-0.38549265
230	0xbd55445f	-0.052067157
231	0x3f8b4c99	1.0882751
232	0x3f97a8da	1.1848404
233	0x3f74a9dd	0.9557169
234	0xbe8d4e2f	-0.27598712
235	0x3e616e3d	0.22014709
236	0xbec1dc12	-0.37863213
237	0xbfce55fe	-1.6119993
238	0xbf82e941	-1.0227433
239	0xbfbe163c	-1.4850535
240	0xbf423293	-0.7585842
241	0xbf17fecf	-0.5937318
242	0xbf2c3a1b	-0.6727616
243	0xbfa9be89	-1.3261272
244	0x3fc3a46e	1.5284555
245	0x3eb704ec	0.35745943
246	0xc0611b63	-3.5172966
247	0xbfcbafb1	-1.5912992
248	0xc02b21ce	-2.6739383
249	0x3f45e8d6	0.77308404
250	0x3ee2110c	0.4415363
251	0xbe8cb503	-0.2748185
252	0xbd454e35	-0.048170287
253	0xbf3247ee	-0.69641006
254	0xbed0e51f	-0.40799806
255	0x3f65ba15	0.89737064

bias f4 [32]
0	0xbed67e4b	-0.4189323
1	0x3f4cc845	0.7999309
2	0xbe555408	-0.20832837
3	0xbec58224	-0.38575852
4	0xbd8aaba1	-0.06771017
5	0x3ca141e9	0.019684749
6	0x3f44938a	0.76787627
7	0x3eccfc63	0.40036306
8	0x3f8a965b	1.0827135
9	0x3ed5c5ea	0.4175256
10	0x3f110667	0.56650394
11	0xbe2263ab	-0.15858333
12	0x3fa9a1c0	1.3252487
13	0xbe7067dc	-0.23477119
14	0x3d56fc1e	0.05248653
15	0xbe7d603d	-0.24743743
16	0x3f99d4c1	1.2018052
17	0x3f2a515e	0.66530406
18	0xbe29610f	-0.16540931
19	0x3d366bbb	0.044536334
20	0x3f236b5c	0.6383569
21	0x3f28f56b	0.6599948
22	0xbd3a9030	-0.045547664
23	0x3f55daf9	0.8353725
24	0x3ec3b9eb	0.38227782
25	0x3f3c75ae	0.73617065
26	0x3f0224d8	0.5083747
27	0x3e3f3362	0.18671945
28	0xbe7c8ace	-0.24662325
29	0x3f26f544	0.65217996
30	0x3f3a9980	0.7289047
31	0x3e707256	0.23481116

weight f4 [32, 32, 3, 3]
0	0x3cc0fb3b	0.023557296
1	0xbc469768	-0.012121059
2	0x3c954c32	0.01822481
3	0xbe5c6952	-0.21524552
4	0xbe324940	-0.17410755
5	0xbe50a895	-0.20376809
6	0xbed0e8c4	-0.40802586
7	0xbe7592d4	-0.23981792
8	0xbe8e1544	-0.277506
9	0xbddab473	-0.10678949
10	0xbea599c6	-0.32343882
11	0xbebfb264	-0.3744079
12	0x3e9a9681	0.3019295
13	0x3e6408f4	0.2226904
14	0x3e97fe35	0.29686132
15	0x3e5ee853	0.21768312
16	0x3c9b7e4d	0.018981123
17	0xbe00800e	-0.12548849
18	0x3c6a6112	0.01430537
19	0x3d8a7f6f	0.06762587
20	0x3e439c72	0.19102648
21	0xbe750bce	-0.23930284
22	0xbdf727c9	-0.12068135
23	0xbe865bf5	-0.26242033
24	0xbebc614a	-0.36792976
25	0xbe4e4f65	-0.20147474
26	0xbe96e06b	-0.29468092
27	0xbc570ec3	-0.013126078
28	0x3e22c376	0.15894875
29	0x3de8024d	0.11328564
30	0xbea05099	-0.3131149
31	0xbe0e6d00	-0.13908768
32	0xbe5cb46e	-0.21553203
33	0xbef42b92	-0.47689492
34	0xbe8c90e3	-0.2745429
35	0xbea2af94	-0.3177458
36	0xbd6e0026	-0.05810561
37	0xbdd046aa	-0.10169728
38	0xbe357d2b	-0.17723529
39	0xbd8ca60a	-0.06867607
40	0x3c289fd6	0.010292014
41	0xbe11e8f5	-0.14249022
42	0xbe846c13	-0.25863704
43	0xbec91e65	-0.39281002
44	0xbe9a5a1c	-0.30146873
45	0x3d73891d	0.059456933
46	0x3df40c83	0.11916449
47	0x3e41d360	0.1892829
48	0xbe4bc6b2	-0.19900015
49	0xbdfd18be	-0.12358235
50	0xbe7bd6d3	-0.24593668
51	0xbe59fff6	-0.21289048
52	0xbdc59d6e	-0.09649168
53	0xbe853fc0	-0.260252
54	0xbe0a11a8	-0.13483298
55	0xbe0ad15c	-0.13556427
56	0xbdddf09e	-0.1083691
57	0x3e6c1090	0.23053193
58	0x3d002008	0.031280547
59	0x3daf7039	0.08566327
60	0x3ea1a77d	0.31573096
61	0x3e75d17d	0.24005695
62	0x3e3b559b	0.18294375
63	0xbc66f5a1	-0.014096648
64	0xbd6b3216	-0.057420813
65	0xbe9711ac	-0.2950567
66	0xbe010906	-0.12601098
67	0x3cd027a3	0.025409525
68	0x3e5ff90f	0.21872352
69	0xbc57e8df	-0.013178079
70	0x3deaef90	0.11471474
71	0x3b65070d	0.003494683
72	0xbe45b918	-0.19308889
73	0xbdb17cea	-0.086664036
74	0xbe5db5ed	-0.2165143
75	0x3ce5348d	0.02797916
76	0xbde2d802	-0.110763565
77	0x3c439b09	0.011938819
78	0x3e840cba	0.2579096
79	0x3e7eff83	0.24902157
80	0x3e8800a8	0.26563
81	0xbe1ecc32	-0.15507582
82	0xbdad35f5	-0.08457557
83	0x3d4835d9	0.048879478
84	0x3e10e060	0.14148092
85	0xbd124577	-0.035710778
86	0x3e0f35c5	0.13985355
87	0x3ec9cc42	0.3941365
88	0x3eafd93f	0.34345433
89	0x3ef25bbb	0.4733561
90	0xbe35f4d3	-0.17769174
91	0xbe4a54fa	-0.19758978
92	0xbeb62f6f	-0.35583064
93	0x3c648902	0.013948681
94	0x3dddd069	0.10830767
95	0x3deb44a6	0.11487703
96	0x3df03184	0.11728194
97	0x3d931e11	0.07183469
98	0x3d00a8bf	0.03141093
99	0xbdf78ffe	-0.12088011
100	0xbe89ff7e	-0.26952738
101	0xbe8d2f76	-0.27575272
102	0x3f009cac	0.5023906
103	0x3f184628	0.5948205
104	0x3f1dfd3f	0.6171455
105	0xbd70b395	-0.058765013
106	0xbe2fe7fb	-0.17178337
107	0xbf0639e2	-0.5243207
108	0xbe339a7c	-0.175394
109	0xbdf55ac7	-0.11980205
110	0xbe6e0b65	-0.23246534
111	0x3d2f6b04	0.042826667
112	0x3cc3c5fa	0.023898114
113	0x3e315d7f	0.17320822
114	0x3e519afb	0.20469277
115	0x3e42d981	0.19028284
116	0x3d13829f	0.03601324
117	0xbd50bbba	-0.05096028
118	0x3d9e83ec	0.07740006
119	0x3e4ec001	0.20190431
120	0xbe10a2bd	-0.1412458
121	0xbce84355	-0.028352419
122	0xbd9267cd	-0.07148705
123	0xbe138a4a	-0.14408222
124	0xbde8f187	-0.11374193
125	0xbe165e49	-0.14684404
126	0xbd78d4ba	-0.060749747
127	0xbeb06e0d	-0.34458962
128	0xbe9bd8cc	-0.3043884
129	0x3ef8bea5	0.4858295
130	0x3edc616e	0.43043083
131	0x3eebad34	0.4603058
132	0x3e8c91f8	0.27455115
133	0x3ced1111	0.028938802
134	0xbe4b6fef	-0.19866918
135	0xbcb14493	-0.021639144
136	0x3e68a8d6	0.22720656
137	0x3e14e89f	0.14541863
138	0xbe6f6864	-0.23379666
139	0xbd4315ea	-0.04762832
140	0xbe87170a	-0.26384765
141	0xbeb79260	-0.35853863
142	0xbe148d0f	-0.14506935
143	0xbe582b29	-0.21110214
144	0xbe1d40f4	-0.15356809
145	0xbe9c707e	-0.30554575
146	0xbe9f997b	-0.31171784
147	0x3e48d7e4	0.19613606
148	0x3e7f830a	0.24952331
149	0x3ea838cf	0.32855842
150	0x3d6790ae	0.05653446
151	0x3c90907b	0.017647019
152	0xbe5339fb	-0.20627587
153	0xbdbb0c94	-0.091332585
154	0xbe950c5c	-0.29110992
155	0xbecd4e2c	-0.40098703
156	0x3e9ab613	0.30217037
157	0x3ee5a883	0.44855127
158	0x3f060c57	0.5236258
159	0x3ca228b0	0.019794792
160	0x3d699891	0.057030264
161	0xbea3229d	-0.31862345
162	0xbc6fb29b	-0.014629985
163	0x3e190400	0.14942932
164	0x3da1ecea	0.07906516
165	0xbe70d47d	-0.23518558
166	0xbe4463aa	-0.19178644
167	0xbea6dd3a	-0.32590657
168	0xbe91c1e9	-0.28468254
169	0xbe3ef8f5	-0.18649657
170	0xbc39dce6	-0.01134417
171	0xbd28e2fe	-0.0412321
172	0x3dc8959d	0.097941615
173	0x3ba910b3	0.0051594614
174	0xbe853d58	-0.26023364
175	0xbe683045	-0.22674663
176	0xbeaa56e2	-0.3326941
177	0xbea5cc12	-0.32382256
178	0xbe15b2c1	-0.1461897
179	0xbdba8e30	-0.09109151
180	0xbe62678a	-0.2210981
181	0xbe0a0cf8	-0.1348151
182	0xbdaf9592	-0.0857345
183	0x3e3c220a	0.1837236
184	0x3e010b43	0.12601952
185	0x3e3c8d93	0.18413381
186	0x3ee0ecb0	0.43930578
187	0x3ea50fc0	0.3223858
188	0x3f00860e	0.5020455
189	0xbe208437	-0.15675436
190	0xbe811d8e	-0.2521786
191	0xbebdb2af	-0.37050387
192	0x3e9a8744	0.30181324
193	0x3e823f99	0.25439146
194	0x3ed0cc5f	0.40780923
195	0xbcb37624	-0.02190692
196	0x3b5d880e	0.0033803019
197	0xbeb7db9f	-0.35909745
198	0xbdda9a41	-0.10673953
199	0x3e8d6163	0.27613363
200	0x3e8aeae4	0.27132332
201	0xbef91d7d	-0.4865531
202	0xbeedcd55	-0.46445718
203	0xbefb3342	-0.49062544
204	0xbde82e59	-0.11336965
205	0xbdc24ef3	-0.094877146
206	0x3eb60451	0.35550168
207	0xbe7a2aae	-0.24430344
208	0xbe103599	-0.14082946
209	0xbdfbf704	-0.12302974
210	0x3d900712	0.070325986
211	0xbdc06a1c	-0.09395239
212	0xbb93e3ba	-0.004513231
213	0x3e8d9d0d	0.27658883
214	0x3e8bda08	0.27314782
215	0x3ea760e5	0.32691112
216	0xbe0fa964	-0.14029461
217	0xbeae8608	-0.34086633
218	0xbebb36ea	-0.36565334
219	0x3e6d9ccc	0.23204345
220	0x3f02359b	0.50863045
221	0x3f0b18f0	0.54334927
222	0xbd123f9f	-0.035705205
223	0xbd069e13	-0.032865595
224	0xbeecd3fd	-0.46255484
225	0xbe9a18b2	-0.30096966
226	0xbe2ffaf1	-0.1718557
227	0xbc79a473	-0.015236962
228	0x3db21af1	0.08696545
229	0xbd8a6c23	-0.06758907
230	0x3d9d70bf	0.0768752
231	0x3eba9842	0.36444288
232	0x3ebd2fb8	0.3695047
233	0x3ec7d41f	0.39029023
234	0xbe0fdc97	-0.14048992
235	0xbe6d7859	-0.2319044
236	0xbe62faed	-0.22166033
237	0x3e8ae580	0.2712822
238	0x3d92b22f	0.07162892
239	0x3e8819eb	0.26582274
240	0x3eaea115	0.3410727
241	0x3e3ca709	0.18423094
242	0x3e1112bc	0.14167303
243	0xbe22b484	-0.15889174
244	0xbe85985f	-0.26092812
245	0xbe6de00a	-0.23229995
246	0x3ea54998	0.3228271
247	0xbbb347df	-0.005471214
248	0x3e83e4ea	0.25760585
249	0x3f05b29c	0.5222566
250	0x3e5b7159	0.21429957
251	0x3ebab911	0.3646932
252	0xbd02a6bd	-0.031897295
253	0x3dbf068b	0.0932742
254	0x3d8b529b	0.06802865
255	0xbeb25658	-0.348315

bias f4 [32]
0	0xbd3e7aaf	-0.04650372
1	0xbb87c4b7	-0.0041433233
2	0xbbbe7c91	-0.0058131893
3	0xbdc355aa	-0.095378235
4	0x3caa2eb8	0.02077423
5	0x3c80394e	0.015652325
6	0x3d855f01	0.06512261
7	0x3d3336b3	0.043753337
8	0xbdf50512	-0.11963858
9	0x3be2f4f7	0.0069261747
10	0x3b0510c7	0.002030419
11	0xbd87e3b1	-0.066352256
12	0x3d964980	0.07338238
13	0xbd53bb1a	-0.051692106
14	0x3ddb8364	0.1071842
15	0xbdd711b4	-0.105014235
16	0x3d03a8b9	0.03214333
17	0x3ca1e0a2	0.019760434
18	0xbd9dd964	-0.077074796
19	0x3e036f20	0.1283536
20	0xbc8cdacd	-0.017194176
21	0xbd3c73cb	-0.046008866
22	0xbd6113af	-0.054950412
23	0x3d815e3a	0.063168004
24	0xbdff8ac3	-0.124776386
25	0x3da41f22	0.080137506
26	0x3cc8f5a5	0.024531195
27	0xbcdbe336	-0.026841741
28	0x3d0ef0d1	0.03489763
29	0xbd79387c	-0.060844883
30	0xbd8862c9	-0.06659467
31	0xbd87e92e	-0.06636272

weight f4 [32, 32, 3, 3]
0	0xbcf27436	-0.02959643
1	0x3eba8800	0.36431885
2	0xbe97f7ba	-0.29681188
3	0xbf138964	-0.57631516
4	0x3e084fef	0.13311742
5	0x3f0c2e06	0.54757726
6	0xbebde7ae	-0.3709082
7	0x3e8e3fcb	0.27783045
8	0x3ea079ce	0.3134293
9	0x3ecb7e66	0.39744872
10	0xbda3ee13	-0.080043934
11	0x3ad6445f	0.001634728
12	0x3d5999ee	0.053125314
13	0xbe2bbd32	-0.16771391
14	0xbda452e6	-0.08023624
15	0x3df3845d	0.11890481
16	0x3e94d08f	0.29065368
17	0xbe81d669	-0.25358894
18	0xbd790e37	-0.060804572
19	0xbf575f4c	-0.84129786
20	0x3c2d5a1d	0.010580567
21	0xbe6706f7	-0.2256125
22	0xbeae3119	-0.34021834
23	0x3e8d3250	0.27577448
24	0x3ea0193d	0.31269255
25	0x3f271f40	0.6528206
26	0x3ee5fd1c	0.4491967
27	0x3e2901cf	0.16504596
28	0x3e458662	0.19289544
29	0xbdabcaa2	-0.083882585
30	0xbf1eb464	-0.61994004
31	0xbc1fd071	-0.009754286
32	0x3ddab1b6	0.10678427
33	0xbf2a1595	-0.6643918
34	0x3d5a2218	0.05325517
35	0x3f2db918	0.67860556
36	0xbe168e8e	-0.14702818
37	0x3e7ba7e2	0.24575761
38	0x3e2f358c	0.1711027
39	0x3d1aa7d1	0.0377577
40	0x3dd1ebb7	0.10250037
41	0x3e5f8d8f	0.21831344
42	0x3e486bc9	0.19572367
43	0x3ea2c36b	0.31789717
44	0x3e5b6849	0.214265
45	0xbdfec926	-0.1244071
46	0xbe79d095	-0.24395974
47	0x3b6e7338	0.0036384594
48	0xbecae63f	-0.3962879
49	0xbda2b609	-0.07944877
50	0x3eb6632b	0.35622534
51	0x3e3bbb40	0.18333149
52	0x3df8184a	0.12114008
53	0x3e727ad0	0.23679662
54	0x3f65b209	0.89724785
55	0x3ee9e801	0.45684817
56	0x3eec1b7c	0.4611472
57	0x3a86a757	0.001027326
58	0x3eb442b6	0.35207146
59	0x3e2e207e	0.17004582
60	0xbf0ea4ca	-0.557202
61	0x3ebff61d	0.37492457
62	0x3f21682a	0.63049567
63	0xbe14730a	-0.14497009
64	0xbea359d7	-0.3190448
65	0x3e95d6f6	0.29265565
66	0x3ec98461	0.3935881
67	0x3dce4dc8	0.10073429
68	0xbde14be6	-0.110008046
69	0x3e7667ce	0.24063036
70	0x3c91e8e4	0.017811246
71	0xbef93046	-0.48669642
72	0x3eca8ece	0.39562076
73	0x3ea8e658	0.32988238
74	0xbe156101	-0.14587785
75	0xbef6127e	-0.48060983
76	0xbf1fe666	-0.62460935
77	0x3e300054	0.17187625
78	0x3e211be2	0.15733293
79	0x3e6fa803	0.23403935
80	0x3ee712ec	0.45131624
81	0x3f06b888	0.5262532
82	0x3e653a75	0.22385581
83	0xbe6aad20	-0.22917604
84	0xbdb70863	-0.089371465
85	0xbee77e51	-0.4521356
86	0xbea85fb8	-0.32885528
87	0xbdeaac43	-0.114586376
88	0x3d3114e2	0.043232806
89	0xbda9e323	-0.08295276
90	0x3d9555da	0.072917655
91	0xbde456c3	-0.11149361
92	0xbe74a145	-0.23889644
93	0xbe81bd2c	-0.2533964
94	0xbd0fb8f6	-0.035088502
95	0x3deae980	0.11470318
96	0xbe3ec644	-0.1863032
97	0xbe8561d1	-0.2605119
98	0xbeb34ca5	-0.35019413
99	0xbd1d203b	-0.038360815
100	0x3e458132	0.19287565
101	0x3cd6755f	0.026179014
102	0x3d1d2c42	0.038372286
103	0x3d8e01fc	0.06933972
104	0xbd289d97	-0.041165914
105	0xbc9cf009	-0.019157426
106	0xbde25950	-0.11052191
107	0x3e5ba3ab	0.21449153
108	0xbe48035f	-0.19532536
109	0xbd79f2c9	-0.061022554
110	0xbdbbbe7e	-0.09167193
111	0x3eccc554	0.399943
112	0x3eccf1c0	0.4002819
113	0xbda296a4	-0.07938889
114	0x3d24c9bd	0.040231455
115	0xbdabfbe1	-0.083976515
116	0xbec1d563	-0.37858114
117	0xbf138b43	-0.5763437
118	0xbf158638	-0.58407927
119	0xbed0bfb3	-0.40771255
120	0xbea62917	-0.32453224
121	0xbe8af975	-0.27143446
122	0x3e292411	0.16517664
123	0x3ee45b1f	0.4460077
124	0xbd8d2d7f	-0.06893443
125	0x3d81cc60	0.063378096
126	0x3f9d7e23	1.2304119
127	0x3f38a01a	0.72119296
128	0xbebd865a	-0.37016565
129	0xbe872cf8	-0.26401496
130	0x3eff5e0a	0.49876434
131	0x3ebb1bf0	0.36544752
132	0xbef21a9d	-0.4728593
133	0x3f16376f	0.58678335
134	0x3e3011b0	0.17194247
135	0x3f629acc	0.8851745
136	0xbf57fd6d	-0.8437107
137	0xbf9aca58	-1.2093
138	0xbeb023ba	-0.34402257
139	0xbeca8e6d	-0.39561787
140	0x3edb4cbd	0.42831984
141	0x3ddf145c	0.10892555
142	0x3d0bc9c6	0.034127973
143	0x3e93a8f9	0.28839853
144	0xbeda3c75	-0.4262425
145	0xbeb4f1d5	-0.35340753
146	0x3d75c278	0.059999913
147	0xbd994e2f	-0.074856155
148	0xbec0ef45	-0.37682548
149	0x3d9984aa	0.07496007
150	0x3ea11ceb	0.31467375
151	0xbe75c6fb	-0.24001686
152	0xbdcf4499	-0.10120506
153	0xbbff6a56	-0.0077946587
154	0x3c5cbd8d	0.013472927
155	0xbea4d627	-0.32194635
156	0xbda3ba9d	-0.07994578
157	0xbe596f52	-0.21233872
158	0x3cf5a576	0.029986124
159	0xbe422386	-0.18958864
160	0x3ccf3a41	0.025296332
161	0x3ea2f94d	0.31830826
162	0xbe9500c7	-0.29102156
163	0xbe8be10b	-0.27320132
164	0x3e39bf9b	0.18139498
165	0xbea2c9e5	-0.31794658
166	0xbd478af7	-0.04871651
167	0x3dac3014	0.08407608
168	0xbe02835c	-0.12745422
169	0xbdfba1bb	-0.12286707
170	0x3e464844	0.19363505
171	0xbe261ebe	-0.16222665
172	0xbdc80642	-0.097668186
173	0xbdb3e266	-0.087834165
174	0x3e88f80e	0.2675175
175	0x3f00ff70	0.50389767
176	0x3de6c25a	0.11267538
177	0x3e37a977	0.1793574
178	0x3c994d92	0.018713746
179	0xbeb3a9c2	-0.35090452
180	0x3e139c82	0.14415172
181	0x3e84159c	0.25797737
182	0xbe0bd550	-0.13655591
183	0xbe88a296	-0.26686543
184	0xbe976bd7	-0.29574463
185	0xbd5f6973	-0.054543924
186	0xbd9d3ed7	-0.076780014
187	0x3dcfd452	0.10147919
188	0x3efdcf17	0.4957206
189	0x3e3ff8a0	0.18747187
190	0x3ebce8cc	0.3689636
191	0x3df6f669	0.12058718
192	0xbde2140c	-0.1103898
193	0xbd290472	-0.041264005
194	0xb90e2b05	-0.00013558201
195	0xbe200990	-0.15628648
196	0x3e3d3f53	0.18481188
197	0x3e10d0ae	0.14142105
198	0xbe4d8eb1	-0.20073964
199	0x3e3ac3c3	0.1823874
200	0x3d821cac	0.06353125
201	0xbd406496	-0.046970926
202	0x3e993554	0.299235
203	0xbe5cc57d	-0.21559711
204	0xbd336bf4	-0.043804124
205	0x3e13ed49	0.14445986
206	0x3eea7164	0.45789635
207	0xbd8a82c4	-0.06763223
208	0xbe45e547	-0.19325744
209	0x3ebbc429	0.36673096
210	0x3eaa90b4	0.33313525
211	0x3d94d36f	0.0726689
212	0x3dcb193b	0.09916922
213	0xbe765992	-0.24057606
214	0x3d9c97b1	0.0764612
215	0xbece382a	-0.40277225
216	0x3e560ad6	0.20902571
217	0xbea1fd39	-0.31638506
218	0xbe4f1de4	-0.20226246
219	0xbdefef36	-0.11715548
220	0xbf3d0568	-0.73836374
221	0xbe9e102d	-0.30871716
222	0x3ca4879b	0.020084193
223	0xbeb05211	-0.34437612
224	0xbe0b28fe	-0.13589856
225	0xbf0e7b97	-0.55657333
226	0x3eb377b1	0.35052255
227	0x3b958385	0.0045627975
228	0xbb5b89e6	-0.0033498942
229	0x3e406fd4	0.18792659
230	0xbca10758	-0.019656822
231	0x3c290943	0.01031715
232	0x3e0d45fd	0.1379623
233	0x3e593b67	0.21214066
234	0xbd9e51ca	-0.07730444
235	0x3ea6a201	0.32545474
236	0x3de6486e	0.112442836
237	0xbe62d8c9	-0.2215301
238	0x3d356930	0.044289768
239	0xbe8d9724	-0.27654374
240	0x3e93075b	0.2871655
241	0x3eebf607	0.4608614
242	0x3f340f51	0.7033587
243	0x3e63bc8e	0.22239897
244	0x3e4209f8	0.18949115
245	0xbe5805ae	-0.21095917
246	0xbe5aa500	-0.21352005
247	0x3c0eab67	0.008707858
248	0x3ef643ec	0.48098695
249	0x3da5d1d1	0.0809666
250	0x3f5c4f1d	0.8605822
251	0xbeb1b8f1	-0.34711412
252	0xbc17abe9	-0.009257295
253	0xbcff1a16	-0.031140368
254	0x3ecf9d3e	0.40549654
255	0x3d620608	0.055181533

bias f4 [32]
0	0xbd116557	-0.035497036
1	0x3d4f5717	0.050620165
2	0x3e30fa9c	0.172831
3	0xbc931027	-0.017952038
4	0x3d79cb4a	0.060984887
5	0xbcf0ac30	-0.02937898
6	0xbd183acc	-0.037165448
7	0x3c82bc49	0.015958922
8	0xbd5a1e0b	-0.053251307
9	0x3e196704	0.14980704
10	0x3df12c04	0.117759734
11	0xbd32059c	-0.04346238
12	0x3d5aedd0	0.053449452
13	0x3d3235f0	0.04350847
14	0xbd80dc61	-0.06292034
15	0xbd94e0ed	-0.07269464
16	0x3e2ba305	0.16761406
17	0x3bf48ed4	0.0074633155
18	0xbc0f502e	-0.008747144
19	0xbbd67dec	-0.006545773
20	0xbe08aa6e	-0.13346264
21	0xbcf6df1a	-0.03013568
22	0xbd54b75c	-0.051932678
23	0x3d8965b6	0.06708853
24	0xbd0f1fa4	-0.034942284
25	0xbdf4275e	-0.11921571
26	0xbde3e940	-0.11128473
27	0xba0205ea	-0.0004959988
28	0x3c77c984	0.015123729
29	0xbcb9c314	-0.022676028
30	0xbdeaa3b7	-0.114570074
31	0xbb8df28c	-0.0043318924

weight f4 [10, 32, 3, 3]
0	0x3f0ae8cd	0.54261476
1	0x3c1f09ff	0.009706973
2	0xbeb3ba2e	-0.3510298
3	0xbea2e58d	-0.31815758
4	0xbf006a75	-0.5016244
5	0x3eee2370	0.46511412
6	0x3dacf1eb	0.0844458
7	0x3d3345a3	0.043767583
8	0xbe92b7c0	-0.28655815
9	0xbe2e8835	-0.17044146
10	0x3e8fa162	0.28052813
11	0x3cf658c4	0.030071624
12	0x3f88da6a	1.0691655
13	0x4001e23b	2.029433
14	0x3ecf1a33	0.40449676
15	0xbefb0112	-0.49024254
16	0x3f709ed0	0.9399233
17	0x3e0b7a68	0.13620913
18	0x3f80e1aa	1.0068867
19	0xbe15008d	-0.14550991
20	0x3e54a5a2	0.20766309
21	0x3f58a147	0.8462109
22	0x3f372823	0.7154562
23	0xbf24a585	-0.6431506
24	0x3efcb113	0.49353847
25	0x3f7b7171	0.9821997
26	0xbd431c0e	-0.047634177
27	0xbf0c1430	-0.54718304
28	0xbd8a4347	-0.067511134
29	0xbe92ab72	-0.28646427
30	0xbbd06190	-0.0063592866
31	0x3f001a94	0.50040555
32	0x3f1cccec	0.61250186
33	0x3e6de58e	0.232321
34	0x3bfb2020	0.0076637417
35	0xbe95b355	-0.29238382
36	0x3e952fcf	0.29138038
37	0x3f1c4e68	0.6105714
38	0xbec65cf8	-0.38742805
39	0x3efd69b6	0.49494714
40	0x3c9a60af	0.01884493
41	0x3e9b3ad7	0.3031833
42	0xbddfc486	-0.10926156
43	0xbfa74d46	-1.3070457
44	0x3e7ceab2	0.24698904
45	0x3ee4697a	0.44611722
46	0x3e922d39	0.28550127
47	0xbf3d7983	-0.7401354
48	0x3e88b434	0.26699984
49	0x3dee7e14	0.11645141
50	0x3d89577f	0.06706142
51	0x3f130a2a	0.57437384
52	0xbf821743	-1.0163349
53	0xbe09284a	-0.13394275
54	0x3d8c357f	0.06846141
55	0xbd8a03bd	-0.06738994
56	0x3f39c687	0.72568554
57	0x3e77967d	0.241785
58	0x3f1f7ba6	0.6229805
59	0xbe081ccb	-0.13292234
60	0xbe1b4d6a	-0.1516625
61	0xbd3c0024	-0.04589857
62	0x3ef5f8cd	0.48041382
63	0xbf53fd3a	-0.8280827
64	0xbf3f5431	-0.7473784
65	0x3e82d0cc	0.25549924
66	0xbe117f1d	-0.14208646
67	0x3eb68aaf	0.35652682
68	0x3f426f6b	0.7595126
69	0xbda4f754	-0.080549866
70	0x3f011244	0.50418496
71	0x3de9a41c	0.114082545
72	0x3e20f199	0.15717162
73	0x3f49e967	0.7887177
74	0xbf41348e	-0.7547082
75	0xbf29af35	-0.6628297
76	0xbde1fa42	-0.11034061
77	0xbf391cd4	-0.72309613
78	0x3f0fdc55	0.56195575
79	0x3df1053d	0.11768577
80	0x3d18a383	0.037265312
81	0x3e825872	0.25458103
82	0xbe208528	-0.15675795
83	0xbf19d922	-0.60096943
84	0x3f04d205	0.51882964
85	0x3e4ff850	0.20309567
86	0x3f501934	0.81288457
87	0x3e5f6360	0.21815252
88	0xbec2c7ae	-0.3804297
89	0x3e26b0d8	0.16278398
90	0x3dedb590	0.11606896
91	0x3de55c39	0.11199231
92	0xbe834044	-0.25634968
93	0x3da00b49	0.078146525
94	0x3de31860	0.110886335
95	0x3e91dc92	0.28488594
96	0x3ed6d9b7	0.41962978
97	0x3f61055f	0.8789882
98	0x3ed1bb5e	0.40963262
99	0x3f235d4e	0.63814247
100	0x3dbe2b81	0.092856415
101	0xbf014482	-0.5049516
102	0xbee5d13a	-0.4488619
103	0x3dbfdc0b	0.09368142
104	0x3c1e6894	0.009668488
105	0x3f01386a	0.50476706
106	0xbe74248b	-0.23842065
107	0xbe6e4e01	-0.23271944
108	0x3f0233e9	0.5086046
109	0x3e1667ba	0.14688006
110	0xbe4a0444	-0.1972819
111	0x3dddf934	0.10838547
112	0x3f14df3e	0.5815314
113	0xbe8db72e	-0.27678818
114	0x3cbcd295	0.023049632
115	0xbfa13c53	-1.2596534
116	0x3d0153c7	0.031574037
117	0x3ef4c9b0	0.47810125
118	0xbe81f2bc	-0.25380504
119	0xbf0c07c7	-0.5469937
120	0x3cbf397d	0.023342842
121	0xbdd4a26a	-0.103825405
122	0xbefeb57e	-0.49747843
123	0x3f3b536b	0.7317416
124	0xbec6e602	-0.38847357
125	0xbf0aba7b	-0.54190797
126	0xbe1756a7	-0.14779149
127	0xbe4b3f1b	-0.19848292
128	0xbea77ffb	-0.3271483
129	0xbf09afb3	-0.5378372
130	0xbe69fc78	-0.22850215
131	0x3f33c712	0.7022563
132	0x3f09bad5	0.5380071
133	0xbfab04be	-1.3360822
134	0xbd93eddb	-0.07223102
135	0xbf061456	-0.5237478
136	0xbcd9b0d8	-0.026573583
137	0xbf673901	-0.90321356
138	0xbf6266cd	-0.8843811
139	0x3d9e77bc	0.07737681
140	0x3db3fd9e	0.08788608
141	0x3efb79fc	0.49116504
142	0xbf005108	-0.50123644
143	0xbebc01b2	-0.36720043
144	0x3cd6f658	0.026240513
145	0x3e8c35d3	0.27384815
146	0x3ec0aa74	0.37630045
147	0x3f74c03d	0.9560583
148	0x3e97c54f	0.29642722
149	0xbe8fc45b	-0.28079495
150	0x3e499007	0.19683848
151	0xbe7b181f	-0.2452092
152	0x3e4cd658	0.2000364
153	0x3d978502	0.07398416
154	0xbee706d4	-0.45122397
155	0x3e242fd0	0.16033864
156	0x3e0efc14	0.13963348
157	0xbf12da73	-0.5736458
158	0xbf05c857	-0.5225882
159	0xbe06bb97	-0.13157497
160	0x3f95951f	1.1686133
161	0x3ef6e476	0.48221177
162	0xbccf84db	-0.025331905
163	0xbe4ee271	-0.20203568
164	0xbed60e06	-0.41807574
165	0xbf3ef6ec	-0.7459552
166	0xbe45be17	-0.19310795
167	0x3ed65cc3	0.41867647
168	0x3f0d7d46	0.5526928
169	0xbf082fe1	-0.5319806
170	0xbf0ebe6e	-0.5575932
171	0x3f0e0b9f	0.5548648
172	0x3dd0c645	0.10194067
173	0x3ecd9c6c	0.40158403
174	0x3e8188fa	0.25299817
175	0x3e90081b	0.28131184
176	0xbf23e13b	-0.6401555
177	0xbe8e5009	-0.27795437
178	0x3ee563d5	0.44802728
179	0x3da6dc63	0.08147504
180	0x3e310afd	0.17289348
181	0x3e8b5b29	0.27217987
182	0xbf3582fc	-0.7090299
183	0xbf137d7a	-0.5761334
184	0xbebd22c3	-0.36940584
185	0x3f276c90	0.6540003
186	0x3f8b9fe8	1.0908175
187	0x3f2ef2f8	0.6833949
188	0xbdbaa5ed	-0.09113679
189	0xbef39602	-0.47575384
190	0x3e90f0f1	0.28308824
191	0xbe6a48d3	-0.22879343
192	0xbe840d56	-0.25791425
193	0x3e2177ef	0.15768407
194	0x3e5fefa8	0.21868765
195	0x3eb5d158	0.3551128
196	0x3eae23f2	0.340118
197	0x3d7ce7c1	0.061744455
198	0x3ebf57b7	0.3737161
199	0x3e9c524c	0.30531538
200	0x3f0d9063	0.5529844
201	0x3f37372e	0.7156857
202	0x3ec93a10	0.3930211
203	0xbe03cdf1	-0.12871529
204	0x3db9f2cf	0.09079515
205	0xbe3bbdb3	-0.18334083
206	0x3edf68fa	0.43634778
207	0xbe4b3e42	-0.19847968
208	0x3e609c7c	0.21934694
209	0x3f40bffc	0.75292945
210	0x3f84bd9d	1.0370365
211	0xbe0c461e	-0.13698623
212	0xbf1d4aed	-0.6144245
213	0xbe29559d	-0.16536565
214	0x3e273c71	0.1633165
215	0x3f1db36f	0.6160192
216	0x3ec80144	0.39063466
217	0xbf0e5773	-0.55602187
218	0xbeb945fb	-0.36186203
219	0xbf0ca35c	-0.54936767
220	0x3e22a995	0.15885003
221	0x3e93554b	0.2877601
222	0x3f05bed2	0.52244294
223	0xbe7f3ffe	-0.24926755
224	0xbf112688	-0.5669942
225	0xbf05e4ba	-0.52302134
226	0xbdac12d7	-0.08402031
227	0x3c963431	0.018335434
228	0x3eb20421	0.34768775
229	0x3e0629a0	0.13101816
230	0x3e0165d0	0.12636495
231	0x3ef3d9d3	0.47627124
232	0xbebebb55	-0.37252298
233	0xbd88ad62	-0.06673695
234	0x3df69a6c	0.120411724
235	0x3e41ff45	0.18945034
236	0xbf37c975	-0.71791774
237	0xbe4cc5d2	-0.19997337
238	0x3e0daf7a	0.1383647
239	0xbe01e361	-0.12684394
240	0x3e80941a	0.25112993
241	0xbe895c3a	-0.26828176
242	0xbea2e9d1	-0.31819013
243	0xbe2d5785	-0.16927917
244	0xbb714750	-0.0036816187
245	0xbf5a433b	-0.85258836
246	0xbeedc9b9	-0.46442965
247	0x3dc55ce6	0.096368596
248	0x3e138fe3	0.14410357
249	0x3f5d44e5	0.8643325
250	0x3dea623a	0.114445165
251	0xbe004c9e	-0.12529227
252	0x3f22320a	0.63357604
253	0xbe949056	-0.2901637
254	0x3e61ac48	0.22038376
255	0x3ee250d3	0.4420229

bias f4 [10]
0	0xbd7deed6	-0.06199535
1	0xbd56e9ec	-0.05246918
2	0x3ce9ba76	0.028531294
3	0xbb806fc2	-0.0039195726
4	0xbb453534	-0.0030091526
5	0x3dd22d9e	0.10262607
6	0xbda62bb0	-0.081138015
7	0x3dbc78c4	0.09202722
8	0x3e146d8a	0.14494911
9	0xbe0a874f	-0.13528179

weight f4 [10, 32, 3, 3]
0	0x3ea442d5	0.3208224
1	0x3e8fe0a3	0.28101072
2	0x3eb82c6f	0.359714
3	0xbe414282	-0.18873027
4	0x3f1ebaae	0.620036
5	0xbe891e75	-0.2678105
6	0xbd4e4cfd	-0.05036639
7	0xbfd83527	-1.6891221
8	0xbfaa733c	-1.3316417
9	0x3eaf1618	0.34196544
10	0xbd5b795b	-0.05358253
11	0xbebfaa93	-0.37434825
12	0xbbcd9536	-0.006273891
13	0xbedebf0e	-0.43505138
14	0xbe41cac5	-0.18925007
15	0x3d33ba0b	0.043878596
16	0x3ed04cb7	0.4068353
17	0x4001ac72	2.0261502
18	0x3e16851c	0.14699215
19	0xbf81c7c5	-1.013909
20	0xbe9e62ab	-0.30934653
21	0xbdd76355	-0.10516993
22	0xbeb27153	-0.34852085
23	0xbec8f1a3	-0.39246854
24	0xbeb2e8e2	-0.349433
25	0x3f8424d5	1.032374
26	0xbfbe3828	-1.4860888
27	0xbec225e6	-0.3791954
28	0x3daaf3fe	0.08347319
29	0xbf0e18d2	-0.5550662
30	0xbee6f884	-0.45111477
31	0xbf10199e	-0.5628909
32	0xbe6b3da5	-0.22972734
33	0xbe0531d8	-0.13007295
34	0x3f36036d	0.7109898
35	0x3d779210	0.06044203
36	0x3e91d550	0.28483057
37	0x3e3ab819	0.1823429
38	0x3f52be83	0.8232195
39	0x3ecaa807	0.3958132
40	0x3ec9359d	0.39298716
41	0x3ef28684	0.47368252
42	0xbec37474	-0.38174784
43	0xbd836b7e	-0.06416987
44	0x3f0f51ec	0.5598438
45	0x3f16b1cb	0.5886504
46	0x3d7132d8	0.05888638
47	0x3f513141	0.8171578
48	0x3e8bd2d2	0.2730928
49	0x3f30b1c4	0.6902125
50	0x3fd32849	1.6496669
51	0x3e0e34ee	0.13887379
52	0x3d512a06	0.051065467
53	0xbfc7672e	-1.5578363
54	0x3da59244	0.080845386
55	0x3e5cf4d4	0.2157777
56	0x3cc95029	0.024574356
57	0xbeabae70	-0.33531523
58	0x3f957059	1.1674911
59	0xbf15ebc5	-0.5856288
60	0x3d2f4216	0.042787634
61	0x3fdf5027	1.7446336
62	0xbef3b6f6	-0.47600526
63	0x3e9f7a14	0.31147826
64	0xbecdc2a9	-0.40187576
65	0xbf96820e	-1.175844
66	0x3ddeb834	0.10874978
67	0x3e967adc	0.2939061
68	0xbe12ce83	-0.1433659
69	0xbe00a162	-0.12561563
70	0xbf3eabbc	-0.74480796
71	0x3fe58d10	1.7933674
72	0xbe09adc8	-0.13445199
73	0xbecb821a	-0.39747697
74	0xbf012c36	-0.50458086
75	0x3da02f04	0.078214675
76	0xbe66b846	-0.22531232
77	0xbf0a2d2a	-0.53975165
78	0x3c83459d	0.016024405
79	0x3e95b79a	0.2924164
80	0x3eeddfca	0.464598
81	0x3dde5a75	0.10857097
82	0xbeeeb3ae	-0.4662146
83	0xbdf832ac	-0.1211904
84	0xbe91a7b1	-0.2844825
85	0x3e88cf94	0.2672087
86	0xbfa72b20	-1.3060036
87	0xbe9bd039	-0.304323
88	0x3f47d711	0.7806254
89	0xbf3affbb	-0.73046464
90	0x3e41a2d7	0.18909775
91	0x3d14a956	0.036294304
92	0xbe7d6f34	-0.24749452
93	0x3e3cb92b	0.18430011
94	0x3f798942	0.97475064
95	0xbf543451	-0.8289233
96	0xbe5ed794	-0.21761924
97	0x3f8f3630	1.1188412
98	0xc06bd1cb	-3.6846797
99	0xbef8340e	-0.48477215
100	0x3deabfd8	0.114623725
101	0xbf32bd63	-0.6982023
102	0x3ebc101d	0.36731043
103	0x3ee1f978	0.44135642
104	0xbf6196bc	-0.8812063
105	0xbca2655b	-0.01982372
106	0x3f0d57f5	0.55212337
107	0xbf90a0a0	-1.1299019
108	0x3ef2db5f	0.47432992
109	0x3e35a320	0.17738008
110	0xbe397710	-0.18111825
111	0x3b789f1b	0.003793663
112	0x3ee4f1d1	0.4471574
113	0x3ecaa650	0.3958001
114	0x3e1ab0a1	0.15106441
115	0xbe65c6c9	-0.22439112
116	0x3fcf5292	1.6197073
117	0x3f024e2a	0.5090052
118	0x3d65c767	0.056098368
119	0xbe8aaf86	-0.2708704
120	0x3d10acb6	0.03532096
121	0xbe6de90f	-0.23233436
122	0x3e9170a9	0.28406265
123	0x3ebbe804	0.3670045
124	0x3f190305	0.5977023
125	0xbf1e1719	-0.61753994
126	0xbf53a174	-0.8266823
127	0x3ec6c899	0.3882492
128	0x3df721de	0.120670065
129	0xbe60a6ed	-0.21938677
130	0x3f2360e7	0.63819736
131	0x3e62ffed	0.2216794
132	0xbdbcbb46	-0.09215407
133	0xbff4ccce	-1.9125001
134	0x3ee3ef06	0.44518298
135	0xbde73187	-0.112887435
136	0x3eb1c305	0.347191
137	0xbe8f35b4	-0.2797066
138	0x3e10aec9	0.14129175
139	0xbf055eb4	-0.5209763
140	0x3ea22cc9	0.31674793
141	0xbe55793b	-0.20847027
142	0xbfa38672	-1.2775404
143	0x3f91f91f	1.1404151
144	0x3e69c595	0.22829278
145	0xbe0c8d40	-0.13725758
146	0xbe186109	-0.14880766
147	0x3c6d046b	0.014466385
148	0xbc1134f5	-0.008862724
149	0xbe2a7118	-0.16644704
150	0x3dd13c0f	0.102165334
151	0xbf0dd706	-0.55406225
152	0x401d27b6	2.4555488
153	0xbde4ec93	-0.111779355
154	0xbe9991f6	-0.29994172
155	0x3e2d7dec	0.16942567
156	0xbf208c76	-0.62714326
157	0x3ef75cc1	0.48312953
158	0xbe3cf319	-0.1845211
159	0xbe3e359d	-0.1857514
160	0xbedf5d7b	-0.43626007
161	0xbe917a1f	-0.28413484
162	0x3bb43530	0.0054995045
163	0x3f0ea0fd	0.557144
164	0x3f715d97	0.9428343
165	0x3c0c6847	0.0085697835
166	0x3f115014	0.56762815
167	0x3ea9f0d1	0.3319154
168	0xbefad300	-0.48989105
169	0x3fa2533c	1.2681651
170	0x3f1ad6d8	0.60484076
171	0x3ca633e3	0.020288413
172	0xbd9b734f	-0.07590353
173	0xbe99c756	-0.30034894
174	0xbe4501f7	-0.19239031
175	0x3e10ac3c	0.14128202
176	0xbee6c2ee	-0.45070595
177	0x3e1d6e1d	0.15374036
178	0xbec27709	-0.37981442
179	0x400a2c0a	2.158938
180	0x3c03b0ea	0.008037785
181	0x3eda4cd2	0.42636734
182	0x3da7c6bc	0.081922024
183	0x3de55d2e	0.11199413
184	0x3e9ca146	0.30591792
185	0x3e367ad6	0.17820296
186	0xbebeed76	-0.37290543
187	0xbf2e271b	-0.6802842
188	0x3f0ef361	0.55840117
189	0x3ecee289	0.40407208
190	0x3f6f1967	0.93398136
191	0xbec58c09	-0.385834
192	0xbf37a13b	-0.71730393
193	0x3f22bc47	0.6356854
194	0x3eb7667a	0.3582037
195	0xbe2db2c6	-0.16962728
196	0xbf7c3f83	-0.9853441
197	0x3fe7e657	1.8117169
198	0xbc2a85ee	-0.010407908
199	0x3e3aa4f7	0.18226992
200	0xbec46e48	-0.38365388
201	0x3e260131	0.16211392
202	0x3e65489e	0.22390983
203	0xbfad4c74	-1.3538957
204	0x3f098a63	0.53726786
205	0x3f4b85ef	0.7950124
206	0xc083fdbc	-4.1247234
207	0xbe4c597a	-0.19956008
208	0xbd2c46ef	-0.042059835
209	0xbf2afd27	-0.6679253
210	0x3e4aaa24	0.19791466
211	0x3e5a0418	0.21290624
212	0xbfa46cab	-1.2845663
213	0xbdc11ffc	-0.09429929
214	0x3f9dbb21	1.2322732
215	0xbfa2ad82	-1.27092
216	0xbec6737b	-0.3875998
217	0xbeec5fd8	-0.46166873
218	0xbe7f0875	-0.2490557
219	0x3e28491e	0.16434142
220	0xbf5ed9ac	-0.8705089
221	0xc004a6ed	-2.0726883
222	0x3ef8e89a	0.4861496
223	0xbf82e6c2	-1.0226672
224	0xc01601a8	-2.343851
225	0x3f2b2f1f	0.66868776
226	0xc066a61b	-3.6038883
227	0xbce9e950	-0.028553635
228	0xbdf2bbfb	-0.11852261
229	0x3ec7be1d	0.39012232
230	0x3f0ca6bc	0.54941916
231	0xbdf8cea7	-0.12148791
232	0x3f096517	0.53669876
233	0xbf1ea27d	-0.6196669
234	0xbee52c7e	-0.44760507
235	0x3e64dbcf	0.22349475
236	0xbf516f76	-0.818107
237	0xbdcea8f5	-0.1009082
238	0x3e869c76	0.26291245
239	0xc0069d6d	-2.1033585
240	0x3e6a979f	0.22909401
241	0x3f1d65f2	0.6148368
242	0x3fdf2106	1.7431953
243	0x3e2980b6	0.16553006
244	0xbebb6b04	-0.36605084
245	0x3ee2025f	0.44142434
246	0xbf8221ec	-1.0166602
247	0x3f0ef575	0.5584329
248	0x3e297372	0.16547945
249	0x3c8002ea	0.01562639
250	0xbf803f35	-1.0019289
251	0x3f21ac48	0.63153505
252	0xbcdd1609	-0.026988046
253	0x3ed6beed	0.4194254
254	0x3e095f14	0.13415176
255	0x3dc6a86c	0.09700093

bias f4 [32]
0	0x3d52495f	0.051339503
1	0xbd254bb1	-0.040355388
2	0xbc952f03	-0.018210893
3	0x3ec3d354	0.38247168
4	0x3e8118de	0.25214285
5	0xbd0c2ef9	-0.034224484
6	0x3d0bad7d	0.034101
7	0xbe3562b3	-0.17713432
8	0x3e3bd99a	0.18344727
9	0xbe7b368c	-0.24532527
10	0xbf0a92bf	-0.54130167
11	0x3d9bebed	0.07613359
12	0x3edd2032	0.43188626
13	0x3e32e411	0.17469813
14	0x3da7c769	0.08192331
15	0x3efe1bb9	0.49630526
16	0x3e519dc3	0.20470338
17	0x3e8b88f4	0.27252924
18	0x3e230fe6	0.15924034
19	0x3e8cdad4	0.27510703
20	0x3e85e5a6	0.2615177
21	0x3e59ab82	0.21256831
22	0xbe994f89	-0.29943493
23	0x3f03290a	0.51234496
24	0x3e9e6a47	0.30940458
25	0x3e07dc62	0.13267663
26	0x3e791b22	0.24326757
27	0xbda99be3	-0.08281686
28	0xbedcbf1c	-0.43114555
29	0x3df62e11	0.12020505
30	0x3f1a97d0	0.603879
31	0x3e2e391f	0.17013977

weight f4 [32, 32, 3, 3]
0	0x3f041cb7	0.51606315
1	0x3ebf5d78	0.37375998
2	0x3e0d3231	0.13788678
3	0x3e906b0e	0.28206676
4	0xbf1c555e	-0.6106776
5	0xbf2de46b	-0.67926663
6	0x3e3c0b07	0.18363582
7	0xbf37a0ff	-0.71730036
8	0xbe36c2fd	-0.1784782
9	0x3f156373	0.5835487
10	0x3ef5ced8	0.48009372
11	0xbd8203d7	-0.06348389
12	0xbde94814	-0.11390701
13	0xbefddbdc	-0.49581802
14	0xbdd9aa45	-0.106281795
15	0xbed5094c	-0.41608655
16	0x3ddae03a	0.10687299
17	0xbd4e9ebd	-0.050444353
18	0x3ea771ad	0.32703915
19	0xbd684f78	-0.056716412
20	0xbbe4d975	-0.0069839307
21	0x3f45d0c8	0.772717
22	0xbec67b39	-0.38765886
23	0xbe13f534	-0.14449006
24	0x3e8dd778	0.27703452
25	0x3eaacf1b	0.33361134
26	0x3e855255	0.26039377
27	0x3dbeeb3a	0.0932221
28	0x3e3b1899	0.18271102
29	0x3db65fc6	0.08904986
30	0x3d871f10	0.065977216
31	0xbeb52c3d	-0.35385314
32	0xbdc30a44	-0.095234424
33	0x3e6d67a7	0.23184071
34	0xbd62e7ad	-0.055396724
35	0xbe04c7ce	-0.12966844
36	0x3ead5404	0.3385316
37	0x3e8ce992	0.2752195
38	0x3e7d1218	0.24713933
39	0x3ed89116	0.42298192
40	0x3ce11da8	0.027479962
41	0x3cbaefe0	0.02281946
42	0x3dc202f0	0.094732165
43	0xbdbcc7d6	-0.09217803
44	0xbec88a33	-0.39167938
45	0x3f39832f	0.72465795
46	0x3ebf14a2	0.3732043
47	0x3f5d9601	0.8655701
48	0xbf2f873e	-0.6856574
49	0xbfc2d9ff	-1.5222777
50	0xbf6dff50	-0.929677
51	0xbe67586c	-0.22592324
52	0x3e6e28f2	0.23257807
53	0xbe0dbeec	-0.13842362
54	0x3ead2c53	0.3382288
55	0x3f2e8819	0.6817642
56	0xbe3ff5f4	-0.18746167
57	0xbcd85f6d	-0.02641269
58	0xbf2150db	-0.63014
59	0xbeb14844	-0.34625447
60	0x3e8efa09	0.27925137
61	0x3e43ef1e	0.19134185
62	0x3e90784a	0.28216773
63	0xbea7a253	-0.3274103
64	0x3e3d5ee0	0.18493223
65	0x3e4e247e	0.20131108
66	0xbe359baf	-0.1773517
67	0xbe659c4e	-0.22422907
68	0xbdfef748	-0.12449509
69	0x3eb04ff9	0.34436014
70	0x3df3bf9f	0.11901783
71	0x3e77621e	0.24158522
72	0x3d97184b	0.073776804
73	0x3e28b818	0.16476476
74	0xbd91b50b	-0.07114609
75	0x3dbcb723	0.09214618
76	0xbf0f74a9	-0.56037384
77	0xbde6aa97	-0.11263006
78	0x3d1a2413	0.03763206
79	0x3dfc145a	0.12308569
80	0xbee017f7	-0.43768284
81	0x3d00455e	0.031316154
82	0x3df45a87	0.11931329
83	0x3e12752f	0.14302514
84	0x3e96f8a9	0.29486588
85	0x3d295c62	0.04134787
86	0xbdbbf7ae	-0.091781005
87	0x3dfdf5ca	0.12400396
88	0xbe04b79c	-0.12960666
89	0xbed8c326	-0.42336386
90	0x3f2a314e	0.66481483
91	0x3fb03609	1.376649
92	0x3e8c05d2	0.2734819
93	0xbee5382a	-0.44769412
94	0xbf891126	-1.0708358
95	0xbea2327e	-0.31679147
96	0x3db29743	0.08720257
97	0x3f280372	0.6563026
98	0x3f12e6ed	0.57383615
99	0xbe46e97d	-0.19425006
100	0x3f472d85	0.7780383
101	0xbd1b2cc8	-0.037884504
102	0x3e32bccd	0.17454834
103	0xbf105acc	-0.56388545
104	0xbe1cd3dc	-0.15315193
105	0x3f255b9a	0.645929
106	0x3f5f4d8f	0.8722772
107	0x3e8958db	0.26825604
108	0xbc1433ac	-0.009045523
109	0x3e6144dd	0.21998926
110	0x3c577a8d	0.013151777
111	0xbccbfa9f	-0.024899779
112	0xbe9168b2	-0.2840019
113	0xbdefcd56	-0.117090866
114	0x3e253952	0.16135147
115	0xbe13c722	-0.14431432
116	0xbe71039c	-0.23536533
117	0x3e6710f8	0.22565067
118	0x3ef6f0e2	0.48230654
119	0x3d726b63	0.059184443
120	0xbea7e4ba	-0.32791692
121	0xbf74ee2f	-0.9567594
122	0xbf2f04ad	-0.6836651
123	0x3e1063fc	0.14100641
124	0x3f40760a	0.75180113
125	0xbd01ba8b	-0.031672042
126	0x3e879206	0.26478595
127	0x3f02fcf9	0.51167256
128	0xba1f289a	-0.0006071419
129	0xbe200530	-0.15626979
130	0x3f087584	0.53304315
131	0x3db2a863	0.087235235
132	0x3e3f9dc5	0.18712528
133	0x3eb53de4	0.3539878
134	0xbe49a60c	-0.19692248
135	0xbd798149	-0.06091431
136	0xbed1a703	-0.40947732
137	0x3eabf3c3	0.33584413
138	0x3ec9af5a	0.39391595
139	0xbf799563	-0.9749357
140	0xbeca127e	-0.39467233
141	0xbe07d2cd	-0.13264008
142	0x3eeb8a8f	0.4600415
143	0xbe4a9286	-0.19782457
144	0xbdbfd4a6	-0.09366731
145	0x3ea0d346	0.3141119
146	0xbcceb674	-0.025233485
147	0x3e468fda	0.19390813
148	0xbdfef073	-0.12448206
149	0xbd6b28a0	-0.05741179
150	0x3e28c0ce	0.16479799
151	0xbe064164	-0.13110882
152	0xbe8ee231	-0.27906945
153	0x3dc8eb0f	0.09810459
154	0x3ec682d9	0.38771704
155	0xbec22b63	-0.37923726
156	0xbe22057e	-0.15822408
157	0x3d8af291	0.06784547
158	0xbde3a1c5	-0.111148395
159	0xbc9184b6	-0.017763477
160	0x3e005a53	0.12534456
161	0xbdf293cb	-0.118445955
162	0xbc64f54f	-0.013974502
163	0x3ef7c66e	0.48393577
164	0x3ef42936	0.4768769
165	0xbeb19844	-0.34686482
166	0xbf7c3edb	-0.9853341
167	0x3e37f871	0.17965867
168	0x3da5df87	0.08099275
169	0x3f0cc37a	0.54985774
170	0xbf27f20a	-0.656037
171	0x3ed6ba30	0.41938925
172	0x3d4fe62f	0.05075663
173	0x3e1834cb	0.14863889
174	0x3f811320	1.0083961
175	0xbed630e6	-0.41834182
176	0xbf8d2b92	-1.1028922
177	0x3efa6c8e	0.48910946
178	0x3d1225d4	0.035680607
179	0x3dadcbc5	0.084861316
180	0x3d763ab1	0.060114566
181	0x39f9d10f	0.00047648742
182	0x3f10c086	0.5654377
183	0x3e69a5ce	0.22817156
184	0xbe81a92a	-0.25324374
185	0xbe8ff22f	-0.2811446
186	0x3e9fa67f	0.31181714
187	0xbce72699	-0.028216647
188	0xbd2a6cf3	-0.04160781
189	0xbf4c11ce	-0.7971467
190	0x3f04d9f9	0.518951
191	0x3f12776f	0.5721349
192	0xbf314dd2	-0.6925937
193	0xbfc31040	-1.5239334
194	0xbf54d10d	-0.83131486
195	0x3cbcfe53	0.02307049
196	0x3f6090f6	0.8772119
197	0xbe8e7e4e	-0.27830738
198	0x3ebaf2a3	0.36513242
199	0x3db53712	0.088483945
200	0xbe3d5521	-0.18489505
201	0x3e30f3c0	0.17280483
202	0xbeab6641	-0.3347645
203	0xbec1cba8	-0.3785069
204	0xbdbde681	-0.09272481
205	0x3de42bbc	0.11141154
206	0xbda8cc4a	-0.0824209
207	0xbdf3f76e	-0.11912428
208	0x3e050a7d	0.12992282
209	0x3e5ba22f	0.21448587
210	0x3ec45de4	0.38352883
211	0x3bbd0b59	0.005769175
212	0xbe663b6e	-0.22483608
213	0x3e8c03fc	0.2734679
214	0xbe4fbcdc	-0.20286888
215	0xbe1c0d29	-0.15239395
216	0x3e063e3c	0.13109678
217	0x3f39fb52	0.7264911
218	0x3f7baa68	0.98306894
219	0x3f0615a4	0.5237677
220	0xbf5c18be	-0.85975254
221	0xbe6b993f	-0.23007677
222	0x3fc170cd	1.5112549
223	0xbf08d05e	-0.53442943
224	0x3de1a168	0.11017114
225	0x3eb1b926	0.3471157
226	0x3e97cf1f	0.29650208
227	0xbdeed580	-0.11661816
228	0x3ec7d4b4	0.39029467
229	0xbd5064f0	-0.05087751
230	0xbe89dc0f	-0.26925704
231	0x3d682c71	0.056683008
232	0xbe0f1518	-0.1397289
233	0xbecf5af4	-0.4049908
234	0x3ded7506	0.11594586
235	0x3e56a519	0.20961417
236	0x3ee52f96	0.44762868
237	0x3f0cf057	0.5505423
238	0xbd601db7	-0.05471584
239	0xbf1c5784	-0.6107104
240	0x3e16b55f	0.14717625
241	0x3d0d9e4a	0.034574784
242	0x3d253eac	0.04034297
243	0x3ec83060	0.39099407
244	0xbec128e5	-0.37726513
245	0x3ed85b73	0.4225727
246	0x3e229f25	0.15881021
247	0xbec7a652	-0.3899408
248	0xbdde3225	-0.10849408
249	0xbdec20b7	-0.11529677
250	0x3d86b5f8	0.065776765
251	0xbe275686	-0.163416
252	0x3d562875	0.052284677
253	0x3f2c4b2c	0.67302203
254	0x3e22b603	0.15889744
255	0xba5144d7	-0.0007982975

bias f4 [32]
0	0xbdd94189	-0.10608203
1	0x3da4c2ad	0.08044944
2	0xbe884508	-0.26615167
3	0xbdcee8ae	-0.10102974
4	0xbead2fa6	-0.33825415
5	0xbf1960ff	-0.5991363
6	0xbd80e7e2	-0.06294228
7	0x3d977c4c	0.073967546
8	0xbeafa5a1	-0.34306052
9	0xbeb7bcf3	-0.35886344
10	0xbdcb9026	-0.099396035
11	0xbe826442	-0.25467116
12	0xbe96092f	-0.29303882
13	0xbe2bf7c5	-0.16793735
14	0x3cd17cf0	0.02557227
15	0xbe78251a	-0.24232903
16	0xbeacb6e0	-0.33733273
17	0x3d4ee610	0.050512373
18	0xbe461acc	-0.1934616
19	0xbe857dce	-0.26072544
20	0xbea7348c	-0.32657278
21	0xbee42b7d	-0.4456443
22	0xbe6d2075	-0.23156913
23	0xbe9caff5	-0.30602995
24	0xbd2b2d4b	-0.04179124
25	0xbeb06a1c	-0.34455955
26	0xbe5bb2d1	-0.21454932
27	0xbe9fc142	-0.31202132
28	0xbe07ab07	-0.13248836
29	0x3e0b6177	0.13611399
30	0xbeb509b4	-0.35358965
31	0xbedcf46f	-0.43155238
