models/proto.pth (torch_old, 264858 bytes, 61 tensors)

weight f4 [32, 1, 3, 3]
0	0x3cc862ce	0.024461176
1	0xbe4c66ff	-0.19961165
2	0x3ddbd079	0.107331224
3	0x3dd8a066	0.105774686
4	0xbe353863	-0.17697291
5	0xbd47c1c7	-0.048768785
6	0xbe46c023	-0.19409232
7	0x3db3909e	0.08767818
8	0xbdb5746c	-0.08860096
9	0x3e7105ec	0.23537415
10	0x3e7386b4	0.23781854
11	0x3d0ff045	0.03514125
12	0xbe104c02	-0.14091495
13	0xbe47446a	-0.19459692
14	0xbd1116f9	-0.0354223
15	0xbdbdab90	-0.092612386
16	0x3e17ab74	0.14811498
17	0xbe911fbf	-0.28344533
18	0x3ea0fd3f	0.3144321
19	0xbe8548ce	-0.26032108
20	0x3e824522	0.2544337
21	0xbd6858e9	-0.056725416
22	0x3e306256	0.17225012
23	0x3e046868	0.12930453
24	0x3c71a74c	0.014749359
25	0x3d817f4e	0.063231096
26	0x3e81906f	0.25305507
27	0x3dae3a29	0.08507187
28	0x3e35a2ee	0.17737934
29	0xbe836f83	-0.25671014
30	0x3e7236a3	0.23653655
31	0x3dec700a	0.11544807
32	0x3daf44a2	0.085580125
33	0x3d38134d	0.04494028
34	0x3e26f743	0.1630526
35	0x3e9d518b	0.30726275
36	0xbd9a36e0	-0.07529998
37	0xbe3f57c6	-0.18685827
38	0xbdae27f5	-0.08503715
39	0xbe5137d8	-0.20431459
40	0x3e2301e8	0.15918696
41	0xbe29e54e	-0.16591379
42	0xbe375cb1	-0.17906453
43	0x3e92a856	0.28644055
44	0x3e9b9336	0.3038575
45	0x3d218006	0.039428733
46	0xbd6a28b3	-0.05716772
47	0xbd2fd217	-0.042924967
48	0x3e2273ee	0.15864536
49	0xbe9fcc76	-0.3121068
50	0xbe8c0c23	-0.2735301
51	0x3e88249f	0.2659044
52	0x3ea80c2e	0.32821792
53	0xbcabfb7c	-0.02099394
54	0xbe863eca	-0.2621978
55	0x3c28a7ec	0.010293942
56	0xbe1d93f7	-0.15388475
57	0x3a10779c	0.0005510987
58	0x3e284c45	0.16435345
59	0x3e1851ca	0.1487495
60	0xbd1b376a	-0.037894644
61	0x3d1b3be8	0.037898928
62	0x3dbc3ae5	0.09190921
63	0xbe865f17	-0.26244423
64	0xbde9e482	-0.114205375
65	0x3c424073	0.011856186
66	0xbe43f7ba	-0.19137469
67	0xbe164ba1	-0.14677288
68	0x3de2dc4e	0.11077176
69	0x3e434a98	0.19071424
70	0x3b65a155	0.0035038788
71	0xbe05f4ce	-0.13081667
72	0x3e3c1adb	0.1836962
73	0xbe39e484	-0.18153578
74	0xbd9dd0ef	-0.077058665
75	0x3ea198c7	0.31561872
76	0x3d801117	0.0625326
77	0x3cc99f7f	0.024612186
78	0x3de83deb	0.11339935
79	0xbda47ca7	-0.08031588
80	0x3e9286fc	0.2861861
81	0xbe8bc7a4	-0.2730075
82	0xbdbe22b1	-0.092839606
83	0xbd70bfe8	-0.058776766
84	0xbe0d8f34	-0.13824159
85	0xbdab4483	-0.08362677
86	0x3e5260a7	0.20544682
87	0x3e3a805f	0.18213032
88	0x3c8fdcfc	0.017561428
89	0x3e9428ae	0.28937286
90	0xbe721e77	-0.23644434
91	0xbe4c7d27	-0.19969617
92	0x3e19de6b	0.15026252
93	0xbc931386	-0.017953645
94	0xbe9b2253	-0.30299625
95	0xbe6b2458	-0.22963083
96	0xbe4ec2cf	-0.20191501
97	0x3e845ccf	0.25852057
98	0x3e1bc46b	0.15211646
99	0x3e837c36	0.25680703
100	0xbe7f389b	-0.24923937
101	0xbea6f0b5	-0.3260552
102	0xbe60eb10	-0.21964669
103	0x3d0def8b	0.034652274
104	0xbd889fcc	-0.06671104
105	0xbe581007	-0.21099864
106	0x3e77eb88	0.24210942
107	0xbdda9a79	-0.106739946
108	0xbe443352	-0.19160202
109	0x3e1ee33b	0.15516369
110	0xbdb57e68	-0.08862001
111	0x3e5ad39d	0.21369787
112	0x3da52454	0.0806357
113	0x3c1a5266	0.009419059
114	0x3d91c38c	0.07117376
115	0xbe7f4112	-0.24927166
116	0xbe356786	-0.17715272
117	0xbe216b56	-0.15763602
118	0xbe41f020	-0.18939257
119	0x3d70d95d	0.058801044
120	0x3d884a1f	0.066547625
121	0xbe0cefec	-0.13763398
122	0x3e5f97c4	0.21835238
123	0xbe3ce39a	-0.18446198
124	0x3d8c0e6a	0.06838687
125	0xbdc09cca	-0.09404905
126	0xbe9410ac	-0.2891897
127	0xbe5da4e1	-0.21644928
128	0x3e0c4208	0.13697064
129	0x3e08447c	0.13307375
130	0xbe51d997	-0.2049316
131	0xbdd26a46	-0.10274176
132	0xbe9eedb4	-0.31040728
133	0x3e38b85d	0.18039079
134	0x3e943199	0.2894409
135	0x3ddf7426	0.109108254
136	0xbe520f50	-0.20513654
137	0x3e354144	0.17700678
138	0x3e8dec5b	0.27719387
139	0xbd896c18	-0.0671007
140	0xbd5b0f3c	-0.053481326
141	0x3ded9923	0.11601474
142	0x3d33a10c	0.04385476
143	0xbddf7781	-0.109114654
144	0xbe9dd57c	-0.30826938
145	0xbe6e2079	-0.23254575
146	0x3c9d9592	0.01923636
147	0xbc88c20f	-0.016694097
148	0x3e8d89cf	0.27644202
149	0x3c4e51b8	0.012592725
150	0xbdad559e	-0.08463596
151	0xbea6262e	-0.32451004
152	0xbe9c4f7f	-0.305294
153	0x3e0e804d	0.1391613
154	0x3e9787d9	0.2959583
155	0xbbcb13cd	-0.006197429
156	0xbe97fc03	-0.29684457
157	0x3df10368	0.11768228
158	0x3e8a705c	0.27038848
159	0xbe60c3d3	-0.21949701
160	0xbdb42e2a	-0.087978676
161	0x3cdd3574	0.027003027
162	0xbe43d51f	-0.19124268
163	0xbe9ed849	-0.31024387
164	0x3e143a49	0.14475359
165	0xbe8ca49d	-0.2746934
166	0xbdadc967	-0.0848568
167	0xbe3676e2	-0.17818788
168	0x3e7f7e76	0.24950585
169	0x3d815b63	0.06316259
170	0x3e1d0ff2	0.15338114
171	0xbe65f16d	-0.22455378
172	0x3e906c19	0.28207472
173	0x3cfcf72f	0.030879585
174	0xbe3c1f20	-0.18371248
175	0xbca90ddc	-0.020636491
176	0xbe707b93	-0.2348464
177	0xbc690354	-0.014221985
178	0x3e3fcd67	0.18730699
179	0xbe183d78	-0.14867198
180	0x3e8fb5c8	0.28068376
181	0x3dce5790	0.10075295
182	0xbd730f57	-0.0593408
183	0x3dd31497	0.103066616
184	0xbd7fbcd2	-0.062435932
185	0xbda0c881	-0.07850743
186	0xbe6109f3	-0.21976452
187	0x3e45cc2b	0.19316165
188	0x3e4bd26d	0.1990449
189	0x3dec2e64	0.11532286
190	0x3e4b167f	0.198328
191	0x3eab1ae0	0.33418941
192	0x3ea14f78	0.31505942
193	0xbea417cb	-0.32049403
194	0x3d9e04f5	0.07715789
195	0xbce0e57a	-0.027453173
196	0x3dea1030	0.11428869
197	0xbd8221ae	-0.0635408
198	0x3dc0bc1c	0.09410879
199	0xbe9c71ef	-0.30555674
200	0x3e1d31be	0.15351006
201	0x3ea48799	0.32134703
202	0xbd70d5e6	-0.05879774
203	0xbe87285b	-0.26397976
204	0xbe8d4b9e	-0.27596754
205	0xbd8098b8	-0.06279129
206	0xbb7e1d16	-0.003877466
207	0x3d13fb0b	0.036128085
208	0x3d275073	0.040848207
209	0x3e809c37	0.25119182
210	0xbd7b7efe	-0.061400406
211	0x3dc185cd	0.094493486
212	0xbe3455f0	-0.17610908
213	0x3ea7be42	0.32762343
214	0x3e03a88d	0.12857266
215	0xbd388e79	-0.045057748
216	0x3e619cb5	0.22032435
217	0x3df41d31	0.1191963
218	0x3d6f052f	0.058354553
219	0xbdc712ed	-0.09720407
220	0x3d30909e	0.043106668
221	0x3cccf1c8	0.025017634
222	0xbe46347f	-0.19355963
223	0x3bc32848	0.0059557296
224	0x3d977871	0.07396019
225	0xbe49111f	-0.19635437
226	0x3d78083f	0.06055474
227	0xbde07a6e	-0.109608516
228	0xbe8df990	-0.27729464
229	0xbe4bec84	-0.19914442
230	0xbe86f6cf	-0.26360175
231	0x3d9d54f7	0.076822214
232	0x3e5179be	0.20456597
233	0x3e9bb815	0.3041388
234	0x3ea7f251	0.3280206
235	0x3e07abe4	0.13249165
236	0x3e282dce	0.16423723
237	0xbd63f072	-0.05564923
238	0x3e8db36d	0.27675954
239	0xbe01460b	-0.12624376
240	0xbdb70ba8	-0.0893777
241	0xbde0be3d	-0.10973785
242	0xbe639766	-0.22225723
243	0xbe82ed0f	-0.25571486
244	0xbd88bb94	-0.06676403
245	0x3e8a8baa	0.2705968
246	0xbe28d1dd	-0.16486306
247	0xbe9a5651	-0.3014398
248	0xbd999194	-0.0749847
249	0x3e9b4012	0.3032232
250	0x3da6fb5c	0.08153412
251	0xbca363e5	-0.019945094
252	0xbdc172cb	-0.09445723
253	0x3e95b741	0.29241374
254	0xbea46bff	-0.32113644
255	0x3e416e4e	0.18889734

bias f4 [32]
0	0x3e5836a8	0.211146
1	0xbe15d6a5	-0.14632662
2	0xbce3299e	-0.027729806
3	0xbdcb4c98	-0.099267185
4	0xbe87f4cb	-0.2655395
5	0xbd036d5e	-0.032086723
6	0x3d4eae89	0.05045942
7	0x3e87cd79	0.2652395
8	0xbe0ff966	-0.14059982
9	0x3ea28138	0.3173921
10	0xbe1f24c1	-0.15541364
11	0x3e5a80d5	0.21338208
12	0x3e95adf7	0.29234287
13	0x3d1228d7	0.03568348
14	0xbde89964	-0.11357382
15	0x3e7db681	0.24776651
16	0xbdc4b01b	-0.09603902
17	0xbe135843	-0.14389138
18	0xbdeb8d27	-0.11501532
19	0xbe8a9c1f	-0.27072236
20	0xbd0c9f91	-0.034331862
21	0xbe8a3af3	-0.269981
22	0x3e60bd22	0.21947148
23	0xbea3c228	-0.31984067
24	0xbe7c5464	-0.24641567
25	0x3d89c3d3	0.06726804
26	0x3e546465	0.20741422
27	0x3ea3da2b	0.32002386
28	0xbe8addfb	-0.27122483
29	0x3e8b9762	0.27263933
30	0x3e6df743	0.23238854
31	0xbe60df1e	-0.21960112

weight f4 [32, 32, 3, 3]
0	0x3cbfce31	0.02341375
1	0xbc913ad1	-0.017728241
2	0x3c81829e	0.015809353
3	0xbd5a677e	-0.053321354
4	0xbd0f4d2f	-0.034985717
5	0xbd1dbbc8	-0.03850916
6	0xbc4f321c	-0.012646224
7	0xbb57e438	-0.0032942425
8	0xbb1e7679	-0.0024179502
9	0xbd134f47	-0.035964277
10	0x3ce4face	0.027951624
11	0x3cebc6db	0.028781345
12	0xbd587631	-0.05284709
13	0xbd647028	-0.055771023
14	0xbc625011	-0.013813035
15	0x3c79a694	0.015237469
16	0xbd3c88b4	-0.046028808
17	0xbbd76cd6	-0.0065742536
18	0x3b0fa177	0.002191631
19	0xbd3d21dd	-0.046174873
20	0x3d5d4d55	0.054028828
21	0x3d2a14de	0.041523807
22	0x3d33a710	0.043860495
23	0xbcce3e66	-0.025176238
24	0xbd313bd2	-0.04326994
25	0x3bc76935	0.0060855397
26	0x3d08761a	0.033315755
27	0x3ce2b1f6	0.027672749
28	0xbd2149c8	-0.039377004
29	0x3d38c59d	0.045110334
30	0xbcee4d4c	-0.029089592
31	0xbc3b8f81	-0.011447788
32	0xbc90be93	-0.017668998
33	0x3cdc5936	0.026898008
34	0xbd65e909	-0.056130443
35	0xbd1e678f	-0.03867298
36	0xbc07ade5	-0.008281206
37	0x3d216dca	0.039411344
38	0xbc7b4d11	-0.015338198
39	0x3d12b5c7	0.035817888
40	0x3d58529e	0.052813165
41	0x3a8b4204	0.0010624533
42	0xbd274d20	-0.040845037
43	0xba5862f1	-0.00082544895
44	0x3cb25f13	0.02177385
45	0xbc60860f	-0.013703837
46	0xbd705eb1	-0.058684055
47	0x3d0aef50	0.033919632
48	0xbcdbd7eb	-0.026836356
49	0xbd2d8625	-0.04236426
50	0x3cec985c	0.028881244
51	0x3c556bb6	0.013026169
52	0x3d2b2065	0.04177894
53	0xbc55d628	-0.013051547
54	0x3d1086f9	0.03528497
55	0xbc781807	-0.015142447
56	0xbd1a9238	-0.0377371
57	0x3d5a1579	0.053243134
58	0x3d68c460	0.056827903
59	0x3d274bb9	0.0408437
60	0xbc90324f	-0.017602114
61	0xbcdc0c57	-0.026861353
62	0x3c17cc0f	0.00926496
63	0x3ce991d7	0.028511925
64	0x3bd0a045	0.006366762
65	0x3cc1d03d	0.023658866
66	0xbb820ae0	-0.0039685816
67	0x3d042d77	0.03226992
68	0x3cdb9093	0.026802337
69	0x3d04bf7b	0.032409173
70	0xbbb651a6	-0.0055639325
71	0xbd4b5c0b	-0.049648326
72	0xbd1c1a47	-0.038110998
73	0xbcfa588b	-0.030559799
74	0x3d47694b	0.0486844
75	0xbb87367b	-0.0041263676
76	0xbc147662	-0.009061428
77	0xbcc5b6cf	-0.024135021
78	0xbb6df297	-0.0036307925
79	0x3d1df745	0.038565893
80	0xba9518d2	-0.0011375195
81	0x3cd6af80	0.026206732
82	0x3d058067	0.032593157
83	0xbd6fc922	-0.058541425
84	0x3c9f5ed5	0.0194544
85	0x3d6c7387	0.057727363
86	0xbcfe0793	-0.031009471
87	0x3c09ee99	0.0084187025
88	0x3934cd99	0.00017242729
89	0x3cf5b52f	0.029993622
90	0x3c55bd8a	0.013045678
91	0xbd3a0cbd	-0.045422304
92	0xbd39014e	-0.04516726
93	0x3d495b15	0.04915913
94	0xbcd980db	-0.0265507
95	0xbd58db48	-0.052943498
96	0xbd5d5771	-0.05403847
97	0xbd56b440	-0.052417994
98	0x3c498d14	0.012301702
99	0x3bb96b30	0.0056585297
100	0xbd10d497	-0.03535899
101	0xbc6cf44e	-0.014462544
102	0x3c03fb3e	0.008055506
103	0x3ca66599	0.020312117
104	0x3cbba39e	0.022905167
105	0xbd06aa46	-0.03287723
106	0x3d5eb764	0.054374114
107	0x3d5cc17a	0.05389545
108	0xbd3021e6	-0.043001078
109	0x3d5aff4b	0.053466123
110	0xbd4a71c1	-0.04942489
111	0xbd2408c2	-0.040047415
112	0x3c2bbff5	0.010482778
113	0x3c8425bd	0.016131276
114	0x3d51e374	0.051242307
115	0xba5f9b7a	-0.0008529943
116	0x3d1e4d4b	0.03864793
117	0xbcaa593b	-0.020794502
118	0xbd3497bb	-0.044090014
119	0xbbe17f2f	-0.0068816165
120	0x3cf12599	0.029436873
121	0xbcc603d9	-0.024171757
122	0xbd51047e	-0.051029675
123	0xbd17c009	-0.037048373
124	0x3c182b3a	0.00928765
125	0x3d616ed3	0.05503733
126	0x3b0a12ab	0.0021068256
127	0xbd474881	-0.04865313
128	0xbce18b74	-0.027532317
129	0x3ceb87ee	0.02875134
130	0xbca15a0b	-0.019696256
131	0xbc1532fa	-0.009106392
132	0x3d2ed276	0.04268118
133	0x3ca7fd57	0.020506544
134	0x3d0f0957	0.034921017
135	0x3d53f48e	0.051746897
136	0xbca84fe6	-0.020545911
137	0x3bf237ed	0.007391921
138	0xbd39d220	-0.045366406
139	0x3d6b3236	0.05742093
140	0xbd267e2e	-0.040647678
141	0x3d60b00e	0.0548554
142	0x3d584564	0.05280055
143	0x3c3f2f66	0.0116690155
144	0xbd5565fb	-0.05209921
145	0xbb48172c	-0.003053139
146	0xbcd064b7	-0.02543865
147	0x3c8a8314	0.016908206
148	0x3d03c1d8	0.032167286
149	0x3d01b0ca	0.03166274
150	0x3c919485	0.017771015
151	0xbd3da750	-0.04630214
152	0xbd4fb97e	-0.05071401
153	0x3c851644	0.016245969
154	0xbc66a5b8	-0.014077596
155	0x3cd82a56	0.026387375
156	0x3d65dbde	0.056117885
157	0x3c885af5	0.016644934
158	0xbd160d6b	-0.03663389
159	0xbc94d686	-0.018168699
160	0x3d10043d	0.035160292
161	0x3b91bbf5	0.004447455
162	0x3d1fdcfc	0.039029106
163	0xbd6c1026	-0.057632588
164	0xbc09d37b	-0.008412237
165	0xbcf4df1b	-0.029891541
166	0x3d32b113	0.043625902
167	0x3cc9b503	0.024622446
168	0xbc146262	-0.009056659
169	0xbd64aab8	-0.055826873
170	0xbc04b8e3	-0.008100721
171	0x3d3ef174	0.046616986
172	0xbb32ea9a	-0.0027300478
173	0xbb6b75e6	-0.0035928427
174	0xbd63eec4	-0.055647627
175	0x3d3a5e93	0.04550035
176	0x3d42fbcd	0.047603417
177	0xbd46a93b	-0.048501235
178	0xbd2feced	-0.04295056
179	0x3adf52d6	0.0017038237
180	0xbd0ed4c5	-0.03487088
181	0xbd4a33b6	-0.04936572
182	0x3c8e1084	0.01734186
183	0xbc8693ee	-0.01642796
184	0x3c9de97b	0.019276371
185	0x3cb66614	0.022265472
186	0x3d523152	0.051316567
187	0x3d0ab124	0.03386034
188	0xbd6798d4	-0.056542233
189	0xbd473c48	-0.048641473
190	0x3d3cbb7a	0.04607723
191	0xbd51cab5	-0.051218707
192	0x3d0eca7a	0.034861065
193	0xbd17cd09	-0.03706077
194	0x3d3cf850	0.046135247
195	0x3d03c5d9	0.032171104
196	0xbd2b4c6b	-0.041820925
197	0xbd4c3fbe	-0.049865477
198	0xbcdd1863	-0.026989168
199	0xbce620c7	-0.028091801
200	0xbd0db31b	-0.034594636
201	0x3d25584f	0.04036742
202	0x3c5a397e	0.013319371
203	0xbc0c0912	-0.008547084
204	0xbba8f664	-0.005156325
205	0x3cbf732d	0.02337035
206	0x3ba01d19	0.004886281
207	0xbc0a71f3	-0.008450019
208	0x3d519a98	0.051172823
209	0x3d21d70a	0.039511718
210	0x3b431761	0.0029768574
211	0x3d21de50	0.039518654
212	0xbc62e4b8	-0.013848476
213	0xbd3be84b	-0.04587583
214	0x3d05e9e3	0.032693755
215	0x3d012c41	0.031536344
216	0x3c09a98c	0.0084022395
217	0xbd52a303	-0.05142499
218	0x3d29813a	0.041383006
219	0x3b4701b3	0.0030366003
220	0xbd03d0d5	-0.03218158
221	0xbd59a5ba	-0.053136565
222	0xbd020f9a	-0.03175316
223	0x3d5bb954	0.05364354
224	0x3ce60342	0.028077725
225	0xbcde62e2	-0.02714676
226	0x3d4305f1	0.047613088
227	0x3d4a0775	0.049323518
228	0x3ce67793	0.02813319
229	0xbbd1cc0d	-0.0064024986
230	0x3d5d76f9	0.05406854
231	0xbc6d6082	-0.014488341
232	0xbcd2d994	-0.025738515
233	0x3cdd34f3	0.027002787
234	0xbcd2d8c4	-0.025738128
235	0x3d2b7333	0.04185791
236	0xbd051aba	-0.03249619
237	0x3ca84558	0.020540878
238	0xbd364414	-0.044498518
239	0xbd25865a	-0.04041133
240	0x3af04bab	0.0018333098
241	0x3d398f08	0.04530242
242	0xbd3daea3	-0.046309125
243	0xbc89d387	-0.016824497
244	0x3cd71ad0	0.026257902
245	0xbc3fab4b	-0.011698554
246	0xbd5d3a45	-0.05401065
247	0xbaefc2b2	-0.0018292277
248	0xbcb2f691	-0.021846088
249	0x3c52e14c	0.012871098
250	0x3cbd30d1	0.023094567
251	0xbc9a7733	-0.018855667
252	0xbd005fc3	-0.031341325
253	0x3d09fc6c	0.033687994
254	0xbd54a597	-0.05191573
255	0x3ce2213f	0.027603744

bias f4 [32]
0	0xbd67f51d	-0.056630243
1	0x3d41895e	0.047250144
2	0xbaa94782	-0.0012914988
3	0xbd06e2a8	-0.032931
4	0xbba58ce3	-0.0050521954
5	0x3d374b1f	0.044749375
6	0xbbddd13f	-0.006769329
7	0xbd211fce	-0.039336972
8	0x3d002598	0.031285852
9	0x3d01935c	0.031634673
10	0x3ccf1543	0.025278693
11	0x3aae430a	0.0013295126
12	0xbd270280	-0.04077387
13	0xbce6545b	-0.028116396
14	0x3d41c101	0.047303203
15	0x3d0596a6	0.032614373
16	0xbd224991	-0.03962094
17	0x3d532ab7	0.051554408
18	0xbca31f59	-0.019912409
19	0xbbcba393	-0.006214568
20	0x3c7a2c1e	0.015269307
21	0xbd5b6e2a	-0.053571858
22	0x3cdf6598	0.027270123
23	0xbc9957d1	-0.018718632
24	0xbd419121	-0.047257546
25	0x3c4b122c	0.012394469
26	0xbd19975b	-0.03749786
27	0x3cd89c17	0.026441617
28	0xbcffa628	-0.03120716
29	0xbd01fcaa	-0.0317351
30	0x3ca8dfa4	0.020614453
31	0x3c0e0952	0.008669214

weight f4 [32, 32, 3, 3]
0	0x3c88610a	0.016647834
1	0xbd496185	-0.049165267
2	0xbd3b15c0	-0.04567504
3	0x3c7654eb	0.015034894
4	0xbc2687da	-0.0101642255
5	0x3d18c30b	0.037295382
6	0xbd0ae3ca	-0.033908643
7	0xbbf263c3	-0.0073971464
8	0x3c450db5	0.012027194
9	0xbc808ed4	-0.015693106
10	0xbd0ad619	-0.033895586
11	0xbc8d209f	-0.017227469
12	0xbcbfb2b7	-0.023400648
13	0x3d55ae9e	0.05216848
14	0xbd644aba	-0.055735327
15	0xbd4a9a75	-0.049463708
16	0x3d52ba61	0.051447276
17	0xbd0c4b79	-0.034251664
18	0xbcd9e8cc	-0.026600264
19	0x3c83b1ba	0.016075958
20	0x3d3be9ad	0.045877147
21	0xbd0a0857	-0.03369936
22	0x3cf80fcf	0.030280976
23	0xbc4bed8f	-0.012446775
24	0xbcebc07f	-0.028778313
25	0x3b851f54	0.0040625725
26	0xbcb36dac	-0.021902882
27	0xbb8652d6	-0.0040992303
28	0xbd517eb3	-0.05114622
29	0xbb8ab7d3	-0.0042333393
30	0x3d6b1db9	0.057401393
31	0xbbdb1648	-0.0066860057
32	0xbca0e4b5	-0.019640306
33	0xbd6e4159	-0.05816779
34	0x3c095232	0.008381413
35	0x3d1d6af7	0.038432088
36	0xbbc5bbcf	-0.0060343514
37	0x3d2599fb	0.04043005
38	0xbd3dedaf	-0.04636925
39	0xbc744e35	-0.014911224
40	0x3d0fca75	0.035105187
41	0x3cac660c	0.021044753
42	0x3d2debfe	0.042461388
43	0xbd33f716	-0.04393681
44	0x3d3bb618	0.045827955
45	0x3d5bbf59	0.05364928
46	0xbd29d125	-0.04145922
47	0xbc63e861	-0.013910384
48	0x3d681914	0.05666454
49	0x3d35f905	0.044426937
50	0xbcbf3759	-0.023341822
51	0xbc1dba53	-0.009626943
52	0xbcb9b22f	-0.022667972
53	0x3d312a63	0.043253314
54	0xb83f1b7c	-4.5563545e-05
55	0x3d04b6c4	0.03240086
56	0xbd229e85	-0.039701957
57	0xbcf0e985	-0.029408226
58	0xbd2e5e00	-0.042570114
59	0x3d298165	0.041383166
60	0xbd10b52d	-0.035329033
61	0x3c9e7c18	0.019346282
62	0x3c43250a	0.011910686
63	0xbd319813	-0.04335792
64	0x3c2ea683	0.010659817
65	0x3d2cf806	0.04222872
66	0x3d3485be	0.04407286
67	0xbd600a8f	-0.05469757
68	0x3d54548e	0.05183845
69	0xbcfab1b3	-0.030602312
70	0x3cb64a7a	0.02225231
71	0xbd66827e	-0.05627679
72	0xbc36da43	-0.011160436
73	0x3d144a5e	0.036203735
74	0x3d52747c	0.05138062
75	0x3d683cc9	0.056698594
76	0xbd5ab355	-0.05339368
77	0xbd586b2e	-0.05283659
78	0x3c4f76db	0.012662615
79	0x3d4cefe7	0.050033476
80	0x3c72d405	0.014821057
81	0xbd24b302	-0.040209778
82	0x3d51d8c8	0.05123213
83	0x3d3b54db	0.04573522
84	0x3cabeccf	0.020986943
85	0xbd6582af	-0.056032833
86	0xbd356410	-0.04428488
87	0xbcab57b0	-0.020915836
88	0x3d1f6d3c	0.038922533
89	0x3d58c8d1	0.05292589
90	0xbcf682f9	-0.03009175
91	0xbd09605b	-0.033539157
92	0x3d03d760	0.03218782
93	0x3d0d5512	0.034504957
94	0x3cbbbb64	0.022916503
95	0x3ca26cd8	0.019827291
96	0x3d10704d	0.03526335
97	0x3ced8584	0.02899433
98	0x3ab2079b	0.0013582589
99	0xbd027df1	-0.03185839
100	0x3d20009c	0.03906308
101	0xbd0337d4	-0.032035664
102	0xb98cd877	-0.0002686416
103	0xbbfa8a48	-0.007645879
104	0xbcbbec45	-0.02293981
105	0xbc8e2a73	-0.017354226
106	0x3d2c9fb0	0.042144477
107	0xbabc55de	-0.0014368852
108	0xbd610cc9	-0.054943834
109	0xbc6be41e	-0.014397649
110	0xbb5871df	-0.0033026857
111	0xbb1e1c4f	-0.002412576
112	0xbcc5a604	-0.024127014
113	0xbd52851e	-0.05139648
114	0xbc613fa0	-0.01374808
115	0x3c6859d0	0.014181569
116	0x3ceacfd2	0.02866355
117	0x3a6fb3f7	0.00091439433
118	0x3d099a43	0.03359438
119	0x3d6c9022	0.057754643
120	0xbcb9c88d	-0.022678638
121	0x3d220a0d	0.039560366
122	0xbd586caa	-0.052838005
123	0xbd20aaaf	-0.039225277
124	0x3b52c30b	0.0032159712
125	0x3d331cce	0.043728642
126	0xbc4d5909	-0.012533435
127	0xbd4b70b4	-0.04966803
128	0x3cd7fe7f	0.02636647
129	0xbd0017fc	-0.031272873
130	0xbba47eec	-0.005020013
131	0xbafbc1d0	-0.0019207541
132	0xbd2faf2f	-0.042891677
133	0xbd5393c7	-0.051654603
134	0xbcebf1b1	-0.02880177
135	0xbb9741c8	-0.004615996
136	0xbd0782ad	-0.033083607
137	0x3d674cfa	0.056469895
138	0xbcd9122d	-0.026497925
139	0x3b0fe04b	0.0021953757
140	0xbd5e0536	-0.05420419
141	0xbca72063	-0.020401185
142	0x3d0daeae	0.034590416
143	0x3ce5281d	0.027973229
144	0xbccc7969	-0.024960237
145	0x3cb6c456	0.022310417
146	0x3ca8d38c	0.020608686
147	0x3c33f4e3	0.0109836785
148	0x3c69f179	0.014278763
149	0x3c92b348	0.017907754
150	0xbd306c7f	-0.04307222
151	0x3d1bfc9f	0.038082715
152	0xbd390293	-0.04516847
153	0x3c9a7260	0.018853366
154	0x3d269c94	0.04067667
155	0xbcdb7008	-0.02678682
156	0x3c99a5f0	0.018755883
157	0xbc8633f8	-0.016382203
158	0x3cc2fcd5	0.0238022
159	0xbd19b5e3	-0.037526976
160	0x3c1d57c9	0.009603449
161	0xbd4fc313	-0.050723147
162	0x3d30852d	0.043095756
163	0x3bed446f	0.007240824
164	0x3d50bd09	0.050961528
165	0x3ba2109e	0.0049458286
166	0xbb937b36	-0.004500772
167	0x3d2b460b	0.041814845
168	0x3ceceb34	0.028920747
169	0xbd13d1f7	-0.03608891
170	0xbd4ccad5	-0.049998123
171	0x3a9fbae2	0.0012186433
172	0x3c528534	0.012849141
173	0xbd60f7e7	-0.054923918
174	0x3d58b833	0.05291004
175	0x39b623e0	0.00034740474
176	0x3c933d64	0.01797361
177	0x3ce86a27	0.02837093
178	0xbcbd0d4f	-0.023077635
179	0xbd63e373	-0.055636834
180	0x3d59bedb	0.05316053
181	0xbc955a82	-0.018231634
182	0xbd11df20	-0.03561318
183	0x3d37c209	0.04486278
184	0x3bec78bb	0.0072165406
185	0xbcba66a0	-0.022754014
186	0xbd0ea325	-0.034823555
187	0xbcb30d97	-0.021857066
188	0x3c941c40	0.018079877
189	0xbcac6848	-0.021045819
190	0xbca6f6fb	-0.020381441
191	0x3d499fb5	0.049224574
192	0xbcf23b73	-0.029569363
193	0x3c856884	0.016285188
194	0xbc897a3b	-0.016781917
195	0x3d22dad0	0.039759457
196	0x3d461b4c	0.048365876
197	0xbbd16605	-0.0063903355
198	0x3d6f10b9	0.058365557
199	0x3a887a8e	0.0010412501
200	0xbd4e2e02	-0.050336845
201	0xbd3b51dc	-0.045732364
202	0x3d5919c7	0.0530031
203	0x3cd132bb	0.025536885
204	0xbc67f4b4	-0.014157463
205	0xbd04efb5	-0.032455165
206	0xbd5e8173	-0.05432267
207	0xbcf296fe	-0.029613014
208	0xbd329b0a	-0.043604888
209	0x3d6e5153	0.058183026
210	0x3d4c6abf	0.04990649
211	0x3d344376	0.04400965
212	0x3a8946ce	0.0010473372
213	0xbcb3020e	-0.021851566
214	0xbd01e96a	-0.03171674
215	0x3d7606b3	0.060064983
216	0xbcad6aa3	-0.021169012
217	0xbcdfe0ea	-0.027328927
218	0xbced9917	-0.029003663
219	0x3d35554a	0.04427079
220	0xbd1371c8	-0.035997182
221	0x3cf3852e	0.029726591
222	0xbd16f2f8	-0.036852807
223	0xbd6a7448	-0.0572398
224	0x3c90dbd8	0.017682955
225	0xbc67f970	-0.014158592
226	0xbd2caccb	-0.042156976
227	0xbd30d676	-0.043173276
228	0xbcb4e57d	-0.022082085
229	0xbd09a618	-0.033605665
230	0x3d3695dd	0.044576515
231	0x3d5ce308	0.05392745
232	0xbd3c7e24	-0.046018735
233	0xbcaac5f8	-0.020846352
234	0x3c9eb922	0.019375388
235	0x3d6fcd7e	0.058545582
236	0xbc68b15e	-0.014202444
237	0xbd34c1dc	-0.04413019
238	0xbb91bdaa	-0.0044476585
239	0xbd61500c	-0.05500798
240	0xbd1f4221	-0.038881425
241	0x3c72ad39	0.014811807
242	0xbcd991d4	-0.026558794
243	0x3b28f41b	0.0025780264
244	0xbc5673fd	-0.013089177
245	0xbccc94f1	-0.024973365
246	0x3ba202ee	0.004944197
247	0xbd3e692d	-0.046487022
248	0xbc9bd33a	-0.01902162
249	0x3c5fb215	0.013653298
250	0x3cfd64c6	0.030931842
251	0x3c7452b9	0.014912301
252	0xbd1c9978	-0.038232297
253	0x3cfe9645	0.031077513
254	0xbcc83556	-0.024439495
255	0xbcbfef97	-0.023429675

bias f4 [32]
0	0x3d66566e	0.05623477
1	0x3d2d0587	0.0422416
2	0xbd6ed41d	-0.058307756
3	0x3d24f683	0.040274154
4	0xbccb623f	-0.02482712
5	0xbd6a0962	-0.057137854
6	0xbd147a7e	-0.03624963
7	0x3c9ef289	0.01940276
8	0x3d44af4e	0.048018746
9	0x3d2a4ae1	0.041575316
10	0xbcfb3eca	-0.030669589
11	0x3c983301	0.018579008
12	0xbd5d32f7	-0.054003682
13	0xbd581e23	-0.052763116
14	0x3d391e8c	0.045195147
15	0xbcfd46d8	-0.03091757
16	0xbcd62b76	-0.02614377
17	0x3d551a3b	0.05202697
18	0xbbf566d9	-0.007489067
19	0x3cd580ac	0.026062332
20	0xbc8947b4	-0.016757824
21	0x3ce4b897	0.02792005
22	0x3cb2624e	0.021775391
23	0x3c61bbd6	0.013777694
24	0xbd4e02d7	-0.050295677
25	0x3cc110c4	0.023567565
26	0x3c9840d2	0.018585596
27	0x3d0fcd2d	0.03510778
28	0x3d493fa5	0.04913296
29	0x3c6b9100	0.014377832
30	0x3d18aed8	0.03727612
31	0xbd2ef54c	-0.042714402

weight f4 [10, 32, 3, 3]
0	0x3ba16195	0.0049249628
1	0x3d323209	0.04350475
2	0xbd574227	-0.052553322
3	0xbd2f9ec5	-0.042876024
4	0x3d608cc6	0.054821752
5	0xbd529aeb	-0.051417273
6	0xbd63ef89	-0.05564836
7	0xbd53cf5e	-0.051711433
8	0x3c91ba5f	0.017789064
9	0x3bb75fe6	0.005596149
10	0xbd1b3c7a	-0.03789947
11	0xbc457794	-0.012052435
12	0xbd515fec	-0.05111687
13	0x3d09edae	0.033673935
14	0xbd17eae6	-0.03708925
15	0xbcda01bb	-0.026612153
16	0x3bbf4510	0.0058370903
17	0xbce001dd	-0.027344638
18	0xbca02ba7	-0.019552065
19	0xbd45f7d4	-0.04833205
20	0x3d0b7b4c	0.034053132
21	0xba5c101c	-0.00083947345
22	0x3d602f94	0.054732874
23	0xbcbea123	-0.023270195
24	0x3bc3663f	0.0059631164
25	0xbd6a5b87	-0.057216194
26	0xbd4b2028	-0.049591213
27	0xbbcdc686	-0.0062797694
28	0x3c592dff	0.013255595
29	0xbd085aa8	-0.03328958
30	0xbc9bc99b	-0.019017031
31	0x3d3d6ae0	0.046244502
32	0xbd1ac916	-0.037789427
33	0x3d00b7b2	0.031425186
34	0xbc2974d1	-0.010342793
35	0x3d43166a	0.047628798
36	0x3c1afb00	0.009459257
37	0xbd1e1572	-0.03859467
38	0x3ce545e0	0.02798742
39	0x3c793acf	0.015211775
40	0x3cde3291	0.027123721
41	0xbc91674d	-0.017749453
42	0xbceaba69	-0.02865334
43	0xbd4a0db0	-0.04932946
44	0xbd3f0f33	-0.046645354
45	0xbc44418b	-0.011978517
46	0x3c1f02b3	0.009705233
47	0xbd1b7525	-0.037953515
48	0x3cd3ab4e	0.02583852
49	0x3ca2aeb4	0.019858696
50	0xbd633ffb	-0.05548094
51	0xbd17c34f	-0.037051495
52	0xbd53f4df	-0.0517472
53	0x3cd0f97c	0.025509588
54	0x3ca7b8c0	0.020473838
55	0x3d16c278	0.036806554
56	0x3bb27737	0.0054463404
57	0x3caa510a	0.020790596
58	0xbd644624	-0.055730954
59	0x3bc6a485	0.0060620927
60	0xbd04556b	-0.032308023
61	0x3d28df56	0.041228615
62	0x3d21d296	0.03950747
63	0xbaa4938a	-0.0012556177
64	0xbd3270e2	-0.043564685
65	0x3d5b54f9	0.053547833
66	0x3d1a59d2	0.037683316
67	0xbd075088	-0.033035785
68	0xbd6b2ce4	-0.057415858
69	0x3d235bcd	0.03988247
70	0xbd49311b	-0.049119096
71	0xbd5cba12	-0.053888388
72	0x3d149630	0.036276042
73	0xba9ee156	-0.0012121599
74	0x3d11d8dd	0.035607208
75	0x3d1f0930	0.03882712
76	0xba3df57a	-0.00072463567
77	0xbd5ce7b8	-0.05393192
78	0x3b916363	0.0044368966
79	0xbb38a281	-0.0028173032
80	0xbc36e9fa	-0.011164183
81	0x3d510f6c	0.051040098
82	0x3bc7ed74	0.0061013047
83	0x3d5b9887	0.05361226
84	0xbd54aa37	-0.051920142
85	0x3d4f3535	0.05058785
86	0xbc855e8e	-0.016280439
87	0xbc267d03	-0.010161641
88	0x3c69675e	0.014245836
89	0x3c84826b	0.01617547
90	0xbd5b9d4c	-0.053616807
91	0xbcbfae0a	-0.023398418
92	0xbd04d933	-0.0324337
93	0x3d05c5b0	0.032659233
94	0xbbc4d029	-0.00600626
95	0x3cadb8bb	0.02120625
96	0x3c81e268	0.01585503
97	0xbc4c5929	-0.012472429
98	0x3cb3128a	0.021859426
99	0x3ca9fee1	0.020751419
100	0xbca0feef	-0.019652812
101	0x3d70b6f4	0.058768228
102	0x3d5c517b	0.053788643
103	0xbc1cc918	-0.009569429
104	0x3d6ffafa	0.05858896
105	0x3b9a4bf2	0.0047087604
106	0xbd4e8d1f	-0.050427552
107	0x3d5fcff3	0.054641675
108	0xbbf3b716	-0.007437597
109	0x3c148b76	0.009066453
110	0xbd2617ef	-0.04055017
111	0x3b60633b	0.0034238833
112	0x3c6459a0	0.013937384
113	0x3d5159ab	0.051110905
114	0x3c3a8217	0.011383555
115	0xbd02fbde	-0.03197848
116	0xbccca041	-0.024978759
117	0xbcb348ae	-0.021885242
118	0xbcaa4ba3	-0.02078802
119	0xbd3fd112	-0.046830244
120	0xbc59a08f	-0.013282909
121	0xbcbc61fe	-0.022995945
122	0xbc8d2fdc	-0.017234735
123	0x3c5af10a	0.013363132
124	0x3c95929a	0.018258382
125	0xbd466739	-0.048438285
126	0x3d6fce05	0.058546085
127	0xbd1cb9ff	-0.038263317
128	0xbd01f7f4	-0.031730607
129	0xbd0ad6d5	-0.033896286
130	0x3ce70b25	0.028203556
131	0x3c5b5b7a	0.013388509
132	0x3ccfcaf8	0.025365338
133	0x3ceb71ba	0.028740752
134	0xbd5607d8	-0.052253574
135	0xbd68950b	-0.056782763
136	0x3c6e334e	0.014538599
137	0xbd5a9c1a	-0.053371526
138	0xbcf1a4c1	-0.029497506
139	0xbba866c8	-0.0051392056
140	0x3d18438f	0.037173804
141	0xbb524f1f	-0.0032090617
142	0x3d5acfdf	0.053420898
143	0xbd304ea2	-0.04304374
144	0xbbbb944e	-0.0057244664
145	0x3c749d5c	0.0149300955
146	0xbd2f6274	-0.0428185
147	0x3d3abc46	0.045589708
148	0x3d0d0bad	0.034434963
149	0xbd62df3b	-0.05538867
150	0x3d4468de	0.04795157
151	0xbcaa0ea0	-0.020758927
152	0x3b332c2a	0.0027339556
153	0x3d0df8c6	0.034661077
154	0xbd637fa1	-0.05554164
155	0x3ba4bbd3	0.005027273
156	0xbd506ced	-0.05088513
157	0xbb4a3777	-0.0030855814
158	0x3cfc5a1e	0.03080469
159	0x3ca0cc4f	0.019628672
160	0x3cc31fae	0.023818817
161	0x3cba2077	0.022720559
162	0x3d5367f0	0.051612794
163	0x3bbfa524	0.0058485437
164	0x3a7fdd3c	0.00097604445
165	0x3d38ab2a	0.04508511
166	0xbcae9668	-0.021311954
167	0xbd091f49	-0.0334771
168	0x3c431028	0.011905707
169	0x3cfe2b1b	0.031026414
170	0x3c9608f3	0.018314814
171	0xbd4a9618	-0.049459547
172	0xbd5bb009	-0.053634677
173	0x3cb7004e	0.022339012
174	0x3c83b2e8	0.01607652
175	0xbd56b3c1	-0.05241752
176	0x3d2a115e	0.04152047
177	0xbcfc1b54	-0.03077475
178	0x3cb7353e	0.022364255
179	0x3d19fae7	0.037592795
180	0xbd526e5d	-0.051374782
181	0x3d35462c	0.044256374
182	0xbc09b7a4	-0.0084056
183	0x3ca5e920	0.020252764
184	0x3ba4f834	0.005034471
185	0xbd1042cf	-0.035219964
186	0x3c9756b4	0.01847396
187	0x3d6a2adb	0.057169776
188	0xbd4aa00a	-0.04946903
189	0xbd478f49	-0.04872063
190	0xbc6d1147	-0.014469451
191	0x3d01faf7	0.03173348
192	0xbc031b2e	-0.008002086
193	0xbd681760	-0.056662917
194	0x3c13ffa8	0.009033121
195	0xbd32b533	-0.043629836
196	0xbce47d0a	-0.027891655
197	0x3c579de3	0.013160202
198	0x3d5df9c0	0.05419326
199	0x3bdc4f53	0.0067233234
200	0x3d03499d	0.032052625
201	0x3d1a204d	0.03762846
202	0xbcc600ef	-0.024170367
203	0xbd0d1374	-0.03444238
204	0x3c06a56d	0.0082181515
205	0x3d242790	0.040076792
206	0xbd10981c	-0.035301313
207	0xbc1b6c19	-0.009486222
208	0xbd5458cf	-0.051842507
209	0x3c98d83a	0.018657792
210	0xbd157d02	-0.03649617
211	0xbbfd6737	-0.0077332514
212	0x3d1ed408	0.038776428
213	0xbcc0a28a	-0.023515005
214	0x3cb83c83	0.022489792
215	0x3c270e47	0.010196275
216	0x3d347c7f	0.04406404
217	0x3c1b02aa	0.009461084
218	0xbd45f265	-0.04832687
219	0xbc9d65eb	-0.019213637
220	0xbafdec3a	-0.0019372769
221	0x3d594459	0.053043697
222	0x3d4e4de8	0.050367266
223	0xbc8bf7ff	-0.017086027
224	0x3c6606fe	0.014039753
225	0xbd64ff28	-0.0559074
226	0x3d50a3c9	0.050937448
227	0xbd20a59f	-0.03922045
228	0x3d4248ea	0.047432818
229	0x3d0e11ad	0.034684826
230	0xbd271222	-0.040788777
231	0xbc003e2a	-0.007827321
232	0x3cce2b34	0.025167085
233	0x3d3a23ce	0.045444302
234	0xbd2a3f4c	-0.04156427
235	0xbd1b020e	-0.037843756
236	0xbd67629a	-0.05649052
237	0xbc8eeedb	-0.01744788
238	0xbd2d9493	-0.04237802
239	0x3d1c670a	0.038184203
240	0x3c85ad43	0.01631797
241	0x3cf83fed	0.03030392
242	0x3d48adad	0.048993755
243	0xbd3d5f13	-0.046233248
244	0x3cb0c825	0.021579811
245	0x3cd077be	0.025447723
246	0x3c3c47c1	0.011491717
247	0xbc4b8f39	-0.012424284
248	0x3d307628	0.043081433
249	0x3d134eab	0.035963695
250	0xbd3d3a20	-0.04619801
251	0x3d63f672	0.05565495
252	0x3cc443e2	0.02395815
253	0xbb26f984	-0.0025478313
254	0x3c8cd8d2	0.017193232
255	0xbc2e6d5a	-0.010646189

bias f4 [10]
0	0x3b07ac19	0.0020701943
1	0x3cb96ef7	0.02263592
2	0x3d727be3	0.05920018
3	0x3d46943c	0.04848121
4	0xbb9acb3d	-0.004723935
5	0x3c26771d	0.010160235
6	0xbc53b5d2	-0.012921767
7	0x3c6c7289	0.014431604
8	0xbd75f11c	-0.060044393
9	0x3d48ff2a	0.04907147

weight f4 [10, 32, 3, 3]
0	0xbacb0ec8	-0.0015492076
1	0x3d56df9e	0.05245935
2	0xbd5e0ce0	-0.054211497
3	0xbd3f61eb	-0.04672424
4	0x3cde0eaf	0.027106611
5	0xbc5f5739	-0.013631635
6	0x3d6c027e	0.057619564
7	0x3d1cc8b1	0.03827733
8	0xbd463ee0	-0.048399806
9	0x3d431744	0.04762961
10	0x3caa841c	0.020814948
11	0x3cb583a8	0.022157505
12	0xbcef32d0	-0.029199034
13	0xbd20c792	-0.039252825
14	0xbd56ad60	-0.052411437
15	0xbd0bc640	-0.034124613
16	0xbca7ac2a	-0.020467836
17	0x3cdf7cc4	0.027281173
18	0xbd06796b	-0.032830637
19	0xbc62d4a5	-0.013844644
20	0xbc3607f1	-0.011110292
21	0xbd61be09	-0.055112872
22	0x3cfe0722	0.03100926
23	0x3b8b0c26	0.0042433916
24	0xbd21d9a2	-0.03951419
25	0xbd57db5e	-0.05269944
26	0xbca7df48	-0.020492211
27	0x3d3034ee	0.043019228
28	0x3d3599a2	0.04433597
29	0xbd4867ba	-0.048927046
30	0x3c98c644	0.018649228
31	0xbc4f6575	-0.012658467
32	0xbcfd13d4	-0.030893244
33	0x3c6a42a0	0.014298111
34	0xbd4aa129	-0.0494701
35	0xbd0cc616	-0.034368597
36	0x3d03836c	0.032107756
37	0x3cb19b8d	0.021680618
38	0x3d4b0697	0.04956683
39	0x3d1d8650	0.03845817
40	0x3be029f7	0.00684094
41	0xbcfd7549	-0.030939715
42	0x3d6f6584	0.058446422
43	0xbcc7c882	-0.024387602
44	0xbc953766	-0.018214893
45	0xbd662450	-0.056186974
46	0x3d1b677a	0.03794048
47	0xbd07dc89	-0.033169303
48	0x3d26574f	0.040610608
49	0x3d42d5e9	0.047567282
50	0x3c483bc2	0.012221279
51	0x3d21f61c	0.03954135
52	0xbb5bc436	-0.00335337
53	0x3d7310c0	0.059342146
54	0xbb1e9512	-0.002419774
55	0x3d641912	0.05568797
56	0x3d271775	0.040793855
57	0xbba5e261	-0.005062387
58	0xbc83fb1e	-0.016110953
59	0x3d32d09f	0.043655988
60	0x3d340302	0.04394818
61	0xba5dbff0	-0.0008459082
62	0x3bed6cd0	0.0072456375
63	0xbd2c2dba	-0.042035796
64	0x3d3251ae	0.043534927
65	0xbcf534f9	-0.029932486
66	0xbcc37206	-0.023858082
67	0xbd27816c	-0.04089491
68	0x3c0a424f	0.008438661
69	0x3d266798	0.04062614
70	0xbd1e55b0	-0.038655937
71	0x3ac33b1b	0.0014894934
72	0x3d2f0a74	0.04273458
73	0xbd544dad	-0.05183189
74	0xbca849a0	-0.02054292
75	0xbd169153	-0.036759686
76	0xbd3005a9	-0.042974148
77	0xbc697e48	-0.014251299
78	0xbd2f5daf	-0.042813953
79	0xbce03622	-0.027369563
80	0x3d17855b	0.036992412
81	0x3d197dc4	0.037473455
82	0x3d309738	0.043112963
83	0xbb821cbb	-0.00397071
84	0x3d5d62b2	0.0540492
85	0xbd3cafb2	-0.046065994
86	0xbcd93e12	-0.026518855
87	0xbd31a667	-0.043371584
88	0xbd090dd8	-0.033460468
89	0xbd398885	-0.04529621
90	0x3cf55418	0.029947326
91	0x3c69f764	0.014280174
92	0x3d31d952	0.043420143
93	0xbd354a3c	-0.04426025
94	0x3c12d4b9	0.00896185
95	0xbcd7b104	-0.026329525
96	0xbcbf2814	-0.02333454
97	0x3d0c5445	0.034260053
98	0xbc4944af	-0.012284442
99	0x3b95f7a1	0.004576639
100	0x3d33bfab	0.04388396
101	0x3caa1603	0.02076245
102	0xbd0e391a	-0.034722425
103	0xbd593742	-0.053031214
104	0xbc83502d	-0.016029442
105	0xbc09ccf2	-0.008410679
106	0x3ca5fdc6	0.02026261
107	0xbd389663	-0.045065295
108	0x3d3679e4	0.044549838
109	0x3d3a884d	0.045540143
110	0xbcb6323a	-0.022240747
111	0x3d0b6f6a	0.0340418
112	0xbd45fa7f	-0.048334595
113	0x3cd216fb	0.025645724
114	0x3d643f6c	0.055724546
115	0xbd38abc4	-0.045085683
116	0x3c4d42b4	0.01252811
117	0x3d101a84	0.035181537
118	0x3d5a5b5c	0.053309783
119	0xbd2d912b	-0.04237477
120	0xbd27e2f5	-0.040987927
121	0x3cbd2c36	0.02309237
122	0x3d422746	0.047400735
123	0x3d116196	0.035493456
124	0xbc4fdc84	-0.012686852
125	0x3d44bf01	0.048033718
126	0x3d09ff7f	0.033690926
127	0x3cf27a78	0.029599413
128	0x3b8e92ef	0.004351012
129	0xba950b29	-0.0011371124
130	0x3c72c5d0	0.01481767
131	0x3c395299	0.011311197
132	0x3d5a5446	0.053303026
133	0x3cf1d521	0.029520573
134	0xbd6b629c	-0.057467088
135	0x3d470480	0.048588276
136	0x3cfb789c	0.03069716
137	0x3d324145	0.043519277
138	0xbcc3acf6	-0.023886185
139	0x3cee7321	0.029107632
140	0xbc8dedb7	-0.017325265
141	0x3baa52b1	0.005197846
142	0xbbec30d7	-0.0072079706
143	0x3d6c776e	0.057731085
144	0x3be8f065	0.0071087354
145	0x3d3d356b	0.04619352
146	0xbc9d87c3	-0.019229775
147	0xbce83a04	-0.028347977
148	0xbd4da841	-0.050209288
149	0x3d0fc271	0.035097543
150	0xbd66f942	-0.056390055
151	0xbc8a5447	-0.01688589
152	0xbbfbef8f	-0.0076884697
153	0x3d65ea3a	0.05613158
154	0x3d2451cb	0.040117066
155	0xbb73102c	-0.0037088497
156	0x3d022a1d	0.031778444
157	0xbd0cccd9	-0.034375045
158	0xbd668549	-0.056279454
159	0xbd3e541a	-0.046466924
160	0x3cf05485	0.029337177
161	0x3c7fce24	0.015613113
162	0xbc9e29a9	-0.019306974
163	0x3d1ce490	0.03830391
164	0x3c68a69d	0.01419988
165	0x3c265ad3	0.01015349
166	0x3cb0ca40	0.021580815
167	0x3d589c93	0.052883696
168	0x3b1a1f57	0.0023517215
169	0x3a6edd9d	0.00091120024
170	0x3cca9625	0.024729798
171	0xbc5c92d9	-0.013462746
172	0xbccf786f	-0.025325982
173	0x3d320e75	0.04347082
174	0x3bd1f5cb	0.0064074746
175	0x3bfff9f2	0.007811778
176	0xbd26a613	-0.040685724
177	0x3ce5bd2f	0.028044311
178	0x3d079ad0	0.033106625
179	0xbd480622	-0.048833974
180	0x3c30ca67	0.010790444
181	0x3c63a6a1	0.013894708
182	0x3b8e575c	0.00434391
183	0xbd4d4d36	-0.050122462
184	0x3d5403ca	0.051761426
185	0xbd4b3a0c	-0.049615905
186	0xbd1cec74	-0.038311437
187	0xbd07b78e	-0.033134036
188	0x3d21e716	0.03952702
189	0xbd1bb498	-0.038014024
190	0x3caab848	0.020839825
191	0xbc12dbbe	-0.008963523
192	0xbc2af74e	-0.010434939
193	0x3d157ffa	0.036499
194	0xbc3671ee	-0.011135561
195	0x3cf3ed69	0.029776292
196	0x3d0240e6	0.031800173
197	0x3cf3e14e	0.02977052
198	0x3cb738e9	0.022366004
199	0xbd1c9020	-0.038223386
200	0x3d3a5fc5	0.04550149
201	0xbd3639a7	-0.044488575
202	0x3d67bffd	0.05657958
203	0x3c59b563	0.013287875
204	0xbd127d87	-0.035764243
205	0xbd0c3543	-0.03423048
206	0xba31ca3c	-0.00067821494
207	0x3c90bb59	0.01766746
208	0xbd1585f0	-0.036504686
209	0xbc9ca343	-0.019120818
210	0xbd00103c	-0.031265482
211	0x3c911ce4	0.017713971
212	0xbd65a432	-0.056064792
213	0x3c83fff9	0.016113268
214	0xbd0aa856	-0.033851944
215	0x3cba8726	0.022769522
216	0xbc16bd65	-0.009200429
217	0xbd67fa1e	-0.056635015
218	0x3d10fe48	0.03539875
219	0x3d6ee0c4	0.058319822
220	0xbd56edd8	-0.05247292
221	0x3cfd6e3a	0.03093635
222	0x3cb21dcb	0.021742722
223	0x3d3885c0	0.04504943
224	0xbd33ec16	-0.04392632
225	0xbd4e897a	-0.050424077
226	0xbcf57b56	-0.029966038
227	0xbd29d78a	-0.04146532
228	0xbcff8f9f	-0.031196414
229	0x3b5857db	0.003301135
230	0xbc7accaf	-0.015307589
231	0x3d5b5c02	0.053554542
232	0xbd0871d2	-0.033311673
233	0x3d0cd32a	0.03438107
234	0xbd5f0acc	-0.054453656
235	0xbcb0936e	-0.021554675
236	0x3c3303c6	0.010926193
237	0x3c852678	0.016253695
238	0xbc944f88	-0.01810433
239	0xbc99a26e	-0.01875421
240	0x3ac7cc6b	0.0015243416
241	0x3d6532e9	0.055956755
242	0x3ca5fd3d	0.020262355
243	0xbc9627ee	-0.018329587
244	0xbd0a3a9b	-0.033747297
245	0x3c4f0037	0.012634329
246	0x3d59acb0	0.053143203
247	0x3adb2a53	0.0016720988
248	0x3c910a44	0.01770509
249	0xbd6e8191	-0.058229033
250	0x3c412635	0.011788894
251	0x3d6963f2	0.05698008
252	0xbc9e2557	-0.019304914
253	0xbc2824fd	-0.010262725
254	0xbd3dc4d0	-0.046330273
255	0x3c321d58	0.010871254

bias f4 [32]
0	0xba4ab936	-0.0007733287
1	0xbd120f37	-0.03565904
2	0x3c86fe06	0.01647855
3	0x3d2fa4f4	0.04288192
4	0x3d4dda17	0.050256815
5	0xbd09c4bc	-0.033634886
6	0x3cdd23a8	0.026994541
7	0xbd592e98	-0.05302295
8	0xbca03a58	-0.01955907
9	0x3cb9b056	0.022667091
10	0x3d37e811	0.04489905
11	0xbbdc473a	-0.006722358
12	0xbd2a714a	-0.041611947
13	0x3ce746cc	0.028232
14	0x3d0b6f1d	0.034041513
15	0x3c8a9e90	0.016921312
16	0xbd488a9a	-0.048960306
17	0xbc52bb25	-0.012862002
18	0xbd146a84	-0.036234394
19	0x3c911314	0.017709292
20	0x3afde0df	0.0019369385
21	0xbc3a969f	-0.01138845
22	0xbd15a3e2	-0.036533244
23	0x3c3272e6	0.010891652
24	0xbcc43b20	-0.023953974
25	0x3c992784	0.0186956
26	0xbd614585	-0.05499794
27	0xbc989417	-0.018625302
28	0x3d482dee	0.048871927
29	0x3d54b862	0.051933654
30	0x3cf80f44	0.030280717
31	0xbc95520d	-0.018227601

weight f4 [32, 32, 3, 3]
0	0x3d1d29b0	0.038369834
1	0x3bbaf361	0.0057052826
2	0x3d10dab8	0.035364836
3	0x3d07abe5	0.033122916
4	0x3c5305aa	0.012879768
5	0x3d466bd4	0.048442677
6	0xbd164256	-0.036684357
7	0x3d22e2cf	0.039767083
8	0x3b4ec85b	0.0031552527
9	0x3c3a9e41	0.01139027
10	0x3c7e46d1	0.015519814
11	0xbcb7d64f	-0.022441057
12	0x3c6d49c3	0.014482918
13	0x3ccd88cd	0.025089646
14	0xbc8e084d	-0.017337942
15	0xbd02a56f	-0.03189605
16	0x3d1eca37	0.038767066
17	0x3d2449b8	0.040109366
18	0xbbb50b74	-0.005525047
19	0xbc499df5	-0.012305726
20	0x3d33a399	0.04385719
21	0xbcfe04d6	-0.031008165
22	0x3c2836d7	0.010266981
23	0xbcf0852f	-0.029360382
24	0xbd385549	-0.04500321
25	0x3d6833ab	0.0566899
26	0xbb7b435c	-0.003833971
27	0xbd56dc02	-0.05245591
28	0x3b8a6739	0.004223731
29	0x3d7547d3	0.05988295
30	0xbd248bee	-0.04017251
31	0xbd13c8d2	-0.03608019
32	0x3d34ce48	0.044142038
33	0xbc857889	-0.016292827
34	0xbd322ca6	-0.04349961
35	0xbcbb721a	-0.022881556
36	0xba531eaf	-0.00080535834
37	0x3c575dab	0.013144891
38	0xbd0c4171	-0.034242097
39	0x3d1e6ce5	0.03867807
40	0xbd3300ee	-0.04370206
41	0x3d395968	0.04525128
42	0x3d104eea	0.03523151
43	0xbd210771	-0.039313737
44	0xbd3d3326	-0.046191357
45	0xbd031824	-0.032005444
46	0x3d1563b1	0.036472026
47	0x3cfd9611	0.030955346
48	0x3d04417d	0.032289017
49	0xbd2e09e0	-0.042489886
50	0xbc045d98	-0.008078955
51	0x3d669c74	0.05630155
52	0x3bc35da9	0.005962093
53	0x3b9911b1	0.0046712984
54	0xbd157338	-0.036486834
55	0xbd027431	-0.03184909
56	0xb9def117	-0.00042522766
57	0xbc989e60	-0.018630207
58	0x3c7cc984	0.015428904
59	0x3c389b1f	0.0112674525
60	0x3ccc39ec	0.024929963
61	0xbb5d11f3	-0.0033732622
62	0x3d708031	0.058716003
63	0x3a181f76	0.0005803028
64	0x3d5980c6	0.053101324
65	0x3d32a727	0.04361644
66	0x3d3d5a8d	0.046228934
67	0xbb379712	-0.002801363
68	0xbca44632	-0.020053003
69	0xbd4695ee	-0.048482828
70	0xbc3f7204	-0.011684898
71	0xbc745720	-0.01491335
72	0x3c86c233	0.016450023
73	0x3d19544c	0.037433907
74	0x3c15e52f	0.00914888
75	0xbbb2ed00	-0.0054603815
76	0x3cb74a8f	0.02237442
77	0x3c97e3b3	0.018541193
78	0x3d31e611	0.0434323
79	0xbcbfd216	-0.023415606
80	0xbae99452	-0.0017820692
81	0x3cebbb4c	0.028775834
82	0xbd5e7776	-0.054313146
83	0xbd7155e2	-0.058919795
84	0xbb95ff82	-0.004577578
85	0x3d1194e3	0.03554238
86	0x3cdee48a	0.027208585
87	0xbd619682	-0.055075176
88	0x3d713d97	0.058896627
89	0xbd52853a	-0.051396586
90	0xbc9f265a	-0.019427467
91	0x3cfc592b	0.030804237
92	0xbd136aed	-0.035990644
93	0x3d57676f	0.052588876
94	0x3ca6df75	0.020370224
95	0x39cc5ecd	0.00038980544
96	0xbca0f440	-0.019647717
97	0x3d5e7c3e	0.054317705
98	0xbd5eac3e	-0.05436348
99	0x3d6b458a	0.057439364
100	0x3b8bd7cc	0.0042676684
101	0xbcd7a8b7	-0.026325567
102	0xbd597ff2	-0.053100534
103	0xbd07cbcd	-0.033153344
104	0xbbf4978d	-0.0074643553
105	0xbcd4f886	-0.025997411
106	0xbc7cb247	-0.015423364
107	0xbd6cd4c2	-0.05782009
108	0xbc8a0698	-0.016848847
109	0x3d515eea	0.051115908
110	0x3c3d7390	0.011563197
111	0xbd551c8d	-0.05202918
112	0x3d5ffe94	0.054686144
113	0x3b968859	0.0045938906
114	0xbd3833ae	-0.04497116
115	0x3ced9261	0.029000463
116	0x3cf3e0ad	0.02977022
117	0x3d633a82	0.05547572
118	0xbccc5943	-0.024944907
119	0xbcfb2468	-0.030657008
120	0x3b56aac2	0.0032755588
121	0xbd27ded9	-0.04098401
122	0x3bd4fe7f	0.006500065
123	0xbd1c205c	-0.038116798
124	0x3ba14d48	0.0049225427
125	0x3ca79507	0.020456804
126	0x3b98cc5b	0.004663033
127	0xbd587ce1	-0.05285347
128	0xbd1bebb1	-0.03806657
129	0xbca72228	-0.02040203
130	0xbcfa85a3	-0.030581301
131	0xbc8d9c1f	-0.017286358
132	0xbd3106c4	-0.043219343
133	0xbc9e6eca	-0.019339938
134	0xbd22e984	-0.03977348
135	0x3cf5db7c	0.030011885
136	0x3d4f49b1	0.050607387
137	0xbd6acf08	-0.057326347
138	0xbd70d644	-0.05879809
139	0xbd29c28a	-0.041445293
140	0x3cae19ab	0.021252474
141	0xbab5ec85	-0.0013879692
142	0xbb90437d	-0.0044025765
143	0xbd132a4c	-0.03592901
144	0x3cd649fc	0.026158325
145	0x3ca369a4	0.019947834
146	0xbbe33268	-0.006933499
147	0x3d440703	0.04785825
148	0x3d6afefc	0.05737208
149	0xbcb967f9	-0.022632586
150	0x3cd6e30c	0.026231311
151	0x3d5b123e	0.053484194
152	0x3d403d15	0.046933252
153	0x3ceb62e9	0.028733687
154	0xbb95e20d	-0.0045740665
155	0xbd62a957	-0.055337276
156	0x3c8bc5b2	0.017062042
157	0xbc4038dc	-0.011732306
158	0xbd5846a8	-0.052801758
159	0x3d508f3a	0.05091784
160	0x3d646ea5	0.05576958
161	0x3bcad9af	0.0061905007
162	0x3cb5cbde	0.022191938
163	0x3d52c7b8	0.051459998
164	0xbd33fd45	-0.04394271
165	0xbd32263c	-0.043493494
166	0x3d351b54	0.044215515
167	0xbc80f8ff	-0.01574373
168	0xbc01c410	-0.00792028
169	0x3ca07211	0.019585641
170	0xbbcfef2f	-0.0063456516
171	0x3ce2ee26	0.027701449
172	0xbd342ace	-0.043986134
173	0xbd5c483d	-0.05377983
174	0xbd035a6b	-0.03206865
175	0x3c8b7180	0.017021894
176	0xbcb92921	-0.02260262
177	0xbd447fd7	-0.04797348
178	0xbcafd03c	-0.021461599
179	0xbcfd1962	-0.030895893
180	0xbcca9076	-0.024727087
181	0x3cf3257c	0.02968096
182	0x3c84ce37	0.016211612
183	0xbac215f7	-0.0014807571
184	0xbd7278f3	-0.059197377
185	0xbbcb2dad	-0.0062005133
186	0xbc8ff407	-0.017572416
187	0x3c4bc1e9	0.0124363685
188	0x3ccf0470	0.02527067
189	0x3d574df9	0.052564595
190	0x3d463430	0.048389614
191	0xbc12ba62	-0.00895557
192	0x3c04325f	0.00806865
193	0xbcfa532d	-0.03055724
194	0x3d545baf	0.05184525
195	0x3c743bd1	0.0149068395
196	0x3cea66f2	0.028613541
197	0x3cf4e582	0.029894594
198	0xbc999440	-0.018747449
199	0xbcb4b2ec	-0.022057973
200	0xbd08705f	-0.03331029
201	0xbd6c9edb	-0.057768684
202	0xbd134157	-0.035950985
203	0x3ba1ddd9	0.0049397764
204	0xbd1890ff	-0.037247654
205	0xbcede10a	-0.029037971
206	0x3d40a5d3	0.047033142
207	0xbc3bba06	-0.011457926
208	0xbb06efc2	-0.0020589684
209	0x3d4da70f	0.050208148
210	0xbca63cca	-0.020292658
211	0x3d2148b2	0.03937597
212	0xbd409baf	-0.04702347
213	0x3d5baaa8	0.053629547
214	0x3d34e405	0.04416277
215	0xbd6a2b0e	-0.057169966
216	0xbd133a6e	-0.035944395
217	0xbced1573	-0.028940892
218	0x3b0bd3d7	0.0021335983
219	0xbc3322b7	-0.01093357
220	0xbc993c3f	-0.018705485
221	0x3c7ec0d9	0.015548908
222	0x3d00a970	0.03141159
223	0x3c44fd69	0.012023308
224	0xbd69ccb5	-0.05707999
225	0xbc038382	-0.008026959
226	0x3b15fa40	0.0022884756
227	0x3ce34d59	0.027746843
228	0xbc8ac76a	-0.016940791
229	0xbc89f9fd	-0.016842837
230	0xbd1fc3c6	-0.039005063
231	0xbd5dfa10	-0.054193556
232	0x3d0117e1	0.031516913
233	0x3d1eaca1	0.03873885
234	0x3d637152	0.055527993
235	0xbcbf7376	-0.023370486
236	0xbcaad4c8	-0.020853415
237	0x3cee8513	0.02911619
238	0xbd28ae12	-0.04118163
239	0xbd741ca6	-0.059597634
240	0x3d18e136	0.037324153
241	0xbd3e7de9	-0.046506796
242	0xbcaad852	-0.020855103
243	0x3d038905	0.032113094
244	0x3b09ab57	0.0021006668
245	0xbd2c66ae	-0.04209011
246	0x3c1f0aa3	0.009707126
247	0x3b9bce7e	0.0047548404
248	0x3c30fd71	0.010802613
249	0xbba88c1f	-0.005143657
250	0xbcb49bfd	-0.022047037
251	0x3bbd4476	0.0057759834
252	0xbc5d535a	-0.013508642
253	0x3d1b0349	0.03784493
254	0xba46f6f4	-0.00075898995
255	0xbd2d6a80	-0.042337894

bias f4 [32]
0	0x3c91eb56	0.017812412
1	0x3d694365	0.056949038
2	0x3c978f74	0.018501021
3	0xbd42a39b	-0.047519308
4	0xbd6e4c04	-0.058177963
5	0xbce4726e	-0.027886596
6	0x3c540d2c	0.012942594
7	0x3d75706e	0.059921674
8	0x3d626fb6	0.055282317
9	0x3b1550ff	0.0022783873
10	0xbd172b60	-0.0369066
11	0xbd2481cc	-0.040162846
12	0x3d72436f	0.05914634
13	0xbd5c94ff	-0.05385303
14	0x3d1ebfe3	0.038757216
15	0x3d132040	0.035919428
16	0x3c414f90	0.011798754
17	0x3d5f3a3a	0.05449889
18	0x3d1d5f36	0.03842088
19	0xbd52f112	-0.051499434
20	0x3c87afb2	0.01656327
21	0xbc3b161f	-0.011418848
22	0x3d54580c	0.05184178
23	0x39d898ac	0.0004131248
24	0x3cd45c75	0.025922993
25	0x3cb52b40	0.02211535
26	0x3b91203a	0.0044288905
27	0xbd437ac2	-0.047724493
28	0xbc259368	-0.010105945
29	0x3d165c07	0.036708858
30	0xbcb4dd8a	-0.022078294
31	0x3d68cbe0	0.056835055
