models/proto.pth (torch_old, 183633 bytes, 18 tensors)

weight f4 [32, 1, 3, 3]
00000000: 4eea 283d 13e2 073d da2c d43e 7244 61b9
00000010: ae5f 6e3d 5b33 c73e d5e4 d1bc 4eb2 c03e
00000020: 3d65 d03e 2249 853e 9919 8d3e 2218 bb3e
00000030: df4d da3e 8628 7c3e d11a 5abb 5fc4 ea3e
00000040: 9f0d da3e a009 463e 5e6c 26be 1fc6 dabd
00000050: 1316 8cbe 68a5 793e 66bc a2bc fd3b 703e
00000060: c401 163e b006 7fbd e5a6 5abe 6aa8 043e
00000070: bff1 39be 590b c7bc c702 4e3e 9eed 1cbe
00000080: 19bf c23c 2c69 3ebc 73bc bc3d 8c96 c23e
00000090: b40a d03e 0752 b33d 171f 023f 12e4 d33d
000000a0: 2706 b33e c9cd b23e 4994 4d3e 26b3 cbbd
000000b0: 2ddb 053f 952a d53d 62c7 d93e 80e5 893c
000000c0: e666 203e 3872 003f f453 72bd 5dfa 583e
000000d0: 1b09 613e 4137 5cbd 2648 0b3e bd07 d7bd
000000e0: 49ef 893e 70c2 843e fc82 c83e ce61 543e
000000f0: ca8d 813d 887e 993d 9404 953d 221c 9c3e
00000100: 655c 113e b021 8dbe f849 a53d 62e4 a9bc
00000110: b185 963e a57d b3bd 59cc a03e ae5b 213e
00000120: 0a4f d0be d5ff 17bd eb27 35be d7dd 6a3d
00000130: c4c3 c9be ba40 febd e138 dd3d 1c6f 0f3c
00000140: a58a 553d c992 f53e 7f5b 803e 162b d03d
00000150: 54d3 893e 21f4 e33d 13ac 853e 6b42 003e
00000160: 0f18 a03d 97af 3cbd fd9a fcbd 8679 5c3e
00000170: 8849 84bb 9e52 9dbe 09d2 4e3e 0131 0cbe
00000180: 61b2 ce3c 40b8 a3be 790a de3d 1588 83bc
00000190: dc25 2f3e 986a fd3e 565f 923e 0bec f73e
000001a0: 85e4 0f3d 623f e0bd b34b 79bd 8828 da3d
000001b0: 394e 9b3c 8a32 eb3d 26e3 b23e cc90 d13e
000001c0: 9f59 49be c124 8cbd 134b ce3e 2b37 903d
000001d0: 08e9 973a 2193 9abd fd97 433e 50ef 62bd
000001e0: c5d3 093f 18e7 c83d 92ff 093e c90b a83e
000001f0: 7399 cf3e 533f 083f 00db 8abd 14bc 8abe
00000200: 963b 863e dde0 c5bd a84d b73d dfee 93be
00000210: a752 7cbe f869 7ebd a189 19be 0eba dc3d
00000220: 6c70 673e fc49 143e dcc4 12bd 2f37 ca3d
00000230: 71e3 be3e 76d0 d33e 8dde c73e aae2 ab3e
00000240: 04ed af3e 2f9b fa3e 3c68 1dbe af52 0dbe
00000250: c995 b33e 8332 f13e fc73 c5bd 86b6 943e
00000260: f087 07bd d123 0b3d 800e c53e c924 fdbd
00000270: 7882 843e 3f64 a13e ea5b 673e 93e8 04be
00000280: 02d9 283e 05cf 79be 9010 523c feea 223b
00000290: 2271 d83e 4993 873e e4c9 033f 5e23 d13e
000002a0: 9fa5 b13d b4d4 033f 8235 f7bc 8166 433d
000002b0: 80af 8a3d 2d83 ac3e e3c9 05bd 37b1 13be
000002c0: fa9e b13e 1092 b23e 4a4b 933e b127 993e
000002d0: 8407 063e 7b26 043e ef3e 40bd f3a4 643e
000002e0: 7edc de3e d10b d23e 5331 fa3e 0b6e 32bd
000002f0: bd06 67bd f151 b13e 660e 043f bfdb a13d
00000300: 5b4e 7d3e 1b86 943e abc0 bd3e 129c 7c3e
00000310: 6476 aebd 925d 123e 6c9b 933e eb87 d33d
00000320: 48c9 f1bd 369f 33be 2e89 acbd 7854 8e3e
00000330: fdc4 383d f5e8 773e f9c7 ff3c e3a7 cd3e
00000340: b26f 6c3e af50 d93e 09d5 f63e fec8 abbd
00000350: 368b 55bd 1c5f 8a3d 81bb 3d3e d401 b13d
00000360: e99e 0fbe 03ef 093e db3d af3e 1830 20be
00000370: e986 353e 7a87 eebd c035 803e a150 f13c
00000380: 0e6b a53e b480 953c 38cd c6be 8448 053e
00000390: fbae e7be 233e 3abe 6ce2 ee3c be69 05bd
000003a0: 8854 d2be 94d3 fdbd 981f 8ebd 4170 143c
000003b0: 3825 30be 3aa8 3a3e c34e bd3e a9a2 803e
000003c0: 8028 553e 97c4 e8bd 56d9 d3bd b72d 3b3a
000003d0: f6d8 dc3d 246c 29be b72f abbe b62a 1b3b
000003e0: 2c8c 4bbc eefc 013e 92e0 8a3d d683 e4bd
000003f0: 51ea 303d eb26 5a3d beeb 41be 94f6 b03e
0.041239075 0.033174586 0.4144047 -0.0002148317 0.058196716 0.3890637 -0.02562181 0.37636036
0.4070224 0.26032358 0.27558592 0.3654185 0.42637536 0.24624833 -0.0033280144 0.45852944
0.42588517 0.19339609 -0.16252276 -0.1068232 -0.2736059 0.24379504 -0.019865226 0.23460384
0.14649111 -0.062262237 -0.21352728 0.1295487 -0.18158625 -0.024297403 0.20118247 -0.15325019
0.023772763 -0.011621755 0.09215631 0.38005483 0.40633166 0.0875588 0.5082869 0.10346235
0.3496563 0.34922627 0.20076098 -0.09946279 0.5228756 0.104085125 0.4253493 0.016833067
0.15664253 0.50174284 -0.059162095 0.21189256 0.2197613 -0.05376363 0.13601741 -0.10499523
0.26940373 0.25929594 0.39162433 0.20740435 0.06325872 0.07494837 0.07276264 0.30490214
0.14195402 -0.27564764 0.08070749 -0.020738784 0.29398873 -0.08764199 0.31405905 0.1575763
-0.40685302 -0.037109215 -0.17691009 0.05734047 -0.3940717 -0.12414689 0.108018644 0.008754518
0.052134175 0.4796355 0.25069806 0.10164468 0.26919043 0.11130548 0.26107845 0.12525336
0.07817089 -0.046065893 -0.12334249 0.21530733 -0.004037086 -0.30727094 0.2019731 -0.13690569
0.025231542 -0.3197651 0.10841841 -0.0160561 0.17104286 0.49495387 0.2858836 0.48422274
0.035130043 -0.10949589 -0.060863208 0.10652262 0.018958198 0.11484249 0.34938926 0.40930784
-0.19663094 -0.06842948 0.40291652 0.070417725 0.0011589834 -0.07547594 0.19100948 -0.055404007
0.5383876 0.09809703 0.13476399 0.3282149 0.4054676 0.53221625 -0.06780052 -0.27096617
0.26217335 -0.0966203 0.08950359 -0.28893182 -0.24640904 -0.06211278 -0.14993908 0.107776746
0.2260148 0.14481348 -0.03583227 0.09873807 0.372829 0.4136998 0.3903698 0.33571368
0.34360516 0.4894652 -0.15371794 -0.13801073 0.35075215 0.4710885 -0.09641263 0.29045504
-0.033088624 0.033969704 0.38487625 -0.12360532 0.2588079 0.31521794 0.22593656 -0.12979345
0.16489032 -0.24395378 0.012821332 0.0024859305 0.42273813 0.26479557 0.51479936 0.40847296
0.08674168 0.51496434 -0.030176882 0.047705177 0.06771755 0.3369383 -0.032663237 -0.14423071
0.34691602 0.34877062 0.28768378 0.29913095 0.13088804 0.12905304 -0.04693502 0.22328548
0.43527597 0.4102464 0.48865756 -0.043561976 -0.05640291 0.3463283 0.5158447 0.07903241
0.24736921 0.29008564 0.37061056 0.24668911 -0.08518675 0.14293507 0.28829515 0.10328659
-0.118059695 -0.17541203 -0.084246024 0.2779882 0.045109738 0.2420996 0.031223284 0.4016715
0.23089483 0.4244437 0.48209408 -0.083879456 -0.052134715 0.06756422 0.18528558 0.08642927
-0.14025463 0.13470082 0.3422688 -0.15643346 0.17727245 -0.11646934 0.25041008 0.029457392
0.3230824 0.018249847 -0.38828444 0.13015944 -0.45250687 -0.18187766 0.0291607 -0.032571547
-0.41080117 -0.12393871 -0.0693962 0.009059967 -0.17201698 0.18228236 0.36974153 0.251241
0.20816231 -0.113656215 -0.10344188 0.0007140296 0.107835695 -0.16545159 -0.3343484 0.002367658
-0.012423556 0.12694141 0.06781115 -0.11157958 0.04319221 0.05325977 -0.18937585 0.34563124

bias f4 [32]
00000000: dd8e e63b c16b 6a3d 349e 873e fb4c 743c
00000010: 6fa8 533e 9654 3abe 98db 793e ad34 9a3e
00000020: e109 f2bd 8a53 913e d8fd bbbd b0b3 173e
00000030: cfe4 6b3e 466f 52bc 5b10 ddbc 4b27 143e
00000040: cea0 7fbe ddf7 583e b7e9 04be dcee 5a3e
00000050: 8066 05be bd21 0d3b 0471 94be 2f46 023f
00000060: 28d5 573e f006 dbbe 706b c93e 401f debd
00000070: 30ab 59bd 7798 0e3e 2f30 ddbe 30ef aebd
0.0070360736 0.05723167 0.26487887 0.014910932 0.20669721 -0.1819633 0.24400175 0.30118313
-0.118182905 0.28384048 -0.09179276 0.14814639 0.23036502 -0.0128439125 -0.026985338 0.14468114
-0.24963686 0.21188302 -0.1297978 0.2138018 -0.13027382 0.0021535002 -0.28992474 0.5088834
0.21077406 -0.4277873 0.3933978 -0.10845804 -0.053141773 0.13925348 -0.43200824 -0.08541715

weight f4 [32, 32, 3, 3]
00000000: 0294 843d a72f f13d 5257 753c 147a de3d
00000010: c06f 0c3d ce7b a83d 6f99 cc3d 5f3a b53d
00000020: b2ad f23d a101 b33d f857 c83c 98b8 ae3c
00000030: 7b07 c43d b888 bf3d f8e0 343d 3d00 583d
00000040: 224a ae3d 3d8c dd3d 2069 d53c e821 323d
00000050: 1f12 593d e8a5 643c b3aa 683d 9cc8 923c
00000060: 6421 863d e4cb a53d 29a2 043e 7811 963c
00000070: 13d8 3d3d 5bab a13c d4b5 153a 36f8 b33c
00000080: 910d a23d b445 b53d 7ab4 723d ec25 e83d
00000090: 28c7 223d 3403 f13c e142 cb3d dee9 8c3c
000000a0: 9a51 c53d db5d 0a3e 6055 933d bc68 cf3d
000000b0: 7ee3 3d3d 64ca b83c a240 4a3b 362e cd3d
000000c0: 82ee 973d 511d 753d f77f e53c 1397 223d
000000d0: acc2 d83d 97ed f53d 0128 c03c 9a17 5b3c
000000e0: c4b3 d0ba bb58 ed3d 0e7f a03d db2f bc3d
000000f0: 5507 773c f294 243d 7458 c93c 6ae0 883d
00000100: 1d5f 193b 91f4 b73c 636a bf3d 4a3a e03c
00000110: f1b7 fc3d 8d5e 973c 72e9 db3d 54df 783d
00000120: aab7 3a3d 1750 9d3d d38a 003d 8c60 0a3d
00000130: 78d5 093e 6d60 e73d b95a f63d 328f 023e
00000140: 3eda 593d 43da a43d 6e54 053d 4389 1b3d
00000150: a8f4 723d 41fd 8b3d f09b ae3d 8dc6 eb3d
00000160: cb03 773d 9f5e d63d fad0 54bb 2d4f 8c3c
00000170: fb5f df3d 8554 963d 09b8 0b3e e502 bf3d
00000180: d45b 153d d53c 7e3d be42 203d 9bf0 aabc
00000190: 4796 e33d 3b64 b63b d4c5 ae3c 0e4f 1c3d
000001a0: 0aa7 f23c 9414 8d3d b75d cd3d 2316 cf3c
000001b0: 7630 803d 926f 713d 992a 973c ea0b b53d
000001c0: 1d4d 4e3d 5447 da3c d620 283d 90d1 963d
000001d0: cdaf c63d 2b60 ee3c 5fb0 e33c 76ad 9d3d
000001e0: fff6 ee3d 64cc d73c d2e0 443d fcdc 383d
000001f0: bb96 543d 2327 763d 723a 09b9 df3c b43d
00000200: 6799 4dbb 1c3e b23d 11c0 9e3d dab6 b43d
00000210: dc67 793d 74ed 9d3d 275d cb3c a1a6 793c
00000220: c24f 233d 52ca f63d dc29 6c3d 9d6e 2a3d
00000230: 17c9 3f3d f716 ad3d 03c9 d93d 3b6d cd3d
00000240: 7cfb bd3b df6f 9a3d 6cd1 c83d 01a0 c93c
00000250: 2d74 0c3e 5a00 fe3d e8cb 7d3d 5c83 063e
00000260: e132 c13d c303 2d3d 2edb f13c e355 c13d
00000270: ac4a 5c3c 9eac d93d 5d21 b43d 178f e63d
00000280: 673e 003e 755f 073e 6fa1 723d 9e20 1d3d
00000290: 1263 513d dce2 c03d fc4a 083e 6e04 d13d
000002a0: 5f20 e73d 4ee5 573d 1ddd e03d 3b44 debc
000002b0: 2fe6 a53c c1b2 bb3d 9094 ea3d a015 f03d
000002c0: 116a fe3d ebbe 963c 3737 ca3c 520f d73d
000002d0: cddc debb 10ba 1ebb f5e4 633d 89e0 993d
000002e0: 89c2 633d 8ba5 b73d a180 44ba d406 8e3d
000002f0: 4f47 cc3d a97f 1cbc 819c b53d 9e65 983d
00000300: 1729 1f3d b43d dc3d 3bec 043e 5c01 5f3d
00000310: 8fc4 b53d 64d5 0a3d 33bb 083d 7919 863d
00000320: acfc 463d ca4d 9a3d 972c a43d 2eac a73d
00000330: ce30 e33d 7c2d 7d3d 6fa1 063d a9ea 5f3c
00000340: f9b9 3a3c 75d6 f63c 2f40 bf3d 6134 f33d
00000350: f539 a53d b1ee 193d a9fc 603d 9438 193d
00000360: 1f47 7b3d ede1 b43d e252 5c3d bf38 4c3c
00000370: 1e3a c03d acfe 0a3d 3cf5 703d 084f 9f3d
00000380: 08c5 aa3d a944 323b 175e a539 fc09 083d
00000390: b4ad 993d 7670 053e 8b45 d33d 563d e93c
000003a0: 93a7 f43d b516 be3d 572b 58bc 2407 273d
000003b0: ebb5 993c 42da a43d e732 e33d 3ee5 e73d
000003c0: ad7a ee3b b9df ee3d 5c3b e03d 3597 513d
000003d0: af16 84bb f5c0 1b3d 258f 173d 962c 5d3d
000003e0: 4fb5 9d3d 6bf3 bd3c 3a5a 933d 1746 af3d
000003f0: ab96 2a3d dd8f 843c 9921 d13d f709 913d
0.06473543 0.11776667 0.014974432 0.10863128 0.03428626 0.08226739 0.09990203 0.08849024
0.11849536 0.08740545 0.02445601 0.021328256 0.09571739 0.09352249 0.04415986 0.052734602
0.085102335 0.10817764 0.026051104 0.043489367 0.052995797 0.013955571 0.056803416 0.017917924
0.065493375 0.0809553 0.12952484 0.018318877 0.046348643 0.019735029 0.00057109934 0.021968942
0.07912744 0.088511854 0.059254147 0.11335358 0.03974071 0.029420473 0.099248655 0.01720136
0.09634705 0.13512366 0.07194018 0.10127398 0.04635953 0.022557445 0.0030861278 0.1001858
0.07418539 0.05984241 0.02801512 0.039694857 0.10584006 0.12008207 0.023456575 0.013372326
-0.0015922715 0.115891896 0.07836734 0.09188815 0.015077432 0.040181108 0.02457831 0.066834286
0.002340264 0.022455486 0.093464635 0.027371544 0.123397715 0.018477703 0.107378855 0.060759857
0.045585312 0.076812916 0.031382393 0.03378348 0.13460338 0.11297689 0.12029023 0.12749937
0.053186648 0.080494426 0.03255122 0.0379727 0.059315354 0.06835414 0.085258365 0.1151248
0.06030635 0.10467266 -0.0032473193 0.017127598 0.10906979 0.073403396 0.13644423 0.09326724
0.036464527 0.062069733 0.03912615 -0.020866683 0.111126475 0.0055661476 0.021334566 0.03816133
0.029620666 0.068886906 0.1002764 0.02527911 0.06259243 0.058944292 0.01845293 0.08840163
0.05036651 0.02664534 0.04104694 0.073641896 0.097015 0.02909859 0.027794061 0.07699101
0.116682045 0.026342578 0.048065968 0.045132622 0.05190156 0.060095917 -0.0001308711 0.08800673
-0.0031371953 0.08703253 0.077514775 0.08823939 0.060890064 0.07711306 0.024824692 0.015237481
0.039870985 0.12050308 0.057657108 0.041609395 0.046822634 0.08451646 0.10634043 0.100306
0.0057978015 0.07540869 0.09805569 0.024612429 0.13716193 0.12402411 0.06196204 0.13136047
0.094335325 0.042239916 0.029523458 0.0944021 0.013445538 0.10628627 0.08795426 0.11257761
0.12523805 0.13220008 0.059235986 0.038361184 0.05111987 0.0941827 0.13309854 0.10205923
0.11285471 0.052708916 0.10979674 -0.027132144 0.020251362 0.09164954 0.11454117 0.11722875
0.12422574 0.018401584 0.024684532 0.10500969 -0.006801224 -0.0024219789 0.055638272 0.0751353
0.055605445 0.08967122 -0.0007495974 0.06934896 0.099745385 -0.009551921 0.088677414 0.07441257
0.038857546 0.107539564 0.1298074 0.054444656 0.08875381 0.03389491 0.033381652 0.06547827
0.04858081 0.07534368 0.08016317 0.081871375 0.11093293 0.061810955 0.0328688 0.013666787
0.011396878 0.030131558 0.09338414 0.11875225 0.08067695 0.03758115 0.054928456 0.037407473
0.061347123 0.088321544 0.05378998 0.012464701 0.09386085 0.03393428 0.058827624 0.07778746
0.08338362 0.002720157 0.00031541355 0.033212647 0.07503834 0.13031182 0.10315999 0.02847163
0.11946025 0.09281675 -0.013193927 0.040778294 0.018763503 0.08049442 0.11093693 0.11323021
0.0072778077 0.116637655 0.10948822 0.051169593 -0.0040310244 0.038025815 0.037001748 0.0539976
0.077005975 0.02318736 0.07194944 0.085582905 0.041647594 0.01618188 0.10211486 0.07081979

bias f4 [32]
00000000: 90c7 093e 8697 603e 3a53 d5bd 9590 873d
00000010: 54c6 5a3e 5332 31be 5275 293e ff07 2b3e
00000020: 2901 8c3d deb2 4a3d 7d14 a2bd b37b 6f3e
00000030: faae 5a3e 94da 2d3e e4f6 343e aa40 0c3e
00000040: 5d3d 383e 9e1e 47be e369 69bc 6374 1f3e
00000050: 2df2 043e 3489 a0bd 5b68 273e e84b 003e
00000060: a262 4bbe 068b aabd 46ba ffbc 8d4e 5b3e
00000070: 6df5 f83d bafe aa3d 0aeb 173e 48bf 02bc
0.13455033 0.21932802 -0.10416265 0.06619374 0.21364719 -0.17304353 0.1654866 0.16702269
0.06836159 0.049486987 -0.07914064 0.23387031 0.21355811 0.16977912 0.17672306 0.13696542
0.17992158 -0.19445273 -0.014246437 0.15571742 0.12983008 -0.078386694 0.16348402 0.12528956
-0.19861844 -0.08327298 -0.031216752 0.21416683 0.12156186 0.083493665 0.14835754 -0.007980175

weight f4 [32, 32, 3, 3]
00000000: fa8f 20be 97ea 4bbe fd2b 4bbe 0334 1bbe
00000010: ca1c 12be eede 74be 7df0 23bc 905e 7abd
00000020: e1c6 06be 1281 fdbd 3a32 2fbe c5c8 19be
00000030: fac8 29be b59d 10be eaed 0fbe fafd d1bd
00000040: 6fe4 0cbe 759c 11be 7c1a 93bd 8338 07be
00000050: 0d5d 3bbe 8dbb f4bc e43e b7bd 2a97 44be
00000060: 5abc 5b3c a108 cf3c 0105 42bd 8bf1 a0bd
00000070: e74a 9cbd 9071 3cbe 6bdc 2fbd 71d4 c9bd
00000080: 2746 1bbe f8c7 0a3d 8013 ea3c 6711 b3bd
00000090: e373 03be 1e9b 09be 0915 11be 0104 3fbe
000000a0: 0a11 c6bd 2ad3 42be 7bc7 d1bd a819 24be
000000b0: 19cb 42be 2e6b 66bd f333 17bd 595d 52be
000000c0: 0e2a 093d eeed 8bbd 4fd7 2ebe 4143 b43d
000000d0: 71d0 623c bbd3 443c 8f9b ffbd 2096 4abe
000000e0: 73ba 01be 2e99 1cbe 9361 19be a29f 3bbe
000000f0: 635c d6bd 447d dbbd 5ac6 e2bd f0e1 41be
00000100: 7858 40be 83a6 39be fdee 37be 2083 14be
00000110: 3700 0abe b982 36be b801 1abe a0a8 12be
00000120: 1d48 45be e68c 40be 8581 36be f6bc 3bbe
00000130: 600b d1bd e94a 83be af75 b5bd 00b5 68bd
00000140: 1405 fabd 4c60 a2bd f222 62bd 7da3 50be
00000150: 3dfd 45bc 5a51 bebd de0b 4cbe c65f 6f3d
00000160: 029b c63c 738c 13bd 6118 0d3d 1309 53bd
00000170: 7eb2 4dbe dae7 a8bc 8cd5 363b 1af4 2ebe
00000180: fe1b ac3d 0cc4 86bc 6b65 81bd a10a 52be
00000190: 5273 24be 00b5 2dbe 02c6 0cbe 922d c7bd
000001a0: 99e6 2abe 33d0 23be 0f06 01be ca39 1dbe
000001b0: 9956 e7bd 98dd 3cbe ebd2 05be e785 4abe
000001c0: 54d0 bdbd 270f 55be b39a 0ebe 84da 24be
000001d0: 2028 d1bd d728 22be 9e4f aebd cd31 71be
000001e0: 12b5 4bbe 1ebd 2bbe 1541 29be c276 2cbe
000001f0: 7919 fbbd eb69 32be 8133 4abe 4011 1ebe
00000200: 3dd4 08be 5eb9 2cbe 1574 f9bd 48d6 1ebe
00000210: fe13 41be a71e 28be f0ac 38be 55b1 fbbd
00000220: 746d 0abe 41b4 72be 6b03 1bbe fdad 2fbe
00000230: db7e 63be ae03 fabc d18c f5bc 4562 ffbd
00000240: 4684 05be 77a4 d8bd c5fe 3dbe ddc1 3dbe
00000250: 2ddb 2abe d86d 6abe 3a95 30be a1e2 f9bd
00000260: f147 bdbd d16d 90bd 0d7b 96bd 13b3 28be
00000270: b4f8 5bbd 7674 e0bb 3c85 18be 519a d23c
00000280: 2549 d1bc acfd 67bd cc5c 0dbd e5de 90bc
00000290: d90f 4ebe a7b1 99bd a2ca 88bd 474f 53be
000002a0: 82b8 e33d b32e 82bc 6c1c 99bd de8e 2bbe
000002b0: d642 b0bd fbd1 67be cc53 0cbe 899e d3bd
000002c0: aae0 54be 5dd8 10be 5ff4 f4bd ad7b 0bbe
000002d0: f387 fbbd 648f 3bbe 5515 1cbe 247d 01be
000002e0: 07f5 e0bd a411 60be f000 30be 767c e1bd
000002f0: e921 09be 6726 8cbd 1176 55bd 1815 2ebe
00000300: fd91 eb3c d585 9abd 1576 fcbd d4da 6f3d
00000310: f853 74bc da22 e93b 5412 2fbe 3988 fdbd
00000320: 2330 71be f2ca cdbd d6af f5bd 3566 3cbe
00000330: c7d0 9ebd f6aa e7bd 14cf 11be e998 2ebe
00000340: 446b 27be 5c8d 19be 706d 12be 6b06 3fbe
00000350: 6ec5 33be 0442 1abe 09dc 02be 2625 36be
00000360: 594b 10bd 7839 7bbd dd56 25be d1a8 45bd
00000370: 811b 5abd 5a3d 30be a453 db3d 5080 d13c
00000380: 0afc bbbc c4d4 3ebd 0c2e 28bd ce4e 32be
00000390: 987e f93b 3fdb d3bd d4d2 f7bd e231 7e3d
000003a0: b160 28bd 0ddb 98bd a4d8 d7bd 0ddc 9dbd
000003b0: f045 13be 3b9d 0ebe d7e7 4fbd dc8b 47be
000003c0: a74c e7bc 377c 11bd 6e89 19be 45d7 53be
000003d0: f7dc 24be cf2f 4bbe 18e0 3fbe 1c82 42be
000003e0: 7143 0dbe a347 f2bd dfe7 06be d55a 18be
000003f0: f3e4 c1bd 0a44 f9bd 187b 21be 0926 43be
-0.15679923 -0.19913708 -0.19840999 -0.1515656 -0.14268795 -0.23913166 -0.010006067 -0.061125338
-0.13161804 -0.12378134 -0.17109004 -0.15017994 -0.16580573 -0.1412266 -0.14055601 -0.1025352
-0.13759016 -0.1421984 -0.07182786 -0.13205151 -0.18297215 -0.029874587 -0.08947542 -0.1919829
0.013411606 0.02527267 -0.047368053 -0.07858571 -0.07631474 -0.18402696 -0.042934816 -0.09854973
-0.1516348 0.03388211 0.028573751 -0.087435536 -0.12837176 -0.13438079 -0.1416818 -0.18653871
-0.09671219 -0.19025865 -0.10243126 -0.16025412 -0.19022788 -0.05625456 -0.036914777 -0.20543422
0.033487372 -0.06832491 -0.17074321 0.0880189 0.013843642 0.012013371 -0.12480842 -0.1978383
-0.12668781 -0.15292808 -0.14978628 -0.18322614 -0.1046684 -0.10717252 -0.11072989 -0.18933845
-0.18783748 -0.18129925 -0.1796226 -0.14503145 -0.13476644 -0.17823304 -0.15039718 -0.14322138
-0.1926579 -0.18803748 -0.17822845 -0.18333802 -0.10207248 -0.2564309 -0.08860337 -0.05681324
-0.12208 -0.079285234 -0.055209108 -0.20374866 -0.0120843025 -0.0929286 -0.19926402 0.058440946
0.024243835 -0.036022615 0.034447078 -0.051522326 -0.2008762 -0.020618368 0.002789828 -0.17085305
0.084037766 -0.016450904 -0.06318172 -0.20511867 -0.16059616 -0.16963577 -0.13747409 -0.09725489
-0.16689529 -0.1599739 -0.12599967 -0.15354076 -0.11295814 -0.18443906 -0.1306874 -0.19777642
-0.09268251 -0.20806561 -0.139262 -0.16098982 -0.10212731 -0.15835892 -0.085112795 -0.23554154
-0.19893292 -0.16771361 -0.16528733 -0.16842178 -0.12260718 -0.17423217 -0.1974621 -0.15436268
-0.13362212 -0.16867587 -0.12180344 -0.1551143 -0.18855283 -0.16417943 -0.1803472 -0.12289683
-0.13518316 -0.23701574 -0.15138023 -0.17156215 -0.2221636 -0.030519333 -0.029974373 -0.12469915
-0.1303874 -0.10578244 -0.18554218 -0.18530984 -0.16685171 -0.22893465 -0.17244425 -0.12201429
-0.09242237 -0.07052196 -0.07347689 -0.16474561 -0.05370398 -0.0068498207 -0.14894575 0.02570835
-0.025547573 -0.056638405 -0.034512326 -0.01768441 -0.20123233 -0.075045876 -0.06679274 -0.2063571
0.111191764 -0.015891409 -0.07476124 -0.16753718 -0.08606498 -0.22638695 -0.13703841 -0.103329726
-0.20788828 -0.14145036 -0.119606726 -0.13621397 -0.1228179 -0.18316418 -0.15242513 -0.12645394
-0.10984235 -0.2188173 -0.17187858 -0.11010067 -0.13391842 -0.06843262 -0.05211455 -0.17000234
0.028756136 -0.07545058 -0.1232721 0.0585583 -0.014912598 0.0071147503 -0.17096835 -0.12379498
-0.23553519 -0.10048474 -0.11996429 -0.18398364 -0.07754665 -0.11311905 -0.1423915 -0.17050518
-0.16349512 -0.1499533 -0.1429956 -0.18654792 -0.17555782 -0.15064245 -0.12779249 -0.17787609
-0.035228107 -0.061334103 -0.16146417 -0.0482567 -0.053248886 -0.17210904 0.107093126 0.02557388
-0.02294733 -0.046589628 -0.04105954 -0.17412874 0.007613968 -0.10344552 -0.12100759 0.06205929
-0.041107837 -0.074636556 -0.10539368 -0.07707987 -0.14382148 -0.13927166 -0.05075821 -0.19486946
-0.028234793 -0.03551885 -0.14993832 -0.20687588 -0.16099916 -0.19842456 -0.18737829 -0.18994945
-0.13795258 -0.1183007 -0.1317439 -0.148784 -0.09467497 -0.121711805 -0.15769613 -0.19057478

bias f4 [32]
00000000: 325d 3abe a688 4bbe a6ec 03be ef5d 01be
00000010: 5d0a 4abe 6358 0abe 960b 41be 7b7b 33be
00000020: b565 fbbd c02a 3cbe 8379 38be 8f54 1bbe
00000030: 3439 19be 8d83 0abe 80a1 4dbe ae68 11be
00000040: 596a 48be 48fb 5fbe f5f8 1ebe b250 1bbe
00000050: 8452 39be 32ea 10be 50e9 8bbd cf7a 22be
00000060: aa73 30be cd15 03be 1719 f7bd 4e94 2dbe
00000070: 34d2 2fbe 7988 f8bd 71a8 1ebe 9854 11be
-0.18199614 -0.19876346 -0.12883243 -0.12633489 -0.19730516 -0.1351028 -0.18852076 -0.17527573
-0.122752585 -0.18375683 -0.18015103 -0.15168975 -0.14963228 -0.13526745 -0.20081139 -0.14200088
-0.19571818 -0.218732 -0.15524657 -0.15167502 -0.18097883 -0.14151838 -0.0683161 -0.1586716
-0.17231622 -0.12801285 -0.120653324 -0.16951105 -0.1717003 -0.12135405 -0.15493943 -0.14192426

weight f4 [10, 32, 3, 3]
00000000: da3c 513d a2c0 57bd 4e78 1cbc 003d 173d
00000010: f365 87bd 5c89 8abd 52ae c63d a2b1 5fbc
00000020: 88ef c0bd f233 e13d 0453 173e d43e f63d
00000030: 3140 193e b846 b53d e7ba 0d3e 52e0 b93d
00000040: b6ad a73d 726c b73d 7fd8 163e f0fd c63d
00000050: 2a77 053e 619c d23d 0281 633d ca5c 9c3d
00000060: 54ae 7a3d e0dc 013d 1ecb af3d a869 163d
00000070: 7bb6 1e3d 64e4 1abd c4d8 343d 8379 c5bc
00000080: c88c 14bd 8b75 a33d 2cc2 42bd 0a1a 80bd
00000090: 7603 cd3d d5f0 413d cb4f 8c3d df95 da3d
000000a0: 180c bdbc a160 f9bb a8a3 b13d 8b04 df3c
000000b0: b556 5c3d ee4b 8d3d a25b af3d d5de 68bc
000000c0: a84d b03d bf11 15bb 0ab0 993c 4a3d c2bc
000000d0: 2405 d03c 5940 d9bc c611 eb3d 28b9 7d3d
000000e0: 155d f23d 43b1 aa3d 937f e03c a1dc 693d
000000f0: 65c7 193e 2356 e83d c741 2d3d 796c c33d
00000100: 006b 0a3e 1c37 5c3d 1131 233e bb0f 7a3d
00000110: ee5f 023e ffd1 143e 9210 163d fd7a 253d
00000120: a849 d63d 91a2 2dbd 34f6 26bc 4ef9 0c3d
00000130: c2ca 93bd d5bb 01bd 8c6e 643d ad2c 85bb
00000140: 02a0 95bc 3530 2d3e a037 fe3d 84a4 b43d
00000150: 899e f53d 2b44 ed3d cd50 bf3d eecf 063e
00000160: 73c0 0a3d 4d09 623d a344 af3d 5c01 dc3d
00000170: 63f1 883d b2c8 243e d7c1 cc3d a634 9d3d
00000180: f1a8 0a3e feb6 253d 35e2 153d 299e d53d
00000190: 4694 0abc 372a 733d c94e fb3c 678d 59bd
000001a0: 1c56 8fbc 1a7b fb3c 208b df3c ea4e 103d
000001b0: 0b05 d33d 5fed 803d 6af3 a23b 09b6 443d
000001c0: 91fd a4bd 1275 85bd e5ff e139 a11e 0abd
000001d0: f60f 0dbb c64c e13d 0f10 4ebc 75ac 25bb
000001e0: 889b d53d 3c6c 01bd 7812 db3c cbc6 7d3d
000001f0: 0d7a a1bc b9d9 44bd 977f 843d 88ad 033d
00000200: dc36 af3d d534 d33d 343b b33d d77c 973d
00000210: 2770 753d 1eff 5f3c 3003 bf3d cb92 d13d
00000220: 6252 f03d 7039 df3d 7128 0b3e 82d7 bc3c
00000230: 83aa d53d 6f72 a83d 26cf a53d a11e 113e
00000240: 6dc6 733d 5561 933d a008 35bc 893c 2c3d
00000250: a3e9 6f3d 3f25 d13c aa2d af3d 7b43 1fbc
00000260: db71 553d 301e 223e 7305 f53d 1095 d93d
00000270: 3e26 9f3d 5fb6 033d e526 f13d be1d a53d
00000280: a796 953d ac27 c03d 5586 933d 009c cd3d
00000290: bced ab3d c9b8 083e f96b 8bbc 2151 933d
000002a0: 6d86 793d 7481 573d 6e43 513d 719d d43d
000002b0: f730 0cbd fef6 87bc 4851 8c3d d4a4 b33c
000002c0: d433 c2bd f849 673d 79b1 48bd 8e0f 98bd
000002d0: a665 ef3d c1ca 903d 66f8 8a3d b5b6 cf3d
000002e0: 0f11 323c 284c a93b 5cb9 2a3e aa26 dd3d
000002f0: bbcd cc3d 2c09 933d 49f6 d73d 4c0d 7d3b
00000300: d748 593d dd35 483d 1460 5f3d e2d7 ee3d
00000310: 6681 0a3d bbd7 4cbd 4088 903d 70f2 2b3d
00000320: abcd a3ba e245 2f3d 79fb 01bd 09bc d43c
00000330: 2625 4f3d 6008 86bc 927b d0bc 6ac7 303e
00000340: 3fb7 b13d c43e e23d cdd5 da3d 164b ec3d
00000350: bf34 f53d 0165 0c3e b30d 8c3d 23a6 133d
00000360: b031 1a3e a020 1e3e 6df8 c13d c4fe d43d
00000370: 1877 033e 92a0 db3d cdc9 803d c2b8 f23d
00000380: 814c 613d a5bd 9e3d 0b8c 5ebd df2a 4cbd
00000390: 9347 9b3d 05a7 febc 54ab f9bc c303 efbc
000003a0: 7a03 6ebd 0e86 c1bc e8ff a03d 81e8 b2ba
000003b0: 323c 8bbc 7d4a a13c 8d81 50bd 10e9 233c
000003c0: 66d8 f03d c13f 403d 7312 f5ba cb0f d43d
000003d0: 1600 3cbd ec62 553d 8e03 e63c 461d 7bbd
000003e0: aa77 4c3c bd42 e43d c547 4dbd 4418 43bd
000003f0: abe4 b03c 0b88 2abc 281e 953b 5a67 473d
0.051083423 -0.052673943 -0.009550167 0.03692341 -0.06611242 -0.067644805 0.09701218 -0.013653191
-0.09420687 0.10996236 0.14777762 0.12023702 0.14965893 0.08851379 0.13840829 0.09075989
0.081874296 0.08956231 0.14731024 0.097164035 0.13033739 0.10283733 0.055542953 0.076348856
0.06120141 0.031704783 0.085836634 0.036721855 0.038748246 -0.037815467 0.044152036 -0.024105793
-0.036267072 0.07981404 -0.047548458 -0.062549666 0.10010426 0.047348816 0.06851157 0.10673117
-0.023077056 -0.007610396 0.08673793 0.027223846 0.053793628 0.06899248 0.085623994 -0.014213284
0.08608562 -0.0022746173 0.0187607 -0.023710866 0.025393076 -0.026519941 0.114779994 0.061944157
0.1183416 0.08334591 0.027404582 0.057095174 0.15017469 0.11344554 0.04229906 0.09542174
0.1351738 0.053763494 0.15936686 0.061050158 0.12731907 0.14533232 0.036636896 0.040400494
0.104632676 -0.042391364 -0.010190535 0.034417443 -0.07216407 -0.03167327 0.05576949 -0.0040641637
-0.018264774 0.16912921 0.124129534 0.08820441 0.11993129 0.11585268 0.093415834 0.13165256
0.03387494 0.05518465 0.08558013 0.10742447 0.06686666 0.16092184 0.099979095 0.076760575
0.13541009 0.040457718 0.03659268 0.10430557 -0.008458203 0.05936643 0.030677216 -0.053113367
-0.017497115 0.030698348 0.02728802 0.03523151 0.10303696 0.06295275 0.004972865 0.048025165
-0.080561765 -0.0651647 0.00043106 -0.033720616 -0.0021524406 0.110009715 -0.012577071 -0.0025279794
0.10430056 -0.03159736 0.026742205 0.061957162 -0.019711519 -0.0480592 0.06469648 0.032147914
0.085553855 0.10312811 0.087515265 0.07396858 0.05992141 0.0136716645 0.0932678 0.10233077
0.11734463 0.10899627 0.13589646 0.02305198 0.10432913 0.082249515 0.08096151 0.1417184
0.059515405 0.07196299 -0.01104942 0.04204992 0.058572423 0.025530456 0.085536316 -0.009720678
0.052110534 0.15831828 0.1196393 0.106241345 0.07770966 0.032156345 0.11774997 0.080623135
0.07304125 0.09382567 0.07203356 0.1003952 0.083949536 0.1335174 -0.017019259 0.071932085
0.060919214 0.05261369 0.051089697 0.10381592 -0.034226384 -0.016597267 0.06851441 0.021929182
-0.09482542 0.056467026 -0.048997376 -0.07424842 0.1168931 0.07069922 0.067856595 0.101422705
0.010868325 0.0051665492 0.16672271 0.1079839 0.100001775 0.07179484 0.10545022 0.0038612662
0.05304798 0.048879493 0.054534987 0.1166227 0.03381481 -0.050010424 0.070572376 0.041979253
-0.0012497207 0.042791255 -0.031733964 0.025968568 0.050572537 -0.016361415 -0.025449548 0.1726357
0.086775295 0.11047128 0.106853105 0.11537759 0.11972951 0.13710405 0.068385504 0.036047112
0.15058017 0.15442133 0.094712116 0.10400155 0.128384 0.10723986 0.062884904 0.11851646
0.0550046 0.077510156 -0.054332774 -0.049845573 0.07582011 -0.0310855 -0.030477203 -0.029176598
-0.058108784 -0.023623493 0.0786131 -0.0013649614 -0.016996477 0.01968884 -0.0509048 0.010004297
0.11760025 0.0469358 -0.0018697515 0.10354575 -0.04589852 0.052096292 0.028077867 -0.061307214
0.012479702 0.11145542 -0.050117273 -0.047630563 0.021593412 -0.010408412 0.004550714 0.048682548

bias f4 [10]
00000000: bffd 653e e57a d0bb d9d9 a63d a91b 4a3d
00000010: 8dac 2c3b 3ce7 083e eea6 5ebc 3a42 513e
00000020: 3f03 9a3d 264a 173e
0.22460078 -0.0063623064 0.0814702 0.049342785 0.0026347965 0.13369459 -0.013589604 0.2043542
0.075201504 0.14774379

weight f4 [10, 32, 3, 3]
00000000: 31c3 9bbe ff6b 94bf de97 93be 896c 17bf
00000010: 5c5c 43bf b197 d8be be95 0ebe b9f8 1b3f
00000020: cedb 25be dddb 24bf 11f6 003e cb8c 3cbe
00000030: 09e9 6abf 67b6 8abd c380 493e ef7a 04bf
00000040: 932c 1f3f e7b4 41bf 5057 d4bf 2dc5 a9bf
00000050: 210b f0bd 36cb 333e f826 82bd 70dc fa3e
00000060: b1a1 003f 1015 c53e a113 283f a470 69be
00000070: 47f9 5abf aca8 98be 031f edbe 27c6 213f
00000080: cc06 3dbf 19f6 2ebd df04 073e 65d8 0dbf
00000090: 7fad bbbe 3d29 aebf d6c1 2ebf d010 37bf
000000a0: d09b 383f 858b 81bf a205 17be 8183 da3e
000000b0: 46b8 5dbf 73a4 44bf 6862 c0bf 411b 223f
000000c0: d7f8 dabf b4b2 3fbf b37a 233f 3673 ccbf
000000d0: 15dc fb3e a524 173f 09e4 8bbe edaa 393d
000000e0: 154c 07be 657e dcbe adcb c33e 236a 0fbf
000000f0: e49d 8bbe 1ab8 383f 406e 2ebf f784 e2be
00000100: ba70 aebf 3e88 bcbe 16e4 01bf abf3 003f
00000110: ab71 2bbf 361b 8c3d d744 093f 460b f7be
00000120: 7925 22bf 6434 903e 9cbe 0abf df4b 18bf
00000130: 2eb0 1d3f 32d8 29bf 7e2a a1be 83c9 243f
00000140: 2501 6abf d6af a9be b669 ebbc de04 57be
00000150: f894 22bf d9b0 103f 8991 21bf 23f0 91be
00000160: 1067 303f 2767 36bf d971 05bf 3f91 aabf
00000170: 0e8b f6be 0f8a 31bf 7805 3bbf 9ccf 84be
00000180: 346c 02be 0479 1d3f 6644 c1bc 28f5 a8be
00000190: 5758 a9bf e5b6 98be 98af 1bbf a23b dbbe
000001a0: 3719 1bbf 01b6 c63c 91d8 353f da4e 9bbe
000001b0: 74d3 8cbe f33d b9bf 9b99 84be 9af0 10bf
000001c0: 73db b23e 1be5 21bf e564 0d3d 4b19 0c3f
000001d0: 8eef e2be 19a3 40be 6f39 b83e 2fff bfbe
000001e0: b78c e6be 36c1 473f 13af 76bf 0f03 c3be
000001f0: d2f6 293f 124e 94bf e2c9 09bf f26d ccbf
00000200: 5648 aabe 4fd1 b1bf 85c7 97bd f777 ec3e
00000210: 8a7e a2bc eece fa3e ee79 d9bd 1c42 3dbf
00000220: 05b5 c9bf 9e45 ae3e 3038 cebf d412 58bf
00000230: 2408 2e3f d279 68bf 744b 1e3f 0d1f e93e
00000240: 3acf ccbe 445b a3bf 1f9e afbe 6820 20bf
00000250: 32b2 1bbf 9fcc d8be 62c6 48bd cd3e 203f
00000260: a88a 06be 2154 e1be eaad abbf 21df aebe
00000270: 1456 f8be 2522 a9be 5abd 6dbe 1eaa 22be
00000280: 01d1 263f 3b77 c9bd 02c3 49bf 5898 b4bf
00000290: 9e82 07bf 7393 abbf 70a9 14bf 7d2e fa3e
000002a0: 8c24 c63e 66b9 073f 273f b93e 3c80 3ebf
000002b0: 1f18 b4bf 54b6 56bf c9b0 51bf 6971 b0be
000002c0: be94 09be c018 0e3f e3bc e03e 8907 f23e
000002d0: f571 f7be 6431 a0bf 9758 79be 5ddb 69bf
000002e0: 2761 3ebf 061c b03e be88 77be 7d3e 003f
000002f0: 2da8 a6be 4cde bebf e1d2 7abf ff7d 323f
00000300: 6993 793e df12 6fbf ac7e 5f3f ee54 66bf
00000310: 5564 49bd 5e71 bc3e bf94 1cbf 2dcb c0bf
00000320: 5dd0 00bf 4383 c0bf ad6a 9b3d decd 0c3f
00000330: 2a94 3cbf a33a 053f 6158 5e3e c500 d6bf
00000340: 4fe1 b0bf 77f8 c53e 64e9 843e 9d0f 13bf
00000350: 5b56 583f e5ea 2b3f 98da 0b3f ed90 453d
00000360: cc41 8fbe 222d 1a3d 3d6c 6fbe 9e62 0abf
00000370: 00ae f53e 88de 1cbf b93c 1bbe fa7c 193f
00000380: 7a7b 40bf 0134 afbf 38ac b6bf ccc0 773d
00000390: 96cc bdbf 292b b9be c3ef f63e f57d 383e
000003a0: faad e83e 26a5 253f 9111 44be 126d 54bf
000003b0: 5a41 d6be 10b1 11bf 6cbc 413f 5746 99bf
000003c0: 56c5 7bbe eaa3 2a3e 6a73 7bbf 84d9 54bf
000003d0: a90f c9bf 3c54 283f 7f1a c6bf 23fd b2be
000003e0: 75a2 ff3e 102b b7bf 403b ec3e a319 1d3f
000003f0: ba0e 20bf 4c5b 493f 6959 3a3f 8009 cfbf
-0.30422357 -1.1595458 -0.28826803 -0.59149987 -0.76312804 -0.4230323 -0.1392431 0.60926396
-0.1619713 -0.64397985 0.12593867 -0.18413083 -0.91761833 -0.06773072 0.19678025 -0.5175008
0.6217739 -0.7566666 -1.6589146 -1.3263298 -0.11720873 0.17557988 -0.06355089 0.48996305
0.5024672 0.38492632 0.6565495 -0.22796875 -0.8553662 -0.29816186 -0.46312723 0.6319298
-0.73838496 -0.042715166 0.13185452 -0.55408317 -0.36655805 -1.3606335 -0.6826452 -0.7151003
0.7211275 -1.0120703 -0.14748242 0.42678455 -0.86609304 -0.7681343 -1.5030031 0.63322836
-1.710719 -0.74882054 0.638591 -1.597266 0.49191347 0.5904029 -0.27322415 0.045329023
-0.13212617 -0.4306518 0.3824133 -0.56021327 -0.27268898 0.72155917 -0.6813698 -0.4424207
-1.3628151 -0.36822695 -0.50738657 0.5037181 -0.6697032 0.068411276 0.53620666 -0.48250788
-0.6333843 0.2816497 -0.54197097 -0.5949077 0.61596954 -0.6634551 -0.3147773 0.6436998
-0.91407996 -0.33141965 -0.02873693 -0.2099795 -0.6350856 0.5651985 -0.63112694 -0.28503522
0.6890726 -0.7125115 -0.5212684 -1.3325576 -0.48152965 -0.69351286 -0.7305522 -0.25939643
-0.12736589 0.6151278 -0.023592185 -0.3299954 -1.3230084 -0.29827037 -0.6081481 -0.42818934
-0.6058535 0.024256708 0.7103358 -0.30333596 -0.27505076 -1.447203 -0.25898442 -0.5661713
0.3493305 -0.6324021 0.03452005 0.54726094 -0.4432339 -0.18812217 0.35981318 -0.37499377
-0.45029232 0.7802919 -0.9636089 -0.3808827 0.6639224 -1.1586325 -0.53823674 -1.5971053
-0.33258313 -1.3892001 -0.07411102 0.46185276 -0.01983573 0.48986 -0.10618959 -0.73929
-1.5758368 0.3403749 -1.6110897 -0.8440373 0.6798117 -0.90810883 0.6183388 0.45531502
-0.4000185 -1.2762227 -0.34300324 -0.6254945 -0.6081878 -0.42343614 -0.049017318 0.62595826
-0.1313883 -0.44009498 -1.3412449 -0.3415461 -0.48503172 -0.33033863 -0.23216763 -0.15885207
0.65162665 -0.098371945 -0.78813183 -1.4108992 -0.5293368 -1.3404373 -0.5807104 0.48863593
0.38699758 0.5301727 0.36180994 -0.7441442 -1.4069861 -0.8387196 -0.8191038 -0.34461525
-0.13435647 0.55506516 0.4389411 0.47271374 -0.4832913 -1.2515073 -0.243502 -0.91350347
-0.7436699 0.3439638 -0.24173257 0.5009535 -0.32550183 -1.491159 -0.97978026 0.69723505
0.24372639 -0.9338817 0.8730266 -0.8997334 -0.04916795 0.36805242 -0.6116447 -1.5062004
-0.5031794 -1.5040058 0.07588706 0.5500163 -0.7366358 0.520426 0.21713401 -1.6718985
-1.3818759 0.38666126 0.25959313 -0.574457 0.8450677 0.67155296 0.5463042 0.048233915
-0.27979887 0.0376407 -0.23381133 -0.5405673 0.47984314 -0.61277056 -0.15159883 0.59956324
-0.7518841 -1.3687745 -1.4271307 0.0604866 -1.482806 -0.3616574 0.482298 0.18016799
0.45445234 0.6470512 -0.19147326 -0.8297893 -0.41846734 -0.569108 0.75678134 -1.1974591
-0.24586996 0.16664091 -0.9822298 -0.831444 -1.5707904 0.6575353 -1.5476836 -0.34958753
0.49928632 -1.4310017 0.46138954 0.61367244 -0.6252247 0.7865493 0.7279268 -1.6174774

bias f4 [32]
00000000: d438 01bf 5c9f 493d c2d1 4e3f e2c7 e7be
00000010: 61c3 a83d ca3f 1f3f d0ce 88be 11b8 1cbe
00000020: 65f8 f4be 9af0 27be 5b70 39be c4d1 1dbf
00000030: 11c6 4dbe fba0 0cbe 876a d93e 45e5 313f
00000040: 2bb1 dfbe 0235 06bf 0ae8 ec3e e85d c13e
00000050: 8ad0 6ebb cd27 e43e ffa2 253f d56f 643d
00000060: 49e9 7fbe 7d41 273f 654c 51be 00a2 463f
00000070: 293b ce3e 32ea e8be 6d17 a3bd 0604 dabe
-0.5047734 0.049224243 0.80788815 -0.45269686 0.082403906 0.6220671 -0.26720285 -0.15304591
-0.4784576 -0.16400376 -0.18109266 -0.616482 -0.20095088 -0.13733284 0.42464086 0.6949046
-0.43689856 -0.52424634 0.46270782 0.37766957 -0.0036440217 0.44561616 0.6470184 0.055770714
-0.24991335 0.653343 -0.20439298 0.7759094 0.4027951 -0.45491177 -0.079634525 -0.42581195

weight f4 [32, 32, 3, 3]
00000000: 2ea0 183f 8ff4 643f 0e1f a63e 019d a63e
00000010: 4acd 243e ca3c 16be ae38 8fbe 80ca ccbd
00000020: c935 39be dd8b 57be 7805 41be 2bdb 7cbe
00000030: 4416 8fbe 40ca 8d3d f56b 7f3e 5a23 5fbe
00000040: dd85 f8bd dc77 d63c 3da4 233f 4e7d 823f
00000050: 459a 6b3c 7e35 cf3e 2411 2a3e 57f8 aabd
00000060: 6496 aabe 14b2 4cbe e388 cc3d 0199 ffbd
00000070: bca7 8abd ba96 d0be 4623 33be ffe3 d43e
00000080: fb1b 803e bfa1 06be 1d3d cebd ba5b 89bd
00000090: 4f62 213f ec6f 0a3f fe1d c83e 19d9 c43e
000000a0: ac0f 383e fc24 0dbe d063 98be e12c 16be
000000b0: 836b 31be 7492 863e 11d3 b73e 3b77 35be
000000c0: 5e9a 533e aa5b d43d 8fd5 d4be bc98 afbc
000000d0: 988e 20bd 681f ff3d a462 f63e b579 3d3f
000000e0: afd0 ab3d 3905 903e c053 bcbd 6ff0 bbbd
000000f0: 14cf d6bc 7145 35bd 7677 623e d10f 5a3f
00000100: c6ba a63e ee98 0fbe 8b16 ad3e f7bb db3d
00000110: c33e efbd abd0 cabe 34f7 dabb 348b 41bc
00000120: e287 333e 25d7 acbe 17d0 0e3e 4477 143e
00000130: 95fc d23d 843d 1cba bbdc 303e edc1 32b9
00000140: 48af 033e eeda 1e3f fee3 0c3f 45ef 0e3e
00000150: 32ed bb3e b862 8e3d 9962 17bf 8d0a 61be
00000160: 2140 bfbd 5347 1d3c de5f 813e fc03 81be
00000170: b919 41be e9d3 61be 782c 83be 518a 78be
00000180: 7da1 f3bd 9b34 fcbd fc01 dfbd a747 4c3e
00000190: 61de a1bd 1bcc 2cbd fb58 813e 79ad 0f3e
000001a0: 4d0a 91bc 7ca6 99be 999e 94bd df0c 113e
000001b0: 04b8 3d3f 3c78 133f b693 55be a58d b63e
000001c0: e3d8 d3be 1de1 0dbf 86ae 93be 5b59 81bd
000001d0: befc 93be baec cf3d 6a2a 4fbe 595e 863d
000001e0: 3ab2 633d 9193 d9b9 3fd2 933d 085c 023e
000001f0: e3a7 cdbb 0c58 bc3d a8c0 69be e589 03be
00000200: dc9f d7be dc61 bfbe ef58 d23d 0492 503e
00000210: b06e 1ebe e3a4 43be ad67 8ebd 3adb 5b3e
00000220: 8288 283f 8478 d63e 2109 763e fda0 eb3d
00000230: d73d ee3d 8f02 29be 2318 62bd bda5 bd3e
00000240: 87bf 1f3f 413a 0a3f eced 343e beeb b63e
00000250: 12be 0cbf 077d 09bf 8e5a 79be bb49 9dbd
00000260: b91e da3b ac0f cb3e 13bd 063f 3754 b93e
00000270: f289 ab3e 2737 abbe 2ea2 1cbf ee2c 40be
00000280: 9e7e bdbd 48f8 70be 1aac 1b3f 91ed a93e
00000290: bb36 9d3e d9f8 943e 93ae b73d 011e 5dbd
000002a0: c772 90be 9e4c 9a3d 7be3 aebd 0188 4ebe
000002b0: 11f1 653e 45f0 bbbd 866c 97be 8a62 283d
000002c0: ab12 073f 85b0 83be f675 413e f542 e0bd
000002d0: 3ee3 8d3e 6dbf dcbd abf3 ee3d 5d1c 403e
000002e0: 6549 2a3e f5a6 e73d b0a2 063e 353e 0f3c
000002f0: d4b7 d93d 4032 2d3f 5fca 113f e422 18bd
00000300: 3352 e93e 6c08 073e 5d19 8ebd 8dc4 c0be
00000310: 6007 13be 1ed7 b83c db05 7ebe 2d48 f8be
00000320: a2ca b83d 0028 89be 7744 e03e 1376 543e
00000330: f548 3fbe 9c8d ef3b 4e6d f43e 3976 1bbe
00000340: 6835 6c3e 807c bfbd 6597 b5be 37e3 973c
00000350: 7026 0b3e fe7e 26be c9fd 833e f7a5 1ebe
00000360: 09ee 3cbe b45c 6cbe 4e09 40be 52a3 84be
00000370: fc50 f73d 5f0f 1c3f 4c5f 5bbe 2d1a 09be
00000380: bc0b d33b 7ad4 47be 039f a5be f855 fa3d
00000390: 3ff3 92be 7c46 ae3e 57f0 873e 1024 0fbe
000003a0: 36b2 e1bd e066 933e b46d 3ebe 6a1d 7c3e
000003b0: 0801 99bd 6ad2 b6be 721f f73d dc6d b03e
000003c0: 2450 6ebe 0253 1f3e f21d 46be 5c87 2bbe
000003d0: c8e4 603e c407 1ebe cbb0 9fbe e16c 003e
000003e0: a9cd 673e 0387 3bbe 8726 bd3d 31f5 3cbe
000003f0: dd8c 3c3e 64e5 943e 7062 7f3d af4f 333e
0.59619415 0.89435667 0.32445568 0.3254166 0.16093937 -0.14671627 -0.2797293 -0.09999561
-0.18086924 -0.21049447 -0.18849742 -0.24692981 -0.27946675 0.06923342 0.24943526 -0.2179083
-0.121349074 0.0261802 0.6392248 1.019449 0.014380042 0.404705 0.16608101 -0.08348148
-0.33317864 -0.19989806 0.099870466 -0.12480355 -0.06770274 -0.40739995 -0.17493924 0.41580197
0.25021347 -0.13147639 -0.1007025 -0.067069486 0.6304063 0.5407703 0.39085382 0.38446882
0.17974728 -0.1378364 -0.2976365 -0.14665557 -0.17326169 0.2628361 0.35903218 -0.17721264
0.20664355 0.10369046 -0.41569182 -0.021435134 -0.039198488 0.12457162 0.48122132 0.74013835
0.083894126 0.28128985 -0.091956615 -0.091767184 -0.02622179 -0.044255678 0.22115883 0.85180384
0.32564372 -0.14023182 0.3380626 0.10729211 -0.11681893 -0.39612326 -0.006682301 -0.011812974
0.17532304 -0.33757892 0.13946567 0.14498621 0.103020824 -0.0005960094 0.17271702 -0.00017047646
0.12859833 0.6205281 0.5503539 0.13958462 0.36704403 0.06952423 -0.59134823 -0.21976681
-0.093384035 0.009599525 0.25268453 -0.25198352 -0.18857469 -0.22053494 -0.25619864 -0.24271514
-0.11896036 -0.12314721 -0.1088905 0.19949208 -0.079037435 -0.042186838 0.252632 0.14031018
-0.017705107 -0.3000983 -0.072568126 0.14165066 0.7410891 0.5760534 -0.20857129 0.3565494
-0.4137641 -0.5542162 -0.28844088 -0.06315871 -0.28903764 0.10152574 -0.20231023 0.06560964
0.055589892 -0.0004149941 0.07217836 0.1273042 -0.006276117 0.09196481 -0.22827399 -0.12845571
-0.4211415 -0.37379348 0.10270869 0.203682 -0.15471911 -0.19105868 -0.06953368 0.21470347
0.65833294 0.4188882 0.2402692 0.115053155 0.11632889 -0.16504882 -0.0551988 0.3704051
0.6240162 0.5399514 0.17668885 0.35726732 -0.54977524 -0.537064 -0.2435095 -0.076800786
0.0066564945 0.39660394 0.52632254 0.36197063 0.3350368 -0.33440515 -0.61184967 -0.1876714
-0.09252666 -0.23532212 0.6080948 0.3318906 0.3070582 0.29096106 0.08968844 -0.053983692
-0.28212568 0.07534145 -0.08539482 -0.20169069 0.22455241 -0.09176687 -0.29574984 0.0411096
0.5276286 -0.2572061 0.18892655 -0.10950271 0.27712435 -0.10778699 0.1166757 0.1876082
0.1662956 0.113111414 0.13147998 0.008742859 0.106307656 0.676548 0.5694942 -0.03714265
0.45570526 0.13186806 -0.069384314 -0.37649956 -0.14358282 0.022563513 -0.24806921 -0.48492566
0.09023024 -0.2678833 0.43802235 0.20748167 -0.18680175 0.0073105823 0.47739643 -0.15181817
0.23067248 -0.09349918 -0.35467067 0.018540962 0.13588881 -0.16259381 0.2577956 -0.15492998
-0.18450178 -0.23082238 -0.1875355 -0.25905854 0.120759934 0.60960954 -0.21423072 -0.13388892
0.006440608 -0.19514647 -0.3234788 0.122234285 -0.28701207 0.3403815 0.26550552 -0.139786
-0.11020319 0.28789425 -0.18596536 0.24620596 -0.074709 -0.35707408 0.120665446 0.34458816
-0.23272759 0.15559009 -0.1934736 -0.16750854 0.21962273 -0.1543265 -0.3118957 0.12541534
0.22637047 -0.18313222 0.09235864 -0.18452908 0.1841311 0.2908126 0.062349737 0.17510866

bias f4 [32]
00000000: 247e 94be e546 f0be 68cf aebe ff14 07bf
00000010: cb9a c0be 0089 ffbe b090 06bf d40c 5ebe
00000020: cd90 f1be 7588 4ebe 5c1a 3f3f 4a2e 0cbf
00000030: ff11 00bf c317 f2be f767 1cbf 032b 71bf
00000040: adb8 b1be 776d f9be f5db 9fbe df40 43bf
00000050: 8e8f babe 9efb 11bf bf88 a3be e326 21bf
00000060: d6a1 03bf 859f 0fbf 11a5 12bf f0ae 0fbf
00000070: 8986 b9be 8a9d 78be 84ef 33bf 41d4 fabe
-0.29002488 -0.46929088 -0.34142613 -0.5276641 -0.37618098 -0.4990921 -0.52564526 -0.21684581
-0.47180787 -0.20169242 0.74649596 -0.5475813 -0.5002746 -0.47283754 -0.6109614 -0.94206256
-0.3471121 -0.48716328 -0.312225 -0.7627086 -0.3643765 -0.5702456 -0.31940266 -0.6294996
-0.5141882 -0.5610278 -0.5728312 -0.5612631 -0.36235455 -0.24278846 -0.70287347 -0.48990062

weight f4 [32, 32, 3, 3]
00000000: 99f4 2d3d caed 8bbf edb3 233e d1dc efbe
00000010: 0f5b a6be 1ee7 6f3c 3aef 023e 58b3 a83e
00000020: 684e 8b3e 4d51 983d f88f a73d c5ac 023e
00000030: a533 073e 19d9 4abd 08f8 343e e979 493e
00000040: 1c7c 453e a6c9 1a3e acb8 e0bd 0edf 13be
00000050: 4063 35be 191c 95be b2d2 3dbe 2b71 763d
00000060: 43fd 1ebe 5da5 0cbe c636 05be 83b3 16be
00000070: 7b49 3c3d b012 f0bd 8084 6abe fdd4 8f3e
00000080: c417 abbd fb88 be3e 29f5 193e d70d 1c3e
00000090: 8462 863d 672a 023e 4051 b93d 4cba 2bbd
000000a0: 7ca8 1a3e ea1e 293d abe3 233e 96a6 0c3e
000000b0: 2387 503e e357 9e3d e8ee 103d 0251 2b3e
000000c0: dffc 94bd 6b94 36be 497b f53d 0786 f13d
000000d0: 42b0 223c fceb 373e 2d1b 8bbd 1a58 033e
000000e0: ecbd f53d 54e6 37be 4b57 df3c 95fa f2bd
000000f0: 910a 123e 5c10 893e 356d 5d3e a92d 20be
00000100: 8852 19be d20b 2cbe 615d 0bbe 2992 1dbe
00000110: be7f 27be 77bb 11be dc30 3bbe ca8a 39be
00000120: a9d9 1fbe c411 27be 999e 35be cc36 c8bd
00000130: 2b4d 04be 46c3 dfbd ed15 27be 8ddf 11be
00000140: 911e 1ebe 9287 72bd 8410 d9be 70f1 cd3c
00000150: 1c31 02bd 07d8 98be f97d 45be 71aa 66be
00000160: 2a22 debe ae93 67be c7d8 243e 4984 4d3d
00000170: 0efa 063e 6e59 a2be a5a5 a1be a64f 9bbc
00000180: f737 033e 0573 163e e236 633e 3bf7 30be
00000190: e0ac 17be 1de1 2fbe abf2 2fbe ff23 0cbe
000001a0: 2666 d7bd b8b1 3bbe 1ab9 65be 49a2 cabd
000001b0: c2d1 f53d eb12 a53d 4eb7 123e fe52 b3bd
000001c0: f4a9 633d c5f5 fd3c 1c88 433e 22b1 213e
000001d0: ffc5 4e3e 66cb 3b3e 562e d43e 720c dc3d
000001e0: 8428 9c3e a8d3 e63c 4eda 0bbe 87c2 323e
000001f0: dd85 0e3e 0ac9 dc3d 8584 51bf ddaf 4dbf
00000200: 953d d2be c9a3 f3be e7f6 fcbe d853 a1be
00000210: 853b 32be 7f59 133c e766 953e b3ae 163e
00000220: d24d 313e 11fe 433e 3656 033e d8f5 9dbe
00000230: 8410 d73d 2b37 aa3d 9fc6 1b3e 38ec 2b3e
00000240: 779d a73d 9016 b93d 9bc0 073e 967f e03d
00000250: 86bf 99bd d303 493e 8385 113e f45c 303e
00000260: 996b 523e 8af7 d03d 7541 7d3d 4862 323e
00000270: cffb 8bbd c927 cdbb df60 323d 482a db3d
00000280: e406 233e a239 303e f2f8 8bbe b3bf 52be
00000290: 747c 373e 739a 2dbe 3e78 acbe aee3 c43d
000002a0: 5169 a5be fa46 88be 5740 903e 56bb 37be
000002b0: f795 13be 5d86 26be 3b71 2fbe bf7c 25be
000002c0: 3576 0abe aa11 fdbd 34b3 47be 0834 11be
000002d0: a6a8 1ebe 8d2e 14be adb7 e0bd a1ba e3bd
000002e0: 50be d13c 3a41 4abe 0ba9 f1bd 7673 4bbe
000002f0: 0d1d 2dbe 4719 8fbd 8df6 cabd de00 c6bd
00000300: c9f1 cfbd b24b 09be b225 d2bd e33d a4bd
00000310: a7ec 01be 4332 23be ee64 83bf 45b1 3fbf
00000320: 69db a1be 0c51 f6be ceb7 dabe c9db 933d
00000330: cfce 03be bcc1 593c 6e5d 293e 9933 a1be
00000340: 2ec9 2cbe 7b58 a23e 708c d2be ee80 6cbe
00000350: 7106 c33d a3ab bdbe d77e babd 90c1 8f3e
00000360: e11b b13d cea5 a4bd f654 f23d 5381 45be
00000370: d813 09be ff74 b33e 8565 153e f306 0fbd
00000380: 1643 0b3e 5d85 40bf 4e17 84bf 376d e5be
00000390: eb0e d1be b87b a9be 14fd 85bb 15a5 40be
000003a0: 6160 a1bc 74f4 363e 0aff 0cbe 0271 83be
000003b0: 67c2 b5bd 3470 c6be b580 5fbe af4c 08be
000003c0: 7984 8fbd 109e a6bd d4b2 a3bd 86cb 59bf
000003d0: 0a7e 8ebf 5155 4dbe 3c8a e1be a0ab a6be
000003e0: 1036 fcb9 e195 e0be 9132 673e 3099 943e
000003f0: 15f8 d2be db90 17be 4371 16be d471 e4be
0.042469595 -1.0931942 0.15986605 -0.46848157 -0.32491347 0.014642505 0.1278657 0.32949328
0.27208257 0.07437382 0.08181757 0.12761219 0.13203295 -0.049523447 0.17672741 0.19675411
0.19285625 0.15115985 -0.10972723 -0.14440557 -0.17713642 -0.29123 -0.18537405 0.06016652
-0.15526299 -0.13734956 -0.13009176 -0.14716916 0.045968514 -0.11722314 -0.22902107 0.28092185
-0.08354142 0.37213883 0.15034927 0.15239654 0.06561759 0.12711488 0.090487 -0.041925713
0.15103334 0.041289248 0.16004817 0.13735422 0.2036405 0.07731607 0.03538409 0.16730121
-0.07274794 -0.17830054 0.119864054 0.11793142 0.009929718 0.17961115 -0.06792293 0.12826577
0.11999115 -0.17958957 0.027263304 -0.11864201 0.14261843 0.26770294 0.2162369 -0.15642418
-0.1497289 -0.16801384 -0.1360984 -0.15387787 -0.16357324 -0.14231668 -0.18280357 -0.1811935
-0.15610375 -0.16315371 -0.17736281 -0.09776077 -0.12920062 -0.10925917 -0.16316958 -0.14245434
-0.15441348 -0.05921132 -0.42395413 0.02513954 -0.031785116 -0.29852316 -0.19286336 -0.22525956
-0.4338544 -0.22614929 0.16098319 0.050174985 0.13181326 -0.31708854 -0.3157169 -0.018958878
0.12814318 0.14692314 0.22188905 -0.17281811 -0.1481204 -0.17175718 -0.17182414 -0.13685606
-0.1051753 -0.18329513 -0.22433892 -0.09894235 0.12002899 0.08060249 0.14327738 -0.08756064
0.055582 0.031000981 0.1909489 0.15790227 0.20192717 0.18339309 0.41441602 0.10744561
0.3049966 0.028177097 -0.13657495 0.17457019 0.13918252 0.10780533 -0.81842834 -0.8034647
-0.41062608 -0.47585896 -0.49407122 -0.3150928 -0.17405517 0.0089935055 0.2918007 0.1471508
0.17314842 0.19139887 0.12825856 -0.30851626 0.10501197 0.08311304 0.15212487 0.16789329
0.08184331 0.090375066 0.13257067 0.10961835 -0.07507233 0.19630365 0.14211087 0.17222959
0.20548858 0.10203464 0.061830003 0.17420304 -0.06835138 -0.0062608463 0.043549415 0.10701424
0.15920597 0.17209485 -0.27338368 -0.2058094 0.17918569 -0.16953449 -0.33685488 0.09613739
-0.32306913 -0.2661665 0.28174087 -0.17942557 -0.14412676 -0.16262193 -0.17133038 -0.16160868
-0.13521655 -0.12356885 -0.19501954 -0.14180005 -0.15494022 -0.14470883 -0.109725334 -0.11119581
0.025603443 -0.19751444 -0.117998205 -0.19868264 -0.16905613 -0.06987243 -0.09910307 -0.09668134
-0.10153539 -0.13407782 -0.10261096 -0.080196165 -0.12687932 -0.15937142 -1.0265176 -0.74879867
-0.3161271 -0.4810871 -0.42718357 0.07219655 -0.1287186 0.013290819 0.16539547 -0.31484678
-0.16873619 0.3170813 -0.4112277 -0.23096058 0.09522713 -0.3704501 -0.09106224 0.28077364
0.086478956 -0.08039437 0.11832611 -0.19287615 -0.13386476 0.35050198 0.14589508 -0.034918737
0.1359981 -0.75203496 -1.0319612 -0.44809887 -0.40831694 -0.33102202 -0.004089007 -0.18812974
-0.019699277 0.17866689 -0.13769165 -0.25672156 -0.0887497 -0.3875748 -0.21826442 -0.13310502
-0.07007689 -0.08135617 -0.07993093 -0.8507618 -1.1132214 -0.20052077 -0.44050777 -0.32552814
-0.00048105465 -0.4386435 0.22577883 0.29023123 -0.41204897 -0.14801352 -0.14691643 -0.44618094

bias f4 [32]
00000000: 6d4f 2f3c 12e1 303e 2a7e 33be 3457 d33d
00000010: e37b 153e be0d f63d 991d c43d 2eb2 16be
00000020: 2f2e 32be 4a0f 063d c27c 22bc d91e c6bd
00000030: 1939 073d 9fb6 cbbd 038f 883e 5163 e33d
00000040: afe9 783d d2ef d33d b105 09bd 0225 1bbe
00000050: bf9b 09be 1908 26be f95a 3a3e 6fef 0a3e
00000060: 34b3 2f3d af05 253e 8edf 2dbd 9dd1 5a3e
00000070: f75a 07be 06f4 893d 2cf9 98bd 610f 04be
0.010700089 0.17273358 -0.17528597 0.10319367 0.1459804 0.1201434 0.09575958 -0.14716408
-0.1740043 0.032729425 -0.00991744 -0.096738525 0.033013437 -0.099469416 0.2667161 0.111029275
0.060769733 0.103484765 -0.033452693 -0.15150836 -0.13438319 -0.16214027 0.18198766 0.13567899
0.04289551 0.1611545 -0.042449526 0.21369024 -0.13218294 0.06735997 -0.07469401 -0.12896492
