models/proto.pth (torch_old, 183633 bytes, 18 tensors)

weight f4 [32, 1, 3, 3]
0	0xbefcf031	-0.49402002
1	0xbeccda69	-0.40010384
2	0x3c99ba4d	0.018765593
3	0xbf042729	-0.51622254
4	0xbeca0dd1	-0.39463666
5	0x3b84d289	0.004053418
6	0xbee3a704	-0.4446336
7	0x3de0c55e	0.10975145
8	0x3e88cff2	0.2672115
9	0xbeb2239d	-0.34792796
10	0xbe8e791d	-0.27826777
11	0xbe3002b7	-0.17188536
12	0xbdf64473	-0.120247744
13	0xbe900d36	-0.2813508
14	0xbef88428	-0.48538327
15	0x3db43796	0.08799665
16	0x3e026103	0.1273232
17	0xbd89ee72	-0.06734933
18	0xbca7ef17	-0.02049975
19	0x3d1118f9	0.035424206
20	0xbc613e72	-0.013747798
21	0x3edce4a6	0.43143195
22	0x3e41805d	0.18896623
23	0x3f0c048d	0.54694444
24	0x3ebdafeb	0.37048277
25	0x3e476a58	0.1947416
26	0x3e083a89	0.1330358
27	0x3e9ed415	0.3102118
28	0xbe30ee28	-0.1727835
29	0xbb1d5be6	-0.0024011075
30	0x3ed41c7e	0.41427988
31	0xbdaa4411	-0.08313764
32	0x3e0c7d18	0.13719594
33	0x3e4e8cd2	0.20170906
34	0x3e4e8fcb	0.2017204
35	0x3f073b72	0.5282508
36	0xbe4b86c6	-0.1987563
37	0xbefb1ffa	-0.49047834
38	0xbd85b92d	-0.0652946
39	0xbf01b19d	-0.5066164
40	0xbe9dd391	-0.30825475
41	0xbe90cdfa	-0.28282148
42	0xbf03974b	-0.5140273
43	0xbf47307e	-0.7780837
44	0xbd2c756a	-0.042104162
45	0xbe84d96b	-0.25947127
46	0x3e1fd855	0.15609868
47	0xbea9ffd7	-0.33203003
48	0xbe5db136	-0.21649632
49	0x3e4bcf5e	0.19903323
50	0xbeaa6c56	-0.3328578
51	0x3d0be1e8	0.034150988
52	0x3ded6173	0.115908526
53	0xbe33fdff	-0.1757736
54	0xbea9b637	-0.3314683
55	0xbf01c403	-0.50689715
56	0xbde1364f	-0.10996687
57	0xbde5c819	-0.11219806
58	0xbdf6989b	-0.12040826
59	0xbe14029a	-0.14454117
60	0x3de0240b	0.10944375
61	0x3d8f6ab5	0.070027746
62	0x3c17b330	0.00925903
63	0x3f27903f	0.6545448
64	0x3ef1ca15	0.4722449
65	0xbbba9295	-0.0056937435
66	0x3f056f0b	0.52122563
67	0x3eb386dc	0.35063827
68	0x3f027cb3	0.50971526
69	0x3f02232d	0.50834924
70	0x3f531eaa	0.82468665
71	0x3ef01861	0.468936
72	0xbe1d8b7a	-0.15385237
73	0x3e394b04	0.18095022
74	0x3dbc7a6b	0.09203037
75	0x3ecad2af	0.39613864
76	0xbdaca51e	-0.08429931
77	0x3e27faca	0.16404262
78	0x3ee25bc9	0.44210652
79	0x3e93d3be	0.28872484
80	0x3e9388ca	0.288153
81	0xbe2c236e	-0.1681039
82	0xbe436a21	-0.19083454
83	0xbe3e403d	-0.18579192
84	0xbeb9af8a	-0.36266738
85	0xbec62871	-0.3870273
86	0xbd9c241d	-0.076240756
87	0xbf199e8b	-0.6000754
88	0xbeab6bae	-0.3348059
89	0xbe91b19f	-0.28455827
90	0x3d23fd74	0.040036634
91	0x3ef820b4	0.4846245
92	0x3ecd5e7f	0.40111157
93	0xbd858265	-0.065190114
94	0x3f03acbf	0.51435465
95	0x3e84dd39	0.2595003
96	0x3e9eaec8	0.30992723
97	0x3ced9cf0	0.029005498
98	0x3ef29882	0.4738198
99	0xbe92a1a0	-0.28638935
100	0x3dbf23fc	0.09333035
101	0x3f3e0cc4	0.7423823
102	0x3e260217	0.16211735
103	0x3f0ac179	0.54201466
104	0x3ebd16ee	0.36931556
105	0xbdd85133	-0.105623625
106	0x3e06c23c	0.13160032
107	0x3ef0f0d5	0.4705874
108	0x3e4fc6a8	0.20290625
109	0x3e645146	0.22296628
110	0x3eed8e97	0.4639785
111	0x3f12f0ac	0.57398486
112	0xbe1103ee	-0.14161655
113	0x3cdd36f6	0.027003746
114	0x3f02e94c	0.5113723
115	0x3e056b3d	0.1302919
116	0x3e0c2ccc	0.13688964
117	0xbef9694f	-0.48713157
118	0xbe1481f3	-0.14502697
119	0xbee5594e	-0.44794697
120	0x3da0f8b7	0.078599386
121	0xbe9d809b	-0.3076218
122	0xbe8f7045	-0.28015342
123	0xbdb5c204	-0.08874896
124	0x3d8bad64	0.06820181
125	0x3e816bbc	0.25277507
126	0x3e7c79d6	0.24655852
127	0xbdf135c9	-0.11777837
128	0x3f0c54a6	0.54816663
129	0x3e190673	0.14943866
130	0x3e8f6b26	0.28011435
131	0x3d80c662	0.062878385
132	0xbd0e675d	-0.034766544
133	0x3e190f15	0.1494716
134	0x3e46ecb4	0.19426233
135	0xbef27a06	-0.47358721
136	0xbe53abaa	-0.20670953
137	0xbe8ea005	-0.2785646
138	0xbf18a64a	-0.59628737
139	0xbec1f9de	-0.37885946
140	0xbdca028d	-0.09863768
141	0xbe0608be	-0.13089272
142	0xbd6c0e69	-0.05763093
143	0xbd841d7f	-0.064509384
144	0xbd9b79d0	-0.07591593
145	0x3e217a47	0.15769301
146	0xbf05802e	-0.5214871
147	0xbf0b119b	-0.5432374
148	0x3be5b139	0.007009652
149	0x3da49b36	0.08037417
150	0xbed4d09f	-0.41565415
151	0x3cebe406	0.028795253
152	0xbe95ce78	-0.29259086
153	0xbec059a6	-0.37568396
154	0x3deb5aa1	0.114918955
155	0xbede5221	-0.43422034
156	0xbe19c376	-0.15015969
157	0x3d62b21f	0.05534565
158	0xbc44708d	-0.011989725
159	0xbebaae65	-0.36461177
160	0x3d50900f	0.050918635
161	0xbebf3681	-0.3734627
162	0xbf0d9268	-0.55301523
163	0xbee80cfd	-0.4532241
164	0xbd2428d8	-0.040078014
165	0xbe8e13cc	-0.2774948
166	0x3ad5b05a	0.0016303167
167	0xbde18947	-0.11012512
168	0xbef4e85b	-0.47833523
169	0xbb993772	-0.004675799
170	0xbf040f71	-0.5158606
171	0xbef3b97e	-0.47602457
172	0xbedefcff	-0.43552396
173	0xbe441da1	-0.19151928
174	0xbeab222d	-0.33424512
175	0xbedb990b	-0.428902
176	0xbd176ddd	-0.03697001
177	0x3f5ab0c6	0.85425985
178	0x3f63ec5b	0.89032525
179	0x3eea4dde	0.45762533
180	0xbe3e919c	-0.18610233
181	0xbe42b28d	-0.19013424
182	0xbf07b445	-0.53009444
183	0xbdb867f8	-0.090042055
184	0x3da7acba	0.08187242
185	0xbdc3437f	-0.09534358
186	0x3e82db17	0.25557777
187	0xbeb18201	-0.34669498
188	0xbed5e2b0	-0.4177451
189	0xbe07acc4	-0.13249499
190	0x3e020164	0.12695843
191	0xbeb76a02	-0.35823065
192	0xbe785ef7	-0.24254976
193	0xbe29e0b3	-0.16589622
194	0xbe03b78e	-0.1286299
195	0xbe6ccc36	-0.23124775
196	0xbf04e119	-0.5190597
197	0xbe810970	-0.25202513
198	0x3e906f2e	0.28209823
199	0x3de5ce80	0.112210274
200	0x3c31cd30	0.010852143
201	0xbd8bbbac	-0.06822905
202	0x3da9f278	0.082982
203	0x3f02ff12	0.51170456
204	0x3e0b41b5	0.13599284
205	0x3ec7da9f	0.39033982
206	0x3e6bb946	0.23019895
207	0x3e977919	0.29584578
208	0x3e49d9d7	0.19712006
209	0x3f0d993d	0.5531195
210	0x3ef79449	0.4835532
211	0x3bb0a719	0.0053910133
212	0x3e27a0ad	0.16369887
213	0x3e92a7a8	0.28643537
214	0x3eeb1f45	0.45922294
215	0x3edc0c7a	0.4297827
216	0xbe3a7bbb	-0.18211262
217	0x3e32ec14	0.17472869
218	0x3f037dca	0.51363814
219	0xbd8efdaa	-0.06981976
220	0x3ea1ebbf	0.31625172
221	0x3da57aad	0.08080039
222	0x3ec77c2f	0.38961932
223	0x3e59f2c0	0.21284008
224	0x3f055234	0.52078557
225	0x3ebbfd41	0.36716655
226	0xbd8655d3	-0.065593384
227	0x3f0bee04	0.5466006
228	0xbdc0b5cf	-0.09409677
229	0x3e3935e4	0.18086964
230	0x3ef5926f	0.47963282
231	0x3eb1fd1b	0.34763417
232	0xb80fbda2	-3.4270466e-05
233	0x3eb38e8b	0.3506969
234	0x3d99457d	0.07483957
235	0x3deb233f	0.11481332
236	0xbbd7c8d7	-0.0065852213
237	0x3ebd49e6	0.36970443
238	0x3f0972c7	0.5369076
239	0x3eeb90f5	0.4600903
240	0x3edf86fd	0.43657675
241	0x3dc62513	0.0967504
242	0x3df25a54	0.11833635
243	0x3eaebce3	0.34128484
244	0x3ea279c2	0.3173352
245	0x3c848f1f	0.016181527
246	0x3c4cc0d7	0.0124971485
247	0x3e6de0d1	0.23230292
248	0x3e3fcf4a	0.18731418
249	0x3ef0265a	0.4690426
250	0x3e9b4c35	0.3033158
251	0x3dd81da4	0.105525285
252	0x3dfd4fe1	0.12368751
253	0x3de54d68	0.11196405
254	0xbc4785cf	-0.012177899
255	0x3eee3291	0.46522954

bias f4 [32]
0	0xbf34e87e	-0.70667255
1	0xbf25d739	-0.6478153
2	0x3f7255d3	0.9466221
3	0x3f728adc	0.9474313
4	0xbefeda14	-0.49775755
5	0xbf7dd469	-0.9915224
6	0xbef7d258	-0.48402667
7	0xbea2fdcc	-0.31834257
8	0x3d50998b	0.05092768
9	0xbf0558cf	-0.52088636
10	0x3ec3d943	0.38251695
11	0x3f106dbb	0.56417435
12	0x3f568534	0.83797
13	0xbf5bca03	-0.8585512
14	0x3f48d48d	0.78449327
15	0xbf1b0997	-0.6056151
16	0xbf8194a5	-1.0123488
17	0xbf3deec8	-0.74192476
18	0xbf4eee4e	-0.80832374
19	0xbee5a88b	-0.4485515
20	0xbf67800c	-0.9042976
21	0xbf438c0f	-0.7638559
22	0xbdc9ed75	-0.098597445
23	0xbdb4da36	-0.08830683
24	0x3eee1173	0.46497688
25	0x3eba5865	0.36395565
26	0x3f70cd9d	0.9406374
27	0x3f1fb5d1	0.62386805
28	0x3ec80c1e	0.39071745
29	0x3f754d3a	0.95820963
30	0x3ebaac10	0.36459398
31	0x3f380e62	0.71896946

weight f4 [32, 32, 3, 3]
0	0x3e51a78b	0.20474069
1	0x3e6a0e20	0.22856951
2	0x3db36be9	0.087608166
3	0x3e37f35a	0.17963925
4	0x3db2451e	0.08704589
5	0x3e0e5cca	0.13902584
6	0x3e58ce95	0.21172555
7	0x3e140aba	0.14457217
8	0x3e36691b	0.17813532
9	0x3e6ae005	0.22937019
10	0x3e0ce566	0.13759384
11	0x3e052626	0.13002834
12	0x3e58de9f	0.21178673
13	0x3e40bd44	0.18822199
14	0x3e0b9d7f	0.13634299
15	0x3e2baef3	0.16765957
16	0x3e37f6a2	0.17965177
17	0x3e500b32	0.2031677
18	0x3e2b9535	0.16756137
19	0x3df22721	0.118238695
20	0x3e0465e2	0.1292949
21	0x3daff418	0.08591479
22	0x3de2bce3	0.110711835
23	0x3d92b113	0.071626805
24	0x3e0bed5b	0.13664763
25	0x3e098890	0.13431
26	0x3e3a1b5c	0.181745
27	0x3e220296	0.15821299
28	0x3df247ae	0.11830078
29	0x3e0796a7	0.13241063
30	0x3de59836	0.112106726
31	0x3d9ad205	0.07559589
32	0x3e08d5e4	0.13362843
33	0x3e4d04cb	0.2002136
34	0x3de9e0f0	0.114198565
35	0x3e2c60bf	0.1683378
36	0x3e37bfce	0.17944261
37	0x3e0f0e4a	0.13970295
38	0x3e2b3f2a	0.16723314
39	0x3e052fdb	0.13006537
40	0x3e42579d	0.18978734
41	0x3e41613a	0.18884745
42	0x3e3dfcb3	0.18553428
43	0x3e489c1e	0.19590804
44	0x3e122b2f	0.14274286
45	0x3e268a43	0.1626368
46	0x3d9e8b60	0.077414274
47	0x3e335dcf	0.17516254
48	0x3e1697df	0.14706372
49	0x3deacf98	0.114653766
50	0x3da6b07b	0.0813913
51	0x3de93e83	0.11388876
52	0x3e23825d	0.15967698
53	0x3e3094f2	0.17244318
54	0x3e266f42	0.16253379
55	0x3daffbdc	0.0859296
56	0x3d94b5e1	0.07261253
57	0x3e3f8670	0.18703628
58	0x3e073539	0.13203897
59	0x3e15a370	0.14613128
60	0x3db279a2	0.08714606
61	0x3dc146e9	0.09437353
62	0x3da1188d	0.07866011
63	0x3e56d4d3	0.20979623
64	0x3debd695	0.11515538
65	0x3e08f44a	0.13374439
66	0x3e54eb29	0.20792831
67	0x3da6951f	0.08133911
68	0x3e5eb01d	0.2174687
69	0x3e076525	0.13222177
70	0x3e4eb0f5	0.20184691
71	0x3e1f6c8c	0.15568751
72	0x3e3e951c	0.18611568
73	0x3e418be2	0.18901017
74	0x3e137086	0.14398393
75	0x3dd72f53	0.10507073
76	0x3e3f6a74	0.18692952
77	0x3e29ec93	0.16594152
78	0x3e6b89b5	0.2300175
79	0x3e38823a	0.18018427
80	0x3dda73ec	0.106666416
81	0x3e625789	0.22103705
82	0x3e12a9f7	0.14322649
83	0x3e144d7e	0.14482686
84	0x3e3107b6	0.17288098
85	0x3e25318d	0.16132183
86	0x3e352bda	0.1769251
87	0x3e69ad88	0.22820103
88	0x3e1c7d2b	0.15282123
89	0x3e4a7c83	0.1977406
90	0x3e0bc1d6	0.13648161
91	0x3db58d46	0.088648364
92	0x3e39353f	0.18086718
93	0x3e139e37	0.14415823
94	0x3e41724a	0.18891254
95	0x3e158d5a	0.14604703
96	0x3ddd1bac	0.107962936
97	0x3de97c22	0.114006296
98	0x3dbb4936	0.09144823
99	0x3dee567c	0.11637589
100	0x3e3a7e8c	0.18212336
101	0x3d9f2890	0.077714086
102	0x3dbb0d21	0.091333635
103	0x3dba5c74	0.09099665
104	0x3da86cd4	0.08223882
105	0x3e104002	0.14086917
106	0x3e1c97f2	0.15292338
107	0x3d9fdba3	0.07805564
108	0x3e4e0598	0.20119321
109	0x3e0629c8	0.13101876
110	0x3db8c8ce	0.090226755
111	0x3e235b28	0.15952742
112	0x3dd48174	0.10376254
113	0x3da0213e	0.078188404
114	0x3de5d9f0	0.11223209
115	0x3e017077	0.12640558
116	0x3e1815d6	0.1485208
117	0x3e2df169	0.16986622
118	0x3e107d3a	0.1411027
119	0x3e4509d8	0.19242036
120	0x3e4167c5	0.18887241
121	0x3da44bdf	0.08022284
122	0x3dd50092	0.104004994
123	0x3e20ea80	0.15714455
124	0x3ddd19f5	0.107959665
125	0x3df0c15a	0.11755629
126	0x3e0defde	0.13861033
127	0x3e236efa	0.15960303
128	0x3d91e8c0	0.07124472
129	0x3e1fb1b9	0.1559514
130	0x3e046220	0.12928057
131	0x3e0ff014	0.14056426
132	0x3e05ac6a	0.13054052
133	0x3e037fb6	0.12841687
134	0x3d9a28d8	0.075273216
135	0x3e2136a7	0.15743504
136	0x3e1a2004	0.15051275
137	0x3e67d150	0.2263844
138	0x3e30a268	0.17249453
139	0x3e08c55a	0.13356534
140	0x3e0e45ba	0.13893786
141	0x3e49b79f	0.19698952
142	0x3e4c4f15	0.19952042
143	0x3e49aeb1	0.19695546
144	0x3e153e77	0.1457461
145	0x3e15e759	0.14639033
146	0x3e2b4363	0.16724925
147	0x3e0ce5a2	0.13759473
148	0x3e42d953	0.19028215
149	0x3e35e5ed	0.17763491
150	0x3e344e78	0.17608058
151	0x3e3d8c5b	0.18510573
152	0x3e18adcb	0.14910047
153	0x3e3c8b87	0.184126
154	0x3dd2e8c1	0.102983005
155	0x3e29e43f	0.16590975
156	0x3e02df2e	0.12780449
157	0x3e2451be	0.16046807
158	0x3e104742	0.14089683
159	0x3e3f0790	0.18655229
160	0x3e362dc1	0.17790891
161	0x3e3d2904	0.18472677
162	0x3e4e40e3	0.2014194
163	0x3e1adac1	0.1512251
164	0x3e23d898	0.16000593
165	0x3e579ca8	0.21055853
166	0x3e68a82a	0.227204
167	0x3e494fbb	0.19659321
168	0x3e68b569	0.22725452
169	0x3e17581e	0.14779708
170	0x3e559856	0.20858893
171	0x3de94001	0.11389161
172	0x3e0658ef	0.13119863
173	0x3e4de8fe	0.2010841
174	0x3e684ba7	0.22685109
175	0x3e562bef	0.20915197
176	0x3e5ec30d	0.21754093
177	0x3e0486d8	0.12942064
178	0x3df2d225	0.11856488
179	0x3e258a27	0.16165982
180	0x3e08c573	0.13356571
181	0x3d9513e4	0.072791845
182	0x3e06c760	0.13161993
183	0x3e179a2c	0.14804906
184	0x3de32dea	0.11092742
185	0x3e1361e5	0.14392813
186	0x3d945c70	0.072441936
187	0x3dfeb8e3	0.12437608
188	0x3e1d164b	0.15340535
189	0x3e064288	0.13111317
190	0x3e252f2c	0.16131276
191	0x3e136ba7	0.14396535
192	0x3e1d09e1	0.153358
193	0x3e26a2d4	0.16273052
194	0x3e3b1828	0.18270934
195	0x3e053d86	0.1301175
196	0x3e1285f7	0.14308916
197	0x3e02aeea	0.12762037
198	0x3e306e6f	0.17229627
199	0x3e333c70	0.17503524
200	0x3e21d55c	0.15804046
201	0x3e3d40a5	0.18481691
202	0x3e058f8a	0.13043037
203	0x3e0890c7	0.13336478
204	0x3e60f830	0.21969676
205	0x3de7bd1c	0.113153666
206	0x3dada25c	0.08478233
207	0x3e1d6cc0	0.15373516
208	0x3dac527b	0.084141694
209	0x3dd2a3c8	0.10285145
210	0x3e29f756	0.16598257
211	0x3e31d389	0.1736585
212	0x3e090fff	0.13385008
213	0x3de50713	0.1118299
214	0x3ddfe0e3	0.109315656
215	0x3db87fbb	0.09008738
216	0x3e4df365	0.20112379
217	0x3e4c36dd	0.19942804
218	0x3e007112	0.12543133
219	0x3daa3627	0.0831111
220	0x3e150fce	0.1455681
221	0x3db2f62c	0.0873836
222	0x3e2d6bd0	0.16935658
223	0x3e05edf2	0.1307905
224	0x3e0df1e8	0.13861811
225	0x3e0fc6b1	0.14040639
226	0x3d8ec7fc	0.06971738
227	0x3dd28c54	0.10280672
228	0x3e1303e0	0.14356947
229	0x3e39ada5	0.18132646
230	0x3e1e20f1	0.15442254
231	0x3e0c0cd0	0.13676763
232	0x3e2e50d0	0.17023015
233	0x3e12cb57	0.1433538
234	0x3e03d7cb	0.12875287
235	0x3ded4cb7	0.11586898
236	0x3dc1884c	0.09449825
237	0x3e1d60b2	0.15368918
238	0x3e29a4d7	0.16566788
239	0x3e2b7130	0.16742396
240	0x3da42827	0.08015471
241	0x3e2ed5c5	0.17073734
242	0x3e26a540	0.16273975
243	0x3e44f203	0.19232945
244	0x3d8fac9b	0.07015344
245	0x3deb451d	0.11487792
246	0x3ddc8fab	0.1076959
247	0x3ddbb72b	0.10728296
248	0x3e0576c4	0.13033587
249	0x3dc213ea	0.094764546
250	0x3dff5e99	0.12469215
251	0x3e0bc092	0.13647678
252	0x3e3cd051	0.18438841
253	0x3dbd64a1	0.09247709
254	0x3e61af00	0.22039413
255	0x3e13b268	0.14423525

bias f4 [32]
0	0x3e3fd10a	0.18732086
1	0x3e1b4fee	0.1516721
2	0xbe1c2fba	-0.15252581
3	0x3e13c5bd	0.144309
4	0x3e52e860	0.20596457
5	0xbe121147	-0.14264403
6	0x3dc9fe42	0.09862949
7	0x3e16bb80	0.14719963
8	0x3d20a0db	0.039215904
9	0x3f0d96d7	0.5530829
10	0xbe245b52	-0.16050461
11	0x3e6619c7	0.22470771
12	0x3e53d2bd	0.20685859
13	0x3e27736d	0.16352625
14	0x3e22881f	0.15872239
15	0x3d7e5356	0.062091194
16	0x3df58a5b	0.1198928
17	0xbe40081f	-0.18753098
18	0xbe229190	-0.1587584
19	0x3e11ed29	0.14250626
20	0x3e03f03c	0.12884611
21	0xbe1662f8	-0.14686191
22	0x3e420af0	0.18949485
23	0x3d678659	0.05652461
24	0xbe4f5c25	-0.20249994
25	0xbe52e075	-0.20593436
26	0xbe2ae4fc	-0.16688913
27	0x3e3a610e	0.18201086
28	0xbed65a1a	-0.41865617
29	0x3ef3203b	0.47485527
30	0x3e3c96e5	0.18416937
31	0xbe88ba82	-0.26704794

weight f4 [32, 32, 3, 3]
0	0xbe256630	-0.16152263
1	0xbe524396	-0.20533594
2	0xbe113fd4	-0.14184505
3	0xbe1cb640	-0.15303898
4	0xbe1a2c87	-0.15056048
5	0xbe4b6d4b	-0.1986591
6	0xbde0ebd3	-0.1098248
7	0xbe22a8d0	-0.1588471
8	0xbe375c47	-0.17906295
9	0xbdfdece1	-0.12398697
10	0xbe333e1c	-0.17504162
11	0xbde24fbd	-0.11050365
12	0xbe075035	-0.1321419
13	0xbde67187	-0.11252122
14	0xbde528e5	-0.11189441
15	0xbd9c5de6	-0.07635097
16	0xbe1acd0f	-0.15117286
17	0xbe2151ab	-0.1575381
18	0xbe2735b0	-0.16329074
19	0xbe475250	-0.19464993
20	0xbe311cc8	-0.17296135
21	0xbdb0f1d4	-0.08639875
22	0xbe0b280f	-0.135895
23	0xbe469a75	-0.19394858
24	0xbe076082	-0.13220409
25	0xbe048309	-0.12940611
26	0xbe2fd5a6	-0.17171344
27	0xbe067436	-0.13130268
28	0xbdf1ea01	-0.11812211
29	0xbe254d96	-0.16142878
30	0xbd9460d5	-0.07245032
31	0xbe04b1a8	-0.12958395
32	0xbe0c1c85	-0.13682754
33	0xbdd39fb3	-0.103331946
34	0xbde0c8b3	-0.1097578
35	0xbe39653c	-0.18105024
36	0xbe003770	-0.12521148
37	0xbe09f11d	-0.13470884
38	0xbdcdafdb	-0.100433074
39	0xbe1897ea	-0.149017
40	0xbd82663d	-0.06367157
41	0xbe2203f9	-0.15821828
42	0xbd8e1bab	-0.06938871
43	0xbe2b7c00	-0.16746521
44	0xbe4c4cd4	-0.19951183
45	0xbe22e746	-0.15908536
46	0xbddf416d	-0.10901151
47	0xbe3e3023	-0.1857305
48	0xbd35326a	-0.04423753
49	0xbe0282fd	-0.1274528
50	0xbe2a8453	-0.1665204
51	0xbd92b312	-0.07163061
52	0xbe15f29f	-0.14643334
53	0xbde8a579	-0.113596864
54	0xbe042c7e	-0.12907597
55	0xbe530fbe	-0.20611474
56	0xbdb93655	-0.09043566
57	0xbdfb4182	-0.12268354
58	0xbe003ab7	-0.12522398
59	0xbe22f448	-0.15913498
60	0xbda79cdc	-0.081842154
61	0xbe003fe1	-0.12524368
62	0xbe075517	-0.13216053
63	0xbe3f87d4	-0.18704158
64	0xbe4182aa	-0.188975
65	0xbe0f80ca	-0.14013973
66	0xbe126ff2	-0.14300516
67	0xbde6b099	-0.11264152
68	0xbdd26957	-0.10273998
69	0xbe17c8d3	-0.14822702
70	0xbe23b695	-0.15987618
71	0xbe1e0542	-0.15431693
72	0xbe50ff61	-0.2040992
73	0xbe4dbf64	-0.20092541
74	0xbe1d8804	-0.15383917
75	0xbe2951f5	-0.1653517
76	0xbdcc80d0	-0.099855065
77	0xbe6da2f2	-0.2320669
78	0xbe2e7c74	-0.17039663
79	0xbe181f28	-0.14855635
80	0xbe466b24	-0.19376808
81	0xbdbe486c	-0.09291157
82	0xbdb4ea95	-0.088338055
83	0xbe355fc4	-0.17712313
84	0xbd39b188	-0.045335323
85	0xbe01e1f2	-0.12683848
86	0xbe357f30	-0.177243
87	0xbd8b09a2	-0.06788947
88	0xbde52f2f	-0.1119064
89	0xbdf2765a	-0.1183898
90	0xbd9a9522	-0.07547976
91	0xbdf2aa45	-0.118488826
92	0xbe494ba0	-0.19657755
93	0xbda62bfc	-0.08113858
94	0xbd471919	-0.04860792
95	0xbe32d170	-0.17462707
96	0xbd8c6cc6	-0.068566844
97	0xbe3db21b	-0.18524973
98	0xbe4ea2c0	-0.20179272
99	0xbe4f6c56	-0.2025617
100	0xbe254afe	-0.16141888
101	0xbe037184	-0.12836272
102	0xbdcda968	-0.10042077
103	0xbd84413e	-0.064577565
104	0xbe09e7f9	-0.13467397
105	0xbe045629	-0.12923492
106	0xbe0a30d9	-0.13495196
107	0xbe283f51	-0.16430403
108	0xbde4035d	-0.11133454
109	0xbe3ebd60	-0.18626928
110	0xbdb72390	-0.0894233
111	0xbe25c0a2	-0.16186765
112	0xbd7b3c48	-0.061336786
113	0xbe34636e	-0.17616054
114	0xbde52d6a	-0.11190303
115	0xbe30a020	-0.17248583
116	0xbdeb0b71	-0.11476792
117	0xbe1f74a7	-0.15571843
118	0xbdb028a0	-0.086014986
119	0xbe471f31	-0.19445492
120	0xbe25b741	-0.16183187
121	0xbe0a6277	-0.13514124
122	0xbe083688	-0.13302052
123	0xbe0cc11c	-0.1374554
124	0xbe068c56	-0.13139471
125	0xbe3d35fb	-0.18477623
126	0xbe4c6f14	-0.19964248
127	0xbe20ba52	-0.15696076
128	0xbdbf4f7f	-0.093413346
129	0xbe076500	-0.13222122
130	0xbdb68018	-0.08911151
131	0xbdfab840	-0.12242174
132	0xbe30da4e	-0.17270777
133	0xbe38e56b	-0.18056266
134	0xbe4fec05	-0.20304878
135	0xbe06ce3f	-0.13164614
136	0xbe169df9	-0.147087
137	0xbe510548	-0.20412171
138	0xbe0cab3b	-0.13737194
139	0xbe2d7f10	-0.16943002
140	0xbe4d31bd	-0.20038505
141	0xbde8425a	-0.113407806
142	0xbdfbc1e7	-0.12292843
143	0xbe430a12	-0.1904681
144	0xbe18a1a0	-0.14905405
145	0xbe00b8cc	-0.12570494
146	0xbe2b8313	-0.1674922
147	0xbe27ecf2	-0.16398981
148	0xbe1bcc72	-0.15214708
149	0xbe66e30b	-0.22547548
150	0xbe29239f	-0.16517495
151	0xbe1ee031	-0.1551521
152	0xbe1318e2	-0.14364961
153	0xbe33dc9e	-0.17564628
154	0xbe17aaa7	-0.14811192
155	0xbe25be77	-0.16185938
156	0xbdf08598	-0.11744231
157	0xbd7a7cb7	-0.061154094
158	0xbe219552	-0.15779617
159	0xbdfbe0b4	-0.12298718
160	0xbe4210be	-0.18951699
161	0xbe41f331	-0.18940426
162	0xbe0873e2	-0.13325456
163	0xbda8faed	-0.08250985
164	0xbe449c14	-0.19200164
165	0xbdfa1598	-0.1221115
166	0xbddcbadb	-0.10777827
167	0xbe41645a	-0.18885937
168	0xbd0e2027	-0.03469863
169	0xbe378b29	-0.17924179
170	0xbe4ed29d	-0.2019753
171	0xbe29dee2	-0.1658893
172	0xbdb3a402	-0.087715164
173	0xbe3d96fb	-0.18514626
174	0xbdcf9fd5	-0.101379074
175	0xbd933607	-0.07188039
176	0xbe348f9e	-0.1763291
177	0xbde9991a	-0.11406155
178	0xbe064f76	-0.1311625
179	0xbe188e73	-0.1489809
180	0xbdf4d82a	-0.119552925
181	0xbe3b8635	-0.18312915
182	0xbde15243	-0.11002018
183	0xbdb6e428	-0.08930236
184	0xbd9e7928	-0.077379525
185	0xbe3f3c88	-0.18675435
186	0xbe10d692	-0.14144352
187	0xbdf37fd9	-0.118896194
188	0xbe141fd5	-0.14465268
189	0xbe3cf0ed	-0.18451281
190	0xbe03d48b	-0.12874047
191	0xbe2cf6d1	-0.16891028
192	0xbd1d932f	-0.038470443
193	0xbe0a7a67	-0.13523255
194	0xbe0871f1	-0.13324715
195	0xbdc5e8c8	-0.0966354
196	0xbe44e883	-0.19229321
197	0xbe0ceeb2	-0.1376293
198	0xbe304024	-0.17211968
199	0xbe05184a	-0.12997547
200	0xbe49a18b	-0.1969053
201	0xbd8d5a62	-0.06902005
202	0xbdc13d88	-0.09435564
203	0xbe1fb786	-0.15597352
204	0xbd6b97fc	-0.05751799
205	0xbe074bee	-0.13212559
206	0xbe2405ed	-0.16017886
207	0xbe2bb82a	-0.16769472
208	0xbe282dac	-0.16423672
209	0xbddedcd5	-0.10881964
210	0xbdd9368f	-0.10606109
211	0xbe1dcda4	-0.15410477
212	0xbe130e3c	-0.14360899
213	0xbdf40a36	-0.1191601
214	0xbe0b6bc2	-0.13615325
215	0xbe40b632	-0.18819502
216	0xbe111bbb	-0.14170735
217	0xbe0a708d	-0.13519497
218	0xbe22e174	-0.15906316
219	0xbde7ff72	-0.11328019
220	0xbddec5c7	-0.10877567
221	0xbe3b0da1	-0.18266918
222	0xbd3770ae	-0.044785194
223	0xbe100124	-0.14062935
224	0xbe2590f4	-0.16168576
225	0xbe06de40	-0.13170719
226	0xbdc54627	-0.09632521
227	0xbe23a254	-0.15979892
228	0xbd4271ed	-0.04747193
229	0xbe17b276	-0.14814171
230	0xbddddeda	-0.10833521
231	0xbdae5b94	-0.08513561
232	0xbe47e4c4	-0.19520861
233	0xbe4d314f	-0.20038341
234	0xbe13846a	-0.1440598
235	0xbde23e1e	-0.11047004
236	0xbe213bb5	-0.15745433
237	0xbdf1292f	-0.11775433
238	0xbd3079a3	-0.04308475
239	0xbe56a21d	-0.20960279
240	0xbd257c02	-0.040401466
241	0xbdc51dad	-0.09624801
242	0xbe6580db	-0.22412436
243	0xbe5196fd	-0.20467754
244	0xbe260088	-0.1621114
245	0xbe20de0f	-0.15709709
246	0xbe1a8563	-0.15089945
247	0xbe218941	-0.15775014
248	0xbdd926be	-0.106030926
249	0xbdb5fa1c	-0.08885595
250	0xbe11180e	-0.14169332
251	0xbe244291	-0.16041018
252	0xbdb09e83	-0.08623984
253	0xbdf0cc52	-0.11757721
254	0xbdead597	-0.1146652
255	0xbe16f7d7	-0.14742981

bias f4 [32]
0	0xbe1fe1a1	-0.15613414
1	0xbe3cdb94	-0.18443137
2	0xbdf99c43	-0.12188008
3	0xbdd88d22	-0.10573794
4	0xbe0ed87a	-0.13949767
5	0xbe4fbf3e	-0.20287797
6	0xbe4110f4	-0.18854123
7	0xbe37ecea	-0.1796147
8	0xbe048205	-0.12940224
9	0xbe331ea7	-0.17492162
10	0xbe1960a7	-0.14978276
11	0xbe0b3983	-0.13596158
12	0xbe07a737	-0.13247381
13	0xbdc441c8	-0.09582859
14	0xbe45a933	-0.19302826
15	0xbda1b38e	-0.078955755
16	0xbe250ac9	-0.16117395
17	0xbe4fc6d1	-0.20290686
18	0xbe1770b5	-0.14789088
19	0xbe338d10	-0.1753428
20	0xbe2c3eba	-0.16820803
21	0xbdf23f15	-0.11828438
22	0xbdc11d52	-0.094294205
23	0xbdcc326a	-0.09970553
24	0xbe0ce26b	-0.13758247
25	0xbdf787e5	-0.12086467
26	0xbdbfdf80	-0.09368801
27	0xbe206d73	-0.15666752
28	0xbe4b42de	-0.19849727
29	0xbde945ef	-0.11390292
30	0xbe1774cd	-0.1479065
31	0xbdd9e069	-0.10638506

weight f4 [10, 32, 3, 3]
0	0x3da9d138	0.082918584
1	0xbcb0dc36	-0.02158938
2	0x3c9e0ae2	0.019292299
3	0x3d6d7fc6	0.057983182
4	0xbd18ede6	-0.037336253
5	0xbd6682e1	-0.05627716
6	0x3e006416	0.1253818
7	0x3c7c6774	0.0154055245
8	0xbd65e25f	-0.056124087
9	0x3ddf36b1	0.108991034
10	0x3e11bc8e	0.14232084
11	0x3de7f56c	0.113261074
12	0x3e16fe96	0.14745554
13	0x3d9f0a0b	0.077655874
14	0x3e064af1	0.13114525
15	0x3db2d76f	0.08732497
16	0x3d9ab7d9	0.075545974
17	0x3dafc53b	0.085825406
18	0x3e103068	0.14080966
19	0x3d9fedb5	0.07809011
20	0x3dc77b5b	0.09740325
21	0x3db253f6	0.087074205
22	0x3d02be48	0.031919748
23	0x3d039f47	0.03213432
24	0x3d568133	0.052369308
25	0x3c684b04	0.014178041
26	0x3d892a0c	0.06697473
27	0x3adc99cb	0.0016830502
28	0xbcfd190d	-0.030895734
29	0xbda2c905	-0.07948498
30	0xbb5558e2	-0.00325542
31	0xbd6e9168	-0.05824414
32	0xbd896d6f	-0.06710326
33	0x3d51e01d	0.05123912
34	0xbdb5fed8	-0.08886498
35	0xbdb87077	-0.09005826
36	0x3d60ffff	0.054931637
37	0xbd1d26f5	-0.03836723
38	0xbcd0f294	-0.025506295
39	0x3ce64f82	0.028114084
40	0xbdba3b5a	-0.09093352
41	0xbdafa8f2	-0.08577146
42	0x3d0ffc15	0.035152514
43	0xbd56976d	-0.052390505
44	0xbcff4120	-0.031158984
45	0x401fc81b	2.4965885
46	0x400a79eb	2.1636913
47	0x3e894020	0.26806736
48	0x3f90b33b	1.1304697
49	0x3f02b7c6	0.51061666
50	0xbf67012a	-0.9023615
51	0xbebee126	-0.3728115
52	0xbf157067	-0.5837464
53	0xbf8a0517	-1.0782803
54	0x3df3294d	0.11873112
55	0x3d6881ea	0.05676452
56	0x3e0a4857	0.13504158
57	0x3dc34b34	0.09535828
58	0x3ce72d5d	0.028219873
59	0x3dda3ccb	0.106561266
60	0x3e1bf238	0.15229118
61	0x3ddd907b	0.10818573
62	0x3d8e49bb	0.06947657
63	0x3dbfb057	0.09359806
64	0x3e00cec6	0.12578878
65	0x3d342589	0.04398111
66	0x3e1f4df1	0.15557076
67	0x3d3130e8	0.04325953
68	0x3dec1a1f	0.1152842
69	0x3e0f113e	0.13971421
70	0x3ca9ed71	0.020743104
71	0x3d0027a6	0.03128781
72	0x3d6c9c67	0.057766344
73	0xbe00f98c	-0.12595195
74	0xbda06f3e	-0.07833718
75	0xbcb856b0	-0.022502273
76	0xbde8deef	-0.11370646
77	0xbd9672aa	-0.07346089
78	0x3c32b51d	0.010907439
79	0xbd3d60ef	-0.04623502
80	0xbd730949	-0.059335027
81	0x3dee3851	0.11631835
82	0x3bb3a755	0.005482594
83	0xbceb3310	-0.028710872
84	0x3d2ff7f3	0.042961072
85	0x3b1b54c8	0.0023701657
86	0xbcc463b6	-0.023973327
87	0x3d998e81	0.074978836
88	0xbd9f7ae4	-0.077871114
89	0xbd2df355	-0.042468388
90	0x3d61175e	0.054953925
91	0x3cdd7d91	0.027037414
92	0xbc8a9f07	-0.016921533
93	0x3de9bbb0	0.11412752
94	0x3cabe7f9	0.020984637
95	0xbca1cb6e	-0.019750323
96	0x3db31ff5	0.0874633
97	0xbd5a10a1	-0.053238515
98	0xbd54bd04	-0.05193807
99	0x3dac692b	0.08418497
100	0xbd6b1dda	-0.057401516
101	0x3cd98ec3	0.026557332
102	0x3b9dbea8	0.0048139878
103	0xbdac71e1	-0.08420158
104	0xbd100246	-0.035158418
105	0x3b5b7204	0.0033484707
106	0xbc005a95	-0.007834096
107	0x3c6287f4	0.013826359
108	0x3da695c6	0.08134036
109	0x3cc4df01	0.024032118
110	0xbcbf75d1	-0.023371609
111	0x3cbf5eea	0.023360688
112	0xbdc79fea	-0.09747298
113	0xbd99e2b9	-0.07513947
114	0xbd004476	-0.03131529
115	0xbd792e83	-0.060835373
116	0xbc943882	-0.018093351
117	0x3d12f8bc	0.035881743
118	0xbdd6dbbc	-0.1049113
119	0xbdad4601	-0.08460618
120	0x3b900112	0.004394659
121	0xbdc42b36	-0.09578554
122	0xbd25894b	-0.040414136
123	0xbc8ac3b4	-0.016939022
124	0xbdbab250	-0.09116042
125	0xbde77439	-0.113014646
126	0x3d813639	0.0630917
127	0x3cd92879	0.026508557
128	0x3d9e01d0	0.077151895
129	0x3dcd9b47	0.100393824
130	0x3da3863c	0.079845876
131	0x3d882991	0.06648553
132	0x3d5d0a36	0.053964816
133	0x3aeeda44	0.0018223007
134	0x3db62677	0.08894055
135	0x3d7e0710	0.062018454
136	0x3cefbba2	0.029264275
137	0xbc82ae89	-0.015952365
138	0x3dae69f0	0.085163
139	0xbd77e033	-0.060516547
140	0xbc2a803d	-0.010406551
141	0x3bea6553	0.007153192
142	0xbcd7ce2f	-0.026343433
143	0x3c35252a	0.011056224
144	0xbd6068c9	-0.05478743
145	0xbd3256c9	-0.043539796
146	0xbe05fea3	-0.13085417
147	0xbdc23b45	-0.09483961
148	0xbcb7695b	-0.022389105
149	0xbd8f6deb	-0.07003387
150	0xbd2993ec	-0.041400835
151	0xbddd3848	-0.108017504
152	0xbd8bdf36	-0.068296835
153	0x3e1d9c15	0.15391572
154	0x3dd46e85	0.103726424
155	0x3da7a2e5	0.081853665
156	0x3d8835e8	0.06650907
157	0x3c0f806b	0.008758645
158	0x3da3dbbe	0.08000897
159	0x3d962ff2	0.073333636
160	0x3d756614	0.059911802
161	0x3d9c5d5d	0.07634995
162	0x3d6bb362	0.05754412
163	0x3d018c2c	0.03162782
164	0x3cdb6524	0.026781626
165	0x3de0a198	0.109683216
166	0xbd8f05c0	-0.069835186
167	0x3c55353c	0.01301318
168	0x3d134d70	0.035962522
169	0xbc2bff81	-0.010497929
170	0xbb28251a	-0.002565688
171	0x3d85fd8c	0.06542501
172	0xbdba3199	-0.09091491
173	0xbd65cda0	-0.056104302
174	0x3cd592bf	0.02607095
175	0xbb3c4193	-0.0028725609
176	0xbdf710cf	-0.12063753
177	0x3ca60781	0.02026725
178	0xbdaf40ca	-0.085572794
179	0xbdcf488f	-0.10121261
180	0x3ddd237d	0.107977845
181	0x3d0cd124	0.03437914
182	0x3d22be8f	0.039732512
183	0x3dbad8e7	0.09123402
184	0xbc3ef4ce	-0.011655046
185	0xbc78771a	-0.015165115
186	0x3e1992c2	0.1499739
187	0x3d80e877	0.06294339
188	0x3d919045	0.07107595
189	0x3da66bc6	0.08126025
190	0x3e005008	0.1253053
191	0x3ccaaf23	0.024741715
192	0x3d5b633f	0.053561445
193	0x3d61c28c	0.055117175
194	0x3d9b5a85	0.075856246
195	0x3e00e267	0.12586366
196	0x3d7db42f	0.061939415
197	0xbc73a9c4	-0.014872018
198	0x3d588319	0.0528594
199	0x398e422d	0.00027133655
200	0xbcf6dff0	-0.030136079
201	0x3c874347	0.016511573
202	0xbd47f260	-0.04881513
203	0x3be2a1a4	0.0069162417
204	0x3d08de4a	0.033415116
205	0xbd15afd8	-0.03654465
206	0xbd2414ba	-0.04005883
207	0x3e1ecc2c	0.15507573
208	0x3cff9c69	0.031202512
209	0x3d1623fc	0.03665541
210	0x3d8782c3	0.06616738
211	0x3d1d728e	0.038439326
212	0x3c935e91	0.017989429
213	0x3ded6e57	0.11593311
214	0x3c644b2a	0.013933936
215	0xbcc701b6	-0.024292808
216	0x3e1506ca	0.14553371
217	0x3e012b74	0.12614232
218	0x3d9e7eab	0.07739004
219	0x3dbcea46	0.092243716
220	0x3da3a661	0.07990719
221	0x3da05e91	0.07830537
222	0x3d5f10f3	0.054459523
223	0x3db2fce3	0.087396406
224	0x3d16cccd	0.036816407
225	0x3ca8624b	0.020554682
226	0xbdf971bf	-0.121798985
227	0xbdcca5c6	-0.09992556
228	0x3bb06f5a	0.005384368
229	0xbd8bdc99	-0.06829185
230	0xbd836830	-0.064163566
231	0xbd9f9611	-0.07792295
232	0xbdcf5f37	-0.10125583
233	0xbd79e7cb	-0.06101207
234	0x3de3acf7	0.11116975
235	0x3d10d33e	0.035357706
236	0x3d810722	0.063001886
237	0x3d8b3d0e	0.06798755
238	0xbbe0b0d2	-0.006857016
239	0x3dbd99e4	0.09257868
240	0x3e1ca4d2	0.15297249
241	0x3d9f3c36	0.07775156
242	0x3da49594	0.08036342
243	0x3dd74aa4	0.105122834
244	0xbd88bcf7	-0.06676667
245	0x3d1dd55e	0.03853356
246	0x3c96a82b	0.018390736
247	0xbd8832f1	-0.06650341
248	0xbbe1adf4	-0.006887192
249	0x3de29b32	0.110647574
250	0xbd6f5e3e	-0.058439486
251	0xbd371cc2	-0.04470516
252	0x3d82a518	0.063791454
253	0x3d76452c	0.06012456
254	0x3dc0a808	0.094070494
255	0x3dc93b9f	0.09825825

bias f4 [10]
0	0xbf6efdca	-0.93356
1	0x3ccd20f0	0.02504012
2	0xbf5500b1	-0.8320418
3	0xbf85330c	-1.0406203
4	0x3fa804f7	1.3126515
5	0xbfc98c2b	-1.5745901
6	0xbfa69366	-1.3013732
7	0xbf9f5a70	-1.2449474
8	0xbfb3c9de	-1.404598
9	0xbfc81547	-1.5631493

weight f4 [10, 32, 3, 3]
0	0xbea0a4c0	-0.31375694
1	0x3f0c1ae4	0.5472853
2	0xbe6d9930	-0.23202968
3	0xbf1ef195	-0.62087375
4	0x3ea744be	0.32669634
5	0xbf67610b	-0.9038245
6	0xbedb67ef	-0.42852733
7	0x3f00e9be	0.5035666
8	0xbec9ef66	-0.3944046
9	0xbf2d8ab5	-0.67789775
10	0x3f1995ce	0.5999421
11	0xbebd00e3	-0.3691474
12	0xbf2c7a9e	-0.673746
13	0x3e53fddd	0.2070231
14	0xbf718e51	-0.9435778
15	0xbf1d62a0	-0.61478615
16	0x3ebd3814	0.36956847
17	0xbf110ff6	-0.5666498
18	0xbf0c6f9f	-0.5485782
19	0xbe9ca601	-0.305954
20	0xbec5aba6	-0.3860752
21	0x3f1dfb5c	0.6171167
22	0xbe96ce20	-0.29454136
23	0x3ec9b90d	0.39398995
24	0xbf0995d8	-0.5374427
25	0x3ed3ed02	0.4139176
26	0xbe9c9d10	-0.3058858
27	0xbe9283b4	-0.28616107
28	0xbf693028	-0.91089106
29	0xbe914122	-0.28370005
30	0xbedbd1ca	-0.42933494
31	0x3db40f18	0.087919414
32	0xbf933ec3	-1.1503528
33	0xbe8900fa	-0.26758558
34	0x3ed6ddb7	0.4196603
35	0xbee892ab	-0.454244
36	0xbf35e502	-0.71052563
37	0xbfa351eb	-1.2759374
38	0xbf4a8279	-0.79105335
39	0xbec94cc4	-0.3931638
40	0x3fd208eb	1.6408972
41	0xbec88d44	-0.39170277
42	0xbf3444fa	-0.7041775
43	0x3f3c7c4d	0.7362717
44	0xbf643313	-0.89140433
45	0xbe9be906	-0.3045122
46	0x3fa44425	1.2833296
47	0xbe70fea5	-0.23534639
48	0x3f324f5e	0.69652355
49	0xbfbdcf9c	-1.4828982
50	0xbfa8a20f	-1.3174456
51	0xbee5ea78	-0.44905448
52	0xbf58da5c	-0.8470819
53	0xbef89410	-0.48550463
54	0xbe81ed57	-0.25376388
55	0x3f1be93f	0.6090278
56	0xbe4af555	-0.19820149
57	0xbf029a0b	-0.510163
58	0x3e42d9eb	0.19028442
59	0xbf7d0cc9	-0.98847634
60	0xbecc59ed	-0.39912358
61	0x3eb76ab5	0.35823599
62	0xbef2dc71	-0.47433808
63	0xbf279fff	-0.6547851
64	0xbf96bc27	-1.177617
65	0xbebbf5e6	-0.36711043
66	0xbea1ff83	-0.31640252
67	0x3fb318df	1.3991965
68	0xbf12699b	-0.5719239
69	0xbe9929e8	-0.29914784
70	0x3f34be27	0.7060265
71	0xbf2e2352	-0.68022645
72	0xbf242cb9	-0.6413074
73	0xbfc0f41e	-1.5074499
74	0xbf0b77c8	-0.54479647
75	0xbf04aa30	-0.51822186
76	0x3e8e1f34	0.2775818
77	0xbf553351	-0.8328143
78	0xbf00102c	-0.50024676
79	0x3efa6497	0.4890487
80	0xbf2a3e68	-0.66501474
81	0xbec70800	-0.3887329
82	0xbf9a2a72	-1.2044203
83	0xbe7fbc3c	-0.2497415
84	0xbf26c077	-0.6513743
85	0x3e2a68ec	0.16641587
86	0xbf6b3ce6	-0.918898
87	0xbf02bae3	-0.51066417
88	0x3ed3b6ce	0.41350406
89	0xbef6ce56	-0.48204297
90	0xbf00d4b8	-0.50324583
91	0x3f434877	0.7628245
92	0xbea41e8a	-0.3205455
93	0x3fa4dd59	1.288005
94	0xbf35fe1b	-0.7109086
95	0x3f2e9180	0.68190765
96	0xbedab50d	-0.42716256
97	0xbe2fd914	-0.17172652
98	0xbf1498fc	-0.58045936
99	0xbee72895	-0.4514815
100	0xbf5f444b	-0.8721358
101	0xbe9dc168	-0.3081162
102	0xbec76bd9	-0.3894947
103	0x3fbac9fa	1.4592888
104	0xbef38061	-0.47558883
105	0xbeefb22f	-0.4681563
106	0x3eeeea05	0.46662918
107	0xbef5fdce	-0.480452
108	0xbf0b3e61	-0.5439206
109	0xbf9cf5fa	-1.2262566
110	0xbeb5c5b4	-0.35502398
111	0xbe57ebd2	-0.21086052
112	0x3fb2e17c	1.3975062
113	0xbe6e20f1	-0.23254754
114	0xbe2905bb	-0.16506092
115	0x3f24c9fe	0.64370716
116	0xbe7e7fb9	-0.2485341
117	0xbc9d40f1	-0.019196006
118	0x3edebce8	0.435035
119	0xbf000a3b	-0.5001561
120	0xbeed6130	-0.4636321
121	0x3e33bde7	0.17552911
122	0xbfd8f45e	-1.6949575
123	0xbf1be70b	-0.6089942
124	0x3e6c36ee	0.23067829
125	0xbf5e3fa5	-0.86815864
126	0xbf3d9e2c	-0.74069476
127	0xbf8eeac8	-1.11654
128	0x3f378e18	0.7170119
129	0xbf180657	-0.59384674
130	0x3fe9da79	1.8269798
131	0x3f7900bf	0.97266763
132	0xbf0c98db	-0.5492074
133	0x3f5187c0	0.81847763
134	0x3f179148	0.59206057
135	0xbf463bd6	-0.7743505
136	0xbf6b9eb8	-0.9203906
137	0xbf1cc19d	-0.6123293
138	0xbf14b386	-0.5808643
139	0x3fd8d041	1.6938554
140	0x3f8e9733	1.1139892
141	0x3f33692d	0.7008236
142	0x3f60f4e8	0.878737
143	0x3f1c5a80	0.6107559
144	0xbeb55517	-0.3541648
145	0xbf82c6af	-1.0216883
146	0xbe7c326e	-0.24628612
147	0xbe417a94	-0.18894416
148	0x3eefa47b	0.46805176
149	0xbed9650d	-0.42459908
150	0xbeae5aab	-0.3405355
151	0xbeb4e9ee	-0.35334724
152	0xbed812c5	-0.4220182
153	0xbedc1747	-0.4298651
154	0x3fad6af9	1.354827
155	0xbec1e980	-0.3787346
156	0x3f40f2a1	0.7537022
157	0x3f0268b0	0.5094099
158	0xbf8a24c9	-1.0792476
159	0xbedaba28	-0.4272015
160	0xbf430f35	-0.7619508
161	0xbf074fe0	-0.52856255
162	0xbeeb2a41	-0.45930675
163	0xbe2da4f3	-0.16957454
164	0x3f10d324	0.56572175
165	0xbf055fef	-0.5209951
166	0x3f9921db	1.1963457
167	0x3ed947e9	0.42437676
168	0xbeb06ec7	-0.34459516
169	0x3f4fe18f	0.8120355
170	0xbea2764d	-0.3173088
171	0xbf1dcaa2	-0.6163732
172	0xbf7f19fc	-0.99649024
173	0xbec4d85f	-0.38446328
174	0xbf06b409	-0.5261846
175	0x3fb5356b	1.4156927
176	0x3f6506aa	0.89463294
177	0xbf23c75f	-0.6397609
178	0x3f1a6422	0.6030904
179	0x3eced30e	0.40395397
180	0xbf014606	-0.5049747
181	0x3f989d7d	1.1923062
182	0xbe7722e6	-0.24134406
183	0xbecff9d5	-0.40620294
184	0x3eb0a266	0.344989
185	0xbf46628d	-0.77494127
186	0xbef212f7	-0.47280094
187	0xbeedc39b	-0.46438298
188	0xbf1befaa	-0.60912573
189	0x3f65db52	0.8978778
190	0xbed3a6b8	-0.41338134
191	0x3f2213f0	0.6331167
192	0x3d9501e8	0.07275754
193	0xbec9648d	-0.39334527
194	0x3d0e799d	0.03478395
195	0xbf49e0df	-0.7885875
196	0xbe87ad4a	-0.26499397
197	0x3f1dae2d	0.61593896
198	0xbeff4ec4	-0.4986478
199	0xbf158298	-0.58402395
200	0xbe84c533	-0.259317
201	0xbf2d46c7	-0.6768612
202	0x3f58fe66	0.8476318
203	0x3f2324f5	0.63728267
204	0xbee1c325	-0.44094196
205	0x3f68d46b	0.90949124
206	0xbef35d5e	-0.4753217
207	0xbf67d6ea	-0.9056231
208	0xbc6f2688	-0.014596589
209	0x3ed521fc	0.4162749
210	0x3f6c5680	0.9231949
211	0xbea61e87	-0.32445166
212	0x3f42d39e	0.7610415
213	0xbf6bfb24	-0.92180085
214	0x3f004021	0.5009785
215	0x3f23f447	0.6404461
216	0xbe886da5	-0.26646152
217	0xbf84b5b9	-1.0367957
218	0xbe407ed9	-0.18798389
219	0xbebe8ea0	-0.3721819
220	0x3ecc2c64	0.39877617
221	0xbf317c38	-0.6933017
222	0xbe4b3232	-0.19843367
223	0xbe9350a3	-0.28772458
224	0xbef94e6f	-0.48692653
225	0xbef46777	-0.47735187
226	0x3e263d20	0.16234255
227	0x3f3ce0e3	0.7378065
228	0xbf4f5dff	-0.810028
229	0x3f913560	1.1344414
230	0x3ee360da	0.4440983
231	0xbecc980a	-0.39959747
232	0x3f3d1d2f	0.73872656
233	0xbe96231c	-0.2932366
234	0xbefb30e2	-0.49060732
235	0xbf606f80	-0.87670135
236	0xbee5d888	-0.44891763
237	0xbf2bc40d	-0.67096025
238	0x3f7ed567	0.99544376
239	0xbff8fc7c	-1.9452052
240	0x3db6e9b1	0.08931292
241	0x3f39926c	0.7248905
242	0xbf110f71	-0.56664187
243	0xbf110224	-0.5664389
244	0xbfb2106f	-1.3911265
245	0xbed6ac63	-0.41928396
246	0x3fa51d3a	1.2899544
247	0xbe4ffa7c	-0.20310396
248	0xbf05673f	-0.52110666
249	0xbf04f5be	-0.5193747
250	0x3efec252	0.4975763
251	0x3e2c0cae	0.16801712
252	0xbed64e11	-0.41856435
253	0x3faec5fe	1.3654172
254	0xbeafca10	-0.3433385
255	0x3f3a5bd3	0.7279636

bias f4 [32]
0	0xc017d3a3	-2.3722923
1	0xc0129819	-2.2905333
2	0x3fb77221	1.4331704
3	0xbfd8565a	-1.6901352
4	0x3faa1b5a	1.3289597
5	0xc00548cd	-2.0825684
6	0xc00da6d3	-2.2133071
7	0x3efd7604	0.495041
8	0xc01476a6	-2.3197417
9	0xbfcdb6be	-1.6071393
10	0xbf95630a	-1.1670849
11	0xbd9019f5	-0.07036201
12	0x3f250708	0.64463854
13	0xbff561b0	-1.9170437
14	0x3fa383c6	1.2774589
15	0x3fbbda8d	1.4676071
16	0xbfad485b	-1.3537706
17	0xc0231601	-2.548218
18	0x3d7f1b46	0.06228187
19	0x3f8ecf7e	1.1157072
20	0xc01a30f8	-2.4092388
21	0x3f8d4267	1.1035889
22	0xc00bbdec	-2.183467
23	0x3fcbcd55	1.5922037
24	0xbfe0bc32	-1.7557433
25	0xbeeef1fd	-0.46668997
26	0xbf4056e2	-0.7513257
27	0x3f24b12f	0.6433286
28	0xc0090e18	-2.1414852
29	0xc00efe99	-2.2342894
30	0xc00ea285	-2.2286694
31	0xc0187303	-2.3820198

weight f4 [32, 32, 3, 3]
0	0xbee2522d	-0.4420332
1	0xbee73647	-0.45158598
2	0x3f377553	0.716634
3	0x3f1b0faf	0.60570806
4	0x3f85ca11	1.0452291
5	0x3d1fb7cc	0.03899364
6	0xbe7acfb0	-0.24493289
7	0xbed6bb63	-0.4193984
8	0x3eca36ae	0.39494842
9	0x3d2f60ad	0.042816807
10	0xbf50c164	-0.8154509
11	0x3ece9835	0.403505
12	0xbf27c32f	-0.655322
13	0xbfbf6e02	-1.4955447
14	0x3eb47ef1	0.352531
15	0xbe2822e5	-0.16419561
16	0xbf0e2c95	-0.55536777
17	0x3e07265b	0.13198225
18	0xbeb2d175	-0.34925428
19	0xbe430a61	-0.19046928
20	0x3ed575dc	0.41691482
21	0x3f2f5540	0.68489456
22	0x3f91f14b	1.1401762
23	0x3dfa6a71	0.12227333
24	0xbe678348	-0.22608674
25	0xbe5254a8	-0.20540106
26	0x3f253501	0.64534
27	0xbe6f0374	-0.23341161
28	0xbe1df4cc	-0.15425414
29	0x3d07d35c	0.033160552
30	0xbf1bbafa	-0.6083218
31	0x3ee0bad5	0.43892542
32	0x3f1638dd	0.58680516
33	0xbe776ca0	-0.24162531
34	0xbe39a1c1	-0.1812811
35	0x3e011380	0.12605095
36	0xbe910bb9	-0.28329256
37	0x3eb9fb52	0.36324555
38	0x3eea9cff	0.45822904
39	0x3f6d7eb5	0.92771465
40	0x3f17b10f	0.59254545
41	0x3ebb6597	0.36600944
42	0xbd1a6f15	-0.037703592
43	0x3ef9ebf0	0.4881282
44	0x3eb862cb	0.36012873
45	0x3f202e53	0.62570685
46	0x3e947092	0.28992134
47	0xbe8113c2	-0.25210387
48	0x3f0b89c7	0.54507107
49	0x3f644208	0.89163256
50	0x3f66820a	0.90042174
51	0x3e2e5b44	0.17027003
52	0x3cfb5bfc	0.03068351
53	0xbe1f7378	-0.15571392
54	0x3eeea15a	0.46607476
55	0x3f2f7498	0.6853728
56	0x3f0dd41f	0.55401796
57	0x3eec6119	0.4616783
58	0x3f832e46	1.0248497
59	0x3ec85bd8	0.3913257
60	0x3dc5f304	0.09665492
61	0xbcc624a0	-0.024187386
62	0x3ea07a10	0.31343126
63	0x3efce86e	0.4939608
64	0xbdfe82e3	-0.124273084
65	0x3f226c83	0.63446826
66	0x3f159920	0.58436775
67	0x3f63af43	0.88939303
68	0xbdb3e7fc	-0.08784482
69	0x3deae638	0.11469692
70	0xbf0da5e3	-0.5533125
71	0x3ec051da	0.37562448
72	0x3f2b3acb	0.66886586
73	0x3f068933	0.525531
74	0xbe3363bf	-0.17518519
75	0x3e9ae3e0	0.3025198
76	0x3ed25b4d	0.41085282
77	0x3eae0b1d	0.33992854
78	0x3e48dc18	0.19615209
79	0x3e346997	0.17618404
80	0xbdec8acf	-0.11549913
81	0xbe576a45	-0.21036632
82	0x3e00feb3	0.1259716
83	0x3e79ae42	0.2438288
84	0x3f1d4293	0.6142971
85	0x3f71417f	0.94240564
86	0x3ec871fb	0.3914946
87	0x3e5a9e05	0.21349342
88	0x3f127cb5	0.5722154
89	0x3f062826	0.5240501
90	0xbe02e46c	-0.12782449
91	0xbe31324d	-0.17304344
92	0xbe0d3d61	-0.13792945
93	0x3e27e707	0.16396724
94	0x3f35c542	0.71004117
95	0xbece6604	-0.40312207
96	0xbe1c0cba	-0.1523923
97	0xbdd6a347	-0.104803614
98	0xbded6042	-0.11590625
99	0x3ed66aeb	0.41878447
100	0xbe76979a	-0.24081269
101	0x3f111b6c	0.5668247
102	0x3f2106fc	0.6290128
103	0x3f2864a8	0.6577859
104	0xbe709646	-0.23494825
105	0x3dfbbc55	0.12291781
106	0xbe9a053c	-0.3008212
107	0x3eca7731	0.3954406
108	0xbeedc13e	-0.46436495
109	0x3e545dbb	0.2073888
110	0xbe99b5b0	-0.3002143
111	0x3f92f41d	1.1480747
112	0x3f501b2b	0.81291455
113	0x3eefffbd	0.468748
114	0x3e0facaa	0.1403071
115	0x3eef17ae	0.46697754
116	0x3c8f0d15	0.017462293
117	0x3e590fb5	0.21197398
118	0x3f00b516	0.50276315
119	0x3e48a397	0.19593655
120	0xbd21ed62	-0.039533027
121	0x3e81b906	0.25336474
122	0x3e36e2ee	0.17860004
123	0x3e17294b	0.14761846
124	0xbd6d1d10	-0.057889044
125	0x3d7bf0d8	0.061508983
126	0xbb8046ba	-0.0039146813
127	0xbf26265e	-0.64902294
128	0x3e870eb9	0.2637842
129	0xbf11625b	-0.56790704
130	0xbf3c8c1b	-0.73651284
131	0xbeab9dc0	-0.3351879
132	0xbea4fe52	-0.3222528
133	0xbf2a5087	-0.66529125
134	0x3e3af89d	0.18258901
135	0x3efc867e	0.4932136
136	0xbe96660f	-0.2937474
137	0x3f0104d4	0.5039799
138	0x3f0ac3ae	0.54204834
139	0x3ead6239	0.33864
140	0xbd46fede	-0.048582904
141	0x3e41db62	0.18931344
142	0x3cdc3959	0.026882814
143	0x3ed03e6d	0.40672627
144	0xbed803dd	-0.42190447
145	0x3eccd264	0.40004265
146	0x3ec0a08b	0.37622485
147	0x3f813469	1.0094119
148	0x3f2668bf	0.6500358
149	0x3ef40d74	0.47666514
150	0xbcaf9b01	-0.021436216
151	0x3f1cee6d	0.6130131
152	0x3f3a1b42	0.7269784
153	0xbec5f46e	-0.38663048
154	0x3e95bab0	0.29243994
155	0x3eba8203	0.36427316
156	0x3f3f019d	0.74611837
157	0x3f0c323a	0.5476414
158	0x3e75cc49	0.2400371
159	0xbe96f79a	-0.2948578
160	0x3ef7cc10	0.48397875
161	0x3ed886b4	0.4229027
162	0xbe35e469	-0.17762913
163	0xbee6b344	-0.45058644
164	0x3f26d3f0	0.6516714
165	0x3f242bc9	0.6412931
166	0x3e236c9c	0.159594
167	0x3e0995fa	0.13436118
168	0x3c745fee	0.01491545
169	0xbee88365	-0.45412746
170	0x3f10a20d	0.5649727
171	0xbea10734	-0.31450808
172	0x3d93aa1a	0.07210179
173	0x3ea7b807	0.3275759
174	0xbf63a2ae	-0.88920105
175	0xbee21d9a	-0.4416321
176	0xbf489a71	-0.7836066
177	0xbea91321	-0.33022407
178	0x3e2a213a	0.16614237
179	0x3e7d3fac	0.2473132
180	0x3f18d017	0.5969252
181	0x3f059c6b	0.521918
182	0xbe7daaaa	-0.24772134
183	0xbcfddece	-0.03099003
184	0x3ec663ed	0.38748112
185	0x3e589059	0.21148814
186	0x3de1e32a	0.11029656
187	0x3e68e70e	0.2274439
188	0xbddc5c07	-0.1075974
189	0xbe94052e	-0.28910202
190	0x3ec8ed65	0.39243618
191	0x3d590064	0.05297889
192	0x3f6a90db	0.9162728
193	0x3f269207	0.6506657
194	0x3eb9179b	0.36150822
195	0xbe2d8fce	-0.16949388
196	0x3ede9a3e	0.43477052
197	0x3eecfc52	0.46286255
198	0xbe8073ce	-0.25088352
199	0xbf448838	-0.76770353
200	0xbe3a8cdc	-0.18217796
201	0xbf1ed630	-0.62045574
202	0xbf5b388b	-0.8563315
203	0x3ef7971d	0.48357478
204	0xbdd9f820	-0.10643029
205	0xbf308d68	-0.6896577
206	0xbdfe23ec	-0.12409195
207	0xbf0cc5f1	-0.54989535
208	0x3e832251	0.2561212
209	0x3efe25fd	0.49638358
210	0xbf14d69c	-0.5813997
211	0xbec23f37	-0.37938854
212	0xbef5c02e	-0.47998184
213	0xbe964c58	-0.2935512
214	0xbe876c55	-0.26449838
215	0x3e2c2e1e	0.16814467
216	0xbf3ad23b	-0.72977036
217	0xbf41d599	-0.7571655
218	0x3f06a6e0	0.5259838
219	0xbf134d65	-0.5753997
220	0xbf4df7ef	-0.8045644
221	0xbf06d3ff	-0.5266723
222	0xbeac3c7d	-0.336399
223	0xbf1ab191	-0.60427195
224	0x3e4a830f	0.19776557
225	0x3d8d6976	0.06904881
226	0xbf4d35e4	-0.80160356
227	0x3ebe1a86	0.3712961
228	0xbeb12624	-0.3459941
229	0xbfaf1864	-1.3679318
230	0x3ec05132	0.37561947
231	0xbe915784	-0.28387082
232	0xbf273dc5	-0.6532863
233	0x3dd278a9	0.1027692
234	0xbe947f57	-0.29003403
235	0x3f2728d1	0.65296656
236	0x3e4a2af0	0.19742942
237	0xbf744e49	-0.95431954
238	0xbed05c7e	-0.40695566
239	0xbf1f1c02	-0.6215211
240	0xbe826730	-0.2546935
241	0x3daaea00	0.08345413
242	0xbf013c7b	-0.5048291
243	0xbe96f474	-0.29483378
244	0x3eec4f4d	0.46154252
245	0x3e7c0800	0.24612427
246	0xbf57865c	-0.8418939
247	0xbf1e2bae	-0.617854
248	0x3ef3d02a	0.47619754
249	0xbe99198e	-0.2990231
250	0x3e2181ff	0.15772246
251	0x3e293e0d	0.16527577
252	0x3e7b1e9c	0.24523395
253	0x3ec606c4	0.38677037
254	0x3e33778d	0.17526074
255	0x3f001771	0.5003577

bias f4 [32]
0	0xbda9fca0	-0.083001375
1	0xbe0e7f6f	-0.139158
2	0xbe88de3a	-0.26732045
3	0xbe96f055	-0.29480234
4	0xbed89b8f	-0.42306182
5	0x3ebe7fba	0.37206823
6	0x3e61abe9	0.22038235
7	0x3b2e9189	0.0026637039
8	0x3ea5dda0	0.3239565
9	0x3e62a624	0.2213369
10	0xbf209f0f	-0.62742704
11	0xbea9037a	-0.33010465
12	0xbee69d51	-0.45041898
13	0x3e8a31f1	0.26991227
14	0xbed5d683	-0.41765222
15	0x3e88bc3a	0.26706105
16	0xbeb33ee5	-0.35008922
17	0xbe8926f0	-0.2678752
18	0xbe2a1f9f	-0.16613625
19	0xbdb46ecc	-0.08810195
20	0x3e695029	0.22784485
21	0xbf1c5768	-0.6107087
22	0xbddb17b2	-0.10697879
23	0xbef10532	-0.47074276
24	0xbe95c644	-0.29252827
25	0xbea6182c	-0.32440317
26	0xbec88ce6	-0.39169997
27	0x3ea4d215	0.3219153
28	0x3ebf9a68	0.3742249
29	0xbe85865a	-0.26079065
30	0xbe3d642e	-0.18495247
31	0x3e84cb6f	0.25936458
