models/proto.pth (torch_old, 228843 bytes, 61 tensors)

weight f4 [32, 1, 3, 3]
000000 51 cc 1c be de 91 b8 be f7 4f 9f bc cf a8 50 bd
       -0.15312316 -0.36048788 -0.01944731 -0.05094224
000010 38 d4 9b be be b4 fd bd 9d 04 aa be 6a 3b 83 bb
       -0.30435348 -0.123879895 -0.33206645 -0.0040048854
000020 a0 3c d9 bd 64 13 60 3e cb 56 51 3e 88 b6 93 bc
       -0.106072664 0.21882397 0.20443265 -0.018031374
000030 a8 44 2b be 4f a7 6f be 0f 03 b2 bd 85 0d 07 be
       -0.16725409 -0.23403667 -0.0869199 -0.13188751
000040 a3 af d3 3d 9e 6f a9 be 69 2c d9 3e 37 01 c7 bd
       0.103362344 -0.3309297 0.42416695 -0.097170286
000050 8f e4 e4 3e 26 a1 ae 3d 5c e5 b4 3e 71 75 a9 3e
       0.44705626 0.085268304 0.35331237 0.33097413
000060 26 e1 30 3e ce 04 81 3e 0d 0a e7 3e 22 2c cf bd
       0.17273387 0.25198978 0.45124856 -0.101158395
000070 3d 75 a4 3d 5f 76 7d be 48 61 f5 3d ff 9e 20 3e
       0.08030174 -0.24752186 0.119814456 0.15685652
000080 d7 ca 50 3e 88 3e 1a 3d 2e b7 9b 3e 69 72 e8 3e
       0.20389877 0.03765729 0.30413193 0.45399788
000090 57 a3 82 be c7 59 a1 be 0a cd 0f be db 3b b4 be
       -0.25515243 -0.31513807 -0.1404306 -0.35201916
0000a0 22 b8 97 3d 5f 1d 3a be 82 96 9a be 3b f8 7b 3e
       0.074081674 -0.18175267 -0.30192953 0.24606411
0000b0 12 a5 a8 3e a1 63 da bd 46 5b 0d be 8e 51 00 be
       0.3293844 -0.10663534 -0.1380435 -0.1253111
0000c0 71 11 96 3c 7b 55 d0 be 10 a6 c3 be d2 27 fb 3d
       0.018318864 -0.40690216 -0.38212633 0.122634545
0000d0 12 04 70 3e 78 d2 16 be 4f f6 c5 be b4 51 ef bd
       0.23439053 -0.14728725 -0.3866448 -0.116855055
0000e0 83 5a 8a be 60 ff fa bd 54 ed 39 3d ea 1a 54 3d
       -0.2702218 -0.1225574 0.04539235 0.05178348
0000f0 51 bd 24 be 58 6d 92 bd 89 4a fb 3c fe a1 f6 be
       -0.16087843 -0.07149762 0.03067519 -0.48170465
000100 07 cd a1 be 19 6c 3b be 37 c4 d1 be b2 ca b2 be
       -0.31601736 -0.18302955 -0.40970013 -0.3492027
000110 4e b4 ae bd ab 7b 86 bc 22 f7 41 be 69 8d 9f be
       -0.08530484 -0.016416391 -0.1894193 -0.31162575
000120 37 81 21 bd 43 e7 bb be f3 dc 59 be e5 0c df 3d
       -0.03942987 -0.36699876 -0.21275692 0.10891131
000130 ae 4d d1 bd d8 57 a9 bd 02 9e 75 bd 61 65 41 be
       -0.10219894 -0.08268708 -0.05996514 -0.18886329
000140 11 f8 82 3e 4e fa fb be df 94 94 be 6a f7 66 be
       0.25579885 -0.49214405 -0.2901983 -0.22555318
000150 90 5a b2 be db 63 84 be 7c 72 ac 3d 47 ee 49 bb
       -0.3483472 -0.25857434 0.08420274 -0.003081219
000160 28 a3 d1 bd 69 2f 80 3e 8e 34 e8 be 7b f4 d9 be
       -0.10236198 0.2503617 -0.45352596 -0.42569336
000170 af 8f 93 bd e2 48 75 be d7 8a 08 bf 9a 18 e3 be
       -0.0720514 -0.23953584 -0.5333685 -0.44354707
000180 af ce d8 be f6 f3 19 3d 30 10 de bc a1 9b 58 3d
       -0.42345187 0.037586175 -0.027107328 0.052882794
000190 53 93 dd be 5c b8 f2 be dd 81 d6 be 05 b0 09 be
       -0.43276462 -0.4740628 -0.41895953 -0.13446052
0001a0 b2 ed 37 be 11 f9 cb be 93 2a cf 3d 9c 78 26 be
       -0.17961767 -0.3983846 0.10115542 -0.16256946
0001b0 18 83 90 be bb eb b4 3d 19 c1 0b be c3 bc 11 3e
       -0.28225017 0.088340245 -0.1364788 0.14232163
0001c0 8b 23 f1 3c 3c a5 de bc b6 c1 9d 3c 8a 26 91 be
       0.029435894 -0.0271784 0.019257408 -0.28349715
0001d0 1c f8 4a be ba 6e c0 be 27 1a cb be d8 62 ef bd
       -0.19821209 -0.37584478 -0.3966839 -0.11688775
0001e0 5b 55 16 be 36 e4 a9 be 4a a4 9c 3d f1 6f c5 be
       -0.14680998 -0.33181924 0.07648523 -0.38561967
0001f0 90 c9 b3 bd 8e 66 17 be ab bc 07 bf 11 c8 e5 be
       -0.08778679 -0.14785215 -0.5302226 -0.448792
000200 cd c7 87 bd d5 90 d9 bd 8a a6 db be 2d 56 8c be
       -0.06629906 -0.10623328 -0.42900497 -0.27409497
000210 cc cf 09 bf 9e 4a 3b bc 97 2e 5f 3e 90 05 7a 3c
       -0.538327 -0.011431364 0.21795116 0.015260115
000220 ff be 87 be d4 37 10 3e 2e aa 37 3e 76 06 fd bd
       -0.26512906 0.14083797 0.17936012 -0.12354748
000230 c4 e5 b8 bd 19 f2 cf 3c 64 4c 8f 3b e8 8e 06 be
       -0.09028199 0.025383996 0.00437312 -0.13140452
000240 b8 1a d9 be 9e e0 b3 be e2 36 bb bd d4 4f 0a be
       -0.42403197 -0.35132307 -0.091413274 -0.13507015
000250 0a 27 22 3e a9 7f ba bd 0c ba 50 be f0 b7 e0 be
       0.15835205 -0.091063805 -0.20383471 -0.43890333
000260 3c ca c9 be 20 7b 1c 3e af b5 d9 3e 6f 6c 2e 3e
       -0.39412105 0.15281343 0.42521426 0.17033552
000270 d0 40 8b be cd 08 71 3e ee 18 da 3e 84 70 45 be
       -0.27197886 0.23538513 0.42597145 -0.19281203
000280 4c a8 7b 3c 0e 16 14 3e e8 96 d2 be 54 d5 06 bf
       0.015359949 0.14461538 -0.41130757 -0.5266926
000290 8a ef 79 bd 4f b2 fc be 0a a7 98 be 09 03 bf be
       -0.061019458 -0.4935479 -0.2981494 -0.37307003
0002a0 5c be 12 3d 63 78 0c be 98 6f 9a 3b 78 aa c6 be
       0.035826072 -0.13717799 0.00471301 -0.38801932
0002b0 5e 6b 10 3e 90 fa 9c bd f3 16 a6 be d5 a4 fa bd
       0.14103457 -0.076649785 -0.32439384 -0.122384705
0002c0 46 0f 90 be ba ea cb bd 7f a9 26 3e 02 16 d3 bd
       -0.28136653 -0.0995688 0.16275595 -0.10306932
0002d0 dd e8 b0 3d 18 47 ad bd 28 b4 67 be 73 6c ba bd
       0.08638165 -0.08460826 -0.22627318 -0.09102716
0002e0 01 d0 75 be c7 a0 6b be 8c 16 cc be ca 54 20 3d
       -0.24005128 -0.2301055 -0.39860952 0.03914336
0002f0 cf 6f ad 3d 53 c4 86 3c 6a a8 2d 3e bd 1f bf 3e
       0.084685914 0.016451037 0.16958776 0.37328902
000300 20 92 79 3e 60 ed 9a be 03 6a 23 3e 99 37 94 bd
       0.24372149 -0.30259228 0.15958409 -0.07237167
000310 5f 08 24 3e 95 67 a2 3c 8a 89 a2 bc 17 3f d8 be
       0.16018818 0.019824782 -0.019840974 -0.42235634
000320 59 df 3a 3d 15 cb 4e 3e 27 a0 31 be 45 6b b8 be
       0.045623157 0.20194657 -0.1734625 -0.3601934
000330 02 39 cf be 1f e3 33 be e4 fc b0 bd fc 7d e4 bd
       -0.4047318 -0.17567109 -0.08641985 -0.11156842
000340 d1 a5 10 bd 3d af 84 3e 08 c5 1d be b3 7e db 3d
       -0.035314385 0.25914946 -0.15407193 0.10717525
000350 09 1e cd bd 0d 53 96 3e ba 5e 3c 3e fd 4f 30 3d
       -0.100154944 0.29360238 0.1839551 0.043045033
000360 3a f9 39 3d 58 fa 51 bd a1 ec cc bd b1 aa 92 be
       0.045403697 -0.051264137 -0.10006071 -0.28645852
000370 b3 d9 09 be 54 e8 00 be 68 75 c8 be ea 6d 31 be
       -0.13461952 -0.12588626 -0.39152074 -0.17327085
000380 87 b1 74 bd fc b0 c6 be bf 24 c4 bd 28 8b 5c be
       -0.059739616 -0.38806903 -0.09577321 -0.21537459
000390 7c ba e9 be 2c 72 aa be ac c7 ab be 94 bc 8d bd
       -0.4565009 -0.3329023 -0.33550775 -0.06920734
0003a0 91 b4 f5 3d af 4c 94 3e cc 6e b4 3e 20 57 7a 3e
       0.11997331 0.28964755 0.3524078 0.24447298
0003b0 84 9d 9a 3e b4 07 b6 3c 04 3c cf 3e a0 0b 81 3b
       0.301983 0.02222047 0.40475476 0.0039381534
0003c0 e2 f4 95 3c 30 1c b3 3c 18 5a d9 bd 44 09 c7 be
       0.018305246 0.021864027 -0.10612887 -0.38874257
0003d0 b0 5a 1a be 4a 9d 78 3e 96 7f 90 be df 65 b7 be
       -0.15073657 0.24278751 -0.2822234 -0.3581991
0003e0 be b9 98 bd b3 76 5f 3e 97 81 8d 3d a3 0a 5c 3c
       -0.074573025 0.21822624 0.06909483 0.01343027
0003f0 db a2 8f be 88 5d f0 3d 83 cc f7 be 2a f3 a2 3b
       -0.28053936 0.1173659 -0.48398218 0.004972835

bias f4 [32]
000000 9f 99 60 3e 5a bd 0a be 61 c1 f8 bd 88 c0 f4 bd
       0.21933602 -0.13548794 -0.12146259 -0.11950785
000010 4d e6 a0 be bb 94 de bc 20 0a 4e 3d ed b7 63 3e
       -0.31425706 -0.02717053 0.050302625 0.22238131
000020 42 57 15 be 00 48 7f 3e 55 79 e9 bd 23 22 4e 3e
       -0.14584067 0.2492981 -0.114000954 0.2013021
000030 99 16 9a 3e 36 fd 1f 3d 4d 5c d3 bd 93 b5 81 3e
       0.30095366 0.03905984 -0.10320339 0.25333843
000040 9d f6 a9 bd 65 3e 42 be 98 bf d6 bd 81 58 99 be
       -0.08298991 -0.18969114 -0.10485762 -0.29950336
000050 fd 9e 7d bd 7f 12 8c be 13 e8 69 3e a4 0a af be
       -0.0619192 -0.2735786 0.22842436 -0.34187806
000060 a4 73 83 be 8d c4 8f 3d 6e fb 40 3e 9a ed 9f 3e
       -0.25674164 0.07019911 0.18845913 0.31235963
000070 9c 94 96 be 50 5c 7b 3e 54 f1 71 3e 43 f4 5b be
       -0.29410255 0.24546933 0.23627216 -0.21479897

weight f4 [32, 32, 3, 3]
000000 20 74 91 bb 39 1c 2c bd 38 b6 07 bc 5f 94 9c bd
       -0.004438892 -0.042019103 -0.00828319 -0.07645487
000010 93 df 60 bd 57 df 6d bd ed a1 11 bd db ed be bc
       -0.054900717 -0.05807432 -0.035554815 -0.023306778
000020 b8 55 b7 bc 1e ee 83 bd b2 ee 2c 3b 0a 6e 7c 3b
       -0.022379741 -0.064419016 0.002638739 0.0038517737
000030 5d f1 9a bd 43 e8 9b bd 52 7c 0c bd 49 eb db bb
       -0.07565568 -0.0761266 -0.03429825 -0.006711398
000040 70 6e 86 bd fe bc da bc e4 5a d2 bc 52 6f 95 bd
       -0.06564033 -0.026701447 -0.025678106 -0.07296623
000050 b8 61 e2 3c ef 37 a7 3c ee 05 c1 3c 3f c6 3c bd
       0.027634487 0.020412413 0.023562398 -0.0460875
000060 4a fb 84 bd 5f 12 64 bc d0 96 59 3c df 6d 9d 3a
       -0.06493242 -0.013920396 0.013280585 0.0012010894
000070 ce 1f 84 bd 6a 48 9f 3c fb b7 49 bd 96 d0 f7 bc
       -0.06451379 0.01944371 -0.049247723 -0.030250829
000080 47 78 1a bd fb 4f af 3b 1b fc 9a bd 8e 68 6f bd
       -0.03771236 0.0053501106 -0.075676166 -0.05844932
000090 4a ee 0f bd 45 e6 77 3c b8 69 21 bd 7f 08 53 3c
       -0.03513936 0.015130584 -0.039407462 0.012880444
0000a0 bc ed 06 3d 0c bf 95 bc 3e 5e 83 bd 63 24 ad bc
       0.032941565 -0.018279575 -0.0641446 -0.021135515
0000b0 be 3c 0e 3b 28 1e 24 bd 48 5f a8 bd 9f 40 17 3c
       0.0021703686 -0.04006782 -0.082212985 0.009231715
0000c0 6f 7a 47 bd 0c 07 7b bd 2d e6 19 3c 48 23 19 bc
       -0.048700746 -0.061286017 0.009393257 -0.009346791
0000d0 4f 7d b4 3c d6 f2 06 bd ef 47 04 3c 11 89 22 bd
       0.022032408 -0.03294643 0.008073791 -0.039681498
0000e0 61 4b 7f bd c1 b0 fd 3c 33 cf 17 3d 9b eb ac 3c
       -0.062327746 0.030968072 0.037062835 0.02110844
0000f0 6f 18 26 bd 64 ff 40 bd 96 f2 30 bc ce 0c e9 3a
       -0.040550645 -0.04711856 -0.0108000245 0.0017780305
000100 d5 e7 84 bc 32 ae 69 3a 30 d8 df bc b3 74 4f 3c
       -0.016223827 0.0008914202 -0.027324766 0.012662101
000110 34 a4 02 3c fd e7 16 3c 6b 89 d1 bc a0 54 8e bd
       0.007973719 0.009210584 -0.025578221 -0.06949735
000120 74 7f 83 bd e9 ce 5d bd 76 b7 c6 3c 9f 44 cb bc
       -0.06420794 -0.054152403 0.024257403 -0.024812995
000130 eb 35 e0 bc ee 9e 32 bd aa 80 cf bc f3 1b 9e 3c
       -0.02736946 -0.0436086 -0.025329906 0.019300437
000140 68 dd aa bc a3 92 ae b9 2c 39 14 3c eb 1f a8 bd
       -0.020857528 -0.0003329712 0.009046834 -0.08209213
000150 d9 e0 46 bb 49 72 1c 3d 90 4c 4d bd 9e 12 6f bc
       -0.0030346422 0.03819493 -0.050121844 -0.014591841
000160 b6 6c a3 bc 03 e0 27 3c 0a aa 61 bc 16 1d 8b bd
       -0.019949298 0.01024628 -0.013773451 -0.06792657
000170 94 6f 8a bd 4a c0 ce 3c 16 bc 3d bd b6 bc 92 bd
       -0.06759563 0.025238175 -0.04632195 -0.071649
000180 8f d6 9e bd 0b 9c 94 bd ee 20 f2 bb 40 07 b0 bc
       -0.077557676 -0.07256325 -0.0073891794 -0.021487832
000190 ec 25 71 bd a5 3b 1c bd c0 3c 7a bc 8f 9e 75 3a
       -0.058874056 -0.03814282 -0.015273273 0.00093696354
0001a0 73 6b 7a 3b 39 59 65 bd 6a d9 0d 3d d3 b2 0c 3d
       0.0038211017 -0.055993292 0.03463117 0.034350228
0001b0 04 66 91 bd fb 37 eb 3c 3f 45 98 bd 6f 15 80 bd
       -0.07099536 0.028713217 -0.07435083 -0.06254088
0001c0 49 57 19 bc 27 81 76 bb be 49 ea 3c d7 c0 aa bc
       -0.009359189 -0.0037613602 0.028599616 -0.020843906
0001d0 a0 bf 97 3c 3d 1c 45 bd e7 58 8a bd e3 7f f6 bc
       0.018523991 -0.048122633 -0.06755238 -0.030090278
0001e0 94 76 cf 3b 96 dc 33 bd d7 d4 8f bd 87 3a 76 bd
       0.0063312743 -0.04391154 -0.07023018 -0.06011441
0001f0 d5 4c 30 bc cc a0 0f 3d fa e3 ca bc 10 c8 92 bd
       -0.010760506 0.035065457 -0.02476691 -0.07167065
000200 97 e3 4d bd 57 bd ae 3b 4c a0 21 bd b3 98 e5 bc
       -0.050265875 0.0053326297 -0.03945951 -0.028026914
000210 27 da 9d 3c 24 7a 92 39 da a1 78 3c 17 7c c7 3c
       0.019269062 0.00027938292 0.015175307 0.024351163
000220 0b ed 38 bd 49 b6 90 bc b3 93 89 bd 00 9a 1b 3d
       -0.045147937 -0.017665045 -0.067176245 0.037988663
000230 8e 34 78 bd d2 10 06 3d a6 65 07 3d a9 60 09 bc
       -0.060596995 0.032730885 0.033055924 -0.008384862
000240 60 f7 a4 bd fc f2 dd bc 26 76 49 bd c5 d0 ed bb
       -0.080549955 -0.027093403 -0.04918494 -0.0072575533
000250 62 39 41 3c fa a0 4b 3c 7b b8 c8 bb 8c d3 88 bd
       0.011793466 0.0124285165 -0.0061255074 -0.06680974
000260 89 28 91 bd 08 da 52 bc 1a b4 27 bd cd 5e 8d 3a
       -0.070878096 -0.0128693655 -0.040943243 0.0010785699
000270 3d 58 09 3d 09 22 92 bb bd a9 6b bd 92 5b 24 bd
       0.033531416 -0.0044596237 -0.057534922 -0.04012639
000280 f3 62 7a 3c 11 2e 7e bc 68 e3 51 3c 72 77 a3 bd
       0.01528238 -0.015513913 0.0128105655 -0.07981767
000290 01 83 fd bc 2c 8d 5a bd 07 e2 c5 3c ac 30 c5 3b
       -0.030946257 -0.05335729 0.02415563 0.006017765
0002a0 5b 1c 05 bd 39 94 9b bd 52 34 e4 bc 32 f6 99 3c
       -0.032497745 -0.075966306 -0.02785698 0.018794153
0002b0 d2 0f de bc a2 6a e2 bc b2 91 a1 bd a0 57 ce 3c
       -0.027107153 -0.027638737 -0.07889117 0.025188267
0002c0 e2 d8 e4 3c 26 51 92 bd e0 5c 81 bd 39 8a 96 bc
       0.027935449 -0.07144384 -0.063165426 -0.018376457
0002d0 e5 83 7b bd 1c 7b 95 bd f2 0f d3 bb ce 0f 1b bd
       -0.06140508 -0.07298872 -0.00644111 -0.03785687
0002e0 60 2d d2 39 b2 8a 28 3b 18 20 f5 3c b1 08 73 3c
       0.00040088128 0.0025717434 0.02992253 0.014833615
0002f0 ef 01 9c bd 23 5d 9c bd 32 fc ab 3c 62 b0 9b bd
       -0.07617556 -0.07634952 0.02099428 -0.07602002
000300 45 98 62 3c 66 3d 68 bd 9d ad d2 3c ca e5 37 3c
       0.013830249 -0.05669918 0.02571755 0.01122422
000310 21 54 7a bd 5e 43 8f bd a6 de 60 bd 01 54 56 bd
       -0.061115388 -0.06995271 -0.054899834 -0.052326206
000320 51 2c 71 bd 87 40 8e 3c 3b 54 d1 bb 4c f6 e6 bc
       -0.058880154 0.017364753 -0.006388215 -0.028193615
000330 71 71 e4 bc 2d aa 67 3b 57 68 76 bc b8 32 10 bd
       -0.027886124 0.0035349235 -0.015039525 -0.03520462
000340 26 fb db 3c d0 0e 73 3c 2f 2f 95 bc a3 7f a5 3c
       0.026853155 0.014835075 -0.018210975 0.020202463
000350 4b d5 09 bd 15 4e 8a bd ae 8e 56 3c 3a d8 3d 3c
       -0.033650678 -0.06753174 0.013095541 0.011587197
000360 0d 57 9b bc bf b2 9a bd de 94 91 3c a2 f2 9a bc
       -0.018962407 -0.07553624 0.01777118 -0.018914524
000370 f6 e4 53 bd b0 d1 95 bd c8 0a 5a bd f0 21 0d 3d
       -0.051732026 -0.07315385 -0.053232938 0.034456193
000380 fc ad 05 3c c5 c9 5d bd 60 32 c3 3c 4c 64 d1 3c
       0.008159157 -0.0541475 0.023827732 0.02556052
000390 9b 07 9d 3b 80 f3 d7 bc b4 5c 0e 3d 2e 3e 1b bd
       0.0047921664 -0.026361227 0.034756377 -0.037901096
0003a0 f4 e8 3c bd 2a 8f ea 3b 4d 58 5f bd 7f b6 7e 3c
       -0.0461206 0.00715818 -0.05452757 0.01554644
0003b0 e8 b7 6e bd ba 48 c9 ba 69 c3 84 bd 85 64 7a bd
       -0.058280855 -0.0015356757 -0.06482584 -0.06113102
0003c0 2f 3d a2 bc 73 99 d2 3c 31 ec 87 bd b5 34 36 bd
       -0.019804565 0.025707936 -0.06636847 -0.04448386
0003d0 3c 7e ee 3a 86 6a 13 bd 5a 18 9e bd 30 e1 b5 bc
       0.001819558 -0.03599026 -0.077194884 -0.022202104
0003e0 91 0b 2a bd b3 3b 28 bc 44 34 2d 3b cc b5 1f bd
       -0.041514937 -0.01026814 0.0026428858 -0.038991734
0003f0 75 09 70 bd d3 52 24 3c 6d ec 9a bd 68 71 b4 3b
       -0.05860277 0.010029512 -0.07564626 0.005506683

bias f4 [32]
000000 24 dd 9c bd 76 e8 62 3d b1 49 10 bc 7d 30 2e bc
       -0.07659367 0.055397473 -0.008806632 -0.010631678
000010 54 26 1b bb c2 46 6b 3d 20 96 4b 3c 25 91 a6 bc
       -0.0023673968 0.057440527 0.012425929 -0.020332882
000020 67 cd 42 3d 4f 5f d7 3c 3e 51 08 3d 36 fa ac bc
       0.04755917 0.026290564 0.033280604 -0.021115404
000030 b8 bf 7b bd 3f 2f 83 bc b2 e1 d5 3c 3a 60 3e 3d
       -0.061462134 -0.01601374 0.026108596 0.046478488
000040 6e 10 4d bd fe 2b 47 3d cc 91 10 bc 2f 3c 8e bc
       -0.050064497 0.04862594 -0.008823823 -0.017362682
000050 8e 03 c7 3c 78 d9 5f bd 6a 0b df 3c e8 af 19 bd
       0.024293687 -0.054650754 0.027227122 -0.037521273
000060 d6 c7 8f bd 78 38 4c ba d8 0c 54 bd 2f 83 a8 3c
       -0.070205376 -0.0007790397 -0.05177006 0.020570366
000070 c8 5d f5 bc 85 86 92 bc 80 2e 03 3d 6a ad c9 bb
       -0.029951945 -0.01788641 0.032026768 -0.006154706

weight f4 [32, 32, 3, 3]
000000 fb 05 19 3d 7f 52 2a bd ba e7 d8 bc bf 7b 87 3c
       0.03735922 -0.04158258 -0.026477683 0.016538499
000010 7e 3c bb bb 3f 51 4a 3d 0c df 81 bc db 5c 5a ba
       -0.0057139983 0.04939389 -0.015853427 -0.00083298766
000020 1a 7a dc 3c d1 2f 8d 3c 2a 73 1b bd 84 62 c5 3b
       0.026913691 0.017234715 -0.037951626 0.006023707
000030 2d 75 b6 bc b6 0d 35 3d a7 73 4e bd fb 22 f5 bc
       -0.02227267 0.04420253 -0.050403263 -0.029923907
000040 ef 93 36 3d 56 52 db bc 9b ad 8b ba 5b 0d be 3c
       0.044574674 -0.02677266 -0.0010656597 0.023199728
000050 2c bf 8b 3d 09 b3 c5 bc b4 80 0a 3d 50 65 9f ba
       0.068235725 -0.024133222 0.033814147 -0.0012160931
000060 25 62 e9 bb 22 95 2b 3c 5e db dd bb dc ec ec 3c
       -0.0071222954 0.010472568 -0.0067705354 0.028921537
000070 fe 6e 51 bd d9 58 94 3c 9e 43 6a 3d b0 4d 69 bc
       -0.05113124 0.018108772 0.05719339 -0.014239714
000080 8c df 74 bc 76 44 1e bd 0a 8d 5f 3b 8e 7f 3a 3d
       -0.014945876 -0.03863951 0.0034111165 0.045531802
000090 ac 3c db 3c ba 37 2e 3d ed 32 c2 bc e9 7d 51 bc
       0.026762329 0.042533614 -0.023705924 -0.012786367
0000a0 2a d9 e9 3c c8 a1 dd 3c b5 5d 7e 3d 11 38 40 bd
       0.028545935 0.027054682 0.062101085 -0.04692847
0000b0 4f 8f 5f 3d eb c2 b3 3d 27 ba 33 bd d3 50 0b 3c
       0.05458003 0.08777412 -0.0438787 0.008503157
0000c0 c9 fb 6b 3d 48 3b 0e 3d dd 72 a0 bc d2 89 16 3c
       0.057613168 0.034724504 -0.019586021 0.009188132
0000d0 92 dc f5 bc ab 52 48 3d e2 de 05 3d 21 ef 05 3d
       -0.030012403 0.048906963 0.03268326 0.032698754
0000e0 d1 2b 90 bc b5 c3 e8 bc 93 24 4e bd 5c 20 40 3d
       -0.017599018 -0.028413633 -0.05032785 0.04690586
0000f0 9f 52 80 bc 28 55 73 3c 3f c3 a0 3c 30 79 fe ba
       -0.015664397 0.014851846 0.01962435 -0.0019414779
000100 e5 54 61 3c 19 05 8b 3d 04 99 3f 3d 10 b8 73 bd
       0.013753151 0.06788082 0.046776786 -0.059501708
000110 40 27 6a 3d 3d 28 93 ba 7e a5 b1 3c c0 b8 47 bd
       0.057166338 -0.0011227202 0.021685358 -0.048760176
000120 98 83 b9 3c 67 d7 13 3d c2 08 96 3d df 4c 64 3d
       0.022645757 0.036094096 0.07325889 0.055737372
000130 bb c2 7d bd 00 b8 46 bd cd c2 01 3d c9 80 36 3d
       -0.061953288 -0.04851532 0.031679917 0.044556413
000140 91 7a ad 3c 4f b2 a5 bb 6e ba 52 3d 2b c1 8c 3d
       0.021176608 -0.0050566564 0.051447324 0.06872781
000150 2f 88 b4 3c 7d bc 84 bd e8 4f 23 bd 00 95 86 ba
       0.022037594 -0.06481264 -0.039871126 -0.0010267794
000160 b9 fe 09 3d 7a 01 79 3d 51 0b 81 3b 20 4e 0b bd
       0.033690188 0.060792424 0.0039381166 -0.034010053
000170 7e a6 5d 3d f5 65 10 3d 21 b3 83 3c 41 bc d0 3c
       0.054113857 0.035253484 0.016076626 0.025480391
000180 ec 20 65 3d bd ba ce 3c c2 5c 1a 3c ed dd 1c bc
       0.0559396 0.025235528 0.009421529 -0.009574396
000190 94 4a 43 3d e8 6f 4d bc b3 38 b9 3b 82 5f 36 ba
       0.047678545 -0.012538888 0.005652511 -0.0006956981
0001a0 95 d8 16 bc d1 61 21 3b 67 22 4d 3d 36 77 69 3c
       -0.009206911 0.0024624954 0.050081637 0.0142496135
0001b0 b6 c2 04 bd 71 33 51 bb 98 d8 8a 3c a2 57 bb 3b
       -0.032412253 -0.003192153 0.016948983 0.0057172338
0001c0 24 f5 84 bc 91 6c 18 bd 67 a2 d2 3b 41 b0 bf 3c
       -0.016230173 -0.037212912 0.0064280513 0.023399474
0001d0 38 8f 38 3d 17 77 0a 3d 7a 39 0e 3d 74 ae a3 3d
       0.04505846 0.03380498 0.034722783 0.07992259
0001e0 3b 84 af bc d9 93 06 3d e3 52 40 bd 51 13 a0 bc
       -0.021425357 0.032855842 -0.046954047 -0.01954046
0001f0 7c cf 97 b9 f5 09 53 3d ec 59 15 3c df 5d 27 bd
       -0.00028955552 0.051523168 0.009115677 -0.040861007
000200 fe a2 3d 3d 6f c1 db bc 52 a0 97 3a d8 4e 38 3c
       0.04629802 -0.026825635 0.0011568165 0.011249267
000210 91 32 bc bc 88 77 31 bd 99 ef 56 bc de 0a 07 3d
       -0.02297333 -0.043326885 -0.013118648 0.032969348
000220 3e cc 0a bd 7f 0c a2 3d 49 f1 f1 bc 47 7c da bb
       -0.033886187 0.0791254 -0.029533999 -0.006667647
000230 d0 77 54 bd e4 44 4f 3a 0b 2f f2 3c 3a 8f 09 3d
       -0.051872075 0.0007906689 0.029563447 0.033583857
000240 ab 22 cc ba 7d 7d bf 3c a2 a1 24 3d 94 ec 63 3c
       -0.0015574297 0.023375267 0.040193208 0.013911385
000250 1f 83 65 3c 14 4a e4 3c 60 5b d1 bc 98 ed 1f 3d
       0.0140083125 0.027867354 -0.025556266 0.039044946
000260 51 87 04 bd 50 c9 55 3d ff 3a 25 3d 14 4f 91 bb
       -0.03235561 0.05219394 0.040339466 -0.0044344757
000270 c4 9d a3 3c 55 f3 c2 bc b1 d7 ee 3c 86 7b 92 bc
       0.01997269 -0.02379767 0.029155584 -0.017881166
000280 2c 28 a6 3b 0e 11 2f bd 10 75 a2 3d 14 32 e7 3b
       0.005070707 -0.042740874 0.07932484 0.0070555303
000290 46 04 99 3d 4d bc eb 3b b2 82 52 bc 9e bc 3d 3d
       0.07471518 0.007194078 -0.012848543 0.046322457
0002a0 14 89 4c 3d fb 84 2b bd 47 d7 32 bd 6a 17 b6 3c
       0.049935415 -0.041874867 -0.043662336 0.022227962
0002b0 30 41 ae 3c 6b b6 0f bd b7 2b 56 3d e5 70 6d 3b
       0.021271318 -0.035086077 0.052287783 0.003623062
0002c0 c9 b1 ed 3c 73 f0 43 3d 5d d1 8f bc e6 53 2c bd
       0.029015439 0.047836732 -0.017555887 -0.0420722
0002d0 e9 b4 b3 3d e2 56 a6 bc e0 9e 57 bc 75 cb 34 3d
       0.0877474 -0.0203051 -0.013160437 0.044139344
0002e0 5d 8d dd ba 4e 2f 97 bc 68 a4 81 bc fe 9a e8 bc
       -0.0016903091 -0.018455174 -0.015825465 -0.028394219
0002f0 22 c1 c7 3c 99 e5 f6 3b c9 18 80 bc 1e a7 8f 3d
       0.024384085 0.0075346944 -0.015636818 0.07014297
000300 21 b8 e7 bc 86 ec 78 3c 47 80 cc bb 2f 45 75 3d
       -0.028286042 0.01519311 -0.006240878 0.05988043
000310 64 cf 4d 3d 3f 0e 08 3c 92 98 c0 3d c3 ce 6e 3a
       0.05024661 0.008304178 0.094041005 0.00091097894
000320 e6 d5 dc bc 93 6e 39 bd 82 33 32 3d f6 ef ef 3c
       -0.026957463 -0.045271467 0.043506153 0.029289227
000330 d4 68 a1 3b 13 f4 1d bd 35 54 41 bd 15 2d 0a bc
       0.0049258266 -0.038562845 -0.047199447 -0.0084336
000340 62 fc 11 bd db 63 9f 3d 59 9f 54 3d 53 61 4b 3d
       -0.03564108 0.07782718 0.05190978 0.049653362
000350 92 7f 5b 3c 66 a4 14 bb f6 af c4 bc c9 5a 9a 3d
       0.013397114 -0.0022680997 -0.024009686 0.07536847
000360 21 93 a8 39 c7 98 8b bc 82 67 13 bc 69 fa 4e 3d
       0.00032153077 -0.017040623 -0.008996846 0.05053178
000370 cc 6f eb bc 34 1e 34 3d 8b 35 8a bc cc 28 44 bd
       -0.028739832 0.043974116 -0.016871234 -0.04789047
000380 7f 8c 0b 3d 7b 7c 04 3c f9 6c 0c bd 71 7f bb bc
       0.034069534 0.008086319 -0.034283612 -0.022887917
000390 48 6c 96 bc 9b 5a e7 bc 33 42 6b 3d 4b 28 97 3d
       -0.01836218 -0.028241446 0.05743618 0.07380732
0003a0 2a b5 22 bd 22 ad b5 bb a6 9f 30 3d ee b2 89 3d
       -0.039723553 -0.0055443207 0.043121003 0.06723581
0003b0 4c 3e b9 3b 67 31 26 bd 06 80 6e 3a d7 15 2f bd
       0.0056531783 -0.040574457 0.00090980565 -0.042745437
0003c0 12 ad 96 bc 60 34 bb 3c e9 0e 3d bc e5 e4 02 3d
       -0.018393073 0.022852123 -0.011539199 0.031956572
0003d0 85 8d d5 bb cc 6a fd 39 a4 72 df 3b 46 55 4b bd
       -0.0065171146 0.0004833549 0.006819086 -0.04964187
0003e0 a7 f8 25 bc 6d f2 0e 3d 62 73 f8 3c 04 10 fc 3c
       -0.010130084 0.034899164 0.030328456 0.030769356
0003f0 22 5e ee bb e0 3c 0f 3d a6 e1 41 ba e7 1c ac bc
       -0.007274405 0.034970164 -0.000739599 -0.021009875

bias f4 [32]
000000 b1 60 5b 3d 14 1c ac 3c 7c 9e 98 bd 1c 08 e8 3c
       0.05355901 0.021009482 -0.074521035 0.02832418
000010 9b 8f 0e bd 08 88 aa bd 6e e2 d8 bc b3 14 06 3c
       -0.03480492 -0.08326727 -0.026475158 0.008183646
000020 ff 4d 3b 3d d7 11 16 3d 3b fd 58 bd 1d 29 ce ba
       0.04572868 0.036638107 -0.052975874 -0.0015728805
000030 e3 53 77 bd 36 9c 42 bd 5a 21 f3 3c af b9 7a bd
       -0.060382735 -0.047512256 0.02967899 -0.061212238
000040 9f e7 94 bd 1a 60 8a 3d fe 99 33 bd 7a 76 09 3c
       -0.07270741 0.06756611 -0.04384803 0.008390063
000050 d6 4b 1e bc 1a 80 31 3c 02 a8 61 3b 86 dc bc 3c
       -0.009661635 0.010833764 0.0034432416 0.023054373
000060 ea 28 4d bd 0b 6f 96 3c 4f 2f 5e bc ab d1 eb 3c
       -0.050087847 0.018363496 -0.013561084 0.0287865
000070 f9 01 b4 3c 02 77 12 3c 69 89 a2 3c 24 35 a5 bd
       0.021973597 0.0089395065 0.019840913 -0.080667764

weight f4 [10, 32, 3, 3]
000000 3f 95 41 3d 8b 4d f5 3c 30 7a 93 bd 52 f1 cf bc
       0.047261473 0.029944202 -0.0720104 -0.025383625
000010 4e 6a 65 3d 3c d4 56 bd 21 2b 32 bd ff c6 44 bd
       0.056009583 -0.052448496 -0.043498162 -0.04804134
000020 17 98 a7 3c 8b 1e e7 3c 49 ba 56 bd 01 4e 93 bc
       0.020458264 0.028212806 -0.05242375 -0.017981531
000030 2a e8 18 bd 79 51 0d 3d b0 5c 05 bd 76 ad c5 bb
       -0.037330784 0.034501527 -0.032559097 -0.006032641
000040 24 dc 13 3c ba 47 d9 bc 99 35 2c bb 95 0c 57 bd
       0.009024654 -0.02652346 -0.0026277064 -0.052502234
000050 31 70 2d 3d 79 97 40 3c be 95 81 3d 0e 47 61 bc
       0.042343322 0.011754864 0.06327389 -0.013749851
000060 1b 1f c4 3c ce bc 58 bd 29 47 29 bd e1 59 0d 3d
       0.023940613 -0.052914433 -0.04132763 0.034509543
000070 0e 6d db 3a c9 90 4e bd 4d 4d 87 bb 51 6f 50 3d
       0.0016740875 -0.050431047 -0.004129088 0.05088741
000080 00 ac 0a bd 47 9b 2e 3d 1c 4e a1 bb aa 39 5c 3d
       -0.03385544 0.042628553 -0.0049226414 0.05376593
000090 43 88 47 3d 25 3b 18 bd f3 f5 96 3c ca 05 f8 3c
       0.048713934 -0.03716578 0.018427825 0.030276198
0000a0 ac a6 15 3d 71 27 29 bc a6 ac 8b bc d4 2b 34 bd
       0.036535904 -0.010324345 -0.017050099 -0.04398711
0000b0 7c fe 15 bd ea a2 c6 3b b5 bc 03 3b 18 c2 14 bd
       -0.03661965 0.0060619013 0.0020101492 -0.036317915
0000c0 5d 56 1d 3d 78 4c dc 3c 52 bd 43 bd f3 85 9e bc
       0.03841244 0.026891932 -0.04778797 -0.019350981
0000d0 36 1f 3d bd 73 10 fd 3c ae 3a 80 3d 3a 3f c4 3c
       -0.046172343 0.030891633 0.06261192 0.02395593
0000e0 b4 4a 61 bc b0 11 11 3d 44 28 5a bd e5 9c cd 3b
       -0.013750721 0.03541726 -0.053261057 0.006274807
0000f0 a4 56 bf bc f6 41 37 3d f7 1b 32 3d 23 ad b2 3c
       -0.023356743 0.04474064 0.0434837 0.021811074
000100 ed 2f 42 bd f1 1d 7d 3d 60 fd 4b 3d 74 92 c1 bc
       -0.047408987 0.061796132 0.049802184 -0.023629405
000110 fe a8 3b bd 6b 7e 64 3d ac 88 33 bd 69 9c 3e bd
       -0.04581546 0.055784624 -0.043831512 -0.046535883
000120 0d 38 97 3d 39 1a 1b bc 0d 8b cf 3c a5 8f 4c 3d
       0.07383738 -0.009466701 0.02533486 0.049941678
000130 a4 79 96 3b 92 ed 3e bd 47 cf 83 3c 30 db 93 39
       0.0045921374 -0.046613283 0.016090048 0.00028201332
000140 fe 22 76 bb 3a 07 a1 3d 7f d2 d1 bb 10 09 2f 3d
       -0.0037557478 0.078627065 -0.006403267 0.042733252
000150 a5 b4 0e bd c8 df 55 3d e5 e7 8c bc e9 97 3d 3c
       -0.034840245 0.052215368 -0.01720042 0.011571863
000160 30 c4 89 3c 68 88 62 3c 77 d3 d7 bb 77 04 10 bd
       0.016817182 0.013826467 -0.006586488 -0.035160508
000170 8c c3 4d bd 51 b0 46 3d 9f 4f 17 39 a9 7e ed 3c
       -0.050235316 0.048507992 0.00014430143 0.02899106
000180 6b 99 cd 3c 71 ac a6 bb e5 3b 0f 3d c6 df 1a 3d
       0.02509757 -0.0050864746 0.03496923 0.037811063
000190 c9 3b ba bc 79 74 88 3d 9e e7 87 3d 80 0a 29 bb
       -0.022733586 0.066628404 0.06635974 -0.0025793612
0001a0 0a 0d 89 3d 0d 2c b0 3c d1 3f 3f bd 53 93 79 3d
       0.0669194 0.02150538 -0.04669172 0.060931515
0001b0 cb a6 9c 3c d5 fa fb ba ea 0c 2c bd 34 3b 15 3c
       0.019122502 -0.0019224534 -0.042004503 0.009108353
0001c0 b5 3d a4 3c 09 bf 81 3d f0 00 b0 3c b7 3c dd bc
       0.020048955 0.06335265 0.021484822 -0.02700649
0001d0 72 d3 6a bc 30 b6 84 3c 7e c6 00 bd 78 de 6d bd
       -0.014332639 0.016200155 -0.031439297 -0.05807349
0001e0 2b 77 39 bb db e7 98 bc ab d0 45 bc 46 7a 89 3c
       -0.002829979 -0.018665245 -0.012073676 0.016781937
0001f0 c7 1e b8 3c e9 0d 27 bd c1 47 a3 3d fd a1 34 bd
       0.022475613 -0.04078475 0.0797267 -0.044099797
000200 7c 62 d3 bc 9c 24 a9 bc d7 0f 14 3d 6a 9c bc 3c
       -0.025803797 -0.02064734 0.03614792 0.023023803
000210 27 d7 3a 3d 53 37 0e 3d ce 33 3e bd 91 94 26 bd
       0.04561534 0.03472073 -0.046436124 -0.040669028
000220 e9 2d ee 3b 6b 8d 44 bd 27 dd 8d bc 33 a7 1d 3b
       0.0072686565 -0.04798643 -0.017317368 0.0024055957
000230 96 e3 39 3d e4 09 6b 3c 32 54 61 3d b9 35 1a bd
       0.04538306 0.01434562 0.055011936 -0.03764889
000240 44 af 01 3d 8e e6 7f 3b 63 b4 74 bd 24 78 8c 3d
       0.031661287 0.0039047333 -0.059742343 0.068588525
000250 38 6c 1d 3d f3 46 67 bd 0b a8 80 3d 21 b5 77 bc
       0.038433284 -0.056464147 0.06282052 -0.015118868
000260 b4 0b 1d 3c f1 d6 95 3d e4 6d 89 bd 69 4d 2c bc
       0.00958531 0.073163874 -0.06710413 -0.010516503
000270 cf ae 11 bd 77 e5 9d 39 56 25 06 3d c4 78 01 3d
       -0.0355671 0.00030116338 0.03275045 0.03160931
000280 e1 7c ec 3c d9 8a df 3c 40 d9 89 3d 8c a4 98 3a
       0.02886814 0.027287887 0.0673089 0.0011645718
000290 c2 cd 85 3b 4b ec 6c 3d 33 3c 67 bc 92 4e d3 bc
       0.004083366 0.057842534 -0.014113474 -0.025794301
0002a0 9e 57 e4 3c 0b 13 0f 3d 4e a8 ca 3c 26 08 e2 bc
       0.02787381 0.03493027 0.024738457 -0.027591776
0002b0 63 db 82 bd 6f a7 86 3c 4c a6 eb 3c 35 16 41 bd
       -0.06389501 0.01643726 0.02876582 -0.04714032
0002c0 2f f6 38 3d c2 07 3f bc 86 56 b7 3c 30 9c 18 3d
       0.045156654 -0.011659564 0.022380125 0.037258327
0002d0 c4 d6 91 bc 17 47 24 3d 8e 76 77 bc 58 f5 e5 3c
       -0.017802604 0.04010686 -0.015103949 0.02807109
0002e0 38 43 2f 3c 55 33 e1 bc de 74 e2 3c 2b 16 6c 3d
       0.010697179 -0.027490297 0.027643617 0.05763833
0002f0 ae f5 3c bd 62 eb 8d bc 9f 62 be bc 1d 68 e1 3c
       -0.046132736 -0.017324153 -0.023240386 0.027515465
000300 37 2e 4e 3c fe ab 54 bd c8 7d 5c 3c 04 91 9c bc
       0.012584261 -0.051921837 0.013457723 -0.019112118
000310 48 c0 c3 bc 9d 1c 66 3c 68 0d 92 3d c9 30 78 3b
       -0.023895398 0.014044908 0.07131463 0.0037870875
000320 af 1e 16 3d 9d 65 46 3d 22 aa 80 bc 1f c0 d0 bc
       0.036650356 0.04843675 -0.015706126 -0.025482235
000330 21 bb cf 3c 78 3f 34 3d 34 d0 f1 bc e0 3d 0e 3d
       0.025357785 0.04400584 -0.029518224 0.034726977
000340 02 60 86 bd 31 b0 53 3a d7 d9 ad bc 1c f0 cf bb
       -0.06561281 0.0008075266 -0.021222038 -0.006345762
000350 27 fc 22 3d e5 a1 35 bc 7d 12 ca 3c 4e e9 42 3c
       0.039791252 -0.011085962 0.024667019 0.0118964445
000360 08 53 ae 3d c2 5e 31 bb 4e 11 88 bd 70 2d ab bb
       0.08511931 -0.0027064537 -0.066439256 -0.0052239224
000370 9d b2 84 39 f5 09 5c 3d d5 d6 69 3d a2 21 64 bc
       0.0002531008 0.053720433 0.057089645 -0.013924034
000380 12 b9 9a 3c 72 15 7c bc 73 0f 18 3d 5f ec 72 bd
       0.018887077 -0.015385972 0.03712411 -0.059307452
000390 83 29 83 3d d1 36 16 3d 21 7d 24 bd 37 96 82 3b
       0.06404402 0.03667337 -0.040158395 0.003985192
0003a0 7a b0 f1 3c 60 2e 4e 3d 7a bd d7 bc db fc 30 bd
       0.029503096 0.050337195 -0.026335467 -0.04320989
0003b0 15 ca 60 bd 15 5f d7 bb df 89 15 bd 09 13 35 3d
       -0.05488022 -0.006572614 -0.036508437 0.044207606
0003c0 2b ba f7 3c e3 f3 0b 3d 23 d0 61 3d e2 85 a2 bb
       0.030240139 0.034168135 0.055130135 -0.0049598077
0003d0 b0 09 9e 3b 81 2a 01 3c cc ef ee 3c 11 0e 4e bc
       0.004822932 0.007883669 0.029167078 -0.012576596
0003e0 41 a2 24 3d b5 e9 52 3d 20 ec 37 bd 54 46 60 3d
       0.0401938 0.05149241 -0.04490292 0.05475457
0003f0 03 52 22 3d 92 3f 1d bc 30 f6 ae 3c 5a 92 60 3a
       0.039628994 -0.009597676 0.021357626 0.000856673

bias f4 [10]
000000 0a 8d c4 3b f1 10 c7 3c ff 5f 84 3d f1 5b 70 3d
       0.0059982585 0.02430007 0.06463622 0.058681432
000010 9e 53 c3 bb 49 e0 63 3b 26 14 d4 bc ba 14 a6 3a
       -0.0059608957 0.0034771136 -0.025888514 0.0012670972
000020 45 70 79 bd 92 e3 2f 3d
       -0.060898084 0.042941637

weight f4 [10, 32, 3, 3]
000000 a0 fe 12 bd ae ab b1 bd 07 e3 03 3d 7a 6d 41 bd
       -0.03588736 -0.086753234 0.032198932 -0.047223546
000010 c5 47 87 bd 7d 4d e8 3d 82 0b e5 3d f5 7d 2c bc
       -0.06605486 0.11342905 0.111838356 -0.010528077
000020 f6 b7 ab 3d fd 07 22 3d 80 b5 11 be f9 62 f1 3d
       0.08384697 0.0395584 -0.14229393 0.11786456
000030 a4 16 c9 bc 5e 57 2d be aa ab c1 3d 93 ff 06 3d
       -0.024546929 -0.16927859 0.094565704 0.03295858
000040 bd 7f b7 bd 43 c9 31 3e 94 16 37 bd 5e b6 1f be
       -0.08959911 0.17361932 -0.044699267 -0.15596911
000050 9c 46 8d 3d d2 72 12 bd ec f6 84 bd dc 87 01 3e
       0.06898233 -0.035754032 -0.06492409 0.12649482
000060 20 ff b4 3c da 7a ed bd 74 bf e5 3d e8 fa d0 bc
       0.02209431 -0.11595698 0.112181574 -0.025510266
000070 c1 ce 00 be 56 da ca 3c 81 e1 ff 3c 2e ef e4 bd
       -0.1257887 0.024762314 0.031235458 -0.111784324
000080 d3 09 b0 3d e2 9f 6f 3d 59 28 f5 bd 83 7b c0 3d
       0.08595624 0.058502086 -0.11970586 0.09398558
000090 d9 c4 68 bd d7 69 fc bd 54 92 ea 3d 4c e4 8d 3b
       -0.056828354 -0.12324875 0.11453691 0.0043301936
0000a0 ba b0 4a bd 69 cd af 3d 27 39 9e 3d db c0 61 bd
       -0.049484946 0.08584101 0.07725745 -0.055115562
0000b0 7e ea db 3d 7b a3 4f be 62 cb 20 be 1d 92 a1 3c
       0.10738085 -0.20277207 -0.15702584 0.019722993
0000c0 fa da 67 3c e8 b8 45 bd 3a 5f 07 3e 69 22 5a 3d
       0.014151329 -0.048272043 0.1321992 0.053255472
0000d0 05 0c c0 bd fd 5a 3d 3e bc 48 ca bd 2f d3 6e bd
       -0.093772925 0.1849174 -0.09877154 -0.05830687
0000e0 b7 c1 dd 3d b1 71 64 bd b7 7b 89 bd b4 9d 30 3e
       0.10827964 -0.055772487 -0.0671305 0.17247659
0000f0 a5 00 29 3d 61 11 a8 3b d1 c3 03 3e 6b a5 f6 bd
       0.04126038 0.005129025 0.12867667 -0.1204327
000100 62 19 0a be 38 4d 71 3d 3e 42 98 bc 5a d7 18 be
       -0.13486245 0.058911532 -0.018586274 -0.149259
000110 af 5a 12 3e ea 08 b4 3d 71 6e a7 bd 43 7f 0e 3e
       0.14292406 0.08790763 -0.08175362 0.13915734
000120 fc 69 51 bd ea 72 3e be f9 b4 55 3d 01 e3 7e bd
       -0.051126465 -0.18598524 0.052174542 -0.062228207
000130 13 74 c8 bd bc b5 f2 3d 67 1e 48 bc 95 91 dd bc
       -0.097877644 0.11851069 -0.01221428 -0.027046958
000140 20 e5 34 3e 96 f1 16 3a 1b ff b2 bd 7c d9 90 3d
       0.17665529 0.0005758045 -0.08740064 0.07072732
000150 b1 30 7b 3d 56 d2 d2 bd dd 62 ba 3d 3e a1 a4 3b
       0.061325733 -0.10294025 0.09100888 0.0050241044
000160 30 90 22 bd 96 ed 9c 3d 03 48 c1 bd d3 a4 0c be
       -0.03968829 0.076625034 -0.09437563 -0.1373475
000170 86 05 8d 3d 04 29 08 be fd f0 c1 bd 99 a8 a4 3d
       0.06885819 -0.13296896 -0.09469793 0.0803997
000180 91 5e 49 bd 4f 3c 08 bc 6b 9a c5 3d cb fc b0 bd
       -0.04916245 -0.00831516 0.096485935 -0.086419664
000190 d2 d0 c1 bd 6c b7 da 3d 8a 3c 38 bd 76 9e df bd
       -0.094636574 0.10679516 -0.04497961 -0.10918896
0001a0 10 78 ef 3d f4 14 09 3d f8 bf 34 3c b2 cd c4 3d
       0.11692822 0.033467248 0.011032097 0.09609546
0001b0 89 9e fa 3b 30 58 cb bd 3f 9c 73 3d dd 0e 24 3d
       0.0076482934 -0.0992893 0.05947518 0.040053237
0001c0 42 c8 02 be 24 ec 1a 3e c3 be ec 3d 9e 86 8e bd
       -0.12771705 0.15129143 0.115598224 -0.0695927
0001d0 26 c3 0a 3e 31 8c 26 bd 94 c4 99 bd bd 6e a3 3c
       0.13551006 -0.04066104 -0.075081974 0.019950265
0001e0 39 f8 80 bd 5b e1 f5 bc 0f f8 25 3e 21 16 9b 3d
       -0.06297345 -0.030014684 0.16207908 0.0757258
0001f0 ec 99 48 bc 05 60 2d 3e fc f3 63 bd 11 01 01 be
       -0.012243729 0.1693116 -0.055652604 -0.12598063
000200 47 2c 7c 3d a8 20 84 bd aa 27 ca bd 44 01 00 3e
       0.061565664 -0.06451541 -0.098708466 0.12500483
000210 84 3b 77 3d 6a 15 32 3b cc 02 7f 3d 83 fe 80 bd
       0.060359493 0.0027173408 0.062258527 -0.06298544
000220 92 3b ba bd 39 0d d6 3d f4 1f 8b bd 2d be 4c bc
       -0.090933934 0.10451741 -0.06793204 -0.012496513
000230 ba dd cf 3d 35 0d 04 3d af 89 a6 3c 00 3a 39 3e
       0.10149713 0.032239158 0.020329325 0.18088531
000240 0a 9b 17 bd 96 17 a0 bd 52 85 77 3d 72 40 49 bd
       -0.03701309 -0.07816999 0.06042988 -0.049133725
000250 9d b2 f2 bd 87 25 1a 3e 5c 0b 01 bd b9 d4 2a bd
       -0.11850474 0.15053378 -0.031504974 -0.041706774
000260 d2 64 f2 3d 40 3f 47 3c 14 af b2 bd 32 95 98 3d
       0.11835636 0.012161076 -0.087248 0.07450332
000270 2a ed 6d 3c 51 ee c8 bd 98 b7 89 3d 41 27 23 bc
       0.014521876 -0.0981108 0.06724471 -0.009958089
000280 e5 3f a6 3c 52 4f 13 3e 22 6b 29 be 79 1b c2 bd
       0.02029414 0.14385727 -0.16544774 -0.09477896
000290 6d aa 78 3d b8 39 8c bd 14 76 ce bc ef 85 32 3e
       0.060709406 -0.068469465 -0.025202788 0.17433904
0002a0 c7 8c a7 bc e0 0d 6f ba 63 bc 13 3e e6 9e df bc
       -0.02045287 -0.0009119194 0.14427333 -0.027297448
0002b0 b8 7e 3d be 97 a2 f0 3d c9 19 82 3c 98 e9 d4 bd
       -0.1850537 0.117497616 0.015881436 -0.10396117
0002c0 eb a4 9e 3d 53 22 a5 3d c5 d7 20 bd 6c 91 9d 3d
       0.07746299 0.080631875 -0.039268274 0.07693753
0002d0 4e 8a 9f bd b4 3d 23 be e8 bd 8b 3d 90 59 80 bd
       -0.077900514 -0.15941507 0.06823331 -0.06267083
0002e0 a4 32 37 bd 5e c9 98 3d f6 83 a5 bc e7 2d b0 bd
       -0.04472603 0.07460283 -0.020204525 -0.08602505
0002f0 86 81 23 3e af 3c 38 bd e8 89 0e be 36 54 89 3d
       0.15967378 -0.044979747 -0.13919795 0.06705515
000300 a1 50 5a 39 f2 3a d4 bd 4e 79 e9 3d 05 3c a6 3d
       0.00020820137 -0.103628054 0.1140009 0.081169166
000310 ca 5a 99 bc f7 be 1a 3e e1 36 e0 bc 47 d1 46 be
       -0.01872005 0.1511191 -0.027369918 -0.1941577
000320 e0 32 f0 3d f3 10 80 bd 70 ab 94 bd 1a 9c 0f 3e
       0.11728454 -0.06253233 -0.072592616 0.14024392
000330 f2 d4 b0 bb c5 66 b4 bd e7 8c 00 3e fc ed 01 be
       -0.005396479 -0.08808664 0.1255375 -0.1268844
000340 a0 cb 52 be d9 38 95 3c 54 91 bc bd a3 d6 95 bd
       -0.2058549 0.018215584 -0.09207407 -0.07316329
000350 5d 2e 5f 3d 70 c8 31 bc a5 57 84 bd 45 0f 08 3e
       0.054487575 -0.010851011 -0.06462029 0.13287075
000360 fc 13 66 bd fd 4b 33 be 34 69 d8 3d 9c 29 8f 3c
       -0.056171402 -0.17509456 0.10566941 0.017475896
000370 f4 71 f6 bd 5c f0 1b 3e fc 71 12 3d 01 f4 dc 3c
       -0.120334536 0.15228409 0.035753235 0.026971819
000380 ad a8 96 3d b2 6e fc bd 66 d4 28 be 5e 19 d9 3c
       0.07356391 -0.12325801 -0.16487274 0.026501354
000390 f7 1e 9e bd ab 35 b5 bd c9 f9 ee 3d 3c b3 89 3d
       -0.0772075 -0.08848127 0.116687365 0.06723639
0003a0 10 61 3c bd 5e ea 25 3e 6a d9 4e be ae ab 25 be
       -0.045991004 0.16202685 -0.20200124 -0.16178772
0003b0 b4 93 79 3d f8 cd 9e bd 3a df bb bd 31 70 bf 3d
       0.060931876 -0.07754129 -0.091734365 0.09347571
0003c0 26 52 3c bc e2 d8 5a 3d f0 6e 0f 3e 88 ab 7c bd
       -0.011494195 0.05342949 0.14007163 -0.061687022
0003d0 27 f7 45 be 43 5f be 3d 93 6e 3b 3d 73 c5 de bd
       -0.19332562 0.092955135 0.04575975 -0.10877504
0003e0 e8 0a 11 3e 96 9c 28 bc d2 be ca bc af ee 39 3e
       0.14164317 -0.010291239 -0.024749193 0.18157457
0003f0 74 81 c3 bd ba 8c fd bd 04 48 96 3c aa e9 c6 bc
       -0.095461756 -0.12380357 0.018344887 -0.024281342

bias f4 [32]
000000 26 97 9e 3d 14 5a 3b 3d a9 57 bb 3d 59 df e3 3d
       0.07743673 0.045740202 0.09147579 0.111265846
000010 1a 34 f4 3d 2e 0e 25 3d e2 3e d3 3d 78 11 d0 3c
       0.11924 0.040296726 0.10314728 0.025398955
000020 d7 36 7a 3d 20 98 cb 3d 1b 79 cc 3d ea 02 a3 3d
       0.061087456 0.09941125 0.099840365 0.0795954
000030 37 19 15 3d a7 68 c8 3d 45 38 c4 3d 71 75 d4 3d
       0.036401 0.09785586 0.09581045 0.10373963
000040 34 f2 ae 3c d3 f1 82 3d 69 b8 0a 3d 8a eb aa 3d
       0.021355726 0.063937806 0.033867273 0.08345707
000050 c9 c9 94 3d 84 cb 77 3d 10 d2 e7 3c 82 21 91 3d
       0.0726505 0.060496822 0.028298408 0.07086469
000060 94 78 1c 3d 54 18 a6 3d fb 9b 31 3c d9 62 6b 3d
       0.03820093 0.08110109 0.010840411 0.057467315
000070 a6 35 ed 3d b4 4d f4 3d aa 5c c6 3d 5f ef 56 3d
       0.11582498 0.11928883 0.09685643 0.052474376

weight f4 [32, 32, 3, 3]
000000 43 24 8f 3d 46 ca 5d 3d 40 69 70 3d e1 dd b9 3d
       0.06989338 0.05414798 0.058694124 0.09075523
000010 8f 13 c6 3d a2 72 cc 3d 27 15 b3 bb 29 3c b3 3d
       0.09671699 0.09982802 -0.005465168 0.08751709
000020 b0 b7 d8 3c ce c9 89 3c 56 56 50 3d 8b f3 39 bd
       0.026454777 0.01681986 0.050863586 -0.045398276
000030 88 55 9b 3d ff 24 f1 3d 40 2a 14 3d db 30 db bc
       0.07584673 0.117746346 0.036173105 -0.026756695
000040 72 5d 95 3d 8b f3 93 3c d0 9d d0 3c 39 e7 10 3d
       0.07293214 0.018060466 0.025465876 0.03537676
000050 7c e4 8a 3d 7e 8e dd 3c 88 8a c5 3d dc 8b bb 3c
       0.06781861 0.027045485 0.09645563 0.022893839
000060 e1 15 6c bc 3f 57 d4 3d 78 32 a4 3c e5 8a 9a bc
       -0.014409513 0.10368203 0.020043597 -0.018865058
000070 04 98 5d 3d 1c b3 aa 3d 15 3e 6d 3c 9e 3c 59 3d
       0.05410005 0.08334944 0.014480134 0.053036325
000080 2f 9b ae 3d 32 dd 8b 3c d4 9d be 3b f4 66 89 39
       0.08525693 0.017073248 0.0058171544 0.00026207382
000090 c1 27 02 3a 0e ed 5b 3d b2 8f 70 bd dd e6 b9 3d
       0.000496503 0.05369287 -0.05873079 0.09077237
0000a0 bb da 43 3d 42 d6 b0 3d d1 43 13 3d 20 18 17 b8
       0.04781602 0.086346164 0.035953347 -3.6023674e-05
0000b0 b9 58 91 bd 2d 70 18 bc c0 eb 98 3d 79 a5 13 3d
       -0.07097001 -0.009304089 0.07466841 0.03604648
0000c0 a0 b3 bf 3d ae b9 5b 3d 9a cf 3a 3d d0 2d a1 3d
       0.093604326 0.053643875 0.04560814 0.07870066
0000d0 53 ac 2f 3d 55 e0 26 3c 1c ee f8 bb cf c5 4e 3c
       0.04288895 0.010185321 -0.007596744 0.012620403
0000e0 25 2c 96 3c 6a b7 1a 3d 75 0e cf 3d 0f 1c 6e 3d
       0.018331597 0.037772574 0.10110179 0.058132228
0000f0 e6 20 5b 3d 33 c9 25 3d 7f 8e 9e 3d 5f 0d 16 3d
       0.05349817 0.04047508 0.07742023 0.036633845
000100 20 9c d4 3d 5a 9b 94 3d 1b a8 d1 3d fd 81 a8 3d
       0.10381341 0.072561935 0.10237142 0.08227918
000110 c7 07 e1 3c da d6 50 bc 57 a0 1c 3d 68 f9 62 3c
       0.027469529 -0.012746537 0.03823885 0.013853408
000120 6f d0 12 3d 9b 8c 9e 3d aa 6f 00 3c 6f 64 56 3d
       0.03584331 0.07741662 0.007839123 0.052341875
000130 aa b9 ea 3d e6 cf 88 3d 66 0b 80 3d 1a 0e 7b 3c
       0.11461194 0.066802785 0.06252174 0.015323186
000140 4c 23 4d bb 49 de 4d 3d af d6 b2 bb bd ac 5f bd
       -0.0031301556 0.050260816 -0.005457721 -0.054608095
000150 1f 06 56 3d 11 a9 01 3e 3a 12 93 3d 15 9f 0a bd
       0.05225193 0.1266215 0.07181211 -0.03384312
000160 5b 1a db 3d 22 a8 40 bd 0e 43 2e bd 96 15 83 3d
       0.10698386 -0.047035344 -0.042544417 0.064006016
000170 95 ed af bd 0e a5 da 3d 49 e6 f0 3d 29 59 14 3d
       -0.08590237 0.10676013 0.117626734 0.036217842
000180 f6 ca 38 bd 07 34 b0 3d 54 9e d7 bd bd d9 7c 3d
       -0.045115434 0.086036734 -0.105282456 0.06173109
000190 ee 40 07 3d 3a 02 44 bd ba 3e fb 3b 94 b2 69 3d
       0.033020906 -0.047853686 0.0076673897 0.05705507
0001a0 0b 50 39 3d f6 31 b1 bc 70 91 45 3c 09 94 a0 bd
       0.04524235 -0.021630269 0.012058601 -0.078407355
0001b0 0d f7 0b 3c 39 4e d1 3d f8 b6 ab 3c fc ee c2 39
       0.008542788 0.10219998 0.02096127 0.0003718062
0001c0 f1 8c 0f 3e f1 e6 25 3d 00 67 a2 bc f4 b5 a2 3d
       0.14018609 0.040503446 -0.019824505 0.07944861
0001d0 c6 26 1f 3d f7 6b fe 3c 55 e0 24 bc 42 33 9b bd
       0.038855337 0.031057341 -0.010063251 -0.07578136
0001e0 1f 40 05 3d 50 33 cb 3c ec 41 22 3c c0 85 84 bd
       0.032531854 0.024804741 0.009903412 -0.06470823
0001f0 6d b4 8e 3c b9 bb d9 bc 71 65 13 3d 0b 71 16 bc
       0.017420018 -0.026578771 0.035985414 -0.009182225
000200 a7 a5 84 bc 3e ac 0f 3d 4e d2 59 3d cb 23 ff 3c
       -0.01619227 0.035076372 0.053179078 0.031144997
000210 cc 43 49 bc 63 58 c0 3c 4d 02 93 bc c4 68 27 3c
       -0.01228423 0.023479646 -0.017945433 0.010217849
000220 19 fd b2 3d 3b f0 da bd 6c 19 7d bb eb 9f 61 3d
       0.08739681 -0.106903516 -0.003861989 0.05508415
000230 ed c5 82 3d 2e 38 bb bc c6 ed f9 3c af 29 b0 bd
       0.063854076 -0.022853937 0.030508887 -0.086017005
000240 03 a0 59 3d f6 17 84 3d 4a 3d 04 3b 31 fe dc 3d
       0.053131115 0.06449883 0.0020178133 0.10790671
000250 43 0c 13 3e 59 89 ea 3c 16 1f 58 3d 4a 21 c7 3d
       0.14360146 0.028629946 0.05276402 0.09723146
000260 9a de 64 3d 65 e3 b3 3c e6 4a 02 3d 86 36 bf bd
       0.055876352 0.021959016 0.03180971 -0.093365714
000270 01 f8 a0 3d c1 26 ab 3d 6c fa 97 ba 85 ba 34 3d
       0.07859803 0.08357001 -0.0011595017 0.04412319
000280 6b b3 b9 3d 06 7f fc bc 85 05 5b 3d 6d 6c cd 3d
       0.090674244 -0.030822288 0.05347206 0.10030446
000290 d0 24 b0 bc 5d 54 dc 3b d3 1e 00 3e e7 cb c7 3c
       -0.021501929 0.006723924 0.12511759 0.02438922
0002a0 0e 37 be 3c e7 1e 8b 3d 1d 2a 82 3c 0b 6a 98 3c
       0.023219611 0.067930035 0.015889222 0.018605253
0002b0 2b fa 19 bc e1 d4 c3 bd bc 19 c5 3c 24 a9 d8 3d
       -0.009398024 -0.09562088 0.024060123 0.10579136
0002c0 ef 72 98 3c 38 87 6f bd ff a9 3d 3c aa ee 94 bd
       0.018609492 -0.058478564 0.011576175 -0.07272084
0002d0 1b ec b6 bc bf 6f 95 3d 4b 0d 20 bc 17 d8 3c 3d
       -0.02232938 0.072967045 -0.009768794 0.046104517
0002e0 b1 67 e0 3c 13 fd bb 3c 8a d1 81 bc 2b ae 5e 3d
       0.027393194 0.022947824 -0.015846986 0.05436532
0002f0 03 0d ab ba 4a 96 38 3d 43 db b3 3d ff 80 32 bd
       -0.0013050142 0.0450652 0.08782055 -0.04358005
000300 90 dd 8f 3d 53 a2 8a 3d 52 35 dd 3d 2c d7 e9 3b
       0.070246816 0.06769242 0.10801186 0.007136246
000310 c9 6e 88 3d 6e b3 7e bb 82 88 c9 bc dc b0 09 3c
       0.066617556 -0.0038864273 -0.024601225 0.008403983
000320 ca 40 91 bd 90 bb 34 bc c6 d0 45 3d af 82 05 3d
       -0.07092436 -0.0110310465 0.048294805 0.032595333
000330 c0 fd 35 bd 56 92 ed b9 05 50 11 3c 1d 95 6c bc
       -0.044431448 -0.0004531319 0.008869176 -0.014439848
000340 40 34 0a 3d 3e 2c 43 3c 58 4c 37 3d 4b e9 08 3e
       0.033741236 0.011912404 0.04475054 0.13370244
000350 55 f6 ad 3b b8 62 4d 3d 25 55 a1 3d 58 3a c2 bd
       0.005308906 0.050142974 0.07877568 -0.094837844
000360 a1 1f 23 bc 23 dc 71 3c e4 29 4e 3c 13 5d 3a 3d
       -0.009956271 0.014761957 0.01258323 0.04549892
000370 3c 86 8b 3d 95 f8 81 3d 3c b5 69 3d d1 bd 60 3d
       0.068127126 0.063462414 0.057057604 0.054868523
000380 84 9d 3e bd 61 08 67 3c 77 cd 2f 3d c3 03 15 3d
       -0.046536937 0.014101119 0.042920556 0.03638054
000390 0f 90 26 3d d8 9f 92 3d ce fe 07 3c 8f e6 04 bd
       0.04066473 0.07159394 0.008300496 -0.03244644
0003a0 8c 5d 91 3d 4d f0 41 3d ab 2b 92 3d c5 27 96 3c
       0.07097921 0.04734831 0.07137235 0.01832951
0003b0 a7 6e da bc f6 a5 ae 3d a9 03 46 3d 9f 00 75 bc
       -0.026664091 0.08527748 0.048343334 -0.014953761
0003c0 d2 02 59 3d 40 6d d2 bb 01 f9 da bc 29 f5 0f 3c
       0.052981205 -0.006421715 -0.026730062 0.008786478
0003d0 2e a1 03 3d e2 a1 bb bd 48 58 7d 3d d6 c6 bc 3d
       0.032136135 -0.09161736 0.06185177 0.092176124
0003e0 2f 4a 40 3d ad aa f7 bc ca 52 cc 3b 21 69 35 bd
       0.046945747 -0.030232752 0.006235455 -0.044289712
0003f0 9a 7b 1f bd 9a 27 92 3d 10 72 52 bd 2c 38 a7 ba
       -0.038936235 0.0713646 -0.05137831 -0.0012757829

bias f4 [32]
000000 17 ef 9c 3d 2f 4a eb 3d 63 80 a1 3d 0b d4 43 3c
       0.0766279 0.11488759 0.07885816 0.01195241
000010 db 75 ad bb bb ce 0e 3d ef 7e 94 3d eb 54 f5 3d
       -0.0052935905 0.034865122 0.07250773 0.119790874
000020 3b b9 e6 3d d8 00 71 3d 3f 09 65 3c 4a 1a 83 3c
       0.11265799 0.058838695 0.013979255 0.016003747
000030 de 3c ea 3d 6b 6d 05 bd 5b 79 c3 3d df ff b4 3d
       0.11437391 -0.032575052 0.09544631 0.08837866
000040 bf 7f 8f 3d 02 f6 e0 3d bf 1f c2 3d e4 65 43 bb
       0.070067875 0.10984422 0.09478711 -0.002981537
000050 6a 24 85 3d 24 39 4a 3d 6d 60 c0 3d 28 6b 68 3d
       0.06501086 0.0493709 0.09393392 0.056742817
000060 b4 f4 a9 3d 9d d6 a2 3d 77 a2 76 3d 6c 72 4e bb
       0.082986265 0.079510905 0.060213532 -0.0031501306
000070 d4 27 d9 3c 70 41 bf 3d 64 29 12 3d 29 7c e8 3d
       0.02650825 0.09338653 0.035684004 0.11351807
