models/proto.pth (torch_old, 183633 bytes, 18 tensors)

weight f4 [32, 1, 3, 3]
0	0x3d21e70d	0.039526988
1	0xbe3b4c93	-0.1829093
2	0x3e0009bb	0.12503712
3	0x3df2d738	0.11857456
4	0xbe254cc4	-0.16142565
5	0xbd01c213	-0.031679224
6	0xbe3c9050	-0.18414426
7	0x3dd0b0a4	0.101899415
8	0xbd94300d	-0.072357275
9	0x3e623906	0.22092065
10	0x3e666685	0.22500046
11	0x3cc40983	0.023930317
12	0xbe1ffd9f	-0.15624093
13	0xbe54b9f4	-0.2077406
14	0xbd3d79d6	-0.04625877
15	0xbdde1c3f	-0.10845231
16	0x3e0ad9b7	0.13559614
17	0xbe95947e	-0.29214853
18	0x3e9c4122	0.30518442
19	0xbe893d50	-0.2680459
20	0x3e804309	0.25051144
21	0xbd811c2e	-0.06304203
22	0x3e2c9928	0.168553
23	0x3e04b1e1	0.1295848
24	0x3c78320c	0.015148651
25	0x3d856e77	0.0651521
26	0x3e842d8b	0.25815997
27	0x3ddfc035	0.109253325
28	0x3e4c539f	0.19953774
29	0xbe713196	-0.23554072
30	0x3e8525a3	0.26005277
31	0x3e0ee3c9	0.1395408
32	0x3ddd7633	0.1081356
33	0x3d708a25	0.058725495
34	0x3e3ef45d	0.18647905
35	0x3ea9e8c9	0.33185413
36	0xbd66af43	-0.056319486
37	0xbe2a397a	-0.16623488
38	0xbd80dcb7	-0.06292098
39	0xbe3d1469	-0.18464817
40	0x3e390a83	0.18070416
41	0xbe12617f	-0.14295004
42	0xbe22b08c	-0.1588766
43	0x3e9e0573	0.30863532
44	0x3ea7b72f	0.32756945
45	0x3d72ab27	0.059245255
46	0xbd0dc62c	-0.03461282
47	0xbc9cb11f	-0.019127427
48	0x3e368637	0.17824636
49	0xbe93a4c0	-0.28836632
50	0xbe7ed231	-0.24884869
51	0x3e92d009	0.28674343
52	0x3eb41f59	0.35180166
53	0x3b92b206	0.0044767885
54	0xbe7e2c83	-0.24821667
55	0x3d08ab37	0.03336641
56	0xbe04166b	-0.12899177
57	0x3c1eb037	0.009685568
58	0x3e3e9f9b	0.18615572
59	0x3e311802	0.17294315
60	0xbd1686d2	-0.03674967
61	0x3d4c6791	0.049903456
62	0x3ddea74c	0.10871753
63	0xbe7f4fec	-0.24932832
64	0xbdc7ac32	-0.097496405
65	0x3d0170c2	0.031601675
66	0xbe33c374	-0.17555028
67	0xbe029c7a	-0.12755004
68	0x3e081b75	0.13291724
69	0x3e567270	0.20942092
70	0x3cd163c8	0.025560275
71	0xbdd93767	-0.1060627
72	0x3e4ff95d	0.20309968
73	0xbe23d36a	-0.15998617
74	0xbd5fc25b	-0.05462871
75	0x3eac3575	0.33634534
76	0x3daf8d93	0.08571925
77	0x3d488991	0.04895932
78	0x3e0aa7b0	0.1354053
79	0xbd652b20	-0.05594933
80	0x3e9f7af4	0.31148493
81	0xbe83c691	-0.25737432
82	0xbd99f454	-0.07517305
83	0xbd234f41	-0.039870504
84	0xbdfaa8b7	-0.12239211
85	0xbd86bcef	-0.06579005
86	0x3e660ba0	0.22465372
87	0x3e4a8ea2	0.19780973
88	0x3d1048fb	0.03522585
89	0x3e9e033a	0.30861837
90	0xbe5eb726	-0.21749553
91	0xbe373d2c	-0.17894429
92	0x3e309aca	0.17246547
93	0xba88aaa0	-0.0010426827
94	0xbe91b783	-0.2846032
95	0xbe5661ca	-0.20935741
96	0xbe3f035d	-0.18653627
97	0x3e8db0dd	0.27673998
98	0x3e30cde2	0.17266038
99	0x3e8ada4b	0.2711967
100	0xbe6ec792	-0.23318318
101	0xbe9eba61	-0.3100157
102	0xbe4f744a	-0.20259205
103	0x3d5836d5	0.052786667
104	0xbd46f1fd	-0.04857062
105	0xbe448274	-0.19190389
106	0x3e86107f	0.2618446
107	0xbdb46a30	-0.08809316
108	0xbe4d64a7	-0.20057927
109	0x3e1db07c	0.15399355
110	0xbdab2aa3	-0.08357742
111	0x3e5392c1	0.20661451
112	0x3da8e755	0.08247248
113	0x3c8a2ff0	0.016868562
114	0x3d92dcb7	0.07171004
115	0xbe752d16	-0.2394298
116	0xbe259f3f	-0.16174029
117	0xbe1d1e1d	-0.15343519
118	0xbe3bafa1	-0.18328716
119	0x3d8440e5	0.0645769
120	0x3d9142bd	0.070928074
121	0xbe05f491	-0.13081576
122	0x3e67970d	0.22616215
123	0xbe370b17	-0.17875324
124	0x3da184e0	0.07886672
125	0xbda59738	-0.08085483
126	0xbe8c7a04	-0.2743684
127	0xbe45d166	-0.1931816
128	0x3e26341c	0.16230816
129	0x3e115f2e	0.14196464
130	0xbe3d5695	-0.1849006
131	0xbda00361	-0.078131445
132	0xbe9a9732	-0.30193478
133	0x3e4a6eb4	0.19768792
134	0x3e9f3d12	0.3110128
135	0x3e085566	0.13313827
136	0xbe38ae00	-0.18035126
137	0x3e4e8c75	0.20170768
138	0x3e99d87f	0.30047986
139	0xbd2feb51	-0.042949025
140	0xbced85ca	-0.02899446
141	0x3e0d056e	0.13771603
142	0x3d89637b	0.067084275
143	0xbdadf4ec	-0.08493981
144	0xbea04fb6	-0.31310815
145	0xbe6ae4c4	-0.2293883
146	0x3d0427a9	0.032264385
147	0xbcb41ee2	-0.021987382
148	0x3e8f08ba	0.27936345
149	0x3cc08e6e	0.023505416
150	0xbdba9122	-0.09109713
151	0xbea6613d	-0.32496062
152	0xbe99b370	-0.30019712
153	0x3e1686bf	0.14699839
154	0x3e9eff5c	0.310542
155	0x3c62eb3b	0.013850029
156	0xbe973b8e	-0.29537624
157	0x3e002d5e	0.12517306
158	0x3e914c80	0.28378677
159	0xbe658406	-0.22413644
160	0xbdb45397	-0.08805006
161	0x3d076318	0.033053488
162	0xbe3d7e10	-0.1850512
163	0xbe925e40	-0.28587532
164	0x3e2fce98	0.17168653
165	0xbe874ca0	-0.26425648
166	0xbd7395e5	-0.059469122
167	0xbe1af210	-0.15131402
168	0x3e8735da	0.26408273
169	0x3db7aaef	0.0896815
170	0x3e38c66f	0.18044446
171	0xbe6de98b	-0.23233621
172	0x3e8dd411	0.27700856
173	0x3cf9c7b6	0.030490737
174	0xbe435748	-0.19076264
175	0xbcc8c67b	-0.024508705
176	0xbe6ec7d8	-0.23318422
177	0xbca67b96	-0.020322602
178	0x3e3d66f6	0.18496308
179	0xbe152117	-0.14563404
180	0x3e99cc36	0.30038613
181	0x3df96ef1	0.121793635
182	0xbd179133	-0.037003707
183	0x3df9f3ec	0.122047275
184	0xbd2b59ad	-0.04183357
185	0xbd676edd	-0.05650221
186	0xbe4ea26b	-0.20179145
187	0x3e5a3e47	0.2131282
188	0x3e61d5ec	0.22054261
189	0x3dcc44a8	0.09974033
190	0x3e3f3abc	0.18674749
191	0x3ea7b4e5	0.327552
192	0x3e997a6e	0.2997622
193	0xbea9d647	-0.33171293
194	0x3d923591	0.07139123
195	0xbd2ba8f3	-0.04190917
196	0x3dd4f8b5	0.103989996
197	0xbd8a6181	-0.06756879
198	0x3db5357f	0.08848094
199	0xbe9e71f1	-0.30946305
200	0x3e193c14	0.14964324
201	0x3ea8ea8d	0.32991448
202	0xbd534462	-0.051578887
203	0xbe849a68	-0.25899053
204	0xbe86261b	-0.26200947
205	0xbd433e8b	-0.047667067
206	0x3c3f96ad	0.011693639
207	0x3d6d2631	0.05789775
208	0x3d876868	0.06611711
209	0x3e8dcd1d	0.27695552
210	0xbd24e4ff	-0.04025745
211	0x3df57dfd	0.11986921
212	0xbe1a64b6	-0.1507748
213	0x3eb2c672	0.34917027
214	0x3e1ce70a	0.1532251
215	0xbca49109	-0.02008869
216	0x3e62b8ee	0.22140858
217	0x3dfeea11	0.124469884
218	0x3d90722c	0.070530266
219	0xbdc9fbf4	-0.09862509
220	0x3d40758a	0.046987094
221	0x3d1b233f	0.03787541
222	0xbe4bb62c	-0.19893712
223	0x3bd99f02	0.0066412697
224	0x3db00eba	0.08596559
225	0xbe56a46e	-0.20961162
226	0x3d8557e2	0.06510903
227	0xbdc10dba	-0.09426446
228	0xbe907bbf	-0.2821941
229	0xbe3ed3ae	-0.18635437
230	0xbe7d80aa	-0.24756113
231	0x3db3c6fa	0.08778186
232	0x3e61082c	0.21975774
233	0x3ea3f225	0.3202068
234	0x3eb1ed99	0.34751585
235	0x3e1d7b65	0.15379103
236	0x3e3ea7e2	0.1861873
237	0xbd1f64a6	-0.038914345
238	0x3e97a295	0.29616228
239	0xbdd844cb	-0.10559996
240	0xbd9968a1	-0.074906595
241	0xbdbd8ec4	-0.09255746
242	0xbe506b3f	-0.20353411
243	0xbe78f0f6	-0.2431067
244	0xbd40d765	-0.047080416
245	0x3e95d660	0.29265118
246	0xbe1a4fd4	-0.15069515
247	0xbe902088	-0.2814982
248	0xbd582cc2	-0.05277706
249	0x3ea3a9cc	0.31965482
250	0x3dd0e03e	0.10199021
251	0x3b032593	0.002001141
252	0xbd9c8788	-0.07643038
253	0x3e9fcf3a	0.3121279
254	0xbe99b01e	-0.3001718
255	0x3e52af76	0.20574746

bias f4 [32]
0	0x3e68dc76	0.22740349
1	0xbe019d8e	-0.12657759
2	0xbc88b34c	-0.016687058
3	0xbd96007a	-0.0732431
4	0xbe7e4387	-0.24830447
5	0xbc0368d5	-0.008020599
6	0x3d90f6c3	0.07078316
7	0x3e906ce0	0.28208065
8	0xbdfbde84	-0.12298301
9	0x3eade2d1	0.3396211
10	0xbe095382	-0.13410762
11	0x3e6953db	0.22785895
12	0x3e9c42ee	0.30519813
13	0x3d694714	0.05695255
14	0xbdbc155d	-0.09183762
15	0x3e87fbf0	0.265594
16	0xbdaaa444	-0.083321124
17	0xbe0fbf2b	-0.14037769
18	0xbdca74ba	-0.09885545
19	0xbe840376	-0.2578389
20	0xbc858bf1	-0.01630208
21	0xbe7b6527	-0.24550305
22	0x3e6c4717	0.23073994
23	0xbe993229	-0.29921082
24	0xbe69eb52	-0.22843674
25	0x3da756fb	0.08170887
26	0x3e68b8c1	0.22726728
27	0x3eaee390	0.3415799
28	0xbe815cbd	-0.25266066
29	0x3e898965	0.26862636
30	0x3e71f277	0.23627649
31	0xbe4d4e93	-0.20049505

weight f4 [32, 32, 3, 3]
0	0x3d1aec7a	0.037823178
1	0xbc883bc8	-0.016630068
2	0x3c875d6d	0.016524041
3	0xbd0c62fb	-0.034274083
4	0xbca87232	-0.020562265
5	0xbcc536aa	-0.024073917
6	0x3bd5ed03	0.006528498
7	0x3c3dd896	0.011587283
8	0x3c4ef553	0.012631732
9	0xbcac4830	-0.021030515
10	0x3cee945d	0.02912348
11	0x3cf28ecf	0.029609112
12	0xbd0a65df	-0.033788558
13	0xbd296032	-0.041351505
14	0x3a389d61	0.0007042494
15	0x3d0d4379	0.034488175
16	0xbcfb7503	-0.030695444
17	0x3c0ddb11	0.0086581865
18	0x3c8eb088	0.017418161
19	0xbd307820	-0.04308331
20	0x3d6d15fa	0.057882287
21	0x3d77aa5e	0.06046521
22	0x3d70bd9c	0.058774576
23	0xbc260f39	-0.010135465
24	0xbcca2cd0	-0.024679571
25	0x3ca33027	0.019920422
26	0x3d41682b	0.047218483
27	0x3d3086dd	0.043097366
28	0xbd14d6a2	-0.036337502
29	0x3d4a5c3c	0.049404368
30	0xbc275eaf	-0.010215445
31	0x3b6609b8	0.0035101008
32	0xbb27cc26	-0.002560386
33	0x3d397413	0.045276713
34	0xbd2e1e05	-0.042509098
35	0xbccee612	-0.02525619
36	0x3bbde1d9	0.0057947454
37	0x3d294f5f	0.04133546
38	0xbc5bdbd3	-0.013419109
39	0x3d605080	0.05476427
40	0x3d8993f9	0.06717677
41	0x3c79db08	0.015249975
42	0xbcb4d210	-0.022072822
43	0x3c51e14c	0.012810063
44	0x3d129bbb	0.035793047
45	0x3aa1dba3	0.0012348782
46	0xbd6a586d	-0.057213236
47	0x3d125271	0.035723154
48	0xbc023511	-0.007947222
49	0xbce4a453	-0.027910387
50	0x3d30f82f	0.043205436
51	0x3d024341	0.03180242
52	0x3d657104	0.056015983
53	0x3a688c21	0.00088709785
54	0x3d4aa77e	0.04947614
55	0xbc5b64c1	-0.013390721
56	0xbd12b82f	-0.035820182
57	0x3d93e6c8	0.072217524
58	0x3d926dcc	0.07149848
59	0x3d6317ae	0.055442505
60	0x3aa62168	0.0012674751
61	0xbc519830	-0.012792632
62	0x3cc03bd4	0.023466028
63	0x3d2db303	0.042407047
64	0x3bf3c131	0.0074388017
65	0x3cc713bf	0.024301408
66	0x3c75d34f	0.015003993
67	0x3d3f38dc	0.046685085
68	0x3d27de68	0.040983588
69	0x3d530860	0.05152166
70	0x3c124dd0	0.008929685
71	0xbd0f77ae	-0.035026245
72	0xbcba30dd	-0.022728378
73	0xbce5cca0	-0.028051674
74	0x3d55afe4	0.052169695
75	0x3c728894	0.014803071
76	0x3bbe2399	0.0058025834
77	0xbc14fdee	-0.009093745
78	0x3c742e6c	0.014903646
79	0x3d56eada	0.052470066
80	0x3c4f6c68	0.012660123
81	0x3d258f78	0.040420026
82	0x3d0e022c	0.03467004
83	0xbd66b7ed	-0.05632775
84	0x3d1d3c55	0.038387615
85	0x3d941c35	0.072319426
86	0xbc879d91	-0.016554626
87	0x3cdea9f8	0.027180657
88	0x3c635090	0.013874188
89	0x3d34025a	0.043947555
90	0x3cdbcf11	0.026832135
91	0xbd357c6b	-0.044308107
92	0xbd377252	-0.04478676
93	0x3d8b95fc	0.068157166
94	0xbc4b327c	-0.012402173
95	0xbd1fd1c0	-0.039018393
96	0xbd0edd53	-0.03487904
97	0xbd1bc6e3	-0.03803147
98	0x3cde49b4	0.027134754
99	0x3ca302a4	0.01989872
100	0xbd0e73c0	-0.034778357
101	0xbc6c4645	-0.01442105
102	0x3cde2daa	0.027121384
103	0x3d0cdab0	0.034388244
104	0x3d16ccc9	0.036816392
105	0xbc61081e	-0.013734845
106	0x3d8d69f4	0.069049746
107	0x3d8cb10d	0.06869707
108	0xbce9398d	-0.028469825
109	0x3d5ed781	0.05440474
110	0xbd46e39d	-0.048556913
111	0xbcac84bb	-0.021059385
112	0x3ccd4d2e	0.025061216
113	0x3cfbc9bb	0.030735841
114	0x3d90157d	0.070353486
115	0x3c66ce1b	0.014087225
116	0x3d5abc99	0.053402517
117	0xbbdcfc4c	-0.0067439433
118	0xbd2fb200	-0.042894363
119	0xbbc8f830	-0.006133102
120	0x3d46abbf	0.048503634
121	0xbc1e5d6a	-0.009665826
122	0xbd1600df	-0.036621924
123	0xbc928b88	-0.0178888
124	0x3cc38ef2	0.023871873
125	0x3d8f1c47	0.06987815
126	0x3c8307d8	0.015994951
127	0xbd40d56a	-0.047078528
128	0xbcd83946	-0.026394498
129	0x3d43ab72	0.047770925
130	0xbbaec74e	-0.0053338176
131	0x3ba90f3d	0.0051592872
132	0x3d7ccc30	0.061718166
133	0x3d0dc846	0.034614824
134	0x3d4b2235	0.04959317
135	0x3d88bc98	0.066765964
136	0xbc99e050	-0.018783718
137	0x3c1cebf5	0.009577741
138	0xbcd85671	-0.026408406
139	0x3d93e0d7	0.07220619
140	0xbcd3034b	-0.025758406
141	0x3d9704ab	0.07373937
142	0x3d8a16c9	0.06742627
143	0x3cd6356e	0.026148524
144	0xbd1e7527	-0.038685944
145	0xbb559299	-0.00325886
146	0xbcdb357b	-0.0267589
147	0x3d13620c	0.035982177
148	0x3d3e2c3e	0.04642891
149	0x3d3af5fc	0.045644745
150	0x3d18b5e4	0.03728284
151	0xbcfdb8bd	-0.03097188
152	0xbd112c7c	-0.035442814
153	0x3cfe0c87	0.031011833
154	0xbc3fb993	-0.011701959
155	0x3cec9b61	0.028882684
156	0x3d99e500	0.075143814
157	0x3d00afcd	0.031417657
158	0xbcb0946f	-0.021555154
159	0x3a5d84fe	0.00084502983
160	0x3d4c9481	0.04994631
161	0x3ca03fa3	0.019561594
162	0x3d588822	0.0528642
163	0xbd66a0df	-0.056305762
164	0xbbf6bafc	-0.0075296145
165	0xbc336524	-0.010949407
166	0x3d6d30ac	0.057907745
167	0x3d1dd9ea	0.038537897
168	0x3c22cbcc	0.009936284
169	0xbd2b5208	-0.041826278
170	0x3bc942a4	0.0061419774
171	0x3d78a89f	0.060707685
172	0xbaed488b	-0.0018103285
173	0xbb5118c7	-0.0031905638
174	0xbd166327	-0.036715653
175	0x3d74e4fc	0.05978869
176	0x3d7cb68c	0.061697528
177	0xbcf01980	-0.029309034
178	0xbce60a99	-0.028081225
179	0x3c86e1ba	0.016465057
180	0xbca03db5	-0.019560674
181	0xbd4034e4	-0.04692544
182	0x3ca6c12d	0.020355785
183	0x3b27651b	0.0025542441
184	0x3d0b2d1a	0.03397856
185	0x3d189521	0.037251595
186	0x3d8f84dc	0.07007763
187	0x3d45b04e	0.04826384
188	0xbd2c288c	-0.042030856
189	0xbd076871	-0.033058587
190	0x3d47eb5b	0.048808437
191	0xbd43eb38	-0.047831744
192	0x3d5c76e4	0.05382432
193	0xbcb4a740	-0.022052407
194	0x3d7b9b24	0.06142725
195	0x3d50fc72	0.051022
196	0xbcdddedb	-0.027083805
197	0xbd108ea4	-0.035292283
198	0xbc4b786a	-0.012418846
199	0xbcdff6c7	-0.027339352
200	0xbd0c661f	-0.034277078
201	0x3d736839	0.059425566
202	0x3ce25c87	0.027632011
203	0x3bbeae53	0.005819121
204	0x3c662666	0.014047241
205	0x3d1d34b2	0.038380332
206	0x3ca37206	0.019951832
207	0x3bdd1928	0.0067473836
208	0x3d5c7942	0.053826578
209	0x3d307396	0.04307898
210	0x3cb2bbc7	0.021818055
211	0x3d5f6911	0.05454356
212	0x3aa580c4	0.0012626876
213	0xbcdec82b	-0.027195057
214	0x3d40af81	0.047042374
215	0x3d3a992f	0.045556244
216	0x3cc021d5	0.023453632
217	0xbd49a3e5	-0.049228568
218	0x3d332fda	0.043746807
219	0x3cb5014c	0.022095345
220	0xbc8f1cba	-0.017469753
221	0xbd1c3fe4	-0.03814687
222	0xbc50c793	-0.012742895
223	0x3d8c294b	0.068438135
224	0x3d306a1b	0.04306994
225	0xbc571b31	-0.0131290415
226	0x3d48a2cf	0.04898339
227	0x3d4de188	0.05026391
228	0x3d40bcf3	0.047055196
229	0x3bfbfdf8	0.0076901875
230	0x3d8afcb8	0.067864835
231	0x3b91bb49	0.004447375
232	0xbc4145e3	-0.011796447
233	0x3d28ba6c	0.04119341
234	0xbc2c115c	-0.010502186
235	0x3d32ea7f	0.043680664
236	0xbcf86597	-0.03032188
237	0x3d2201cb	0.03955249
238	0xbcf2b3c9	-0.029626744
239	0xbcce64c2	-0.02519453
240	0x3cab449a	0.020906735
241	0x3d784e8b	0.06062178
242	0xbcfe94a2	-0.031076733
243	0xbb2bcdb0	-0.0026215129
244	0x3ce40093	0.027832305
245	0xbc2942fe	-0.010330914
246	0xbd0fae60	-0.035078406
247	0x3c501632	0.012700604
248	0xbbf4d5ca	-0.0074717747
249	0x3d02aa41	0.031900648
250	0x3d19b976	0.037530385
251	0xbb8d1c22	-0.004306332
252	0xbc88c959	-0.016697573
253	0x3d0f0ade	0.034922473
254	0xbd4ede51	-0.050504986
255	0x3d3f159d	0.04665147

bias f4 [32]
0	0xbd2c85f8	-0.04211995
1	0x3d6c4891	0.057686392
2	0x3c107b36	0.008818438
3	0xbd1be96f	-0.038064416
4	0x3c197f3f	0.009368717
5	0x3d63a6f6	0.05557915
6	0xbc08fffb	-0.008361812
7	0xbcce27d8	-0.025165483
8	0x3d28f084	0.041245
9	0x3d1f7103	0.038926136
10	0x3d1fbb5d	0.038997043
11	0x3b9b40fe	0.0047379723
12	0xbd059d15	-0.03262051
13	0xbc942476	-0.018083792
14	0x3d3e4ca4	0.04645981
15	0x3cfe3805	0.031032572
16	0xbd146ece	-0.036238484
17	0x3d868e8e	0.06570159
18	0xbac06362	-0.0014678056
19	0x3c3189d6	0.010836085
20	0x3cd46c3b	0.025930515
21	0xbd1902df	-0.037356254
22	0x3d1ffa0c	0.039056823
23	0xbc39e442	-0.011345925
24	0xbd05f1e3	-0.032701384
25	0x3c430850	0.011903837
26	0xbd04f972	-0.032464452
27	0x3d0699c4	0.032861486
28	0xbc9f97c3	-0.019481545
29	0xbc5e8036	-0.013580373
30	0x3d0fb82a	0.035087742
31	0x3c7c9c68	0.0154181495

weight f4 [32, 32, 3, 3]
0	0x3becc276	0.00722533
1	0xbd2830dd	-0.041062225
2	0xbd051447	-0.03249004
3	0x3ccd64c4	0.025072463
4	0xbb6bb266	-0.0035964488
5	0x3d3a9272	0.045549817
6	0xbcadbdde	-0.0212087
7	0x3a57415b	0.0008211338
8	0x3cbb96ec	0.022899114
9	0xbcc303ce	-0.023805525
10	0xbcc69033	-0.024238681
11	0xbb77f9ac	-0.0037838025
12	0xbc5d0522	-0.013489993
13	0x3d720f7c	0.0590968
14	0xbd401857	-0.046898212
15	0xbd14e645	-0.036352415
16	0x3d754444	0.059879556
17	0xbcbd1758	-0.02308242
18	0xbd104a6d	-0.035227228
19	0x3cca815b	0.024719885
20	0x3d71ed05	0.05906393
21	0xbcc67c48	-0.024229184
22	0x3d16cd79	0.036817048
23	0xbb6c6722	-0.0036072214
24	0xbc82b2cd	-0.0159544
25	0x3c4b8c83	0.012423637
26	0xbc343f69	-0.011001446
27	0xbc441bb0	-0.011969492
28	0xbd326ce5	-0.04356088
29	0x3bb7e82e	0.005612395
30	0x3d8576a1	0.06516767
31	0xbadd5be4	-0.0016888347
32	0xbc54b44b	-0.012982438
33	0xbd443b14	-0.047907904
34	0x3c72ef66	0.014827585
35	0x3d3f9420	0.046772122
36	0xbc627f48	-0.0138242915
37	0x3d48e634	0.049047664
38	0xbd0aecdf	-0.033917304
39	0xbb9c4655	-0.0047691264
40	0x3d2c9fb5	0.042144496
41	0x3cf017d3	0.029308235
42	0x3d6047ea	0.054756083
43	0xbd133ced	-0.035946775
44	0x3d656c7b	0.05601166
45	0x3d3be2e7	0.045870688
46	0xbd03e416	-0.03219994
47	0xb99029f5	-0.0002749708
48	0x3d883412	0.066505566
49	0x3d53c564	0.05170192
50	0xbc64d6d9	-0.013967239
51	0x3b67fc01	0.0035398009
52	0xbc641c15	-0.013922711
53	0x3d5f702a	0.054550327
54	0xbbf83efb	-0.007575867
55	0x3d26730c	0.04063706
56	0xbceb839a	-0.028749276
57	0xbcade9bd	-0.02122962
58	0xbd15972e	-0.03652113
59	0x3d4744b4	0.048649505
60	0xbcc5b1c6	-0.02413262
61	0x3cd89530	0.026438326
62	0x3cab1253	0.020882761
63	0xbd552aac	-0.05204265
64	0x3ca6a124	0.02034051
65	0x3d6a47f8	0.05719754
66	0x3d5ed1b1	0.054399196
67	0xbd4218b6	-0.047386847
68	0x3d7b1264	0.061296836
69	0xbc86f6c1	-0.016475083
70	0x3d017b2d	0.03161161
71	0xbd3412a7	-0.0439631
72	0xbca0749c	-0.019586854
73	0x3d38c28d	0.045107413
74	0x3d84ac0c	0.06478128
75	0x3d881fee	0.06646715
76	0xbd3d4ead	-0.04621761
77	0xbd34ce71	-0.04414219
78	0x3cd2d4b4	0.02573619
79	0x3d706bb7	0.058696475
80	0x3cd3f858	0.025875255
81	0xbd450b1d	-0.0481063
82	0x3d74794d	0.059685994
83	0x3d701c7a	0.058620907
84	0x3cf43450	0.0298101
85	0xbd4a3a6f	-0.049372133
86	0xbd12eb4a	-0.03586892
87	0xbc08ec02	-0.00835705
88	0x3d41384c	0.04717283
89	0x3d820fc9	0.06350667
90	0xbd1c5d0b	-0.03817467
91	0xbcc4cc5d	-0.02402323
92	0x3d3adf86	0.045623325
93	0x3d364c86	0.044506572
94	0x3cf66fa0	0.030082524
95	0x3ceadbc8	0.028669253
96	0x3d461431	0.0483591
97	0x3d19ccfc	0.037549004
98	0x3c4c4159	0.012466752
99	0xbd219d4e	-0.039456658
100	0x3d44900c	0.047988936
101	0xbcb17ba3	-0.0216654
102	0x3c0a7c30	0.00845246
103	0xbb0d4b37	-0.0021559724
104	0xbc84b6f7	-0.016200526
105	0xbbd7cd61	-0.0065857624
106	0x3d46c4da	0.048527576
107	0x3be31b1d	0.0069307224
108	0xbd813615	-0.063091435
109	0xbbd5be85	-0.006522956
110	0x3c208147	0.009796447
111	0x3be4a4f9	0.006977674
112	0xbc8fa8b5	-0.0175365
113	0xbd2fe1fc	-0.042940125
114	0xba882305	-0.0010386413
115	0x3cb948fd	0.022617811
116	0x3d213359	0.03935561
117	0xbbef42a0	-0.0073016435
118	0x3d2e8e6b	0.04261629
119	0x3d9161ba	0.07098718
120	0xbc521872	-0.012823211
121	0x3d3f449c	0.04669629
122	0xbd348ce5	-0.04407968
123	0xbcd72281	-0.02626157
124	0x3c415709	0.011800536
125	0x3d5ffbaf	0.054683384
126	0xbca09d06	-0.019606125
127	0xbd26aea7	-0.040693905
128	0x3d13b685	0.036062736
129	0xbcba1410	-0.022714645
130	0x3a2234d2	0.00061876804
131	0x3b96ab00	0.0045980215
132	0xbd055e61	-0.03256071
133	0xbd39e4b4	-0.045384124
134	0xbca8b8ab	-0.020595869
135	0xbc317388	-0.010830767
136	0xbcc12ce3	-0.023580974
137	0x3d865acb	0.06560286
138	0xbc938d87	-0.018011821
139	0x3bf9e738	0.0076264404
140	0xbd449257	-0.047991123
141	0xbc2ba96b	-0.010477404
142	0x3d2546e7	0.04035082
143	0x3d115068	0.035477072
144	0xbd0cd1ce	-0.034379773
145	0x3cff712e	0.031181898
146	0x3d038409	0.03210834
147	0x3c9eb6dd	0.019374305
148	0x3ca19347	0.019723548
149	0x3ccf893d	0.025333995
150	0xbd01a0e8	-0.031647593
151	0x3d37d047	0.044876363
152	0xbd126b5c	-0.035746917
153	0x3c35821b	0.011078383
154	0x3d4d12ef	0.050066885
155	0xbc5f2a0d	-0.0136208655
156	0x3ceb30e7	0.028709842
157	0xbc1790b5	-0.009250809
158	0x3d05c2b9	0.032656405
159	0xbcc99ae1	-0.024609985
160	0x3c93db67	0.018048955
161	0xbd232e2a	-0.039838947
162	0x3d0efb9e	0.03490793
163	0x3c8a727c	0.016900294
164	0x3d863cfb	0.065546
165	0x3c7c7902	0.01540971
166	0x3b46edcf	0.0030354147
167	0x3d523b5b	0.051326137
168	0x3d2f4159	0.04278693
169	0xbcdc7179	-0.026909577
170	0xbd1bc5cf	-0.03803044
171	0xbc0fc788	-0.008775599
172	0x3cb4a1af	0.022049753
173	0xbd2057aa	-0.039146103
174	0x3d81f938	0.06346363
175	0x3c031326	0.008000171
176	0x3ce33fb8	0.027740344
177	0x3d308fc4	0.043105856
178	0xbc56798d	-0.013090503
179	0xbd2dec0b	-0.042461436
180	0x3d3782c6	0.04480245
181	0xbc0caab7	-0.008585623
182	0xbcb24d31	-0.021765323
183	0x3d60c740	0.05487752
184	0x3c6b0894	0.014345307
185	0xbc627b35	-0.01382332
186	0xbcaf9281	-0.021432163
187	0xbc57392d	-0.01313619
188	0x3cf21b0b	0.02955391
189	0xbcf59f69	-0.02998324
190	0xbc2e88a6	-0.010652697
191	0x3d8206e1	0.06348968
192	0xbc9d2069	-0.019180493
193	0x3cc1e3f8	0.023668274
194	0xbbf46fac	-0.0074596014
195	0x3d5acdcd	0.053418923
196	0x3d6a726c	0.057238027
197	0x3bb09b28	0.00538959
198	0x3d4a434d	0.04938059
199	0x3c34609c	0.011009362
200	0xbd189197	-0.03724822
201	0xbd14c58f	-0.03632122
202	0x3d74e961	0.05979288
203	0x3d0b45c1	0.03400207
204	0xbacbe4c4	-0.0015555848
205	0xbcc7b91e	-0.024380263
206	0xbd3236eb	-0.043509405
207	0xbd21aefb	-0.039473515
208	0xbd0f52fb	-0.034991246
209	0x3d902f89	0.070403166
210	0x3d724def	0.059156355
211	0x3d4ce025	0.05001845
212	0x3c0b6d4a	0.008509943
213	0xbc22c00f	-0.009933486
214	0xbcc87038	-0.024467573
215	0x3d8f9aee	0.07011972
216	0xbcf5c231	-0.029999824
217	0xbc90811e	-0.017639693
218	0xbc5f4996	-0.013628384
219	0x3d60b5da	0.054860927
220	0xbce5e9ab	-0.028065523
221	0x3d21e60d	0.039526034
222	0xbcb75c30	-0.022382826
223	0xbd430324	-0.047610417
224	0x3cf95267	0.0304348
225	0xbcb10218	-0.021607444
226	0xbd0b3b64	-0.033992186
227	0xbd0a033c	-0.03369449
228	0xbc617c72	-0.01376258
229	0xbce77623	-0.028254574
230	0x3d512a98	0.05106601
231	0x3d834dd8	0.06411332
232	0xbd22f6c0	-0.0397861
233	0xbc50829b	-0.012726451
234	0x3c34464d	0.011003089
235	0x3d8acb12	0.06777014
236	0xbb2ce111	-0.0026379267
237	0xbd105e87	-0.0352464
238	0x3ad9d73a	0.0016619929
239	0xbd435976	-0.04769274
240	0xbcdf5e7a	-0.02726673
241	0x3cb372d5	0.021905342
242	0xbc8bc0ad	-0.017059648
243	0xbbba0804	-0.005677225
244	0xbb921053	-0.0044575124
245	0xbc56a8a5	-0.013101731
246	0x3c5e9432	0.013585137
247	0xbd265787	-0.040610816
248	0xbc39aa2a	-0.011332074
249	0x3cd000a0	0.025390923
250	0x3d1cd80b	0.038291972
251	0x3cc9c57b	0.024630299
252	0xbd3eb6e1	-0.046561126
253	0x3d2750c6	0.040848516
254	0xbc274437	-0.010209135
255	0xbc5783a9	-0.013153949

bias f4 [32]
0	0x3d7f3bb1	0.062312786
1	0x3d28e7a5	0.04123654
2	0xbd69067b	-0.056890946
3	0x3d2ff272	0.042955823
4	0xbcfac621	-0.030612053
5	0xbd640b46	-0.055674814
6	0xbcf27bc2	-0.029600028
7	0x3c4e9c9d	0.012610582
8	0x3d3c44e4	0.045964137
9	0x3d0b5442	0.0340159
10	0xbcbac2d8	-0.022797987
11	0x3c6b2127	0.014351166
12	0xbd5ffdfb	-0.054685574
13	0xbd72f598	-0.059316248
14	0x3d346c26	0.04404845
15	0xbc6b6e81	-0.014369608
16	0xbc7bd6c7	-0.015371031
17	0x3d672dc5	0.056440134
18	0x3bda29e8	0.0066578276
19	0x3d1fdefe	0.03903102
20	0xbcc6f349	-0.02428593
21	0x3ccdaadb	0.025105884
22	0x3cbd1105	0.023079405
23	0x3bbdf2aa	0.00579675
24	0xbd6d0f01	-0.057875637
25	0x3cdc2b76	0.026876193
26	0x3c5bc8ec	0.013414603
27	0x3d2fe0ae	0.04293888
28	0x3d4dff32	0.0502922
29	0x3bb9263c	0.00565031
30	0x3d2d2756	0.04227384
31	0xbcea36ee	-0.028590646

weight f4 [10, 32, 3, 3]
0	0xbb9286d7	-0.0044716406
1	0x3d2aa767	0.041663554
2	0xbd685068	-0.056717306
3	0xbd5ac311	-0.053408686
4	0x3d6b61c8	0.0574663
5	0xbd4346de	-0.047675006
6	0xbd8805dc	-0.066417426
7	0xbd4635b0	-0.048391044
8	0x3caef71d	0.021358067
9	0xbb1252e0	-0.002232723
10	0xbd257b6d	-0.04040091
11	0xbc49e896	-0.012323519
12	0xbd75d2a4	-0.060015336
13	0x3d15b3b2	0.036548324
14	0xbcf5324d	-0.029931212
15	0xbd0fee07	-0.03513911
16	0x3c4343ee	0.011918051
17	0xbc9b81b6	-0.01898275
18	0xbce111ab	-0.027474245
19	0xbd3b1dbb	-0.04568265
20	0x3ce4a942	0.02791274
21	0xbc0e475c	-0.008684006
22	0x3d826ee6	0.063688084
23	0xbcde82de	-0.027162012
24	0xbb4b5922	-0.003102847
25	0xbd49c4cd	-0.04925995
26	0xbd4ce914	-0.050026968
27	0xbc6048bd	-0.013689217
28	0x3c8095b4	0.015696384
29	0xbd1fba82	-0.038996227
30	0xbcdec69b	-0.027194312
31	0x3d611dd9	0.054960106
32	0xbd19c180	-0.03753805
33	0x3cc424ca	0.023943324
34	0xbaf383eb	-0.0018578743
35	0x3d3b2d8c	0.045697734
36	0x3a461f6d	0.00075577834
37	0xbd440fa4	-0.04786648
38	0x3cad6985	0.02116848
39	0x3baff5da	0.005369884
40	0x3c8c7926	0.017147612
41	0xbca3ba1f	-0.01998621
42	0xbd1e08c1	-0.038582567
43	0xbd7a5880	-0.061119556
44	0xbd41847b	-0.047245484
45	0xbca6b887	-0.020351661
46	0x3b4e3086	0.0031462028
47	0xbd207f2b	-0.039183777
48	0x3c879439	0.01655017
49	0x3c80f50c	0.015741847
50	0xbd5731c7	-0.052537706
51	0xbd3df1e4	-0.046373263
52	0xbd68d02c	-0.056839153
53	0x3cfd6669	0.030932622
54	0x3c40e6bc	0.011773761
55	0x3cf00c80	0.029302835
56	0xbafe61d6	-0.001940782
57	0x3c391e13	0.011298674
58	0xbd70a8e7	-0.058754828
59	0x3b6103bc	0.0034334501
60	0xbd2c4b5d	-0.04206406
61	0x3d190576	0.037358724
62	0x3d1374c4	0.03600003
63	0xbc0f3e0a	-0.008742819
64	0xbd388f35	-0.045058448
65	0x3d4c1283	0.04982234
66	0x3cf98ec2	0.03046358
67	0xbce0a3c1	-0.027421834
68	0xbd6b7f0b	-0.057494204
69	0x3d0717ba	0.03298161
70	0xbd34b81e	-0.0441209
71	0xbd6a6d50	-0.057233155
72	0x3ce66928	0.028126314
73	0x39dddd81	0.00042317438
74	0x3ce9a491	0.028520854
75	0x3cff0bea	0.03113361
76	0x3bddf720	0.0067738444
77	0xbd730bb7	-0.059337344
78	0xbb6ea159	-0.0036412089
79	0x3b9571b1	0.004560672
80	0xbc885b8d	-0.016645217
81	0x3d2d6f97	0.04234275
82	0x371ef664	9.474901e-06
83	0x3d4d08f4	0.050057366
84	0xbd78df6f	-0.060759958
85	0x3d489687	0.04897168
86	0xbc8410ff	-0.016121386
87	0xbc9c8035	-0.019104103
88	0x3c427b38	0.011870198
89	0x3c8c0a50	0.017094761
90	0xbd7fb0a9	-0.062424336
91	0xbcae13c9	-0.021249669
92	0xbd229d22	-0.039700635
93	0x3cb25863	0.021770662
94	0x3a7d3653	0.0009659279
95	0x3cb3041e	0.02185255
96	0x3baeed72	0.0053383643
97	0xbbc38956	-0.0059672995
98	0x3cb2e138	0.021835908
99	0x3c54e452	0.012993889
100	0xbcc4fed2	-0.024047289
101	0x3d4df67e	0.0502839
102	0x3d3d3c06	0.04619982
103	0xbc0fc607	-0.008775241
104	0x3d4991ef	0.04921144
105	0xbb3ae257	-0.0028516257
106	0xbd3f8a95	-0.04676302
107	0x3d39310a	0.045212783
108	0xbc8026d7	-0.01564352
109	0x3c1afa44	0.009459082
110	0xbd2c47bd	-0.042060602
111	0xbb99e67e	-0.0046966663
112	0x3ca90bb8	0.02063547
113	0x3d525a85	0.051355857
114	0x3b5423c5	0.0032369953
115	0xbcbf5794	-0.02335719
116	0xbcb48e61	-0.022040548
117	0xbcff01a8	-0.03112872
118	0xbcc59943	-0.024120932
119	0xbd395752	-0.04524929
120	0xbcbef697	-0.023310943
121	0xbcaaecdf	-0.020864902
122	0xbc149c2a	-0.009070436
123	0x3b3b9712	0.002862398
124	0x3cb7dc4f	0.022443919
125	0xbd1f1918	-0.03884229
126	0x3d4e7550	0.050404847
127	0xbd307aac	-0.04308574
128	0xbd1aebb3	-0.037822437
129	0xbd2e248e	-0.04251533
130	0x3d053683	0.03252269
131	0x3c73ef0f	0.014888539
132	0x3c854733	0.016269302
133	0x3ce5a1a7	0.028031183
134	0xbd550a94	-0.05201204
135	0xbd876065	-0.06610183
136	0x3c431b4e	0.011908365
137	0xbd7c57d6	-0.061607204
138	0xbd26e9a5	-0.040750165
139	0xbb10456b	-0.0022014033
140	0x3d1d7cf4	0.038449243
141	0xbc6d6e31	-0.014491604
142	0x3d616671	0.055029336
143	0xbd3d06a2	-0.046148904
144	0xbc7fbc92	-0.0156089235
145	0x3c0ae5ef	0.008477672
146	0xbd3e62c8	-0.046480924
147	0x3d0c8f75	0.0343165
148	0x3d0c9889	0.034325156
149	0xbd507dcf	-0.05090123
150	0x3d144f0f	0.03620821
151	0xbcb212d1	-0.021737488
152	0x3be1a73f	0.0068863924
153	0x3cd0d4e2	0.025492135
154	0xbd6ca83f	-0.05777764
155	0x3c080f71	0.008304463
156	0xbd799920	-0.060937047
157	0x3aea560c	0.0017878427
158	0x3d262461	0.040562037
159	0x3c193619	0.009351277
160	0x3ce8752b	0.028376183
161	0x3d07aa61	0.03312147
162	0x3d2fd261	0.042925242
163	0xbaefc973	-0.001829429
164	0xbad40b0b	-0.0016177607
165	0x3d110b83	0.03541137
166	0xbcc5b029	-0.024131851
167	0xbce92b7a	-0.028463114
168	0x3ade465e	0.0016958227
169	0x3cbdde41	0.023177268
170	0x3cabc979	0.020970093
171	0xbd70d4d4	-0.05879672
172	0xbd80db83	-0.062918685
173	0x3c878796	0.016544145
174	0x3baef281	0.0053389673
175	0xbd6e7d7e	-0.058225147
176	0x3d31c30e	0.04339891
177	0xbd2b2ae5	-0.041788954
178	0x3c86f34c	0.016473435
179	0x3d1fd1e9	0.039018545
180	0xbd713091	-0.058884207
181	0x3d30cb96	0.043162905
182	0xbc14e39c	-0.009087469
183	0x3c4e0a8c	0.012575757
184	0x3c3e34a2	0.011609228
185	0xbcf3312c	-0.029686533
186	0x3c37d3b2	0.011219906
187	0x3d827b2e	0.06371151
188	0xbd3d725a	-0.046251632
189	0xbd6ade9b	-0.0573412
190	0xbca14f34	-0.019691087
191	0x3cee0f4f	0.029060034
192	0xbc8cd35d	-0.01719063
193	0xbd66dfcc	-0.056365773
194	0x3c59669e	0.013269095
195	0xbd5b0db6	-0.053479873
196	0xbce9ca89	-0.02853896
197	0x3cab1281	0.020882847
198	0x3d3bca76	0.04584738
199	0xba9c598e	-0.0011928545
200	0x3cf95ecd	0.030440712
201	0x3ce9cc93	0.028539931
202	0xbcf304a1	-0.029665293
203	0xbceb60aa	-0.028732616
204	0xbac50502	-0.00150314
205	0x3d06304b	0.0327609
206	0xbcf284e7	-0.029604388
207	0xbc95a77f	-0.018268345
208	0xbd533ba3	-0.051570546
209	0x3c3b0d73	0.011416781
210	0xbd3b92d9	-0.04579434
211	0xbab90372	-0.0014115407
212	0x3d0b4071	0.033997003
213	0xbd05d405	-0.0326729
214	0x3cfb88a1	0.030704798
215	0x3bee14b5	0.007265652
216	0x3d0fe567	0.035130884
217	0x3bf5acb0	0.0074973926
218	0xbd4d7571	-0.05016083
219	0xbcedd560	-0.02903241
220	0x3aca1588	0.0015417794
221	0x3d724f41	0.059157614
222	0x3d28d196	0.0412155
223	0xbc37567c	-0.011190053
224	0x3c967902	0.018368248
225	0xbd84b2e5	-0.06479434
226	0x3d3aba78	0.045587987
227	0xbd3027d1	-0.043006722
228	0x3d1ceebf	0.038313624
229	0x3d021341	0.031756643
230	0xbd294460	-0.041324973
231	0xbc91d577	-0.017801983
232	0x3cc17e64	0.023619838
233	0x3d464d73	0.048413705
234	0xbd496afe	-0.0491743
235	0xbd2d97a4	-0.042380944
236	0xbd81485d	-0.0631263
237	0xbccf1f2a	-0.025283415
238	0xbd2f2d33	-0.042767715
239	0x3d08c561	0.03339136
240	0x3c162953	0.009165126
241	0x3d03d3be	0.032184355
242	0x3d2fef18	0.042952627
243	0xbd6533dc	-0.05595766
244	0x3c822a7d	0.0158894
245	0x3ca7ac83	0.020468002
246	0x3a1e2874	0.00060332497
247	0xbc54952e	-0.01297502
248	0x3d363d98	0.044492334
249	0x3cca0606	0.024661075
250	0xbd40c908	-0.04706672
251	0x3d7052aa	0.058672585
252	0x3c83def3	0.016097521
253	0x3a421aa9	0.00074044854
254	0x3c8305e6	0.015994024
255	0xbc9e28f1	-0.019306632

bias f4 [10]
0	0x3b9076ed	0.0044087083
1	0x3caa33c1	0.020776631
2	0x3d690652	0.056890793
3	0x3d3f38a5	0.04668488
4	0xbc046b91	-0.008082286
5	0x3bdd84f2	0.006760233
6	0xbc17e7e1	-0.009271593
7	0x3c36d36f	0.011158808
8	0xbd7be579	-0.06149814
9	0x3d48ceae	0.04902523

weight f4 [10, 32, 3, 3]
0	0x3cf2d603	0.029643064
1	0x3daa5b20	0.08318162
2	0xbcabee9a	-0.020987798
3	0xbc687c52	-0.0141897965
4	0x3d72b74b	0.059256833
5	0x3ca43658	0.020045444
6	0x3db91ceb	0.09038719
7	0x3d8fcfea	0.07022078
8	0xbc686ad8	-0.01418563
9	0x3da2ecf0	0.079553485
10	0x3d3cfd98	0.046140283
11	0x3d6604e8	0.056157023
12	0x3b80555c	0.0039164256
13	0xbc253c10	-0.010085121
14	0xbc931347	-0.017953528
15	0xb8aacb11	-8.144056e-05
16	0x3bad3159	0.0052854237
17	0x3d813e10	0.063106656
18	0xbb18540a	-0.002324345
19	0x3c8e2f1c	0.017356448
20	0x3caec67c	0.02133488
21	0xbcb958c2	-0.02262533
22	0x3d82a3f7	0.0637893
23	0x3d1cfd4e	0.038327508
24	0xbbf60883	-0.007508339
25	0xbc9df490	-0.019281656
26	0x3c585180	0.013203025
27	0x3d92fca4	0.071770936
28	0x3d966cd1	0.07344974
29	0xbc94b709	-0.018153684
30	0x3d444629	0.047918472
31	0x3c9614f2	0.018320534
32	0xb9aeeffd	-0.0003336667
33	0x3d392722	0.045203336
34	0xbca7762c	-0.02044209
35	0xbafd5f02	-0.0019330683
36	0x3d82a024	0.06378201
37	0x3d4e3ebf	0.050352808
38	0x3da9bdbc	0.08288142
39	0x3d900259	0.07031698
40	0x3d18dc29	0.037319336
41	0x3b36b19e	0.0027876864
42	0x3dbcd4e5	0.09220294
43	0x3bd05367	0.0063575986
44	0x3c8f90bb	0.017525068
45	0xbd267d29	-0.040646706
46	0x3d6dbeec	0.058043405
47	0xbc6fb350	-0.014630154
48	0x3d82c997	0.063861065
49	0x3da57876	0.08079617
50	0x3d151af6	0.036402665
51	0x3d7a9b15	0.061183054
52	0x3c90c434	0.017671682
53	0x3da99448	0.082802355
54	0x3cedcc32	0.029028032
55	0x3db2220a	0.08697899
56	0x3d92d917	0.07170313
57	0x3ce2433e	0.027619954
58	0x3c823895	0.015896121
59	0x3da22ce0	0.079187155
60	0x3d9d4995	0.0768005
61	0x3d02f595	0.031972487
62	0x3d1d3b16	0.038386427
63	0xbc126370	-0.008934841
64	0x3d860b91	0.06545175
65	0x3b9ff92f	0.004882
66	0x3c274994	0.0102104135
67	0xbc6df84c	-0.014524531
68	0x3d322368	0.043490797
69	0x3d960180	0.07324505
70	0xbc6aad18	-0.014323495
71	0x3d1b3ea9	0.037901554
72	0x3d952fb6	0.07284491
73	0xbca820d5	-0.020523468
74	0x3c3b719a	0.011440659
75	0xbb2c0f37	-0.0026254186
76	0xbc0f6a30	-0.008753344
77	0x3ca585b1	0.02020535
78	0xbc3e79f2	-0.011625754
79	0x3ba009fd	0.004884003
80	0x3d8e658b	0.069529615
81	0x3d8b0235	0.0678753
82	0x3d952c29	0.072838135
83	0x3cea9de1	0.028639736
84	0x3dadf1b0	0.08493364
85	0xbc81d3bb	-0.015848031
86	0x3bd6635a	0.0065426053
87	0xbc3ae46a	-0.011406997
88	0xbb046545	-0.0020201963
89	0xbc3a32c4	-0.0113646425
90	0x3d4dedf1	0.050275747
91	0x3d3483ed	0.044071127
92	0x3d7b5815	0.0613633
93	0xbcc3b086	-0.023887884
94	0x3d19c09f	0.037537213
95	0xbbf60997	-0.0075084674
96	0xbb2d08d0	-0.0026402958
97	0x3d896931	0.06709517
98	0x3bd5e0a2	0.0065270225
99	0x3d0de7f0	0.03464502
100	0x3d95dfd7	0.07318085
101	0x3d5f7b8a	0.054561175
102	0xbb387c31	-0.0028150196
103	0xbcb3445b	-0.02188318
104	0x3c99cf87	0.018775715
105	0x3cc1074a	0.023563046
106	0x3d52dbea	0.051479258
107	0xbc24a251	-0.010048465
108	0x3d9c4f3f	0.076323025
109	0x3d9df1e0	0.077121496
110	0x3c3adfef	0.011405929
111	0x3d898170	0.06714141
112	0xbc81a177	-0.015824063
113	0x3d7682e2	0.060183413
114	0x3db565d5	0.088573135
115	0xbc2e6ec4	-0.010646526
116	0x3d3fad4c	0.04679613
117	0x3d801481	0.06253911
118	0x3dad947f	0.08475589
119	0xbc52eed4	-0.012874324
120	0xbc3ac8a9	-0.01140038
121	0x3d669f24	0.056304112
122	0x3d9e88f9	0.07740969
123	0x3d861edb	0.06548854
124	0x3ca1b301	0.019738676
125	0x3da2fc6d	0.07958303
126	0x3d721351	0.059100453
127	0x3d685969	0.056725893
128	0x3cf421f8	0.029801354
129	0x3cb91bef	0.022596328
130	0x3d1ecc02	0.038768776
131	0x3d13bb8c	0.03606753
132	0x3da4f76d	0.08055005
133	0x3d7b0471	0.061283533
134	0xbcf4ba01	-0.02987385
135	0x3da660b4	0.081239134
136	0x3d7ca7eb	0.061683577
137	0x3d93bd9d	0.072139
138	0x3c310e6c	0.010806661
139	0x3d8036d3	0.06260457
140	0x3c67753e	0.014127074
141	0x3d21ba59	0.039484356
142	0x3cceaf15	0.02522997
143	0x3db6e32b	0.089300476
144	0x3d1644a6	0.036686562
145	0x3d9c22df	0.07623839
146	0x3c51a4f6	0.012795677
147	0x3b1b8d1b	0.0023735228
148	0xbc9ba981	-0.019001724
149	0x3d8adb16	0.067800686
150	0xbcd13043	-0.025535708
151	0x3c6c48f5	0.014421691
152	0x3ccfab82	0.025350336
153	0x3db29173	0.087191485
154	0x3d9295ae	0.071574554
155	0x3cf6ac96	0.030111592
156	0x3d8348c6	0.06410365
157	0xbaddae63	-0.0016912933
158	0xbcb57107	-0.022148622
159	0xbc5ad442	-0.01335627
160	0x3d7ee3a6	0.06222882
161	0x3d50218c	0.050813243
162	0x3bb586c1	0.0055397456
163	0x3d8ed882	0.06974889
164	0x3d29e8dd	0.04148184
165	0x3d322e4f	0.043501195
166	0x3d638605	0.055547733
167	0x3dae780a	0.085189894
168	0x3cf950c7	0.030434025
169	0x3d069ce1	0.032864455
170	0x3d5dc563	0.05414332
171	0x3c89e24c	0.01683154
172	0xba5c5e6e	-0.0008406405
173	0x3d9b929a	0.075963214
174	0x3d1ab6ff	0.037772175
175	0x3d0d5221	0.034502152
176	0xbbf011d5	-0.0073263445
177	0x3d747f60	0.059691787
178	0x3d6ce0a1	0.05783141
179	0xbc754bb0	-0.014971659
180	0x3d129b23	0.03579248
181	0x3d20e4c9	0.039280687
182	0x3cfc82aa	0.030824024
183	0xbc8f6514	-0.017504252
184	0x3db11a68	0.08647615
185	0xbc87dc2e	-0.016584482
186	0xbc545938	-0.0129607245
187	0xbb8a4828	-0.0042200275
188	0x3d87f6db	0.06638881
189	0xbbf45f83	-0.007457675
190	0x3d407a97	0.04699191
191	0x3cb913e5	0.022592494
192	0x3cc0db11	0.023541959
193	0x3d80049d	0.0625088
194	0x3cc2a6aa	0.023761112
195	0x3d7ec856	0.062202774
196	0x3d7ff3ae	0.06248825
197	0x3d81cc7e	0.06337832
198	0x3d4c45ac	0.04987113
199	0xbc4d784a	-0.012540886
200	0x3d9a7f90	0.07543862
201	0xbc5bc371	-0.013413296
202	0x3da79fb3	0.08184757
203	0x3d412477	0.047153916
204	0xbbfcce65	-0.007715034
205	0xbc004b1e	-0.007830409
206	0x3cebacfe	0.028769013
207	0x3d13f785	0.036124725
208	0xbc6e47be	-0.014543472
209	0x3a0171b2	0.00049379014
210	0xbc0b44aa	-0.0085002575
211	0x3d32c61e	0.04364597
212	0xbd079f72	-0.033111043
213	0x3d16159b	0.0366417
214	0xbc2b80d3	-0.010467726
215	0x3d331c4f	0.04372817
216	0x3c973a35	0.018460372
217	0xbcde927f	-0.027169464
218	0x3d897e85	0.06713585
219	0x3db9c069	0.090699024
220	0xbca418dc	-0.020031385
221	0x3d856912	0.06514181
222	0x3d4d5270	0.050127447
223	0x3d99c4e5	0.07508258
224	0xbc489788	-0.012243159
225	0xbc9da45e	-0.019243415
226	0xbb49cd76	-0.003079263
227	0xbbf69871	-0.0075254967
228	0x3b1435f7	0.0022615173
229	0x3cf7d280	0.030251741
230	0x3c9e8b14	0.019353427
231	0x3daf1758	0.08549374
232	0xbb9b5b9b	-0.004741145
233	0x3d8e2494	0.069405705
234	0xbcf79ef6	-0.030227166
235	0x3c19c5bd	0.009385523
236	0x3d1b8b8b	0.037974875
237	0x3d20b981	0.03923941
238	0x3c1d7c6a	0.009612182
239	0x3b9b314b	0.004736101
240	0x3ceedae1	0.029157104
241	0x3db4e4b0	0.08832681
242	0x3d4942ec	0.049136087
243	0x3c431ae0	0.011908263
244	0xbbf3551e	-0.0074259182
245	0x3d3d552e	0.04622381
246	0x3dad383a	0.0845799
247	0x3cecf998	0.02892761
248	0x3d52607f	0.051361557
249	0xbcd7e606	-0.0263548
250	0x3d240365	0.0400423
251	0x3dbb7d95	0.09154812
252	0x3c10da07	0.008841044
253	0x3ca4858e	0.020083215
254	0xbc72df6b	-0.014823775
255	0x3d2d3bce	0.042293362

bias f4 [32]
0	0x3d0532b0	0.032519042
1	0xb81e5bb0	-3.7755526e-05
2	0x3d4d9d23	0.050198685
3	0x3d98171d	0.074262835
4	0x3daa4a6f	0.08314978
5	0xbc053429	-0.008130112
6	0x3d7c50b2	0.061600395
7	0xbcb18b16	-0.021672767
8	0x3c622f78	0.013805263
9	0x3d620e22	0.05518926
10	0x3d88bece	0.06677018
11	0x3cd971a2	0.026543442
12	0xbbe42449	-0.0069623333
13	0x3d77834f	0.06042796
14	0x3d79e77f	0.061011788
15	0x3d55b22c	0.05217187
16	0xbc8884bd	-0.016664857
17	0x3cacccdc	0.021093778
18	0xbaf2b367	-0.0018516601
19	0x3d4752a1	0.048662785
20	0x3d026262	0.031832106
21	0x3cb5a570	0.022173613
22	0xbbfb5235	-0.007669712
23	0x3d0b827e	0.034059994
24	0x3c1444a4	0.009049568
25	0x3d4e9553	0.050435375
26	0xbcda90e0	-0.02668041
27	0x3c5fc00b	0.013656626
28	0x3da85093	0.08218493
29	0x3da903f3	0.082527064
30	0x3d81f4ee	0.06345545
31	0x3c6fb014	0.014629383

weight f4 [32, 32, 3, 3]
0	0x3d75bcab	0.05999438
1	0x3cf8b639	0.030360328
2	0x3d684a94	0.05671175
3	0x3d6c75a6	0.057729386
4	0x3d20286a	0.03910104
5	0x3d952772	0.07282914
6	0xbc78d65d	-0.015187827
7	0x3d83a618	0.06428164
8	0x3cc7afe4	0.024375863
9	0x3d11996e	0.035546713
10	0x3d321457	0.04347643
11	0x3ab592e8	0.0013852986
12	0x3d290c4e	0.0412715
13	0x3d5d5b0c	0.054041907
14	0x3c173f58	0.009231411
15	0xbc00fab9	-0.007872277
16	0x3d885eb6	0.0665869
17	0x3d82aecf	0.06380998
18	0x3c9383a9	0.018007116
19	0x3c703c16	0.014662763
20	0x3d8974d6	0.06711738
21	0xbb818fb6	-0.0039538993
22	0x3d1f456e	0.038884573
23	0xbb2482b6	-0.0025102324
24	0xbcb0ecc8	-0.021597281
25	0x3dab10a2	0.08352782
26	0x3c9e1ce4	0.019300885
27	0xbcf6fbb9	-0.030149328
28	0x3cf6914b	0.030098578
29	0x3da7cd41	0.08193446
30	0xbc6189e3	-0.013765785
31	0xbbfa54c7	-0.007639501
32	0x3d8ff2f6	0.07028763
33	0x3bc03e69	0.005866815
34	0xbc91a581	-0.017779114
35	0xba80f655	-0.0009839038
36	0x3c9db519	0.019251393
37	0x3d1afdd7	0.037839737
38	0xbc6d1c4f	-0.014472081
39	0x3d8132c4	0.06308511
40	0xbc892f6c	-0.016746245
41	0x3d8e3c92	0.069451466
42	0x3d61cac7	0.055125024
43	0xbc7185b0	-0.014741346
44	0xbcd9a45a	-0.026567627
45	0xbc183246	-0.00928933
46	0x3d84d1a7	0.064853005
47	0x3d5a8266	0.053347014
48	0x3d71d92e	0.05904501
49	0xbc469109	-0.01211954
50	0x3c9715fa	0.018443096
51	0x3da17f94	0.07885662
52	0x3d0c0660	0.034185767
53	0x3cdc5135	0.026894191
54	0xbc66bcbe	-0.014083086
55	0xbbb24e35	-0.005441452
56	0x3cb1e58c	0.021715902
57	0x3c0dfa8a	0.00866569
58	0x3d38ae7a	0.04508827
59	0x3d1cfe89	0.03832868
60	0x3d41510e	0.04719644
61	0x3cbb8a45	0.02289308
62	0x3da55116	0.080721065
63	0x3cbc367a	0.022975195
64	0x3da212e3	0.079137586
65	0x3d86b5c0	0.06577635
66	0x3d93fcf4	0.07225981
67	0x3cca299d	0.024678046
68	0x3bbbfa28	0.005736608
69	0xbcd6bea0	-0.026213944
70	0x3c688bf3	0.014193523
71	0x3be91eba	0.0071142586
72	0x3d27513b	0.04084895
73	0x3d864587	0.0655623
74	0x3d083ec3	0.03326298
75	0x3cb74230	0.022370428
76	0x3d568d6b	0.05238096
77	0x3d3d0253	0.046144795
78	0x3d8aa2dd	0.06769345
79	0x3b9579b4	0.0045616273
80	0x3cb5b487	0.022180809
81	0x3d5af897	0.05345973
82	0xbcdaf94c	-0.026730202
83	0xbd0d4410	-0.034488738
84	0x3cc75a1c	0.02433496
85	0x3d85df10	0.065366864
86	0x3d64f566	0.055898093
87	0xbcf9fe3f	-0.030516742
88	0x3db0cdb3	0.08632984
89	0xbcddf63a	-0.027094949
90	0x3a87a7a5	0.0010349645
91	0x3d5cbce2	0.05389107
92	0xbc823271	-0.015893193
93	0x3d9a3e77	0.075314455
94	0x3d3b4284	0.04571773
95	0x3cbb58b4	0.022869445
96	0x3a235941	0.00062312564
97	0x3d9e33e2	0.077247396
98	0xbd0d0d17	-0.03443631
99	0x3da3899c	0.07985231
100	0x3cff6b4d	0.031179095
101	0xbb8a869f	-0.004227474
102	0xbccad6c0	-0.024760604
103	0xbb3fe01f	-0.0029277874
104	0x3ca97add	0.020688469
105	0xbb727885	-0.0036998105
106	0x3c3a4aa3	0.011370334
107	0xbd12bc50	-0.03582412
108	0x3bb295ad	0.0054499716
109	0x3d9c2a70	0.07625282
110	0x3d09904b	0.033584874
111	0xbcce4f2a	-0.025184233
112	0x3daa4c83	0.08315375
113	0x3cfefac5	0.031125436
114	0xbcbb2752	-0.022845898
115	0x3d5d0fa0	0.05396998
116	0x3d5363d7	0.051608887
117	0x3d81ff35	0.06347505
118	0xbc812aad	-0.01576742
119	0xbcbbc846	-0.022922646
120	0x3c3dfb2d	0.0115955295
121	0xbd03462d	-0.032049347
122	0x3c6dd71e	0.01451662
123	0xbcf814f2	-0.030283425
124	0x3c633b50	0.013869122
125	0x3ce51597	0.027964396
126	0x3cda353e	0.026636716
127	0xbcde9464	-0.027170368
128	0xbc864a45	-0.016392836
129	0x3b925740	0.0044659674
130	0xbb7152f6	-0.003682313
131	0x3bf137a4	0.007361369
132	0xbcaf2615	-0.021380464
133	0x3bcb456e	0.006203345
134	0xbc955b40	-0.018231988
135	0x3d5417d6	0.051780544
136	0x3d98fc46	0.07469992
137	0xbd12fbd8	-0.03588471
138	0xbd086e80	-0.033308506
139	0xbc789dbf	-0.015174328
140	0x3d3e8845	0.046516676
141	0x3ca5d39e	0.020242509
142	0x3ca00890	0.019535333
143	0xbc6ff400	-0.0146455765
144	0x3d48cfe8	0.0490264
145	0x3d385548	0.045003206
146	0x3c7f6c81	0.015589834
147	0x3d953f7d	0.072875
148	0x3dab3b62	0.08360936
149	0x3b0cbd19	0.0021475016
150	0x3d488da9	0.048963223
151	0x3da08704	0.07838252
152	0x3d8df8eb	0.06932243
153	0x3d553c3b	0.052059393
154	0x3cb94049	0.022613661
155	0xbd046dad	-0.032331157
156	0x3d38a256	0.04507669
157	0x3c8ee026	0.017440867
158	0xbccd06ae	-0.0250276
159	0x3d97c52b	0.07410654
160	0x3da99b02	0.082815185
161	0x3cee0739	0.029056178
162	0x3d31a7a6	0.043372773
163	0x3d9befef	0.07614123
164	0xbcbc8ba2	-0.0230158
165	0xbc9a6642	-0.018847588
166	0x3d914282	0.070927635
167	0x3c0ddd20	0.008658677
168	0x3c570b3e	0.013125239
169	0x3d34b283	0.044115555
170	0x3c6ca1c0	0.014442861
171	0x3d58477e	0.052802555
172	0xbc7a7f63	-0.01528916
173	0xbcedcf18	-0.029029414
174	0xbb7b6e14	-0.0038365172
175	0x3d412cb4	0.047161773
176	0x3bb07849	0.005385433
177	0xbcbc9a61	-0.023022832
178	0x3be86325	0.007091897
179	0xbbce6f30	-0.0062998757
180	0xbb1440d7	-0.0022621655
181	0x3d65b628	0.05608192
182	0x3d1d4651	0.038397137
183	0x3ca90be4	0.020635553
184	0xbd0d0247	-0.034426
185	0x3c8027c6	0.015643965
186	0x3b9adb91	0.0047258814
187	0x3d1e8402	0.03870011
188	0x3d41b857	0.04729494
189	0x3d9dd0ed	0.07705865
190	0x3d9c9775	0.07646076
191	0x3c78494f	0.015154197
192	0x3d0f10b5	0.034928042
193	0xbaad44ff	-0.0013219415
194	0x3da0b682	0.078473106
195	0x3d20cab0	0.039255798
196	0x3d679860	0.0565418
197	0x3d5ca675	0.053869683
198	0x3b0e8268	0.0021745209
199	0x39a2789e	0.00030988915
200	0xbc4fa5d9	-0.0126738185
201	0xbd12bb2a	-0.035823025
202	0xbc5c5e2e	-0.013450189
203	0x3cda1f63	0.026626294
204	0xbc86e73d	-0.016467685
205	0xbbe05942	-0.006846578
206	0x3d8a4486	0.06751351
207	0x3c5c5be3	0.013449642
208	0x3cd23e36	0.02566443
209	0x3d991779	0.0747518
210	0x3bfc8311	0.007706054
211	0x3d8c6c0d	0.068565466
212	0xbc9e0066	-0.0192873
213	0x3da088d9	0.078386016
214	0x3d92e71c	0.07172987
215	0xbd063b35	-0.032771308
216	0xbc48f86c	-0.01226626
217	0xbb3460f2	-0.0027523604
218	0x3cd10d16	0.025518935
219	0x3c742e2d	0.014903587
220	0x3c1347e5	0.008989309
221	0x3d2890ab	0.04115359
222	0x3d612339	0.05496523
223	0x3d1be700	0.038062096
224	0xbd0a850d	-0.033818293
225	0x3c7412b0	0.014897034
226	0x3cf645e4	0.030062623
227	0x3d4e7258	0.050402015
228	0x3c346b52	0.011011915
229	0x3c54cb61	0.012987942
230	0xbc38a773	-0.011270392
231	0xbd00a135	-0.03140374
232	0x3d724f82	0.059157856
233	0x3d7aed5c	0.06126152
234	0x3da17552	0.07883705
235	0x3b4e60ec	0.0031490875
236	0x3b0e6f1c	0.0021733707
237	0x3d6a7385	0.057239074
238	0xbc56ff5e	-0.013122408
239	0xbd01e0fc	-0.031708702
240	0x3d77ddb7	0.060514178
241	0xbca50dd0	-0.020148188
242	0x3b0596db	0.0020384106
243	0x3d4a2053	0.049347233
244	0x3cc5b136	0.024132352
245	0xbcce6d6a	-0.025198657
246	0x3d087966	0.0333189
247	0x3cfb81f9	0.030701624
248	0x3d0c34e9	0.034230147
249	0x3c430d1f	0.011904984
250	0xb90e7778	-0.00013586681
251	0x3cb85eb0	0.022506088
252	0x3b95262b	0.004551669
253	0x3d729917	0.05922803
254	0x3c8b278b	0.016986629
255	0xbce1a366	-0.027543735

bias f4 [32]
0	0x3d2bbcea	0.04192821
1	0x3dac83f3	0.08423605
2	0x3d389345	0.045062322
3	0xbcb2e3a7	-0.021837069
4	0xbd0b7ebd	-0.034056414
5	0xba1a7da9	-0.00058933586
6	0x3d21fffd	0.03955077
7	0x3daeaa55	0.08528582
8	0x3daa5fb7	0.083190374
9	0x3cf6991a	0.030102301
10	0xbc66f3e4	-0.014096234
11	0xbc49104e	-0.012271954
12	0x3dad1d07	0.08452802
13	0xbd3cf32c	-0.046130344
14	0x3d81f81d	0.06346152
15	0x3d76db52	0.060267754
16	0x3d14bd1b	0.036313158
17	0x3da72e42	0.0816312
18	0x3d807d95	0.06273953
19	0xbcc08fd6	-0.023506086
20	0x3d252f5b	0.040328365
21	0x3c820d95	0.015875617
22	0x3d963b85	0.07335571
23	0x3ce4c29e	0.027924832
24	0x3d534722	0.05158151
25	0x3d4adbf8	0.049526185
26	0x3cfe66ff	0.031054972
27	0xbccf2da3	-0.025290316
28	0x3be50459	0.0069890437
29	0x3d83d7cb	0.064376436
30	0x3bbd2703	0.005772473
31	0x3da64d53	0.08120217
