models/proto.pth (torch_old, 183492 bytes, 18 tensors)

weight f4 [32, 1, 3, 3]
000000 be ba 19 be 1d 0f 08 3f 59 34 c9 3e eb 91 45 3f
       -0.15012643 0.5314806 0.3929775 0.7717578
000010 a6 28 2e 3f 31 5e 25 3f a4 4b 4f 3f fa 9f 4d 3f
       0.68030775 0.6459685 0.80974793 0.8032223
000020 5c 45 ed 3e dd 59 1d bd 4c 17 70 3f 20 fe 8c 3f
       0.4634198 -0.03841578 0.9378555 1.1015053
000030 52 f8 8c 3e af 85 00 3f 78 5b 42 3e 24 66 c2 bd
       0.27533203 0.50203985 0.18980205 -0.09492138
000040 3a a7 52 3e b4 c5 b0 3d 4c fa bf 3e f8 c2 0c 3f
       0.20571604 0.08631459 0.3749565 0.54985
000050 ce ec 28 3f f8 11 44 3f ad 58 cc 3e d5 b4 9b 3e
       0.65986335 0.7658992 0.39911404 0.304114
000060 2f 68 0d 3e 2a e8 c8 3e 4b eb 0e 3f 42 bf 06 be
       0.13809274 0.39239627 0.5582778 -0.13158897
000070 3b bd 30 3e 3b c6 01 3f 52 20 23 3f 93 f6 8b 3f
       0.17259686 0.506931 0.6372119 1.0934623
000080 02 5a 8d 3f cd 47 c0 3e cf 4e b7 3e af 53 03 3f
       1.1043093 0.3755478 0.35802314 0.51299566
000090 d4 46 03 3f 26 5b ae 3e e3 ef 04 3f ec c3 14 3e
       0.5127995 0.34053916 0.5192854 0.14527863
0000a0 47 a2 4d 3f 41 45 3e 3f a0 40 82 3e 6a 20 b0 3e
       0.8032574 0.74324423 0.2543993 0.3439973
0000b0 d4 76 0a 3f 79 98 d9 3d 8d 33 ab 3e 3b 91 34 3e
       0.5408757 0.10624785 0.33437768 0.17633526
0000c0 4e 55 ee be 28 f1 21 bf b8 e3 70 bf 94 08 0b bf
       -0.46549457 -0.632586 -0.9409747 -0.54309964
0000d0 3a e0 70 bf 58 bb 66 bf 1a a2 94 3e 8d 02 d8 3d
       -0.9409214 -0.90129614 0.29029924 0.105473615
0000e0 4a ae 49 3f 8b 71 bf 3e b3 64 23 3f 7e 39 65 3f
       0.7878157 0.37391314 0.6382553 0.8954085
0000f0 12 a4 df 3e 47 cb 1d 3f 62 4e 6a 3e 85 b4 e6 3d
       0.43679863 0.616383 0.22881463 0.112649
000100 d4 59 30 3f a3 e8 82 3f 91 04 bb 3d e5 6d 0e 3e
       0.68887067 1.0227245 0.0913173 0.13909109
000110 16 37 a7 3e 3f ed bd 3e 57 c8 15 3f 2a 94 84 bc
       0.32659215 0.37095067 0.5850882 -0.016183931
000120 eb 49 7e 3e 67 58 05 3d 9f f0 05 3f 71 b2 dd 3e
       0.24832885 0.03255501 0.52320284 0.43300202
000130 8c e1 9c 3e de 5a 7f 3f b7 e7 9d 3d b0 c0 a3 3e
       0.3064083 0.9974803 0.07710212 0.31982946
000140 a5 f3 0a 3f e9 71 15 3c be f5 bf 3e 4a 01 1a 3f
       0.5427802 0.009121397 0.37492174 0.60158217
000150 70 70 a2 3d 00 a3 51 3f dd 7c 48 3f c5 de 52 bc
       0.07931602 0.81889343 0.78315526 -0.012870495
000160 7f a2 0b 3f 1e 01 c9 3a 32 04 10 3f df 08 29 3f
       0.54544824 0.0015335416 0.562564 0.6602916
000170 b3 06 6f bd bd b0 a4 37 f8 98 02 bf 9d 72 95 be
       -0.058356 1.9632624e-05 -0.5101466 -0.29189005
000180 a1 a2 46 3e e8 c2 5d bf 24 97 84 bf a9 ae 1a be
       0.19397976 -0.8662553 -1.0358624 -0.1510569
000190 9c 16 1e bf 67 6e 2f bf 12 12 b6 be be 7d 32 bf
       -0.6175325 -0.68527836 -0.35560662 -0.6972312
0001a0 47 30 25 bf 69 f3 8b be 3e 28 15 bf 99 55 ac be
       -0.6452679 -0.27334145 -0.5826453 -0.33659056
0001b0 21 15 8a be 8f 50 05 3e 2b d2 c8 3e 7a 51 9a bc
       -0.26969245 0.13019012 0.39222845 -0.01883768
0001c0 aa 64 5e 3f fb 5a 71 3f 2b 91 c8 3e 2e 2f 9c 3e
       0.8687235 0.9427945 0.39173254 0.30504745
0001d0 ac 15 1d 3f 35 1f 00 3c d1 3f a6 3e 51 59 70 3f
       0.61361194 0.00781994 0.32470563 0.93886286
0001e0 ea ba 96 3e a8 b2 ed 3e cc 76 18 3f 62 24 cf 3e
       0.2943948 0.46425366 0.5955627 0.40457445
0001f0 0e 7b d1 3e b0 be bf 3e 8f 83 36 3e 8f 3f 98 be
       0.40914196 0.3745017 0.17823623 -0.2973599
000200 18 0d 5c be e0 fe 40 bf 0f ab 73 bf 76 b2 71 bf
       -0.2148937 -0.7538891 -0.9518289 -0.94412935
000210 c2 71 38 bf 1a 75 6d bf f9 f3 8e be df 40 81 3c
       -0.7204858 -0.9275681 -0.2792051 0.015778003
000220 7d 97 15 3f 4d f4 c3 3e fa 75 ff 3e 47 26 62 3e
       0.5843428 0.38272324 0.49894696 0.22084914
000230 c7 1a 1c 3f 6c c7 d5 3d 5a e8 22 3f 1d 34 d2 3e
       0.6097836 0.10438427 0.6363579 0.41055384
000240 31 7b bd be 33 a1 57 3c 71 fa 0f bf 71 d4 25 bf
       -0.3700805 0.0131609915 -0.5624152 -0.64777285
000250 79 f4 75 bf e8 2f 2c bf 35 44 86 bf 37 46 84 bf
       -0.9607616 -0.672606 -1.0489565 -1.0333928
000260 f7 2d 50 bf 97 ce 27 be 12 59 65 3e 83 3d 38 3f
       -0.81320137 -0.16387402 0.22397259 0.7196886
000270 9f 1e 2b 3f 1c 72 7b 3f 96 d1 09 3f ca 29 28 3f
       0.668436 0.9822099 0.5383543 0.65688765
000280 a0 b1 7d 3f 6b 7e 17 3f 66 17 f9 3e 14 b6 f8 3e
       0.9909916 0.59177274 0.48650664 0.48576415
000290 85 e7 cf 3e 15 21 55 3f e8 ea 87 3f 81 0a 82 3f
       0.40606323 0.83253604 1.0618563 1.0159456
0002a0 7c fe 81 3e e6 1d ad 3e db c8 28 3f 0f d6 18 bd
       0.2538947 0.33811873 0.6593148 -0.037313517
0002b0 97 c0 e5 be 16 e8 23 3c 49 a6 4e 3f 4d ec 54 3f
       -0.44873497 0.010004064 0.8072248 0.83173066
0002c0 b1 9e 8c 3f 20 50 87 3f 09 25 76 3f 16 88 87 3f
       1.0985929 1.0571327 0.9615026 1.0588405
0002d0 a2 cd 2d 3f 4d e5 1d 3f ff 09 94 3f 35 c1 3f 3f
       0.67891896 0.6167801 1.156555 0.74904186
0002e0 e9 c6 13 3f 0b ae 15 3f e1 8a 14 3f a7 22 14 3f
       0.5772539 0.58468693 0.5802441 0.57865375
0002f0 59 70 02 3e 56 81 bd 3e 87 f3 9b 3e e9 a1 d9 3e
       0.1273817 0.37012738 0.30459234 0.4250634
000300 24 f1 07 3f 11 07 42 3f 7b 45 22 3f e9 9c 4b 3f
       0.53102326 0.7579203 0.6338727 0.795363
000310 48 bd 72 3f 3a 88 00 3f 75 a1 ed be 66 b9 06 bf
       0.9482007 0.50207865 -0.46412244 -0.52626646
000320 bc 38 6c bf a6 2d 82 bf 2a 7b 90 bf 64 ad 47 bf
       -0.9227407 -1.0170181 -1.1287587 -0.7799895
000330 c1 74 d8 be 54 24 71 bf cf 48 d8 be 1f 65 d0 bd
       -0.42276576 -0.9419606 -0.4224305 -0.10175537
000340 36 e5 6f be f9 66 88 be 0e 71 71 be da 36 1c bf
       -0.23427281 -0.26641062 -0.23578283 -0.61021197
000350 ca 88 61 bf 4b 29 3b bf 2c ee 60 bf e4 8c 19 bf
       -0.8809935 -0.73109883 -0.8786342 -0.5998061
000360 45 79 c8 3e de 87 d7 bd 5a 17 48 3f bf 49 3e 3f
       0.3915502 -0.105239615 0.7816063 0.7433128
000370 bd 2d 1b 3f 39 b9 7a 3f 6a 4a ea 3e 98 62 84 3f
       0.60616666 0.9793888 0.45759898 1.0342588
000380 0a b4 5f 3f a5 85 64 be 38 bd be 3e 8a f9 4f 3f
       0.8738409 -0.22316606 0.37253737 0.8124014
000390 48 f7 34 3e 64 74 e5 3e 47 0e 4e 3f ca 0b f5 3e
       0.17672455 0.44815361 0.80490535 0.47860557
0003a0 33 6a 53 3f 94 5f 16 3f 5f dd 1b be ad 94 94 3e
       0.8258392 0.5873959 -0.15221165 0.2901968
0003b0 e1 88 50 3d 37 7f ba 3c 4c 53 4a 3f b1 a8 07 3f
       0.050911788 0.022765739 0.7903335 0.5299178
0003c0 66 e2 2b 3f ea 75 4a 3f 5c 56 93 3e c4 9c 8b be
       0.6714233 0.7908617 0.28776824 -0.2726804
0003d0 4f 59 b6 be 11 2d db 3e a0 65 29 3f f4 8f 63 3f
       -0.35615012 0.4280782 0.6617069 0.8889153
0003e0 c6 e3 2a 3f 7b dc 23 3f 85 26 8a 3f 9d 52 2b 3f
       0.66753805 0.640083 1.0793005 0.6692293
0003f0 ec 80 36 3e 9f 36 82 3e 11 a3 42 3f e8 a6 3f 3e
       0.17822617 0.25432298 0.7603007 0.18716013

bias f4 [32]
000000 6e a3 2d bf 84 ec 44 bf 0f de 79 be b0 d5 0f bf
       -0.678275 -0.76923394 -0.24401115 -0.56185436
000010 a1 45 02 bf 27 bc 91 3e 2b 74 e5 be 77 ec 9e be
       -0.50887495 0.2846386 -0.44815192 -0.31039783
000020 d8 44 f9 be 21 17 26 bf 25 3f 9d 3e 4e e1 04 3f
       -0.48685336 -0.6487904 0.30712238 0.5190629
000030 d3 b9 2f bf d2 0c 31 bf 88 00 05 3f 83 67 77 be
       -0.6864292 -0.6916019 0.51953936 -0.2416058
000040 c5 c9 8e 3e 63 38 39 bf 97 10 fd be f8 34 b5 bd
       0.27888313 -0.72351664 -0.4942672 -0.088479936
000050 61 68 13 bf 95 ce b5 be d3 67 f8 3e 4d b1 95 3e
       -0.57581145 -0.35509172 0.48516712 0.29236832
000060 9a dc b9 be 44 8d 1b bf 88 0b 7f be 61 64 b8 be
       -0.36301118 -0.6076243 -0.24906743 -0.36014083
000070 d0 19 14 3e fb 51 a9 be 19 ea 5f be d2 15 a4 be
       0.14462972 -0.3307036 -0.21866645 -0.32047898

weight f4 [32, 32, 3, 3]
000000 d9 0c c6 bd 97 eb 14 3d ae 2e 06 3e 54 85 36 3d
       -0.09670419 0.03635749 0.13103744 0.044560745
000010 fb 7b 26 3e 37 e2 b5 3e 78 ea a0 be d7 f5 4b be
       0.16258232 0.3552415 -0.31428885 -0.19917999
000020 0c 3a 3f be 08 18 84 be 79 f3 94 be 29 96 e6 bc
       -0.18674487 -0.25799584 -0.29092005 -0.028147774
000030 13 91 dd 3d cc 44 14 3e 66 73 d3 3e 74 28 26 be
       0.10818686 0.14479369 0.4129898 -0.16226369
000040 a1 38 e0 bd ca 3e 1e bd 49 78 36 be 5e de d4 bd
       -0.10948301 -0.0386341 -0.17819323 -0.10393976
000050 70 04 45 bd b3 b3 71 ba c2 62 40 3e 61 ba 46 3e
       -0.048099935 -0.00092201977 0.18787673 0.19407035
000060 ce 49 21 be 4c 15 bf bd 24 cd 7d bd 5a 6a 2f bd
       -0.1575081 -0.09330234 -0.061963215 -0.042826034
000070 f0 d6 27 bd f0 f0 61 3e bd 2b f2 3d 15 4b 4e 3e
       -0.040976465 0.22064567 0.11824749 0.20145829
000080 8f 21 c6 3e 39 27 4a be b0 4d 1c be dd 4e 0f be
       0.38697478 -0.19741525 -0.1526401 -0.13994928
000090 a8 d9 92 bd 41 a5 6a bd 70 46 93 3d 89 dd ac 3d
       -0.07170421 -0.057286505 0.07191169 0.08440692
0000a0 74 94 07 3e 2f ea 9b 3e 1b 3e 4c be 7f 7d a3 bd
       0.13240224 0.30452105 -0.19945566 -0.07982921
0000b0 76 23 e1 bd c7 bb 72 be ee d6 17 be e5 45 ae be
       -0.10993092 -0.23704444 -0.14828083 -0.340377
0000c0 01 fb 28 be 4c cf b6 bc 3a 69 cb bc ad e2 83 3e
       -0.16502 -0.022315644 -0.02483045 0.25758877
0000d0 ea ae 9a 3e 6e fe a5 3e 4c 40 cb bd 0f cb fb bc
       0.30211574 0.32420677 -0.09924373 -0.030736474
0000e0 6b bb 02 3d 3a a8 bc 3d 8d 7a 36 3e 98 bb b4 3e
       0.031917017 0.09211774 0.17820187 0.35299373
0000f0 57 34 52 be 4e a1 73 bd 56 1d 1a be 25 bc 43 be
       -0.20527779 -0.059480004 -0.15050253 -0.1911474
000100 69 a3 e5 bd a2 83 90 bb 0a 88 64 3d 06 37 b4 3d
       -0.11212809 -0.004410223 0.0557938 0.087995574
000110 17 10 b7 3e 3a 79 0a be ea 00 d6 bd 7a 2f a7 bd
       0.35754463 -0.13522807 -0.10449393 -0.08163352
000120 2f f9 1f be 84 05 8c bd be b8 c0 3d 2b 1d 9b 3d
       -0.156224 -0.068369895 0.09410237 0.07573923
000130 00 0e c9 3d 41 fd 58 3e e4 a1 24 be 80 9e 95 bd
       0.098171234 0.21190359 -0.16077381 -0.07305622
000140 08 74 d9 bd cc e2 3a be 53 7d 09 be 5f dd ab 3c
       -0.10617834 -0.18250579 -0.13426714 0.020979581
000150 74 19 22 3d f1 4a 1a 3e 34 18 b5 3e 32 3d 83 be
       0.039575055 0.1506765 0.35370028 -0.25632626
000160 63 b6 c5 bd fe 32 e3 bd a5 ab 99 be 39 83 35 be
       -0.09653928 -0.1109371 -0.30013767 -0.17725839
000170 05 d9 9f be 78 2d 6e bc b6 f6 ca bc ce 08 68 bd
       -0.3122026 -0.014537208 -0.024775844 -0.05664902
000180 a2 15 e3 3d a1 ce 0b 3e 83 fb 41 3e d1 30 17 be
       0.110881105 0.13653041 0.189436 -0.14764716
000190 0d 91 16 3c ec bd 04 be 8b b6 48 be 74 61 25 be
       0.009189856 -0.12963074 -0.19600885 -0.16150457
0001a0 31 c2 19 be 1e bc 13 3e 5b 79 5e 3e f4 e4 60 3e
       -0.15015484 0.1442723 0.21725981 0.21962339
0001b0 8d 48 53 bd 96 f1 71 bc 81 d6 d9 3d 7a 16 8e 3d
       -0.05158286 -0.014767071 0.106366165 0.06937881
0001c0 de a3 33 3e 3a 45 b9 3e a5 24 5f be 37 da 25 be
       0.17542979 0.36185628 -0.21791323 -0.16196524
0001d0 b6 d3 12 be a0 78 02 be a2 c2 c3 bd c6 16 e5 3d
       -0.14338574 -0.12741327 -0.09558608 0.11185984
0001e0 ac d1 42 3d f1 fb 63 3e 32 41 ac 3e 3a 2c 6a be
       0.04756324 0.22264077 0.3364349 -0.22868434
0001f0 83 a5 01 be 1a f5 2e be 6a b5 69 be ad 17 ea bd
       -0.12660794 -0.17085686 -0.2282311 -0.11430297
000200 4b c9 48 be b9 f1 89 be d4 52 0d be ad 40 43 be
       -0.19608037 -0.26942232 -0.13801128 -0.1906764
000210 54 56 2a 3e e2 ce 8e 3e f1 e1 8c 3e 00 db 34 be
       0.16634494 0.27892214 0.2751613 -0.17661667
000220 1c ad af bd 08 f3 7a bc ad 3e f2 3c f9 c0 be 3d
       -0.0857794 -0.015316732 0.029570902 0.0931415
000230 b8 b3 8a 3e 2a bf 80 be 67 9c ac bd f4 8c 16 be
       0.2709024 -0.25145847 -0.08428269 -0.14702207
000240 5b ac 89 be f9 a0 36 be 85 ed 6f be 83 c9 40 be
       -0.2688931 -0.17834844 -0.2343045 -0.1882687
000250 08 65 51 be 62 73 5b be 2e 5a 50 3e da be 84 3e
       -0.20448697 -0.21430734 0.20346901 0.25926858
000260 54 76 a7 3e bd b1 0f 3c 74 a2 09 3c 16 32 56 3e
       0.32707465 0.008770403 0.008400548 0.20917544
000270 96 6d 13 3e a9 2c 32 3e f2 d9 ba 3e 39 7c 7f be
       0.14397272 0.17399849 0.36494404 -0.24949731
000280 84 d2 0f be 5f 78 61 be f2 19 b0 bd c9 fc d2 bd
       -0.14045149 -0.22018574 -0.08598699 -0.10302121
000290 2d 42 f7 3d 8c 27 25 3e 92 db 2d 3e 2d 69 9d 3e
       0.12073169 0.16128367 0.1697829 0.30744305
0002a0 48 53 2b be 77 5d 52 bd f3 30 3b be 56 a3 2c 3c
       -0.16730988 -0.051358666 -0.18280391 0.010536989
0002b0 a0 01 21 bb 19 b6 49 3e 71 3f 9c 3d 23 a2 95 3d
       -0.002456762 0.19698371 0.07629288 0.07306316
0002c0 f5 c8 c4 3d 4e 7c 7e be aa cd 40 be 46 eb 0b be
       0.09608642 -0.24852106 -0.18828455 -0.13663968
0002d0 75 38 82 bd 0f 97 bc bd b9 d3 f2 3c b6 cf 2f 3e
       -0.063584246 -0.092085 0.029641973 0.17169079
0002e0 b3 25 92 3e 30 e9 aa 3e 66 63 51 be 75 90 cb bd
       0.28544387 0.33381033 -0.20448074 -0.09939662
0002f0 fe 5f 36 be 2b 76 d8 bd 34 d9 4e 3a 54 fd 8b 3d
       -0.17810056 -0.10569414 0.0007890642 0.06835428
000300 83 12 bc 3d a4 f6 19 3e c3 6d 82 3e d1 10 84 be
       0.09183218 0.15035492 0.25474367 -0.2579408
000310 a8 7e 80 bd 18 b4 ef bd a4 02 4a be c0 4f 8d bd
       -0.06274158 -0.11704272 -0.1972757 -0.06899977
000320 55 a5 46 be 32 7f ac be b5 ec 33 be e3 a7 a2 be
       -0.19399007 -0.33690792 -0.17570765 -0.31768712
000330 16 25 15 3e 77 ef 71 3e e5 45 89 3e 58 96 5c be
       0.14564928 0.23626505 0.26811138 -0.21541727
000340 13 c9 12 be 98 39 87 be 50 f1 65 be a1 d3 15 be
       -0.14334516 -0.26411128 -0.22455335 -0.14631511
000350 83 87 3d be e7 7f 5a 3e 90 2a 8e 3e 17 e5 bc 3e
       -0.18508725 0.21337853 0.27766848 0.36893532
000360 ce aa c7 bd ad 79 1d bd de c2 c7 3d 53 fb da 3d
       -0.09749375 -0.038446117 0.09753965 0.106924675
000370 18 ab 4a 3e 06 72 98 3e ba 8c 6b be 4a 74 2f be
       0.1979183 0.29774493 -0.23002902 -0.17134205
000380 be 9e 3d be 4d 42 00 be 7c f4 ad 3b 20 4f 11 3e
       -0.18517587 -0.12525292 0.005308686 0.1419034
000390 42 ba ac 3d e3 75 1e 3e 82 12 b5 3e 91 48 5b be
       0.08433963 0.15474658 0.35365683 -0.214144
0003a0 d5 4e 0a be 35 42 0e be 6d 4b f5 bd ef 15 59 bd
       -0.13506635 -0.13892443 -0.11977277 -0.052999433
0003b0 e0 88 81 3d 37 20 81 3d 8b 16 c2 3d 0b 69 35 3e
       0.06324935 0.063049726 0.09476956 0.17715852
0003c0 11 ec 6e be ab 3b 13 be d9 04 8c bd a8 ef 91 bd
       -0.2333224 -0.1437823 -0.06836862 -0.07125789
0003d0 3e 91 82 3d 90 ef 55 3e 2c b2 7a 3d dc f1 15 3e
       0.06375359 0.20892167 0.061205074 0.14643043
0003e0 dd 02 60 3e 7a 42 92 be 72 01 2d be c6 64 07 be
       0.21876092 -0.28566343 -0.16895083 -0.13222036
0003f0 3a 99 3b be 26 47 1e be 67 e5 8b bb 27 21 84 bc
       -0.1832017 -0.15456828 -0.0042692902 -0.01612909

bias f4 [32]
000000 4a c5 0b bd 83 d8 8c bd 07 b6 66 bd ef 36 0c be
       -0.034123696 -0.06877234 -0.05632594 -0.1369283
000010 5c 59 5a be 77 14 3b 3e a3 8c 89 3d 86 38 98 bd
       -0.2132315 0.18269525 0.067162775 -0.07432656
000020 78 d9 0f be 0b 17 16 be 8f db 5e bd ef 87 5b bd
       -0.14047801 -0.14657228 -0.054408606 -0.053596433
000030 c2 82 fe 3d 84 e2 c7 bd d8 79 02 3c 9c a7 47 3d
       0.12427284 -0.09760001 0.00796362 0.04874383
000040 ed 8b d7 bd 7d 3c 23 bd 24 f4 83 bd 99 50 cb bd
       -0.105247356 -0.039852608 -0.064430505 -0.09927482
000050 50 94 79 3c 42 d1 2b bd 76 e9 5f bc 66 ae b8 bd
       0.015233114 -0.04194761 -0.013666501 -0.09017639
000060 09 77 0e be 88 55 48 bd 3b d3 9b bd eb 22 66 bd
       -0.13912596 -0.048909694 -0.076086484 -0.056185644
000070 96 02 00 bd a6 0e 21 3d 71 63 db bc b9 c4 d4 bd
       -0.031252466 0.03932061 -0.026780816 -0.10389084

weight f4 [32, 32, 3, 3]
000000 00 48 2c bd 55 e7 65 bd 6a 16 b5 be 13 03 e0 3d
       -0.042060852 -0.05612882 -0.35368663 0.10938086
000010 a0 d8 ac bc 86 ba be be dd 03 69 bd b4 ba 09 3e
       -0.021099389 -0.3725168 -0.05688845 0.13450128
000020 9a eb 38 be 3c 61 22 3d 2a f3 f9 3c 34 8a 5b be
       -0.18058625 0.03964351 0.030511457 -0.21439439
000030 73 bd bc 3c 59 c0 c8 bc ee 42 a8 be 1d e7 47 bd
       0.023039555 -0.024505781 -0.32863563 -0.04880439
000040 50 b9 8a 3d be 25 6e be c2 a5 31 be 1e db 6b 3e
       0.06773627 -0.23256585 -0.17348388 0.23032805
000050 fb 4b 66 be b5 ab dd 3e d2 22 b2 3e 1e 69 9c be
       -0.22489922 0.43295065 0.3479219 -0.30548948
000060 07 44 d5 3e 15 2c b3 3e bc c0 9c be 7a 54 59 be
       0.41653463 0.3499457 -0.30615795 -0.21223632
000070 da bb 3a 3e b7 8e c1 bd 03 3f d6 3e 28 5a c4 3e
       0.18235722 -0.09451049 0.4184495 0.38350034
000080 1a e8 c9 be a6 af fe 3e 5d 55 99 3e 35 c9 97 be
       -0.39434892 0.49743384 0.2994794 -0.29645696
000090 7a c6 7a bd 95 5a 2e 3e b4 57 c2 be 53 96 83 3e
       -0.06122444 0.17026742 -0.37957537 0.25700626
0000a0 06 e0 ac 3e 80 e8 d3 be f6 99 ff 3e 62 f3 9c 3e
       0.33764666 -0.4138832 0.4992215 0.30654436
0000b0 47 48 8c be a2 b5 29 bd 90 72 52 bd 00 89 b6 bd
       -0.27398893 -0.041432984 -0.051378787 -0.089128494
0000c0 37 ac 82 3d 42 85 07 bd 92 fe 03 be 8f 3d f0 bc
       0.063805036 -0.03308607 -0.1289008 -0.029326228
0000d0 30 e3 8f bc ec 01 0d be 93 22 4f 3e bb a0 52 be
       -0.017564386 -0.13770264 0.20228033 -0.20569126
0000e0 18 e5 55 be 73 e8 88 3d 51 1c 51 be 11 b4 35 3b
       -0.20888174 0.06684961 -0.20420958 0.0027725736
0000f0 21 fa 31 3d 95 cf 61 3a e2 b1 4e be a8 e8 f1 bd
       0.043451432 0.0008614001 -0.20185044 -0.11811954
000100 84 35 1c 3e 6f 3f b4 3d 40 7e cb be 07 d1 10 3e
       0.1525479 0.088011615 -0.3974476 0.14142238
000110 82 5a 59 3d 54 17 54 be 4f 70 b3 bb 9d 36 62 3e
       0.05306483 -0.20712024 -0.0054760347 0.22091146
000120 53 cf ff 3c 0e d9 b2 bc 59 8d 97 be db 2b 71 3c
       0.03122679 -0.021832015 -0.29600027 0.014719929
000130 e3 a8 65 bd f7 fe 84 be d3 68 6d be 91 22 e4 3d
       -0.056069266 -0.25975773 -0.23184519 0.111394055
000140 ab 6b 72 bc 53 f8 02 3c 02 ef 8e 3d 89 6c 50 be
       -0.014796178 0.007993775 0.06979181 -0.20353903
000150 df 4c 05 3d 56 d8 67 3e 23 92 3a be b6 39 e4 bd
       0.032544013 0.2264112 -0.18219809 -0.1114382
000160 7e f1 9e 3e c8 f1 51 bd 32 d6 82 be 7d 91 15 3e
       0.3104362 -0.05125597 -0.25554043 0.1460628
000170 e1 9e 25 bd ee cf 46 be 13 bb 50 3e 91 fa 0d 3e
       -0.04043472 -0.19415256 0.20383863 0.13865115
000180 70 d2 2b 3e ed 15 ef 3d a8 eb 8c 3c 9d 96 46 be
       0.16779494 0.11674104 0.017202213 -0.19393392
000190 d9 1b 44 3e e6 6d ef 3d 9f c3 dd be 82 96 d4 3c
       0.19151248 0.11690883 -0.4331331 0.025950674
0001a0 38 d0 f0 3d 08 68 d9 bd 86 be e0 bc c8 4b 89 3e
       0.117584646 -0.106155455 -0.027434599 0.2681563
0001b0 93 c1 5b 3d 83 fc 71 bd 7f 5d da bd 12 13 23 bd
       0.053651404 -0.059078705 -0.10662364 -0.03981311
0001c0 30 7a c5 bd 18 df 36 be 1a 76 32 bd 7f 42 4e bc
       -0.09642446 -0.17858541 -0.04356966 -0.012589096
0001d0 fc 70 e5 bd e3 ff 65 be ec b8 eb 3d d7 0a ba bd
       -0.11203191 -0.22460894 0.115098804 -0.09084099
0001e0 eb 29 c9 bd 20 b3 ad 3e 84 98 96 bd 77 5b 6c be
       -0.09822448 0.33925724 -0.07353309 -0.23081766
0001f0 74 7e dc 3e 68 a4 d7 3d 1b ea 3d be e5 d5 d8 3d
       0.43065226 0.10529405 -0.18546335 0.10587672
000200 bf 9a c8 bc 53 c7 e1 bd 15 1e 80 3e 2d 4b ea bd
       -0.024487851 -0.11024346 0.2502295 -0.1144012
000210 79 80 96 3d b1 88 c7 3d e0 48 87 bd eb 5d 68 bc
       0.07348723 0.09742869 -0.06605697 -0.014182548
000220 b3 a7 17 bd 42 4f ac bd 68 80 4c 3e cd ee 78 be
       -0.037025165 -0.08413555 0.19970858 -0.24309845
000230 da ed 72 be 35 e0 39 3e bb 27 18 be 9e 11 90 be
       -0.23723546 0.18151934 -0.14858906 -0.2813844
000240 a9 cc c7 3d 32 c5 21 3c 8a a4 a7 be ff 7f 7f 3d
       0.09755833 0.009873675 -0.3274272 0.062377926
000250 45 30 f4 3c 14 ce 88 be 13 d8 74 be d7 f1 9a 3d
       0.029808173 -0.26719725 -0.23910551 0.075656585
000260 95 14 86 bd d3 b1 cf 3d 20 d7 1e 3e 99 8a 34 3c
       -0.065468945 0.10141339 0.15511751 0.011019372
000270 e0 bf 96 3e 84 df d8 bd 2a cd cf be 1f ae fc 3d
       0.29443264 -0.10589507 -0.40586215 0.123378985
000280 d1 bb c9 bd a4 ba 53 bd f4 2d ab be 15 16 81 3e
       -0.09850276 -0.051691666 -0.33433497 0.2521216
000290 d8 9b 0e 3e 29 d5 4d be 6a 54 8e 3e 8a 34 ee bd
       0.13926637 -0.20100845 0.27798778 -0.11631115
0002a0 ae 76 7d be b5 18 a8 3e 99 a0 85 3d 86 51 14 be
       -0.24752304 0.3283135 0.06524772 -0.14484224
0002b0 c5 ec 9a 3d 85 9f db bd d1 ac 2a bc 78 fa 88 3e
       0.075646915 -0.10723785 -0.010417179 0.26753592
0002c0 6b 4e fd bd d3 f5 04 be 16 8f 4e 3e 3b 0b f9 3b
       -0.12368473 -0.129844 0.2017177 0.0076002157
0002d0 2f 00 9d bd b8 8c 40 bd d7 b2 e2 bd 07 09 a5 ba
       -0.07666051 -0.0470092 -0.11069267 -0.0012591191
0002e0 a7 dc be 3d d6 2c 00 bd 01 46 17 3e 3d d9 29 3e
       0.0931943 -0.03129276 0.14772798 0.16586776
0002f0 8e 38 27 bd 53 67 be be c1 4e 28 3e 69 d9 68 3c
       -0.04082542 -0.37188205 0.16436292 0.014211991
000300 30 5e 9c be cc d7 7b 3e 8d 8b 6b bd c4 cf 41 be
       -0.3054061 0.24594039 -0.057506133 -0.18926913
000310 de 98 38 3e 0d 21 d4 3d 68 2a e4 3c c6 df 6f 3e
       0.18027064 0.103578664 0.027852252 0.23425207
000320 9c e3 c1 bd 17 83 00 3f 28 a2 9b bc ad c8 14 bf
       -0.09467241 0.5020003 -0.01899822 -0.58118707
000330 e7 1b 94 3d 80 3d 2a 3c 22 48 98 bd c1 48 7d 3d
       0.072318844 0.010390639 -0.07435633 0.06183696
000340 05 d8 19 bc 29 11 8d be 45 56 9f 3d 68 8e f8 bd
       -0.009389882 -0.27552155 0.077801265 -0.12136537
000350 81 33 d0 be 08 f3 a8 bc f7 ab e0 bc 03 b0 de bd
       -0.40664294 -0.020623699 -0.02742575 -0.10873415
000360 24 0c 46 bd bb 44 55 bd 4d b0 78 be 88 7e d0 bd
       -0.048351422 -0.0520675 -0.24286003 -0.10180384
000370 d8 ae 89 3d 7f d3 70 be 8a e5 30 be de 89 20 3e
       0.06722802 -0.2351818 -0.17275062 0.15677592
000380 1b 51 4c bd 04 ed 0e 3e 94 7d e3 3d 0a 2e f3 bd
       -0.049882036 0.13957602 0.111079365 -0.11874016
000390 3d 36 25 3e 6a a8 c9 bb f2 e7 de be 0e 8c 54 3e
       0.16133972 -0.0061541097 -0.43536335 0.20756552
0003a0 40 a0 8b 3d e5 95 81 be a5 14 52 be 81 43 1d 3e
       0.06817675 -0.25309673 -0.20515688 0.15357782
0003b0 18 38 47 bd 3b cf c5 bd 55 69 a4 3e ab d1 92 bd
       -0.04863748 -0.09658667 0.32111612 -0.07168897
0003c0 8f e6 95 3d ad 48 40 3e ad 9f b7 3c 75 27 22 be
       0.07319366 0.18777724 0.022415007 -0.15835364
0003d0 94 d4 0d bd 33 c1 37 be 03 de 4b 3d 8f 53 20 3e
       -0.03462656 -0.17944793 0.049772274 0.15656875
0003e0 8a 3e 54 be e2 c9 22 be dd 88 bb 3e ce 55 c0 bd
       -0.20726982 -0.15897325 0.36627856 -0.09391366
0003f0 7a 23 0b be 38 1e 8e 3d 3b b4 a4 bc f8 3f 4a 3d
       -0.13587752 0.069393575 -0.020105472 0.04937741

bias f4 [32]
000000 a5 9c ff bd d4 6e 25 bd 19 1f 78 bc ea 20 29 be
       -0.124810494 -0.040388897 -0.015144133 -0.16516462
000010 5a e9 75 3d 60 70 80 3d 83 3a 0a 3d 1e fe 48 bc
       0.060036995 0.06271434 0.033747207 -0.0122676175
000020 a0 b2 b2 3c 28 43 43 3c 10 99 28 3d 31 04 6d 3d
       0.02181369 0.011917867 0.041161597 0.057865325
000030 61 e8 de bd b1 a8 70 bb 10 b0 d0 3d cd 8c 17 bc
       -0.108841665 -0.0036721642 0.10189831 -0.009249878
000040 93 26 c4 bd dd e9 bf 3b f8 32 55 bd 41 94 30 3d
       -0.0957767 0.005856736 -0.05205056 0.043110136
000050 13 a0 8e bd bc a5 2e bc ba ef de bb 4b 5a a1 3d
       -0.069641255 -0.010659631 -0.00680348 0.0787855
000060 cb 67 93 bd e1 c9 d1 3c 77 56 dd bb ac 33 e1 bc
       -0.07197531 0.025608959 -0.006754692 -0.02749046
000070 ac 71 a2 3c 91 b1 44 3d d4 da 5e 3d 8e 9b 3d be
       0.019829594 0.048020903 0.05440791 -0.1851637

weight f4 [10, 32, 3, 3]
000000 26 88 2c 3e e2 bd 69 3d 7f 9c 19 3d 39 e9 91 3d
       0.16848812 0.057065852 0.037502762 0.07124562
000010 2b 78 0c be 93 31 2a be f6 62 b1 3e 55 24 30 bd
       -0.13717715 -0.16620474 0.34645814 -0.0430034
000020 d6 a6 0b 3e e8 a5 e5 3c e8 9f 6e be 29 88 26 3e
       0.13637862 0.028033212 -0.23303187 0.16262878
000030 b4 ee 33 3d 7a c2 35 3e b4 68 1c be a3 3c 35 be
       0.043928817 0.17749968 -0.15274316 -0.17698912
000040 b0 81 1a bd 87 6d 21 3c 36 46 29 3b c4 78 1c 3d
       -0.037721336 0.0098527735 0.0025829202 0.03820111
000050 5d 61 be bd 0d c9 35 3d 87 a9 03 be 43 2a ea bd
       -0.09295914 0.04438119 -0.12857638 -0.11433842
000060 26 db 10 be fb af e0 3d d6 45 4e 3e 07 97 e8 3d
       -0.14146098 0.109710656 0.20143828 0.11356931
000070 9d 94 91 3d ae 49 0e be be 1c 08 be 10 fa ae bd
       0.07108424 -0.13895294 -0.13292214 -0.085437894
000080 f9 5c 00 3c 1d 0e 27 be 1a 4d ec bd ae 9f 82 be
       0.007834666 -0.16313978 -0.115381435 -0.2551245
000090 6f 0c 8c be 46 3c 29 3d 26 7e 00 3d 47 60 6f 3e
       -0.27353236 0.041317247 0.031370305 0.2337657
0000a0 15 69 97 3d d1 b4 e6 3d ce 17 c3 bd 2e 95 94 bd
       0.0739309 0.11264957 -0.09526025 -0.07255016
0000b0 50 4e 61 bc 77 2a 3a be da 45 26 be a4 96 86 3c
       -0.013751581 -0.18180262 -0.16237584 0.016429253
0000c0 f1 e7 3f 3d 19 6a 57 3e 61 5e b6 3d 41 1a 47 3e
       0.046852056 0.21036567 0.0890472 0.19443609
0000d0 08 80 07 3e e5 18 07 3e 7b 9a 6c bd a8 1a 8e bd
       0.13232434 0.1319309 -0.05776451 -0.06938678
0000e0 34 64 12 bc a2 bf 2a 3d 73 79 cf 3c 2f ec 0d be
       -0.008935023 0.04168666 0.025326466 -0.13859628
0000f0 d0 51 9c 3d cb 08 88 3d a6 59 0d 3e 3c c1 bd bd
       0.07632792 0.06642302 0.1380373 -0.09265372
000100 b0 ae dc bd af 99 3d 3e e9 87 51 3e 58 33 9e 3d
       -0.107755065 0.18515657 0.20462002 0.07724637
000110 89 7e b8 bd 9a 5e c6 3d f9 45 65 3d 06 26 08 3e
       -0.0900851 0.096860126 0.055974934 0.13295755
000120 f2 8a 9e bc 2f fb 2a 3d 38 ac bd bd 9f a0 31 be
       -0.019353364 0.041743454 -0.09261364 -0.17346428
000130 4c 04 84 3d 45 0f e9 bc ea 04 97 3d aa b2 31 bd
       0.06446132 -0.028449664 0.07373984 -0.043383278
000140 e1 83 0c bd bd 4a b1 bd da fb 5d be dc a6 66 be
       -0.034305457 -0.08656833 -0.21678105 -0.2252459
000150 c0 05 b5 be ab bc e7 3e df 47 7d 3e fd 1d 9e bd
       -0.3535595 0.4526113 0.24734448 -0.077205636
000160 1b d0 cd 3e ea b1 dc bd 7f e4 63 bd 07 7c 1d 3e
       0.40197834 -0.10776122 -0.055637833 0.15379344
000170 df ef 23 be 24 29 03 bd 9c e4 e5 bc e5 f2 4c 3d
       -0.16009472 -0.032021657 -0.028063111 0.05003633
000180 33 9e b6 3d 6c 70 8b 3b 13 29 55 be 99 36 17 3e
       0.08916893 0.004255345 -0.2081645 0.14766921
000190 37 d7 7c 3d cc 74 e2 bd 82 82 e6 bd 9a 5c ff bd
       0.061728682 -0.110574335 -0.11255361 -0.12468834
0001a0 da e3 21 3c 7b 1d 95 be f7 de b0 be fa 3d 3e be
       0.009880984 -0.29124054 -0.3454511 -0.1857833
0001b0 a4 82 9f bd 91 50 3b 3b 8a 74 a8 bd df a6 a8 3d
       -0.077885896 0.0028581957 -0.08225353 0.08234953
0001c0 40 e0 7c be c5 a3 98 3e a1 72 12 3e 56 ae 0c 3e
       -0.2469492 0.29812446 0.1430154 0.13738379
0001d0 f2 4c c4 3e 97 c3 cf 3d 10 3e 94 bd 26 7c c8 3d
       0.38339955 0.10144728 -0.072384 0.097893044
0001e0 67 01 4f bd ba 81 04 3e 4e ca 29 be 0f 7b 69 3e
       -0.050538447 0.12940112 -0.1658108 0.2280085
0001f0 99 68 0e 3e 39 fc 5a 3e 67 5e 43 be 11 25 59 3d
       0.13907088 0.21385278 -0.1907898 0.053013865
000200 df f7 30 bd 4f 0b 44 3d 03 62 8b 3d 79 af 55 3e
       -0.04320514 0.047862347 0.068058036 0.20867719
000210 b4 87 16 be f8 d6 58 3d 6c cf c4 bd d5 51 5c 3d
       -0.14700204 0.052939385 -0.09609875 0.05378898
000220 99 3e c9 bd 20 aa dd 3d be 9e ca 3c 5f 9a 80 bd
       -0.09826393 0.108234644 0.024733897 -0.06279444
000230 41 6a 09 be 6a 03 40 be 5b e6 af bd 65 33 21 be
       -0.13419439 -0.18751302 -0.08588859 -0.15742262
000240 7a 0c 56 be 53 9f 1e be a2 42 24 bd f2 5c 00 3d
       -0.20903197 -0.15490465 -0.04010261 0.03133864
000250 69 e2 37 3e 26 3f 5a 3e a5 ed d2 bd 9d 60 79 be
       0.17957462 0.21313152 -0.10299233 -0.24353261
000260 cd 40 84 bd 1a ce 32 be bd e6 4c bd 68 8d 0c 3d
       -0.06457672 -0.17461434 -0.050024737 0.034314543
000270 fc d0 2d bd d8 3b 84 3e bb d3 e3 bc 23 e9 b4 bd
       -0.04243563 0.25826907 -0.027810922 -0.0883353
000280 3a 34 a4 3d eb de 22 bc 9f 1e 3c 3c 3e 62 d6 3d
       0.08017774 -0.009940843 0.01148191 0.10467957
000290 63 e2 51 bd 3c b5 f5 bd 56 6c cd bc cd c9 c2 3d
       -0.05124129 -0.11997458 -0.025076073 0.09511147
0002a0 e1 69 62 bd c0 c5 23 be ff fc 15 be d5 86 09 bc
       -0.055276755 -0.15993404 -0.14647292 -0.008393963
0002b0 1e 95 1c be e9 cd 83 bd b1 54 97 bc 5c af d0 bd
       -0.15291259 -0.064357586 -0.018473001 -0.10189697
0002c0 13 8b 37 bd 59 d8 69 ba 26 96 61 bd 88 80 58 3e
       -0.044810366 -0.0008920483 -0.055074833 0.21142781
0002d0 cb 0a 92 bd 7d c8 0f be fe 5a dd 3d 61 ba 1d bd
       -0.07130965 -0.14041324 0.10808371 -0.038507823
0002e0 cc 5c dd 3e d4 5c 03 3f 0c 6f 63 3d 3c bc 65 3d
       0.4323486 0.5131352 0.055525824 0.056087717
0002f0 c9 a6 44 bd 87 0c 80 be 79 10 7d be 11 2b 3d 3d
       -0.04801062 -0.25009558 -0.24713315 0.04618365
000300 dd a5 5a bd 6d de 81 3e dc 6b ab 3d 5b a2 b0 3d
       -0.053380836 0.2536501 0.08370182 0.08624717
000310 8a c0 04 3e 24 ad 43 bd b9 24 f5 bd 32 67 0c be
       0.12964073 -0.04777254 -0.11969895 -0.13711241
000320 14 96 f0 bc ca 3d 12 be 11 bd 53 3d bc 61 4c 3d
       -0.029368438 -0.14281383 0.05169398 0.049897894
000330 d1 39 8d be 0b ad 15 3d 18 dc c2 bc 1f 3e 48 bd
       -0.27583173 0.03654198 -0.02378659 -0.04888737
000340 73 7e d8 3d 2b 6a 80 3d 51 d7 72 bc 9a a0 58 be
       0.10570993 0.0627025 -0.014821843 -0.21155015
000350 0d c9 9a 3d 50 c3 94 bd e7 07 cf 3c 04 9b 38 3b
       0.07557879 -0.072638154 0.025272323 0.0028168568
000360 c2 17 bf bd 9d 08 32 be f4 c3 ef bc 12 84 60 be
       -0.09330703 -0.17386098 -0.029268242 -0.21925381
000370 0a cb 8f 3e bf ec 0c 3d 4a 71 fc bc 7c 96 b6 3d
       0.28084594 0.034405466 -0.03081574 0.08915421
000380 63 71 04 bd 15 4b 71 bd c6 58 00 bd bf ee 41 3b
       -0.032334697 -0.058909494 -0.03133466 0.0029591767
000390 e7 4f 76 3e 18 42 fd bc 33 70 c2 3d 42 78 72 3e
       0.24053918 -0.030915305 0.094940566 0.23678687
0003a0 3c e6 3a 3e e4 42 cb 3d 7d 97 28 3e 04 5d ac 3d
       0.1825189 0.09924868 0.16464038 0.08416179
0003b0 e5 b2 04 be df 72 d4 3d 31 38 26 3c de 98 07 3d
       -0.12958868 0.103734724 0.010145233 0.03310477
0003c0 d6 89 0c be 12 aa 12 bd d4 76 83 3d 7d cc c1 3c
       -0.13724455 -0.035806723 0.06419149 0.023657078
0003d0 fe 34 3f 3b a9 80 18 3c 85 c8 7a bc 46 3f 20 bc
       0.0029175873 0.009308019 -0.015306597 -0.009780711
0003e0 83 2b 5d 3c 1d 17 b8 bd d1 fa 67 bc 55 d0 e5 3c
       0.0134991435 -0.089887835 -0.01415892 0.028053442
0003f0 1e 76 86 3d 66 01 00 3c a3 00 5a 3d d9 c2 e4 3d
       0.06565498 0.007812833 0.053223263 0.11169977

bias f4 [10]
000000 6d 5b fc 3b b4 52 31 3c 95 fe 8c bd b1 b9 da 3c
       0.0077013285 0.010822941 -0.06884495 0.026699873
000010 a7 93 85 bc 5d c9 1f bd 21 22 c6 3b e0 16 7c 3d
       -0.016305758 -0.039010394 0.006046549 0.061545253
000020 1d c4 21 bc 4b bb 0c 3d
       -0.009873417 0.034358304

weight f4 [10, 32, 3, 3]
000000 e2 22 ba be 1f 08 28 be ac 84 a3 bd 42 95 01 bf
       -0.36354738 -0.16409348 -0.079842895 -0.50618374
000010 81 da 3d bd 74 54 31 3f 64 bd 15 be 35 b6 1f 3e
       -0.04635096 0.6926949 -0.14623028 0.1559685
000020 68 f1 a0 be c5 66 d0 bc d8 9e 4e 3d 88 f2 3d bf
       -0.31434178 -0.02543963 0.050444454 -0.741982
000030 a2 6f a9 be 0c 8a 5b bf 9b 43 31 3e 9f 1a 24 bf
       -0.33092982 -0.8575752 0.17310946 -0.6410312
000040 72 80 aa 3b a9 cf 5b bd b1 85 98 3e 2d b3 13 bd
       0.0052033 -0.053664837 0.29789498 -0.036059547
000050 50 9b cf be 55 75 8e 3f 84 3d 31 bf 29 a5 81 3c
       -0.40548182 1.1129557 -0.6923449 0.015825825
000060 1f 53 ba 3d 1c 29 eb be 21 02 b9 3e dd fc a4 3e
       0.09097885 -0.459298 0.36134437 0.3222417
000070 ac 1d 01 3e 5f 52 24 bf 01 9b ad 3d 3e 7c 40 bf
       0.12608975 -0.6418819 0.0847683 -0.7518958
000080 64 11 b1 3d 92 dc 97 be 83 76 d5 3e b8 d5 8b 3e
       0.08645895 -0.2966047 0.4169198 0.27311492
000090 60 37 c5 3d de 7a 94 3e a2 37 6d be 7b 33 94 be
       0.096297026 0.2899999 -0.23165753 -0.28945526
0000a0 96 d2 0d 3e b7 5a 46 3f a5 3f 8e be d9 4c 1c 3f
       0.13849863 0.7748217 -0.27782932 0.6105476
0000b0 79 97 3a 3e fe 45 0f bf e0 55 52 bd 57 98 05 3f
       0.18221845 -0.55966175 -0.051351428 0.5218558
0000c0 07 bc 90 be df 0b 28 3f 77 84 4b 3f 5e 81 8c bd
       -0.28268453 0.65643114 0.79499 -0.06860612
0000d0 3f 5a 3f bf ee 7c ce be 54 5d 95 be 60 7e 0b be
       -0.7474708 -0.4032969 -0.29172766 -0.13622427
0000e0 bf 31 ed 3d 1e b0 1f 3e c1 c2 df be 71 67 67 be
       0.11581754 0.15594527 -0.43703273 -0.22598054
0000f0 b0 7f 19 be 13 47 1d bf 4d 49 85 3e 42 6f c1 be
       -0.14990115 -0.61436576 0.26032487 -0.37780195
000100 e6 8f 6b be af e9 5e 3d 38 1e ff be d7 c6 2c 3e
       -0.23004112 0.054422077 -0.49827743 0.16872726
000110 95 b4 e2 3e 7d 5b c8 bd 07 d9 3c 3e 0f 09 03 be
       0.44278398 -0.09783075 0.18442164 -0.12796424
000120 59 af 84 be b2 38 87 be 7b 4f 1d 3f c5 d5 a9 be
       -0.2591503 -0.26410443 0.614494 -0.33170906
000130 35 f6 6d 3f 8e 29 1e 3f 4b dc 97 3c ee a2 2d 3e
       0.9295381 0.6178216 0.018537661 0.16956684
000140 a0 14 b6 3e 3d aa 28 be 58 57 b2 bc c3 22 5f be
       0.3556261 -0.16471191 -0.021770164 -0.21790604
000150 48 4e 94 bd c6 a3 03 bf ee f1 ef bd 1c af 11 be
       -0.072414935 -0.51421773 -0.11716066 -0.14226955
000160 80 16 6f be 77 42 9a bd a7 7d d5 bc 2e 10 a5 3d
       -0.23348427 -0.075322084 -0.026060892 0.08059727
000170 47 42 9c be 06 7c ed be 0e ce 26 bf 2b 45 04 3f
       -0.30519316 -0.46383685 -0.65158165 0.5166804
000180 15 cc 16 bf 86 ef 38 be 41 71 aa be d4 39 ea 3c
       -0.58905154 -0.18060121 -0.3328953 0.028592028
000190 56 a9 7c 3e f4 11 03 bf 95 4a 0c bf 07 ec a2 be
       0.24673972 -0.5119927 -0.54801303 -0.318207
0001a0 30 bf 2c 3f 0f 57 05 bf a1 ab 8b 3e a4 75 71 bd
       0.6747923 -0.52085966 0.2727938 -0.05895008
0001b0 e6 49 9f 3d 54 fc f0 bc 37 32 2e be e4 23 40 3f
       0.07777767 -0.029417194 -0.17011343 0.75054765
0001c0 ca d8 1e bf 52 45 aa bc ae a1 0d 3e a3 be 05 bf
       -0.62049544 -0.020785008 0.13831207 -0.52244014
0001d0 be 58 5d 3e 9b 60 aa bd 11 13 61 bc 72 cd 27 be
       0.21615884 -0.08319207 -0.013737456 -0.16386965
0001e0 91 56 93 3e 5d ea 13 bf db 14 6d bd 57 60 84 be
       0.28776982 -0.57779485 -0.057881217 -0.2585475
0001f0 1b 97 4b be 8d b0 4a 3e fd b7 0f 3d 42 df 3e be
       -0.19881861 0.19793911 0.035087574 -0.18639854
000200 d2 92 e3 be b6 e1 e1 3d 81 a1 5f bf 7c d2 97 be
       -0.44447953 0.11029379 -0.8735581 -0.29652774
000210 26 39 e9 bc f0 bc 45 3e ca 82 91 3e 44 9e f9 be
       -0.028469633 0.19310355 0.28420097 -0.4875356
000220 dc e5 a2 be c8 79 17 be b2 c2 32 be 12 60 35 bf
       -0.31815994 -0.1479255 -0.17457083 -0.70849717
000230 74 56 e8 3c 83 ab 83 be 1a 6d 36 bf 7f d0 ac be
       0.028361537 -0.2571679 -0.71260226 -0.3375282
000240 b7 f8 be 3e ad f2 b2 3e 5f 5f cc be b6 d9 9f 3e
       0.3729913 0.34950772 -0.39916512 0.31220788
000250 26 12 ce be e7 26 61 3e 25 d3 5a be 04 1d 94 3d
       -0.4024822 0.21987496 -0.21369608 0.07232097
000260 06 4d db 3e e2 b0 9f bd 55 bb cd 3d b2 32 85 be
       0.42832202 -0.077974096 0.100454964 -0.2601524
000270 4c ef c4 be 89 d9 3c be 3d 06 61 3f 0b 49 39 be
       -0.3846382 -0.18442358 0.87900144 -0.1809427
000280 26 2f 90 3e 07 7b 52 3d 92 de c6 3e 2a fa 56 bd
       0.2816097 0.05138686 0.38841683 -0.05248467
000290 d3 21 95 be 51 8a 25 3f d0 e7 2a bf 2c 44 00 bc
       -0.29127368 0.6466418 -0.6675997 -0.007828753
0002a0 99 d8 cf 3e f6 10 78 be f9 8b 61 3e 94 e3 63 bf
       0.40594938 -0.2422522 0.22026052 -0.8901913
0002b0 89 56 12 be 04 75 4c 3f dd 0c 11 be 2d 9f c2 3e
       -0.14290823 0.7986605 -0.14165063 0.38012066
0002c0 dc 0e cd 3e fe a6 32 bd 57 56 4a bf eb d9 03 bf
       0.400504 -0.043616287 -0.79037994 -0.5150439
0002d0 4b 25 0c be a8 fa 10 be fe 03 68 bd 7d 1c 43 be
       -0.13686101 -0.14158118 -0.056644432 -0.19053836
0002e0 4c 16 83 be 86 1e 11 bd fb 99 90 bd db b8 1c bd
       -0.2560295 -0.0354295 -0.070606194 -0.03826223
0002f0 aa 27 73 3e 39 f9 2f be 14 09 3c bf 9b 51 fb be
       0.237456 -0.17184915 -0.7345135 -0.49085698
000300 02 7b f7 be ef cb 66 bf eb 80 b5 3e 0d 07 fd bd
       -0.48336035 -0.9015493 0.3544992 -0.123548605
000310 ad ae ff bd fe 51 87 3d 39 4e 3b 3f ed 1b 27 be
       -0.12484489 0.06607436 0.73166233 -0.16319247
000320 a5 9b e6 be 4c b2 53 3f e5 ef 60 bf 08 bd 31 bc
       -0.45040622 0.82693934 -0.8786605 -0.010848291
000330 d6 00 13 be 64 42 cc 3d be 98 9d 3e 10 ac d9 be
       -0.14355788 0.099736005 0.30780596 -0.42514086
000340 b0 75 8f be 2b ee a0 3e 12 02 03 be ac e3 f8 be
       -0.28019476 0.31431708 -0.12793759 -0.486112
000350 44 b5 c3 bd 35 c9 58 be 95 f3 40 bf d0 09 83 be
       -0.09556058 -0.21170504 -0.75371677 -0.25593424
000360 14 2f 95 3d 7f 1b 43 be 84 ff a4 be 96 bd 6c 3f
       0.0728437 -0.19053458 -0.32226193 0.92476785
000370 fb d1 3d bf 5c 4a 46 bd 93 d9 6f 3e ea e3 e5 be
       -0.7414853 -0.04841076 0.23422842 -0.44900447
000380 e3 c6 8d 3e f3 da 7e 3d a1 7a 04 3e f5 e9 f6 be
       0.276908 0.062220525 0.12937404 -0.4822537
000390 cb f6 8e 3e 98 4c 30 bf 9e b2 0c 3c d3 d9 e4 bd
       0.27922663 -0.6886687 0.0085875075 -0.11174359
0003a0 3a cd 07 3c 5f 55 80 3e 45 30 93 be 23 69 06 be
       0.008288676 0.25065133 -0.28747764 -0.13126044
0003b0 a0 34 15 be c2 2f 00 bf fe 9f 8a 3e 5c 27 21 3f
       -0.14570856 -0.5007287 0.2707519 0.6295068
0003c0 63 b3 ba be 79 7f 2a 3e 05 0b ba be 11 17 79 be
       -0.36464986 0.1665019 -0.36336532 -0.24325205
0003d0 4f 80 38 be 08 aa 49 3e 70 af 91 3e c4 84 12 bf
       -0.18017696 0.19693768 0.2845416 -0.57233834
0003e0 1e fa b2 be 85 b1 00 be 2d 98 55 bf c5 5e 02 be
       -0.3495645 -0.12567718 -0.83435327 -0.12731464
0003f0 a5 09 81 be 55 e4 7c 3c d3 ea 3b 3d 3f 39 cd 3c
       -0.2520267 0.015435298 0.045878243 0.025051711

bias f4 [32]
000000 19 0e 87 3b 14 fb 10 3e fd fd ab 3e c2 05 f3 3d
       0.0041215536 0.14158279 0.33592215 0.118663326
000010 c2 56 92 3c 17 df 75 bd 4f fa 37 3e c5 b6 70 bd
       0.017863635 -0.06002721 0.17966579 -0.058768053
000020 b5 d1 be 3d ff 57 80 3e 98 ad cb 3d 73 32 83 3d
       0.09317342 0.25067136 0.0994522 0.06406107
000030 7e a3 00 3f 39 0f 30 3e b3 50 66 3d 67 a9 77 3e
       0.5024947 0.17193307 0.056229305 0.24185716
000040 0b 57 a2 3e ce 0d ce b9 a1 28 00 3f a9 20 2e 3e
       0.31707034 -0.00039301667 0.50061995 0.17004646
000050 02 ce 6a 3d 84 6f c9 bd 7b 29 99 3e bc 1b 85 3e
       0.05732537 -0.09835723 0.2991446 0.25997722
000060 a0 94 ae 3e 58 46 8a 3d cf 7a 93 3c e7 95 8a 3e
       0.34097767 0.06751698 0.018002896 0.2706749
000070 71 04 39 3e 28 94 c5 3d d1 5d d6 3d 7a 39 8d 3e
       0.180681 0.09647399 0.10467113 0.27582914

weight f4 [32, 32, 3, 3]
000000 71 3c a8 3c 7e d8 13 bd 52 1b e8 3b 1b 8a b1 3d
       0.020536633 -0.036095135 0.007083335 0.0866892
000010 96 39 01 3f 0d 81 d2 3d 3c 37 d9 3d b0 41 75 3e
       0.50478494 0.10278521 0.10606238 0.23950839
000020 e4 8f ef be f8 ca b1 3e ba a8 0c 3f 5b 9a b7 bd
       -0.46789467 0.34725165 0.54944956 -0.08964988
000030 4e 79 b2 3e a9 eb 55 3e e7 d7 d7 be 6b 56 2f 3e
       0.34858173 0.20890678 -0.42156908 0.1712281
000040 9f 1f 0b be 43 eb 45 be 9e 00 10 bd 7b 3b ad 3d
       -0.13586281 -0.19328026 -0.03515684 0.084586106
000050 a3 50 25 3e b6 07 1d 3e af c7 ea 3e 96 10 6c 3e
       0.16144042 0.15334973 0.45855471 0.23053202
000060 b5 df 88 3d e5 70 19 3e ec fd 6d be 73 c4 ef bd
       0.06683294 0.14984472 -0.23241395 -0.117073916
000070 68 56 c4 3e fe a3 a1 3d ab a0 74 3e 75 9e 16 3f
       0.38347173 0.07892607 0.23889415 0.58835536
000080 15 21 87 3e 02 3a 6d 3e 16 71 df 3d 42 19 9c bd
       0.26392427 0.2316666 0.10910241 -0.07622005
000090 64 41 d1 bd cb 39 11 be ad 11 aa bc 38 9b db 3d
       -0.102175504 -0.14182203 -0.020760382 0.10722965
0000a0 92 85 e8 3e 64 1d 71 3e b3 fb 20 3d bd 53 24 3e
       0.45414406 0.23546368 0.03930254 0.16047569
0000b0 66 d0 cc be c9 57 bf bd ba 81 06 3f cf ac fb 3d
       -0.40002745 -0.093429156 0.525417 0.1228882
0000c0 a3 44 6b 3e 41 9b 48 3e 51 05 31 be a0 71 d9 bd
       0.22975402 0.19590475 -0.17287184 -0.106173754
0000d0 66 e4 65 be 81 a5 a6 bd af c0 44 be 9c 5c 09 bc
       -0.22450408 -0.08137036 -0.19214128 -0.008383896
0000e0 bd 4c 29 3e eb e8 0b 3e 10 2b 23 3f c5 aa 92 3e
       0.1653318 0.1366307 0.63737583 0.28645912
0000f0 b2 2d 4e 3e 4f 70 a9 3e 06 42 8d bd 14 96 46 bd
       0.20134619 0.33093497 -0.068973586 -0.04848297
000100 d3 79 13 3f 63 fb ed bd 43 18 cb 3e 7d 0b 1a 3f
       0.57607764 -0.11620214 0.39666948 0.6017378
000110 34 d7 25 be 51 7a 4a 3e 4c 1b cb 3c df 35 af 3b
       -0.16195375 0.19773223 0.02479329 0.005346998
000120 fa 01 c9 bd e6 f9 ac 3d 53 01 1f 3e 9c ae 96 3e
       -0.0981483 0.08446102 0.15527849 0.2943009
000130 61 57 31 3f 79 56 72 3e c7 3a 2c 3e 85 d1 01 3e
       0.69273955 0.23665799 0.16819297 0.12677582
000140 8d 75 d8 bd 38 e0 09 3d 18 40 d4 bd a7 8c 10 be
       -0.10569296 0.033661097 -0.103637874 -0.14116155
000150 e4 2c f3 3c a8 ff e0 3e b0 34 32 3e c2 91 4f 3d
       0.029684491 0.4394505 0.17402911 0.050676115
000160 c5 99 62 3e c0 d9 d6 be 53 d3 43 be 04 fd a6 3d
       0.22128971 -0.41963005 -0.19123583 0.08153728
000170 94 9f 72 3e 6d 4e 86 3e 45 b1 16 3f eb f1 cc 3e
       0.23693687 0.2623171 0.5886424 0.4002832
000180 73 67 bd 3d b2 f8 e9 3d b3 dd de bd 65 70 0f 3e
       0.09248247 0.11424388 -0.108821295 0.14007719
000190 c7 90 1f 3f 8e 61 be 3d 1f b9 61 3e 69 7d 8b 3e
       0.6233029 0.09295951 0.22043274 0.27244118
0001a0 0a 88 b8 be 3f 46 a9 3d 4f 76 a6 be 6b bc 20 bf
       -0.3604129 0.082653515 -0.32512137 -0.62787503
0001b0 20 94 c7 3d b7 06 0f 3f b1 2e 1a 3e bc 08 c9 3d
       0.097450495 0.5586962 0.15056874 0.09816119
0001c0 76 ed fc 3d af 17 e4 be 7d 31 b5 bc 95 be 1f be
       0.123499796 -0.4454932 -0.022118324 -0.15600045
0001d0 67 66 bf be 54 11 17 3c 2d 88 01 be 59 7d 6a be
       -0.37382814 0.00922044 -0.12649603 -0.22899379
0001e0 f2 ce e8 3d 6f 0b d9 3e 66 fc 4f 3e 03 1d 9a 3d
       0.11367597 0.42391536 0.20311126 0.07525065
0001f0 99 e0 9d 3e d9 52 ad be 79 0e 90 3d 0c 80 1b 3f
       0.30835417 -0.3385227 0.070340104 0.6074226
000200 bb a5 fd 3d 23 90 5f 3d 80 f4 50 3e 01 28 e6 be
       0.12385126 0.05458082 0.2040577 -0.44952396
000210 15 35 34 be 08 c2 81 bd de b2 c5 be 7d 1e 6b bc
       -0.17598374 -0.06335837 -0.38613027 -0.014350531
000220 10 fa b8 bd 08 48 1a be 58 cd d9 3d 4d 14 f2 3e
       -0.09032071 -0.1506654 0.10634869 0.47281113
000230 a5 01 19 3e a8 d3 66 3d 1a a0 2c 3e 3f 6f d2 be
       0.14942034 0.056354195 0.16857949 -0.411005
000240 b3 92 8c bd 80 bd 17 be 19 06 d7 bd 8b 64 2f 3d
       -0.06863918 -0.14818382 -0.1049921 0.042820495
000250 fc 49 b0 3e 00 3f 2d 3e fd 2d 95 3d ec 17 47 3e
       0.34431446 0.16918564 0.07284162 0.19442719
000260 80 17 e1 be 9c 08 22 3d 66 d2 4b bd 56 02 40 be
       -0.43963242 0.03955899 -0.0497612 -0.18750891
000270 cb 8c ce 3d 93 66 cf 3e c6 b7 18 3e f4 1b b5 3d
       0.10085448 0.40507945 0.14913854 0.08843222
000280 a6 ef 97 3e ba 73 e5 be 59 42 8d 3d f9 09 2b 3f
       0.29675025 -0.44814855 0.068974204 0.6681209
000290 7d d9 a9 bd 26 28 ba 3e 44 00 21 3f bf 50 83 3e
       -0.08293436 0.36358756 0.6289103 0.25647542
0002a0 6f 8c 17 3e 31 d9 f6 3b db 76 1e be 42 24 e0 bb
       0.14799665 0.0075332155 -0.15475027 -0.00684026
0002b0 0f a1 da 39 a4 ca 9c 3d 6a 81 7f 3e 35 40 1d 3f
       0.00041700198 0.07655838 0.24951711 0.614261
0002c0 17 b1 20 3e ac db 52 3e 1a 2c 79 3e cf 85 99 be
       0.15692554 0.2059161 0.2433323 -0.299849
0002d0 18 34 84 3b b4 cd 1b be c2 29 8d be 3d eb a3 3d
       0.0040345304 -0.15215188 -0.2757092 0.080038525
0002e0 03 38 d4 3e 47 52 12 3e b8 15 e0 3d 9a dd 9b 3e
       0.41448984 0.14289199 0.109416425 0.30442506
0002f0 3a 74 b9 be f9 05 76 3e 43 52 1d 3f a9 77 09 3d
       -0.36221486 0.24025716 0.61453646 0.033561382
000300 dd 9b a3 3e 57 87 22 3d af 5e e2 be aa 03 84 3d
       0.31954852 0.03967985 -0.44212863 0.06446011
000310 68 08 a7 be 4a f8 9c be eb ad 78 bd 62 f5 6a bd
       -0.326236 -0.3065818 -0.060712736 -0.05736292
000320 f5 dc c7 bc 5c 62 e0 3d 1c 60 c3 3e 7f cd 36 3e
       -0.024397353 0.109562606 0.38159263 0.17851828
000330 db 04 27 bb 6e 2b 99 3d 18 f7 c7 be 1a 27 a9 3e
       -0.0025485072 0.07478987 -0.39055705 0.33037645
000340 e0 1a 0f 3f d8 5e 18 3d fe db 6a 3e 7e bd dd 3e
       0.55900383 0.037199825 0.22935483 0.43308634
000350 33 c0 05 bf 9c 28 8b 3d 03 a4 05 be ed 15 65 be
       -0.522464 0.06794855 -0.13050847 -0.22371645
000360 ae f9 b4 3d 7d 19 22 3f 2a fc 7e 3d 66 2d 5b 3e
       0.08836685 0.6332014 0.0622522 0.21404037
000370 ba 99 c1 3d 62 60 e5 be e8 77 69 bb 1c 45 85 be
       0.09453149 -0.44800097 -0.0035624448 -0.2602929
000380 5d 5a a6 be ad c0 8e bd 08 d1 cb bd 09 ca 21 be
       -0.32490817 -0.06970344 -0.09951979 -0.15799727
000390 af 37 4c 3d 4b 8e cb 3e e3 6f 7e 3e 28 fb 57 3b
       0.04985779 0.39756998 0.24847369 0.0032956097
0003a0 da 1f 74 3e 94 14 e0 be f2 e0 99 bd b9 13 87 3d
       0.23840275 -0.437657 -0.07513608 0.06595559
0003b0 36 6c c0 3d 79 e8 86 3e c4 09 23 3f 1c 60 59 3e
       0.093956396 0.26349238 0.63686776 0.21228069
0003c0 46 95 28 3e 48 64 9b 3e 1c da 88 be ae 13 3c 3d
       0.16463193 0.30349946 -0.26728904 0.045917206
0003d0 6c 1c 07 3f 19 2d 04 3e 00 cc b5 3e d5 59 8d 3e
       0.52777743 0.12907828 0.35507202 0.276076
0003e0 5b 68 a4 be 9f 56 01 be ca 2b 78 be 4a 37 ca bd
       -0.32110867 -0.126307 -0.24235454 -0.09873827
0003f0 e3 1c 9a 3d c7 71 bc bc d4 50 01 be a9 3e 49 3e
       0.07525041 -0.023003472 -0.1262849 0.19652809

bias f4 [32]
000000 01 63 14 be e2 f7 16 3e fe 94 68 be d6 fa 6a be
       -0.14490892 0.14742997 -0.22713086 -0.22947249
000010 8c 9a 7f be f8 51 a3 bb a7 03 7d be 0d 4f ae be
       -0.24961299 -0.0049841367 -0.24708425 -0.34044686
000020 94 03 76 be 3a 02 42 be c6 3d 7c be b9 c6 4d bc
       -0.24024802 -0.18946162 -0.2463294 -0.012559586
000030 60 53 5a bd df ed 7b be a3 fe 3e be 9a de 4c be
       -0.05330217 -0.2460246 -0.18651824 -0.20006791
000040 20 8a 85 be 95 01 34 be 67 0b e2 be d7 3b 88 be
       -0.26081944 -0.17578728 -0.44149324 -0.26608154
000050 61 cb 2c be fb 61 d8 bb 2c c3 75 be b0 dd c5 39
       -0.16874458 -0.006603477 -0.24000233 0.00037739938
000060 a9 cf 46 bd e2 72 54 be 98 58 71 be 45 68 7f 3d
       -0.048537884 -0.2074695 -0.23568952 0.0623553
000070 7b ac 54 be ea 02 83 be 3f a2 f2 3d 67 03 44 be
       -0.20768921 -0.2558816 0.11847352 -0.19141923
