models/proto_hier.pth (torch_old, 194209 bytes, 46 tensors)

weight f4 [32, 1, 3, 3]
0	0x3e7ca376	0.2467173
1	0x3c0c2d0e	0.008555664
2	0x3df95704	0.121748
3	0x3ea7c678	0.32768607
4	0x3ed57d08	0.41696954
5	0x3ed63507	0.41837332
6	0xbc97c8a5	-0.018528292
7	0x3edffb3f	0.43746373
8	0x3d45e0df	0.048310157
9	0xbe6073f7	-0.21919237
10	0x3deef805	0.116684
11	0xbe1f3f35	-0.15551455
12	0xbf02e264	-0.51126695
13	0xbf05f942	-0.5233346
14	0xbe9a1cbf	-0.30100057
15	0xbea45e83	-0.32103357
16	0xbe9a2689	-0.30107525
17	0xbec86f9c	-0.3914765
18	0xb8446509	-4.6824138e-05
19	0x3e078a60	0.1323638
20	0x3e2e86b8	0.17043579
21	0x3e88e1ca	0.26734763
22	0x3ea870c6	0.3289854
23	0x3e4078e0	0.1879611
24	0x3d4a8d3b	0.049451094
25	0xbe57a5a3	-0.21059279
26	0x3ea6949a	0.3253525
27	0x3e8542d0	0.26027536
28	0x3ec50fa7	0.38488504
29	0x3e005fbf	0.12536524
30	0x3e263cdf	0.16234158
31	0x3e3d5503	0.1848946
32	0x3ea3bf51	0.319819
33	0x3e9425e2	0.28935152
34	0x3e5eba49	0.2175075
35	0xbbfeaa5a	-0.0077717723
36	0xbdf3049b	-0.11866113
37	0x3df000c7	0.11718898
38	0x3e8dff4f	0.27733847
39	0x3d48c7bf	0.049018618
40	0x3eb64f3f	0.35607335
41	0xbe278581	-0.16359521
42	0x3e7c8770	0.2466104
43	0x3e0995e1	0.1343608
44	0xbe286599	-0.16445006
45	0x3e6e787d	0.2328815
46	0xbde41658	-0.11137074
47	0x3e9f2d0a	0.3108905
48	0x3e9d6501	0.30741122
49	0xbe5920fe	-0.21203992
50	0x3e835201	0.25648502
51	0x3e3a688b	0.18203942
52	0x3e9403f7	0.28909275
53	0x3e935771	0.2877765
54	0xbe5f862f	-0.2182853
55	0xbe962cf8	-0.29331183
56	0xbe6be3c7	-0.23036109
57	0xbea4fa03	-0.32221994
58	0xbef883ec	-0.48538148
59	0xbd46e624	-0.048559323
60	0xbeb73ce2	-0.35788637
61	0xbde18149	-0.11010987
62	0xbe867df1	-0.2626796
63	0x3e8d2757	0.27569076
64	0x3d8fb6dc	0.070172995
65	0xbe816060	-0.2526884
66	0x3d13e503	0.036107074
67	0xba93904c	-0.0011258214
68	0xbdec9c4e	-0.1155325
69	0x3eab70e0	0.33484554
70	0x3df4c576	0.11951725
71	0xbd13c0dd	-0.0360726
72	0xbee3398f	-0.4437985
73	0x3e41717f	0.18890952
74	0xbebb9eaf	-0.36644503
75	0xbdb7d7c2	-0.089766994
76	0x3dafee45	0.08590368
77	0xbecc5652	-0.39909607
78	0xbc356908	-0.011072405
79	0x3e4d99c3	0.20078187
80	0xbe7e9a67	-0.24863587
81	0xbe9a28b3	-0.30109176
82	0xbefc83ef	-0.49319407
83	0xbf04b55f	-0.5183925
84	0xbe9746f4	-0.2954632
85	0x3d54c730	0.051947773
86	0xbe1b214f	-0.15149425
87	0xbeeaf216	-0.45887822
88	0x3c23bc74	0.009993661
89	0xbe2303a1	-0.15919353
90	0x3dfd2217	0.12360018
91	0xbf015834	-0.5052521
92	0xbef3e7c0	-0.4763775
93	0xbe23bf96	-0.15991053
94	0xbee68f16	-0.4503104
95	0xbeeccba2	-0.4624911
96	0x3d0bd3a8	0.034137398
97	0xbeef3143	-0.4671727
98	0xbee570b5	-0.4481255
99	0x3e34a207	0.17639934
100	0x3e416687	0.18886767
101	0x3ededf32	0.4352966
102	0xbce52d20	-0.027975619
103	0x3de42a2a	0.11140855
104	0xbdad5ecf	-0.08465349
105	0x3e17c2db	0.14820425
106	0x3e05cf58	0.13067377
107	0xbd0dcbf3	-0.03461833
108	0x3d8a2817	0.06745928
109	0xbe4c5035	-0.19952472
110	0xbe782fb3	-0.24236946
111	0xbe923539	-0.2855623
112	0xbe737e61	-0.23778678
113	0xbe5a297f	-0.21304892
114	0xbd8a4061	-0.067505606
115	0x3dbcb00c	0.09213266
116	0xbe017d8f	-0.12645553
117	0x3e801f11	0.25023702
118	0xbe074b47	-0.1321231
119	0x3df6cc95	0.1205074
120	0xbebf6d23	-0.37387952
121	0x3def4f62	0.11685063
122	0x3d1f6c55	0.038921673
123	0x3d577aae	0.05260723
124	0xbeac53df	-0.3365774
125	0x3e4e90fa	0.20172492
126	0xbec3342c	-0.3812574
127	0xbe83a123	-0.25708875
128	0xbce9ecb7	-0.028555257
129	0xbf109298	-0.56473684
130	0xbc78d85e	-0.015188305
131	0xbedf0d27	-0.43564722
132	0xbf16e278	-0.58939314
133	0xbeecbbc9	-0.4623702
134	0xbf0ee9eb	-0.5582568
135	0x3e92e536	0.286905
136	0x3e4d1a41	0.20029546
137	0xbe4298fc	-0.19003671
138	0x3e1e0865	0.1543289
139	0x3e35a49e	0.17738578
140	0x3d44498a	0.047921695
141	0x3e540236	0.20703968
142	0xbe81838b	-0.25295672
143	0x3e8da14c	0.27662122
144	0x3e94341e	0.28946012
145	0x3d877f65	0.066160955
146	0x3d0e5dac	0.0347573
147	0x3ac31725	0.0014884217
148	0x3d2d7dcb	0.042356294
149	0xbe03832e	-0.1284301
150	0x3e23b24d	0.15985985
151	0x3e01eb1b	0.12687342
152	0x3d488216	0.048952185
153	0x3ed51fbb	0.4162577
154	0x3d958eb0	0.07302606
155	0xbe2fb03b	-0.1715707
156	0x3deac283	0.114628814
157	0xbe44fd3d	-0.19237228
158	0xbe3c00f0	-0.18359733
159	0xbd70b28f	-0.058764037
160	0xbe39e9f8	-0.18155658
161	0xbe2a470a	-0.16628662
162	0xbc8dba9c	-0.017300896
163	0x3db513df	0.08841681
164	0x3d3c58c1	0.04598308
165	0x3de1cebe	0.11025761
166	0x3d9eeebd	0.077603795
167	0x3eae4c6e	0.34042686
168	0x3e14b9a3	0.1452394
169	0x3db2c97f	0.087298386
170	0x3da34363	0.07971837
171	0xbe25f02a	-0.16204897
172	0xbe64b617	-0.22335087
173	0xbe6197c9	-0.22030558
174	0x3de98a05	0.11403278
175	0xbe4b87bb	-0.19875996
176	0x3d989234	0.07449761
177	0xbd33d078	-0.043899983
178	0x3e08b074	0.13348562
179	0x3dc4aaa7	0.09602862
180	0xbec4efe3	-0.3846427
181	0xbec93c08	-0.39303613
182	0xbee5d084	-0.44885647
183	0xbee73577	-0.45157978
184	0xbe7a7821	-0.24459888
185	0xbebdebb8	-0.37093902
186	0xbd9c69ff	-0.07637405
187	0xbeb1b753	-0.34710178
188	0x3d5d872f	0.054084
189	0x3eb5488a	0.35406905
190	0x3e2f9201	0.1714554
191	0x3dfbf748	0.123030245
192	0xbe9ebff2	-0.31005818
193	0xbe6c34b8	-0.23066986
194	0xbd88c475	-0.06678096
195	0x3e2250b8	0.15851104
196	0x3d614459	0.054996822
197	0x3dce2f94	0.100676686
198	0xbe246cb6	-0.16057095
199	0x3ebf53b5	0.3736855
200	0xbdf403dd	-0.11914799
201	0x3e954dcc	0.29160917
202	0x3eb28653	0.34868106
203	0x3ddd7120	0.108125925
204	0x3eb21f74	0.34789622
205	0x3e8dbe0f	0.27684066
206	0x3dd3d5a1	0.10343481
207	0xbef71392	-0.48257118
208	0xbebecacb	-0.37264094
209	0xbe3830b0	-0.17987323
210	0x3d284ddb	0.041089874
211	0xbd889baf	-0.06670319
212	0xbe441744	-0.191495
213	0xbeaa839d	-0.33303538
214	0x3cfe6897	0.031055732
215	0xbdfaab5c	-0.122397155
216	0x3e8d84c9	0.2764037
217	0x3e2de9b6	0.16983685
218	0x3bf0fe5d	0.007354541
219	0x3eab7f66	0.33495635
220	0xbd22f224	-0.039781705
221	0xbe885795	-0.2662932
222	0x3e27021b	0.16309397
223	0xbe1dc357	-0.15406547
224	0xbdf60978	-0.12013525
225	0xbefaaf4a	-0.4896186
226	0xbee2546a	-0.44205028
227	0xbe5a39e9	-0.21311153
228	0xbebce4a4	-0.3689319
229	0xbd631763	-0.055442225
230	0xbec54a4a	-0.3853324
231	0x3df53359	0.119726844
232	0x3dfc113c	0.12307975
233	0xbe67b634	-0.22628099
234	0xbdc3ca07	-0.09560018
235	0xbce8a695	-0.028399745
236	0xbe2123ef	-0.15736364
237	0xbedc7e17	-0.4306495
238	0xbec17736	-0.37786263
239	0xbe9b2c5d	-0.30307284
240	0x3c70e1e5	0.014702295
241	0xbe186ed2	-0.14886025
242	0xbf00b0d2	-0.50269806
243	0xbeeec6e9	-0.4663613
244	0x3d972055	0.07379214
245	0x3d2fecc4	0.042950407
246	0xbefeb93d	-0.497507
247	0x3d8a4a1b	0.06752416
248	0xbe93cc0f	-0.28866622
249	0xbe15bdd1	-0.1462319
250	0xbe67b1eb	-0.22626464
251	0xbd7d4cfe	-0.061841004
252	0x3da1f426	0.07907896
253	0x3c7367c8	0.014856286
254	0xbe9690bf	-0.29407308
255	0xbe727539	-0.2367753

bias f4 [32]
0	0xbd9ace34	-0.075588614
1	0x3dea6007	0.11444097
2	0x3e07a014	0.13244659
3	0xbdd6353c	-0.104593724
4	0x3e663635	0.22481616
5	0x3eaf9c2b	0.34298834
6	0x3e2be194	0.1678527
7	0x3d42940c	0.04750447
8	0xbd38c36b	-0.04510824
9	0xbd8ccecf	-0.06875383
10	0x3d0daf13	0.034590792
11	0xbe42c509	-0.19020475
12	0x3e8e4196	0.27784413
13	0xbcf88fd0	-0.030342013
14	0x3e850615	0.25981203
15	0x3af159fe	0.0018413661
16	0x3ed4d362	0.41567522
17	0x3ec2186f	0.37909266
18	0x3b46ee09	0.0030354282
19	0x3e2f0df3	0.17095165
20	0x3c6818ef	0.014166101
21	0xbd253e97	-0.040342893
22	0x3e88cd98	0.26719356
23	0xbdec859f	-0.11548924
24	0x3d8e4783	0.069472335
25	0xbc87f65a	-0.016596962
26	0x3e1901d2	0.149421
27	0xbed776f6	-0.42082947
28	0xbe7033b9	-0.2345723
29	0x3e8884cc	0.26663816
30	0x3f215f99	0.63036495
31	0x3da74cbc	0.08168933

weight f4 [32, 32, 3, 3]
0	0x3e3794dd	0.1792788
1	0x3dd46759	0.103712745
2	0x3e09d5e5	0.134605
3	0x3e1ec484	0.15504652
4	0x3db645b4	0.089000136
5	0x3e4cf892	0.20016697
6	0x3e1709fa	0.147499
7	0x3e3a077c	0.18166918
8	0x3dbe011f	0.092775576
9	0x3e1c3370	0.15253997
10	0x3dc06868	0.09394914
11	0x3dcf6d38	0.10128254
12	0x3dc32788	0.09529024
13	0x3e129a92	0.14316776
14	0x3de71704	0.11283687
15	0x3e471715	0.19442399
16	0x3e1632f2	0.14667872
17	0x3e29e524	0.16591316
18	0x3e1f7c31	0.15574719
19	0x3de810a0	0.11331296
20	0x3e48965e	0.1958861
21	0x3e0e7c34	0.13914567
22	0x3e083e1d	0.13304944
23	0x3ddc6e7c	0.10763261
24	0x3defd9b6	0.11711447
25	0x3e065766	0.13119277
26	0x3e51422e	0.20435402
27	0x3dd41da4	0.10357216
28	0x3e1f118a	0.15534034
29	0x3e1530bc	0.14569372
30	0x3db849f7	0.08998483
31	0x3dcb619c	0.09930727
32	0x3e2070cc	0.15668029
33	0x3db2a791	0.08723367
34	0x3dd8f7bc	0.105941266
35	0x3e44531e	0.19172332
36	0x3dcb51b2	0.099276915
37	0x3e18a480	0.14906502
38	0x3e193c63	0.14964442
39	0x3e3ee061	0.18640281
40	0x3e145500	0.1448555
41	0x3e2544c7	0.16139518
42	0x3e367057	0.17816292
43	0x3e1f5767	0.15560685
44	0x3dff3669	0.1246155
45	0x3e4a078d	0.19729443
46	0x3e0dc943	0.13846307
47	0x3e14ed8d	0.14543743
48	0x3e1ea91c	0.15494198
49	0x3e003a2c	0.12522191
50	0x3debf7bb	0.1152186
51	0x3e1bb5b9	0.1520604
52	0x3dc23331	0.0948242
53	0x3ddb25b8	0.10700554
54	0x3e35e565	0.17763288
55	0x3e17e488	0.14833272
56	0x3e32a826	0.17446956
57	0x3e3b0e79	0.1826724
58	0x3e352881	0.17691232
59	0x3db2d358	0.08731717
60	0x3e39d36c	0.18147057
61	0x3e1640d4	0.14673167
62	0x3e447091	0.19183566
63	0x3e266d96	0.16252741
64	0x3e4214d3	0.18953256
65	0x3e318712	0.17336681
66	0x3e28aace	0.16471407
67	0x3dd37260	0.1032455
68	0x3e4a5228	0.19757903
69	0x3e2ae186	0.16687593
70	0x3e21518d	0.15753765
71	0x3e283dfd	0.16429897
72	0x3e18b943	0.14914422
73	0x3e360c43	0.17778115
74	0x3db73c4b	0.08947047
75	0x3e430bb3	0.19047432
76	0x3dfac581	0.12244702
77	0x3dcceb23	0.10005786
78	0x3df76eec	0.120817035
79	0x3e3bfed3	0.18358926
80	0x3dd8d444	0.105873615
81	0x3e3b4071	0.18286301
82	0x3e2c7276	0.16840538
83	0x3e28f521	0.1649976
84	0x3e09fbbc	0.13474935
85	0x3e19d7fe	0.150238
86	0x3e2670bf	0.16253947
87	0x3e2c36f1	0.16817833
88	0x3e12c174	0.14331609
89	0x3e4e1321	0.20124485
90	0x3dc73308	0.0972653
91	0x3dc2d6da	0.09513636
92	0x3dacdcae	0.08440529
93	0x3e1fd2b3	0.15607719
94	0x3e05a2e9	0.13050427
95	0x3e0040fe	0.12524793
96	0x3e517825	0.20455988
97	0x3dd610d3	0.10452428
98	0x3e1a3c84	0.15062147
99	0x3e1c2ca8	0.1525141
100	0x3e4aaf58	0.19793451
101	0x3e47b8ca	0.19504085
102	0x3e3ffc4f	0.18748592
103	0x3e4c3d0d	0.19945164
104	0x3e29b95c	0.16574615
105	0x3dfc5c1f	0.12322258
106	0x3e30c27f	0.17261694
107	0x3e2f0f54	0.17095691
108	0x3de08adc	0.10963985
109	0x3e37be4e	0.17943689
110	0x3e02f52f	0.12788843
111	0x3e180d15	0.1484874
112	0x3e21eb2b	0.15812366
113	0x3e0f470f	0.1399195
114	0x3e4ba70d	0.19887944
115	0x3e217dfc	0.15770715
116	0x3e19d6e6	0.15023383
117	0x3dd3f5bd	0.10349605
118	0x3e1837b4	0.14864999
119	0x3e25af0a	0.16180053
120	0x3e14e058	0.14538705
121	0x3e3e2f0f	0.18572639
122	0x3e4ea2a2	0.20179227
123	0x3e4af008	0.19818127
124	0x3e13312f	0.14374231
125	0x3e3e298f	0.18570541
126	0x3e3af7f7	0.18258654
127	0x3dd7b8b0	0.10533273
128	0x3db69bf8	0.089164674
129	0x3e0631cc	0.13104934
130	0x3e325057	0.1741346
131	0x3de8238b	0.11334904
132	0x3e15f5ba	0.14644518
133	0x3e25a9cb	0.16178052
134	0x3e057a3a	0.13034907
135	0x3db19759	0.086714454
136	0x3e4a7942	0.19772819
137	0x3e07dc51	0.13267638
138	0x3e47c2dd	0.19507928
139	0x3e3a8817	0.18215977
140	0x3e078cbe	0.13237283
141	0x3e33d366	0.17561111
142	0x3e1ddf30	0.1541717
143	0x3e247613	0.16060667
144	0x3dfe3c24	0.12413815
145	0x3dc945d2	0.0982777
146	0x3e3906b3	0.18068962
147	0x3e2e4175	0.17017157
148	0x3e4b1079	0.19830503
149	0x3e302795	0.172026
150	0x3e15326f	0.1457002
151	0x3e03f946	0.12888059
152	0x3df3c983	0.1190367
153	0x3e49d8ea	0.19711652
154	0x3e34b570	0.17647338
155	0x3e01baf4	0.12668973
156	0x3e01c8c5	0.12674244
157	0x3e1293be	0.14314172
158	0x3e4fd733	0.20296936
159	0x3e250dfb	0.16118614
160	0x3e421975	0.18955024
161	0x3e2360ca	0.15954891
162	0x3e105aa8	0.14097083
163	0x3e3d48d5	0.18484814
164	0x3de3d60c	0.111248106
165	0x3de10331	0.10986937
166	0x3e47e051	0.19519164
167	0x3e2bc248	0.16773331
168	0x3dd5db64	0.10442236
169	0x3db3743b	0.087624036
170	0x3e011a3a	0.12607661
171	0x3e2865e0	0.16445112
172	0x3e3c7341	0.18403341
173	0x3e052ceb	0.13005416
174	0x3e233cc1	0.15941145
175	0x3e036d4b	0.1283466
176	0x3e1c0358	0.1523565
177	0x3e1c1e04	0.15245825
178	0x3e069798	0.13143766
179	0x3e2c67a8	0.16836417
180	0x3dfabfa5	0.122435845
181	0x3e2cd757	0.1687902
182	0x3e0bcfa8	0.13653433
183	0x3e01f5df	0.12691449
184	0x3e50b0a8	0.20379889
185	0x3e033336	0.12812504
186	0x3e24529b	0.16047136
187	0x3dd1d600	0.102458954
188	0x3e4d560f	0.2005236
189	0x3db75082	0.089509025
190	0x3e34299f	0.17594002
191	0x3e0ca6c8	0.13735497
192	0x3e06a7dd	0.13149972
193	0x3df02eb8	0.11727661
194	0x3e23a43d	0.1598062
195	0x3dcca10a	0.09991653
196	0x3e361ae3	0.17783694
197	0x3dbe4198	0.09289855
198	0x3da5e9b5	0.08101217
199	0x3e40bbc9	0.18821634
200	0x3e249a24	0.16074425
201	0x3e142ceb	0.1447026
202	0x3e427358	0.18989313
203	0x3e0b9359	0.13630427
204	0x3e00b4d9	0.12568988
205	0x3dbc07d5	0.09181181
206	0x3e466143	0.1937304
207	0x3dcb9cc6	0.099420115
208	0x3e11570b	0.1419336
209	0x3db2a8ce	0.08723603
210	0x3e060356	0.1308721
211	0x3e00f1a3	0.12592177
212	0x3dc2b2a1	0.09506727
213	0x3dc3abd1	0.09554256
214	0x3e057e2d	0.13036413
215	0x3e22b3b1	0.1588886
216	0x3e447358	0.19184625
217	0x3dfadeed	0.12249551
218	0x3e3413e3	0.17585711
219	0x3e114905	0.14188011
220	0x3e1bbc53	0.15208559
221	0x3e3fc8d0	0.18728948
222	0x3e460bc2	0.19340423
223	0x3e3b0a1f	0.1826558
224	0x3e0fc115	0.14038499
225	0x3da6a995	0.08137814
226	0x3dafce01	0.08584214
227	0x3e35b30b	0.1774408
228	0x3e3faa35	0.18717273
229	0x3e3dacd9	0.18522967
230	0x3e4d0460	0.200212
231	0x3dc7f445	0.097633876
232	0x3e238665	0.15969236
233	0x3de01c03	0.10942843
234	0x3e129ab0	0.14316821
235	0x3e02d934	0.12778169
236	0x3e1707a4	0.14749008
237	0x3e4d5121	0.2005048
238	0x3ddbb673	0.10728159
239	0x3e08fefc	0.13378519
240	0x3e15c886	0.14627275
241	0x3e129bc6	0.14317235
242	0x3dd1fd2d	0.102533676
243	0x3e02a688	0.12758839
244	0x3dac6934	0.084185034
245	0x3e021a3d	0.12705322
246	0x3e4110c7	0.18854056
247	0x3dc25bf0	0.09490192
248	0x3e169abd	0.14707465
249	0x3e448968	0.19193041
250	0x3e0555cb	0.13021009
251	0x3e313003	0.17303471
252	0x3df79dbd	0.12090633
253	0x3dc0dd77	0.09417241
254	0x3e015c54	0.12632877
255	0x3dfad0d2	0.122468606

bias f4 [32]
0	0x3e103866	0.14084014
1	0x3de6f82f	0.11277806
2	0x3d43ee0c	0.04783444
3	0x3d28df4e	0.041228585
4	0x3d522d0c	0.05131249
5	0x3df869db	0.12129565
6	0x3dc1bc1d	0.09459708
7	0x3d993836	0.074814245
8	0x3dd71ffa	0.10504146
9	0x3e292877	0.16519342
10	0x3e30d529	0.17268814
11	0x3d96f374	0.07370654
12	0x3cf9fbbc	0.030515544
13	0x3cb2bba0	0.021817982
14	0x3e47d652	0.1951535
15	0x3ddb4269	0.10706026
16	0x3e0cc797	0.13748012
17	0x3e32f917	0.17477833
18	0x3d74a9e6	0.05973234
19	0x3d6105df	0.05493724
20	0x3d9ad8eb	0.07560905
21	0x3e19502f	0.14971994
22	0x3d9679dd	0.07347462
23	0xbdb077c5	-0.08616594
24	0x3dd317e1	0.10307289
25	0x3e44c474	0.19215566
26	0x3e1a9a51	0.1509793
27	0x3dd60514	0.10450187
28	0x3dd0197c	0.10161111
29	0x3d08cc8a	0.03339819
30	0x3db18cf9	0.086694665
31	0x3dacc8d1	0.0843674

weight f4 [32, 32, 3, 3]
0	0xbdd95c3e	-0.10613297
1	0xbdd53a1b	-0.10411473
2	0xbe438eaf	-0.19097398
3	0xbe0de767	-0.13857804
4	0xbe058e4f	-0.13042568
5	0xbe3bade6	-0.18328056
6	0xbe013fe9	-0.12622036
7	0xbde666d5	-0.112500824
8	0xbde2107b	-0.110383
9	0xbdeaa52c	-0.11457285
10	0xbe3f2b34	-0.18668824
11	0xbe4f21da	-0.20227757
12	0xbdff4668	-0.12464601
13	0xbe085509	-0.13313688
14	0xbddc67e6	-0.107620046
15	0xbe0eecdf	-0.13957547
16	0xbe0f6299	-0.14002456
17	0xbe2ca19f	-0.16858529
18	0xbe58a4e0	-0.21156645
19	0xbe05998f	-0.13046859
20	0xbe2a623b	-0.16639034
21	0xbe307eb6	-0.17235836
22	0xbe4a6e36	-0.19768605
23	0xbe12b645	-0.14327343
24	0xbe176ab8	-0.14786804
25	0xbe3e37f6	-0.18576035
26	0xbdf55c43	-0.11980488
27	0xbdd684bc	-0.10474536
28	0xbde297d8	-0.11064118
29	0xbe19e5f0	-0.1502912
30	0xbe440f50	-0.19146466
31	0xbe469aa3	-0.19394927
32	0xbe0c2299	-0.13685073
33	0xbe3bab97	-0.18327175
34	0xbe47eb9b	-0.1952347
35	0xbe56f9d2	-0.20993736
36	0xbe34608f	-0.17614959
37	0xbe4c52aa	-0.19953409
38	0xbe3f0613	-0.18654661
39	0xbe406ecb	-0.18792264
40	0xbe633ba7	-0.22190724
41	0xbe1a6894	-0.15078956
42	0xbe374fbf	-0.17901514
43	0xbe374b56	-0.17899832
44	0xbe152771	-0.14565827
45	0xbdf76432	-0.120796576
46	0xbe47fd30	-0.19530177
47	0xbe15f1db	-0.14643042
48	0xbe309b68	-0.17246783
49	0xbe14ca12	-0.14530209
50	0xbe25ed67	-0.16203843
51	0xbe30618c	-0.17224711
52	0xbe03459b	-0.12819521
53	0xbe5dac92	-0.21647862
54	0xbe401be8	-0.18760645
55	0xbe10a5bc	-0.14125723
56	0xbe3040ae	-0.17212173
57	0xbe4bdcf2	-0.19908503
58	0xbe209673	-0.15682392
59	0xbe1b6175	-0.15173896
60	0xbe1e01e5	-0.1543041
61	0xbe039ada	-0.1285204
62	0xbe0534a5	-0.13008364
63	0xbdcaf891	-0.099106915
64	0xbe58efbe	-0.21185204
65	0xbe07cb47	-0.13261138
66	0xbe04af78	-0.12957561
67	0xbe177d9b	-0.14794008
68	0xbe404fd9	-0.1878046
69	0xbe1171ce	-0.1420357
70	0xbe4f51f3	-0.20246105
71	0xbe22cf1c	-0.15899318
72	0xbe3aa139	-0.18225564
73	0xbdcf4d4d	-0.10122166
74	0xbe2b8b60	-0.16752386
75	0xbe3f354b	-0.18672673
76	0xbe109620	-0.14119768
77	0xbdc4e015	-0.09613053
78	0xbdd7e270	-0.105412364
79	0xbdc7b6c0	-0.09751654
80	0xbe31e6ea	-0.17373243
81	0xbdb574cc	-0.08860168
82	0xbdd9c2b9	-0.106328435
83	0xbe0f0373	-0.1396616
84	0xbe30c09f	-0.17260979
85	0xbe2fc398	-0.17164457
86	0xbe2848fe	-0.16434094
87	0xbe0e1a76	-0.13877282
88	0xbe099621	-0.13436176
89	0xbe3b986d	-0.18319865
90	0xbe4a4898	-0.19754255
91	0xbdd10a82	-0.10207082
92	0xbe547a41	-0.20749761
93	0xbe4ddcef	-0.2010381
94	0xbdd40105	-0.10351757
95	0xbe097958	-0.13425195
96	0xbdc8d81b	-0.09806844
97	0xbe380009	-0.17968763
98	0xbe4f210f	-0.20227455
99	0xbdf21c72	-0.11821832
100	0xbe3bc1dc	-0.1833567
101	0xbde909db	-0.11378833
102	0xbe09c148	-0.13452637
103	0xbe392bd3	-0.18083124
104	0xbe21a059	-0.15783824
105	0xbdf0ac0e	-0.11751567
106	0xbe3fdea6	-0.18737277
107	0xbe310a69	-0.17289127
108	0xbe0e3cf2	-0.13890436
109	0xbe29a601	-0.16567232
110	0xbe5184ef	-0.20460866
111	0xbe032cb8	-0.12810028
112	0xbdee2137	-0.11627429
113	0xbdee5622	-0.11637522
114	0xbdfe7169	-0.12423975
115	0xbe3538b4	-0.17697412
116	0xbe4fad36	-0.20280918
117	0xbe36d02e	-0.17852852
118	0xbe460918	-0.19339406
119	0xbddd9c35	-0.1082081
120	0xbe3be7b9	-0.18350114
121	0xbe4ef0ca	-0.20209041
122	0xbe268c3a	-0.1626443
123	0xbe394271	-0.18091752
124	0xbe037199	-0.12836303
125	0xbe5857ee	-0.21127293
126	0xbe2fb98a	-0.17160621
127	0xbe529202	-0.2056351
128	0xbe112fca	-0.14178386
129	0xbdb66762	-0.089064375
130	0xbdb5fc40	-0.088860035
131	0xbde40cc8	-0.1113525
132	0xbdbc24d9	-0.09186716
133	0xbe350e89	-0.17681326
134	0xbe3a6b6e	-0.18205044
135	0xbe248b5f	-0.16068791
136	0xbe16be3c	-0.14721006
137	0xbe504322	-0.20338109
138	0xbe20a443	-0.15687661
139	0xbe4e1dd4	-0.20128566
140	0xbdd893ee	-0.1057509
141	0xbe26588b	-0.16244714
142	0xbe150064	-0.1455093
143	0xbde2208c	-0.11041364
144	0xbe066e91	-0.13128115
145	0xbe1becfb	-0.1522712
146	0xbdffef42	-0.12496807
147	0xbe35675a	-0.17715207
148	0xbe0b51f2	-0.13605478
149	0xbe46ae72	-0.19402483
150	0xbdfe9532	-0.124308005
151	0xbe5209a4	-0.2051149
152	0xbe2d6bb7	-0.16935621
153	0xbe317117	-0.17328297
154	0xbe34ae02	-0.17644504
155	0xbe5180fb	-0.20459358
156	0xbdf04a24	-0.11732891
157	0xbe30da89	-0.17270865
158	0xbe2a88ec	-0.16653794
159	0xbe4a4e51	-0.19756438
160	0xbdf3b6e7	-0.1190012
161	0xbe4d1825	-0.20028742
162	0xbddb04d3	-0.106942795
163	0xbde1f26d	-0.11032567
164	0xbde578e4	-0.11204699
165	0xbe327e85	-0.17431076
166	0xbde030f7	-0.10946839
167	0xbe53d32a	-0.20686021
168	0xbe00e033	-0.12585525
169	0xbe22c77f	-0.15896414
170	0xbe3f45c2	-0.18678954
171	0xbe22fdc4	-0.15917116
172	0xbe48cbfc	-0.19609064
173	0xbe1f374c	-0.15548438
174	0xbe0b420e	-0.13599417
175	0xbe3dff18	-0.18554342
176	0xbe1aa99c	-0.15103763
177	0xbe200188	-0.15625584
178	0xbe660452	-0.22462586
179	0xbe3b77f3	-0.18307476
180	0xbe07a230	-0.13245463
181	0xbe08ba6d	-0.13352366
182	0xbdfe5bfb	-0.12419888
183	0xbe1aca85	-0.15116318
184	0xbe5610de	-0.20904872
185	0xbe43b7e6	-0.1911312
186	0xbe602772	-0.21890047
187	0xbe329bb2	-0.17442206
188	0xbe6030a6	-0.21893558
189	0xbe30c083	-0.17260937
190	0xbdfa605b	-0.122254096
191	0xbe404d0b	-0.1877939
192	0xbe19b932	-0.15012053
193	0xbe3fe986	-0.18741426
194	0xbe52d1b5	-0.2058781
195	0xbe53999b	-0.20664065
196	0xbe41d757	-0.18929802
197	0xbe2769d1	-0.1634896
198	0xbe0a2fb9	-0.13494767
199	0xbdd0e044	-0.10199025
200	0xbdc476af	-0.095929496
201	0xbe1ea485	-0.15492447
202	0xbe3b216a	-0.18274465
203	0xbe1421ad	-0.14465971
204	0xbe2834c8	-0.16426384
205	0xbe29d668	-0.16585696
206	0xbdde0c37	-0.108421735
207	0xbe247bb2	-0.16062811
208	0xbddd029d	-0.10791514
209	0xbdb3f923	-0.087877534
210	0xbdcf1232	-0.10110892
211	0xbe1985d1	-0.14992453
212	0xbe0e3a50	-0.13889432
213	0xbddb6362	-0.10712315
214	0xbe007788	-0.12545598
215	0xbe20cd73	-0.15703373
216	0xbe12c19d	-0.1433167
217	0xbdf0099b	-0.11720582
218	0xbddc7df0	-0.10766208
219	0xbdd15ea9	-0.10223133
220	0xbe2e5980	-0.17026329
221	0xbe374ef0	-0.17901206
222	0xbdfc15fb	-0.1230888
223	0xbdc0c869	-0.09413225
224	0xbdb29f87	-0.08721834
225	0xbe58329b	-0.21113054
226	0xbe0acd4b	-0.13554876
227	0xbdea5d74	-0.11443606
228	0xbe289dca	-0.16466442
229	0xbe13fdbb	-0.14452259
230	0xbe4e7ed7	-0.20165573
231	0xbddf1ccc	-0.108941644
232	0xbe306e27	-0.1722952
233	0xbe068246	-0.13135633
234	0xbe326c67	-0.17424165
235	0xbe4de938	-0.20108497
236	0xbdfa3387	-0.12216859
237	0xbe581531	-0.21101834
238	0xbe111e14	-0.1417163
239	0xbdcef153	-0.10104623
240	0xbe5b3171	-0.21405579
241	0xbe0882b5	-0.13331111
242	0xbe05ebeb	-0.13078277
243	0xbe118d45	-0.14214046
244	0xbe166ff1	-0.1469114
245	0xbdf7a928	-0.12092811
246	0xbe24be69	-0.1608826
247	0xbde02c27	-0.109459214
248	0xbdf72526	-0.120676324
249	0xbe2e68d1	-0.17032172
250	0xbdbd8413	-0.09253707
251	0xbe42ad87	-0.19011508
252	0xbe00f0a3	-0.12591796
253	0xbe55ff21	-0.20898105
254	0xbe27a003	-0.16369633
255	0xbdf2457e	-0.11829661

bias f4 [32]
0	0xbe3123bd	-0.1729879
1	0xbe17d203	-0.14826207
2	0xbdf7c8e3	-0.12098863
3	0xbe0a8d27	-0.13530408
4	0xbd051fe9	-0.032501135
5	0xbde110e1	-0.109895475
6	0xbe54dc4b	-0.2078716
7	0xbe5f47ee	-0.21804783
8	0xbdc14507	-0.09436994
9	0xbdf916b3	-0.12162533
10	0xbe07b315	-0.13251908
11	0xbe430fff	-0.19049071
12	0x3cd9cf56	0.026588123
13	0xbe1a21e4	-0.15051991
14	0xbe0afb98	-0.13572538
15	0xbe05321d	-0.13007398
16	0xbe06cc36	-0.13163838
17	0xbe044976	-0.12918648
18	0xbdd2de9d	-0.10296366
19	0xbe08ab6a	-0.1334664
20	0xbe00cfc5	-0.12579258
21	0xbd3c154c	-0.045918748
22	0xbe26a693	-0.1627448
23	0xbe1506ca	-0.14553371
24	0xbe97471f	-0.2954645
25	0xbd2dc21c	-0.042421445
26	0xbdb8d032	-0.09024085
27	0xbe027a77	-0.12742029
28	0xbe16776f	-0.14693998
29	0xbdf75421	-0.12076593
30	0xbe24dbf1	-0.16099526
31	0xbeb9a2b6	-0.3625695

weight f4 [10, 32, 3, 3]
0	0xbd22cbe7	-0.039745238
1	0xbded126a	-0.11575778
2	0xbc5ff173	-0.013668406
3	0xbe090794	-0.13381797
4	0xbd17b37b	-0.0370364
5	0xbcc2ceb0	-0.023780197
6	0xbe06dc05	-0.13169868
7	0xbc90e0dd	-0.017685348
8	0x3d6b6dbf	0.05747771
9	0xbd9741a7	-0.07385569
10	0x3c5ca4bb	0.013467009
11	0x3c74f69c	0.014951374
12	0xbd7a8538	-0.061162204
13	0xbd7b858b	-0.061406653
14	0xbdf99360	-0.12186313
15	0x3c6e6425	0.0145502435
16	0xbd5775bd	-0.05260252
17	0xbd3bc824	-0.045845166
18	0xbd69216a	-0.05691663
19	0xbd9e2ed9	-0.07723779
20	0x3d7c051d	0.061528314
21	0xbdc5ad25	-0.09652165
22	0xbdf4f140	-0.11960077
23	0xbdaf0a10	-0.08546841
24	0xbd1d22a9	-0.038363133
25	0xbcf18c40	-0.029485822
26	0xbd44e206	-0.048067115
27	0xbe174e8f	-0.14776061
28	0xbe1fc35f	-0.15601872
29	0x3c22ec7f	0.00994408
30	0xbdea19c4	-0.11430696
31	0xbd6dbe61	-0.058042888
32	0xbda04366	-0.07825355
33	0xbdef2e24	-0.116787225
34	0xbd549124	-0.05189623
35	0x3dff537f	0.124670975
36	0xbac5ed87	-0.0015100696
37	0x3e4099ed	0.18808718
38	0x3ca4c628	0.02011402
39	0xbe092307	-0.13392268
40	0xbc969e02	-0.01838589
41	0xbd584586	-0.052800678
42	0x3c229735	0.009923746
43	0xbdeadc7b	-0.114678346
44	0xbd542e48	-0.05180195
45	0xbbdba519	-0.006703031
46	0x3dfa809d	0.12231562
47	0x3d98b72a	0.07456811
48	0xbe5ab81b	-0.21359293
49	0xbd81e557	-0.06342571
50	0xbe0d792f	-0.13815759
51	0xbe03ffe0	-0.12890577
52	0xbdc9d2c4	-0.098546535
53	0xbda05bbd	-0.07829998
54	0x3dc46a00	0.095905304
55	0xbeb419d9	-0.3517597
56	0x3d11442f	0.035465416
57	0xbf508e16	-0.81466806
58	0x3f5fc49d	0.87409383
59	0x3eb01e1e	0.34397978
60	0xbe53da49	-0.20688738
61	0x3e82be35	0.2553574
62	0xbdfe6474	-0.12421504
63	0xbe10a250	-0.14124417
64	0xbe0b3b18	-0.13596761
65	0x3c909055	0.017646948
66	0xbdca9f20	-0.09893632
67	0xbdd03d3a	-0.10167928
68	0xbdd6db34	-0.104910284
69	0xbd9dda3b	-0.0770764
70	0xbd18e866	-0.037331007
71	0x3e01f862	0.12692407
72	0xbe15d239	-0.14630975
73	0xbd6a4bac	-0.057201073
74	0x3d3cfc97	0.046139326
75	0xbe2167b2	-0.15762213
76	0xbd77307c	-0.060348973
77	0xbdeba7ba	-0.11506601
78	0xbd1584e8	-0.036503702
79	0x3a670dc0	0.00088139996
80	0x3d739dfc	0.059476838
81	0xbdb18899	-0.08668632
82	0xbd67fde8	-0.05663863
83	0x3ca5da6f	0.020245759
84	0xbe186ab7	-0.14884458
85	0xbddd5541	-0.108072765
86	0xbd8fa8fe	-0.070146546
87	0xbd9d373e	-0.07676552
88	0xbd498de0	-0.04920757
89	0xbdd7b3b5	-0.10532323
90	0xbcde908c	-0.027168535
91	0x3d5efe81	0.054441933
92	0x3debe6f4	0.1151866
93	0xbde99f58	-0.114073455
94	0xbd5a545a	-0.0533031
95	0xbdee6a65	-0.11641387
96	0xbd7a07d1	-0.06104261
97	0xbde6654e	-0.11249791
98	0xbd744ea4	-0.05964531
99	0xbd93095c	-0.071795195
100	0xbd62dde4	-0.055387393
101	0x3d9e62e7	0.07733708
102	0xbe304940	-0.17215443
103	0xbd9e4ef4	-0.07729903
104	0xbca7eefe	-0.020499703
105	0xbd82073d	-0.06349037
106	0xbbac67f6	-0.0052614165
107	0x3e182da0	0.14861155
108	0x3c6c6b03	0.01442981
109	0x3d6a858a	0.05725626
110	0x3f42e252	0.7612659
111	0xbedff003	-0.43737802
112	0xbe1924c4	-0.14955431
113	0x3e9f3c4a	0.31100684
114	0xbe5dfb9f	-0.21678017
115	0xbe1152c9	-0.14191736
116	0xbdcd15b9	-0.10013909
117	0xbd9c3c11	-0.07628644
118	0xbd93a09a	-0.07208367
119	0x3a6fbbeb	0.00091451284
120	0xbdeaa85a	-0.11457892
121	0xbe077be5	-0.13230856
122	0xbd46707b	-0.048447113
123	0xbded067e	-0.11573504
124	0xbd80f9af	-0.06297623
125	0x3e0e51b7	0.13898359
126	0xbdfdeb96	-0.1239845
127	0xbde38183	-0.11108687
128	0xbc53e095	-0.0129319625
129	0xbe1c881b	-0.15286295
130	0xbd264aa5	-0.04059853
131	0xbdf280b4	-0.118409544
132	0xbdccdfef	-0.100036494
133	0x3c8f139f	0.01746541
134	0x3d3d5df7	0.04623219
135	0x3ba5b397	0.005056809
136	0x3de001a6	0.109378144
137	0x3dfff55b	0.1249797
138	0xbe3399b8	-0.17539108
139	0xbd0347f3	-0.032051038
140	0xbcb74ee3	-0.022376483
141	0xbd058d52	-0.032605477
142	0x3b61c164	0.0034447545
143	0xbe09e953	-0.13467912
144	0x3cd1ef01	0.025626661
145	0x3df66528	0.12031013
146	0x3de7a932	0.11311568
147	0xbe0ffd89	-0.1406156
148	0xbd903c91	-0.07042802
149	0xbd61f944	-0.05516936
150	0xbe48422c	-0.19556493
151	0xbdd905ea	-0.10596831
152	0xbda0910b	-0.07840165
153	0xbe08f3cb	-0.1337425
154	0xbdbf69c6	-0.093463466
155	0x3dadd95c	0.08488724
156	0xbddbddec	-0.107356876
157	0xbe085101	-0.1331215
158	0xbbcffcf3	-0.0063472926
159	0xbd6b8d5a	-0.05750785
160	0xbcefc251	-0.029267462
161	0x3c84a8ee	0.016193833
162	0xbd9b5895	-0.07585255
163	0xbdbbbcc5	-0.09166864
164	0x3c4101a2	0.011780174
165	0xbe49fcb5	-0.19725306
166	0xbd80d553	-0.06290688
167	0xbd3d2ae9	-0.0461835
168	0xbd7b3796	-0.061332308
169	0x3ba2837e	0.0049595227
170	0x3da22ac5	0.07918314
171	0x3d403f8f	0.046935614
172	0x3d8f6144	0.07000974
173	0x3da24bb4	0.079245955
174	0xbe286026	-0.16442928
175	0xbd66bc3f	-0.05633187
176	0xbdf4322f	-0.11923634
177	0xbdff9904	-0.12480357
178	0xbd003fd4	-0.03131087
179	0xbde68c29	-0.11257202
180	0xbd9e6cee	-0.077356204
181	0xbd988bbe	-0.07448529
182	0xbd3afff3	-0.04565425
183	0xbe3ec2b3	-0.1862896
184	0xbd9b560d	-0.07584772
185	0xbcf013a0	-0.029306233
186	0xbd648897	-0.055794325
187	0xbd4952b8	-0.049151152
188	0x3e4221f9	0.18958272
189	0xbde61924	-0.11235264
190	0xc01eaf70	-2.4794579
191	0xbdbd127f	-0.092320435
192	0xbe694717	-0.22781025
193	0x3dd4b478	0.10385984
194	0xbca46e57	-0.020072145
195	0xbe2cb7bc	-0.16866964
196	0x3f826929	1.0188342
197	0xbb90fff5	-0.0044250437
198	0x3d212ae2	0.039347537
199	0x3da7d245	0.081944026
200	0x3d353423	0.044239175
201	0xbdfda570	-0.1238507
202	0xbcea50dc	-0.02860301
203	0xbdb7d867	-0.08976822
204	0xbd5a1068	-0.053238302
205	0xbda302ad	-0.07959495
206	0xbd37f1d3	-0.044908356
207	0xbe168d63	-0.14702372
208	0xbdb0edd2	-0.086391106
209	0x3c6f0666	0.014588928
210	0xbde037fb	-0.109481774
211	0xbdf2458b	-0.118296705
212	0xbd93ef7e	-0.07223414
213	0xbd034350	-0.032046616
214	0xbde1d0e8	-0.11026174
215	0x3d8074e4	0.06272295
216	0xbdd86f5a	-0.105681136
217	0xbdc54465	-0.09632186
218	0xbe928d5b	-0.2862347
219	0x3d214b75	0.039378602
220	0x3e153d71	0.1457422
221	0xbd723b10	-0.059138358
222	0x3e8478fb	0.2587355
223	0x3da09315	0.07840554
224	0x3c62926d	0.013828856
225	0x3d24d74f	0.040244397
226	0x3da6b8f2	0.08140744
227	0x3c99014b	0.018677374
228	0xbde41d8e	-0.111384496
229	0xbe0d9c5f	-0.13829182
230	0xbdcde154	-0.100527436
231	0xbdfbb8ab	-0.12291082
232	0xbd94463a	-0.07239957
233	0xbe0bcdb6	-0.13652691
234	0x3d395e02	0.04525567
235	0x3d8650d7	0.06558388
236	0x3d94e95a	0.07271071
237	0xbe180eb8	-0.14849365
238	0xbdb7a053	-0.08966126
239	0xbd9c7f8f	-0.07641517
240	0xbd857ac5	-0.06517557
241	0xbdcc5442	-0.099770084
242	0xbd970358	-0.07373685
243	0x3d1a928e	0.03773742
244	0x3dddb347	0.1082521
245	0x3d0c10af	0.0341956
246	0xbe482ee5	-0.19549139
247	0xbda2eabc	-0.07954928
248	0xbde81e98	-0.1133396
249	0xbe97bbb3	-0.2963539
250	0xbd65e11d	-0.056122888
251	0xbde4212d	-0.1113914
252	0xbcea8d60	-0.028631866
253	0x3cb980ae	0.022644367
254	0x3db150f5	0.086580195
255	0xbe4ce04d	-0.20007439

bias f4 [10]
0	0xbe3c2dea	-0.1837689
1	0x3dcd1975	0.10014621
2	0x3d932478	0.0718469
3	0xbd73a395	-0.059482176
4	0xbd87d532	-0.06632461
5	0x3ef8f7f9	0.48626688
6	0xbfaa0784	-1.3283544
7	0x3e2d0630	0.16896892
8	0x3e677273	0.22602253
9	0x3e269472	0.16267565

weight f4 [10, 32, 3, 3]
0	0xbef7150c	-0.48258245
1	0x40075aae	2.1149096
2	0x3da425cc	0.08015022
3	0x3f8837ae	1.0641992
4	0x3ef5b5b6	0.47990197
5	0xc01458f7	-2.31793
6	0x3c7d9478	0.015477292
7	0x3f67e976	0.9059061
8	0xbfbf6faf	-1.4955958
9	0x3dfaa791	0.12238992
10	0x3e77ddba	0.24205676
11	0xbea390b7	-0.31946346
12	0x3f47021a	0.7773758
13	0xbf8ff474	-1.1246476
14	0xbd68c8f9	-0.056832287
15	0x3ea3f9f9	0.32026652
16	0x3c55c2d3	0.013046938
17	0xbfb4a6c6	-1.4113395
18	0xbf4d1244	-0.80105996
19	0xc0401554	-3.0013018
20	0xbff661d6	-1.9248607
21	0x3f7ea107	0.9946446
22	0xbf0c4ce8	-0.5480485
23	0x3f6d3340	0.92656326
24	0x3efc740b	0.49307284
25	0x3f95dc37	1.1707829
26	0x3c47e775	0.01220118
27	0x3e34d87e	0.1766071
28	0xbfdba9eb	-1.716123
29	0x3f0c4e5b	0.5480706
30	0xbfc1cc8a	-1.5140545
31	0xbf21b5bb	-0.63167924
32	0xbfa2b4b3	-1.2711395
33	0x3f6bc629	0.92099243
34	0xbf0b34af	-0.54377264
35	0x3f046680	0.517189
36	0x3f557330	0.8337889
37	0x40226d15	2.5379078
38	0xbe78f183	-0.2431088
39	0x3f86c496	1.0528743
40	0x3e4c4371	0.19947602
41	0xbfe6cbbb	-1.8030924
42	0x3fc5feb9	1.546836
43	0xbf5f58ea	-0.8724505
44	0xbf4b5f93	-0.7944271
45	0x3fb1834c	1.3868194
46	0x3f7d0b22	0.9884511
47	0x3f0450a3	0.5168554
48	0x3f9a8239	1.2070991
49	0xbf3f71a4	-0.74782777
50	0xbf3d3222	-0.7390462
51	0x3eb14a71	0.34627107
52	0xbf5314ac	-0.8245342
53	0xbf8cf83c	-1.1013255
54	0x3edc967a	0.43083555
55	0x4021e1db	2.5294101
56	0x3dcde59c	0.1005356
57	0x3f865500	1.049469
58	0x3f2e5951	0.68105036
59	0xbfd832e1	-1.6890527
60	0x3fbb2463	1.4620479
61	0xbf081be7	-0.53167576
62	0xbf683d47	-0.907185
63	0x3eb37d64	0.35056603
64	0xbdd20cda	-0.102563575
65	0xbe6c2069	-0.23059238
66	0x3e691f38	0.22765815
67	0xbf0b34d5	-0.5437749
68	0xbe4a4ac8	-0.1975509
69	0x401a8cb2	2.4148374
70	0xbfb091db	-1.3794512
71	0xbf5600da	-0.8359505
72	0xbd233efc	-0.03985499
73	0xbffff0a0	-1.9995308
74	0xc0336839	-2.8032362
75	0x3fa59b3f	1.2938002
76	0x3e8a3293	0.2699171
77	0xbd9c0841	-0.07618762
78	0x3f5c572e	0.86070526
79	0x3f60b4b0	0.8777571
80	0x3efc0f62	0.49230486
81	0x3fa915f9	1.320983
82	0x4028be19	2.6366026
83	0x3f11571d	0.5677355
84	0x3f9bd741	1.2175065
85	0x3e4b3e15	0.19847901
86	0xbfe4bf6a	-1.7870915
87	0x3f1613cc	0.5862396
88	0xbf644388	-0.89165545
89	0xbfab7325	-1.3394514
90	0x3fe3e879	1.780532
91	0xbeb82c6d	-0.35971394
92	0xbf5cdbc0	-0.8627281
93	0x3f973af4	1.1814866
94	0xbfffd48b	-1.9986738
95	0xbf0aa1fb	-0.5415341
96	0x3ff2bf9d	1.8964726
97	0xbf280320	-0.6562977
98	0xbf72338a	-0.9460989
99	0xbd988b61	-0.074484594
100	0x4021b66a	2.5267587
101	0xbeb46ff7	-0.35241672
102	0x3f8bd350	1.0923862
103	0xbe5b7422	-0.2143102
104	0xbf97f23d	-1.18708
105	0x3e01cae5	0.12675054
106	0xbd218669	-0.039434824
107	0xbfbf55cf	-1.4948062
108	0xbcb474b3	-0.022028303
109	0xc009433e	-2.1447291
110	0x3f1966e6	0.59922636
111	0xbfc649ac	-1.5491233
112	0xbf08034a	-0.5313002
113	0xbf6e7712	-0.93150437
114	0x3f5fd40b	0.87432927
115	0x3e1b4179	0.15161695
116	0x3f1098d0	0.56483173
117	0xbdc51a2c	-0.096241325
118	0x40007427	2.0070894
119	0xbeee1e60	-0.4650755
120	0x3f882cc3	1.063866
121	0x3ed8c6bd	0.42339125
122	0xbfc488a1	-1.5354196
123	0x3ec33bac	0.38131464
124	0x3f72f6b8	0.9490771
125	0xbfb5b89d	-1.4196965
126	0xc00cc33a	-2.1994157
127	0xc03d7827	-2.9604585
128	0x3fb7e939	1.4368049
129	0xbfbd341c	-1.4781528
130	0x3f62a00b	0.88525456
131	0x4010f681	2.2650454
132	0xbfed6922	-1.8547709
133	0x3f262d61	0.6491299
134	0x3edd6c3b	0.43246636
135	0x3fb52c54	1.4154153
136	0x4032b341	2.7921908
137	0xbf13ad16	-0.57685983
138	0x3fbb8ffc	1.4653316
139	0xbecb0f39	-0.3966005
140	0xbf850196	-1.0391109
141	0x3fee8c2b	1.8636526
142	0xbf50d5fc	-0.81576514
143	0xbf98c4ea	-1.1935093
144	0x3f1d715d	0.61501104
145	0x4009a0f7	2.1504495
146	0xbefd3e2d	-0.494615
147	0x3f85ed25	1.0462996
148	0x3e3e35e3	0.18575244
149	0xbfb1e4f0	-1.3897991
150	0x3fdfb163	1.7476009
151	0xbd3ff96e	-0.046868734
152	0xbf773333	-0.965625
153	0xbf8ec48b	-1.115373
154	0xc024ebd8	-2.5768948
155	0xbf9dfdf5	-1.2343127
156	0x3f3d18a2	0.7386571
157	0xbf958562	-1.168133
158	0x3f45958e	0.7718133
159	0x3f8f8308	1.1211863
160	0x3de6d64b	0.11271342
161	0xbf476be1	-0.77898985
162	0xbf9b9f55	-1.2157999
163	0xbfcf3eaf	-1.6191005
164	0xbf635abd	-0.8881033
165	0x3ec0875b	0.37603268
166	0xbc24d0f0	-0.01005958
167	0xbf8ce08a	-1.1006024
168	0x3fa03261	1.2515374
169	0x4045fc8d	3.0935395
170	0xbf45a825	-0.77209693
171	0xbf500c4a	-0.8126875
172	0xc00b1dce	-2.1736941
173	0xbe2a20e9	-0.16614117
174	0xbfc1a2c6	-1.51278
175	0xbdc21800	-0.09477234
176	0xc0025e32	-2.0369992
177	0x3de25628	0.11051589
178	0x3ecf65f8	0.40507483
179	0xbf97b0ef	-1.1850871
180	0x3e498d6f	0.19682859
181	0xc026380b	-2.5971706
182	0x3f3cf7bf	0.7381553
183	0xbb89a4d0	-0.0042005554
184	0xbfb959dc	-1.4480548
185	0x3edd9b72	0.43282658
186	0x3f69b71d	0.91295034
187	0x3e26fa2a	0.16306368
188	0x3e834f72	0.2564655
189	0x3f41f799	0.7576843
190	0x40356713	2.8344162
191	0xbeaf2aea	-0.34212428
192	0x3f9cb18c	1.2241683
193	0x3f2779f9	0.6542049
194	0xbfedcab9	-1.8577491
195	0x3fed2fd6	1.8530223
196	0xbf155546	-0.5833324
197	0xbf8fe575	-1.12419
198	0x3dd2f3f6	0.10300438
199	0x40179c7b	2.3689258
200	0xbf4eff41	-0.80858237
201	0x3f8eccc6	1.1156242
202	0x3f6123cb	0.8794524
203	0xbff04bac	-1.8773093
204	0x3f26b27d	0.651161
205	0x3dea3d2b	0.11437448
206	0xbfa982d1	-1.3243047
207	0x3ca84fb0	0.02054581
208	0xc00681dd	-2.1016762
209	0x3f0be8e3	0.5465223
210	0xbfd067cb	-1.6281675
211	0xbf12f203	-0.5740053
212	0xbfce42fd	-1.6114193
213	0x3f5a258e	0.85213554
214	0xbef4caa9	-0.47810867
215	0x3f162e99	0.5866485
216	0x3ffbbf09	1.9667674
217	0x40104db6	2.254743
218	0x3d5a24f6	0.053257905
219	0x3fbb2d60	1.4623222
220	0x3e8ad861	0.2711821
221	0xbf2d4358	-0.67680883
222	0x3ec8ee9d	0.39244547
223	0x3de88d34	0.11355057
224	0xbfa99685	-1.324906
225	0xbf83ae23	-1.0287517
226	0xc01062f9	-2.2560408
227	0xbfb1501a	-1.385257
228	0x3f4e081c	0.80481124
229	0xbf9420e5	-1.1572539
230	0x3f273b10	0.653245
231	0x3f68d4b8	0.90949583
232	0x3ec8d804	0.39227307
233	0xbdb81a78	-0.089894235
234	0xbf95a9c3	-1.1692432
235	0xc02e00b0	-2.718792
236	0xbfbb3ec1	-1.4628526
237	0x3f7a49a1	0.977686
238	0xbf899201	-1.0747682
239	0x3f694704	0.91123986
240	0x3f2c4deb	0.67306393
241	0x3da1e5b6	0.07905142
242	0x3e14d0b6	0.14532742
243	0x3fa6f829	1.3044482
244	0xbf5a84e5	-0.8535903
245	0xbf331519	-0.6995407
246	0x3f9844de	1.1896017
247	0xbf3992d4	-0.72489667
248	0xbf37cf13	-0.71800345
249	0x401316c1	2.2982638
250	0x3e8ca88f	0.2747235
251	0xbf9f4d06	-1.2445381
252	0xbf577a4d	-0.8417099
253	0xc03ec357	-2.9806726
254	0xbfdc9eeb	-1.7235998
255	0x3f212bdc	0.6295755

bias f4 [32]
0	0xbf83127e	-1.0240018
1	0xbf9a64de	-1.2062032
2	0x3f51719b	0.81813973
3	0x3e89966c	0.26872575
4	0xbf86dbbc	-1.0535808
5	0xbfbf1c10	-1.4930439
6	0xbf7d9cd2	-0.99067414
7	0xbca414b8	-0.02002941
8	0x3f3c8bd3	0.73650855
9	0xbf958054	-1.1679788
10	0xbf9597e1	-1.1686975
11	0xbfa6a109	-1.3017894
12	0x3f020556	0.5078939
13	0xbf6dc0bf	-0.9287223
14	0x3f834460	1.0255241
15	0xbf978bfb	-1.1839594
16	0xbf6dc7db	-0.9288308
17	0x3f308001	0.6894532
18	0xbf9b9b80	-1.215683
19	0x3e05733a	0.13032237
20	0x3f160bac	0.5861156
21	0xbf94957c	-1.1608119
22	0xbf8da835	-1.1066958
23	0x3e8b4529	0.27201203
24	0xbfadc56b	-1.3575872
25	0x3f1db5d7	0.6160559
26	0x3f49630c	0.7866676
27	0xbf34da58	-0.70645666
28	0xbf36b858	-0.71375036
29	0x3f56396c	0.8368137
30	0xbfaf485d	-1.3693959
31	0xbf5a3755	-0.8524068

weight f4 [32, 32, 3, 3]
0	0xbf93aaf5	-1.1536547
1	0xbef1bc4c	-0.47213972
2	0x3f8d45c8	1.103692
3	0xbef55fac	-0.47924554
4	0xbe6c558b	-0.23079507
5	0xbeb50dd8	-0.35362124
6	0xbeb6d9ec	-0.35713136
7	0xbf9e715e	-1.2378347
8	0x3d7d2e43	0.061811697
9	0x3e2a9a21	0.16660358
10	0xbe1493e7	-0.14509545
11	0x3edcf818	0.4315803
12	0xbef1fc52	-0.47262818
13	0xbe6bc4c4	-0.23024279
14	0x3e7430e7	0.2384678
15	0x3e57c92c	0.21072835
16	0xbf8a7cab	-1.0819296
17	0x3e8c9245	0.27455345
18	0x3e5ca3d3	0.21546869
19	0x3e947e3b	0.29002556
20	0x3e3c6c4a	0.18400684
21	0x3e5b48f5	0.2141455
22	0x3e56fb23	0.20994239
23	0xbb73b33a	-0.0037185685
24	0x3e04cc5b	0.1296858
25	0x3d546fe3	0.051864516
26	0x3e4f6986	0.20255098
27	0xbefed51f	-0.49771973
28	0xbe80d7d9	-0.2516468
29	0xbd0b370c	-0.033988044
30	0xbf2ce2db	-0.67533654
31	0x3f05113b	0.51979417
32	0x3e4e435f	0.20142888
33	0x3ea289d5	0.31745782
34	0x3eb4860f	0.3525853
35	0x3df55456	0.119789764
36	0x3e58dcd5	0.2117799
37	0x3f9008b4	1.1252656
38	0x3e3aefdc	0.18255562
39	0x3e943f3a	0.28954488
40	0x3e85274e	0.2600655
41	0x3e9294fe	0.28629297
42	0x3e00887d	0.12552066
43	0x3ea64e13	0.3248144
44	0x3e14ef94	0.14544517
45	0xbfb4192b	-1.4070181
46	0x3e4deb93	0.20109396
47	0xbf0719cc	-0.5277374
48	0xbf2cfbf7	-0.6757197
49	0x3f535a47	0.8255963
50	0xbf852a02	-1.0403445
51	0xbe7b7f6a	-0.24560323
52	0xbd76ec55	-0.060283978
53	0x3ec39b60	0.3820448
54	0xbe72686e	-0.2367265
55	0xbea0a65a	-0.31376916
56	0xbe79690b	-0.24356477
57	0xbbe8bd8b	-0.0071026734
58	0x3e77d22d	0.2420127
59	0x3eb5112c	0.35364664
60	0xbe12eea1	-0.14348842
61	0xbf61d17e	-0.88210285
62	0xbf2b3edd	-0.66892797
63	0xbf98d1ed	-1.1939064
64	0x3ec9226b	0.3928407
65	0xbf13fd87	-0.5780873
66	0x3de94196	0.11389463
67	0x3facab93	1.348986
68	0x3f0b8238	0.54495573
69	0xbf1a7b5a	-0.6034447
70	0x3f2c990d	0.67421037
71	0x3f6bd513	0.92122
72	0x3df1652f	0.11786877
73	0x3e944776	0.2896077
74	0x3e667516	0.22505602
75	0x3dfa8469	0.122322865
76	0xbf0ad171	-0.5422583
77	0xbf50af26	-0.81517255
78	0x3e431ff3	0.19055156
79	0x3e205f55	0.15661366
80	0x3e410360	0.18848944
81	0x3e4bba4e	0.19895288
82	0x3eb4de10	0.3532567
83	0x3ef2b98e	0.47407192
84	0x3e21e0b0	0.15808368
85	0x3faf73bb	1.3707193
86	0xbf031b0f	-0.51213163
87	0x3e85e3ac	0.26150262
88	0x3dd53b34	0.10411683
89	0x3ed29473	0.41128883
90	0xbebe63d2	-0.37185532
91	0x3f186e06	0.5954288
92	0xbcb4e07e	-0.022079702
93	0x3e0f9433	0.14021377
94	0x3ea996d2	0.3312288
95	0x3dc01ab3	0.093800925
96	0xbe8e23bc	-0.27761638
97	0x3dcd867d	0.10035417
98	0xbe01fc14	-0.12693816
99	0x3e4a9d81	0.19786645
100	0x3f0cb539	0.54964024
101	0x3e41e556	0.18935141
102	0xbe319e01	-0.1734543
103	0xbdbbd058	-0.09170598
104	0x3f7c02fe	0.98442066
105	0x3e0539a1	0.13010265
106	0x3e18f668	0.14937747
107	0x3e7c8cf4	0.24663144
108	0xbeaf3083	-0.342167
109	0xbeacb58a	-0.33732253
110	0x3eec1ee9	0.46117333
111	0xbe91110d	-0.2833332
112	0xbfab3d98	-1.3378172
113	0xbfcf0648	-1.6173792
114	0xbe8abc6e	-0.27096885
115	0xbf508f8c	-0.81469035
116	0x3f0dc690	0.5538111
117	0xbf000e75	-0.5002206
118	0x3ea64df9	0.32481363
119	0xbe5c1f30	-0.21496272
120	0x3f2dd516	0.6790327
121	0x3f9b1a92	1.2117484
122	0x3d2961f3	0.041353177
123	0xbeebcad4	-0.46053183
124	0x3cc9a18f	0.02461317
125	0xbe71287b	-0.23550598
126	0x3f1c633b	0.61088914
127	0xbfe5ddd6	-1.7958324
128	0xbf06ceea	-0.52659476
129	0xbe9dd45e	-0.30826086
130	0xbfe2e9a1	-1.7727548
131	0xbfdf775d	-1.7458302
132	0xbdc019b1	-0.093799
133	0xbf72dfde	-0.94872844
134	0xbd5723f4	-0.052524522
135	0x3e640d2f	0.22270654
136	0xbec7c83b	-0.3901995
137	0x3e795226	0.24347743
138	0xbec0acd1	-0.37631848
139	0x3ebacdfd	0.36485282
140	0x3e5b50b1	0.214175
141	0x3df921b8	0.121646345
142	0xbf55609a	-0.8335053
143	0x3e0f3b61	0.13987495
144	0x3e826097	0.25464317
145	0x3ec95c8a	0.39328414
146	0xbbd36616	-0.0064513786
147	0xbf060f64	-0.52367234
148	0x3f5dc8f5	0.8663476
149	0x3d3082a0	0.043093324
150	0x3eeb342d	0.45938244
151	0x3e099207	0.13434611
152	0xbe7f9f3a	-0.24963084
153	0xbed5079f	-0.41607377
154	0xbff05040	-1.877449
155	0x3f1fa0fb	0.6235501
156	0xbf3bb74f	-0.7332658
157	0xbfa9b27f	-1.3257598
158	0xbf8fd3e6	-1.1236541
159	0xbf4395fa	-0.7640072
160	0xbf99fb1c	-1.2029757
161	0x3f7c4cc9	0.98554665
162	0x3e342e78	0.17595851
163	0x3dbccb21	0.09218431
164	0x3e6bd630	0.23030925
165	0xbe79b574	-0.24385625
166	0x3ebeccb8	0.37265563
167	0xbe539817	-0.20663486
168	0x3e12fe60	0.14354849
169	0x3e317673	0.17330341
170	0x3e68ab31	0.22721554
171	0x3e227934	0.15866548
172	0xbe1da91f	-0.15396546
173	0x3e944bd0	0.2896409
174	0x3ed13d8a	0.40867263
175	0x3f20989b	0.6273286
176	0xbdd71ea0	-0.10503888
177	0x3e2c2981	0.16812707
178	0xbef3cc4c	-0.47616804
179	0x3e28a3c6	0.16468725
180	0x3dfff2f3	0.12497511
181	0x3ed71762	0.42010027
182	0x3e5ca214	0.21546203
183	0x3d8106db	0.06300136
184	0xbee8bc1b	-0.45456013
185	0x3ed3fbb2	0.41402966
186	0x3e6a7911	0.22897746
187	0x3e88da00	0.2672882
188	0x3e6242c4	0.22095782
189	0x3e28bc3e	0.16478059
190	0xbf2652c1	-0.6497002
191	0x3e6aff31	0.2294891
192	0x3e1731eb	0.14765136
193	0x3f057978	0.5213847
194	0xbf110be2	-0.56658757
195	0x3e02dc6e	0.127794
196	0xbf63d704	-0.8899996
197	0x3de96208	0.11395651
198	0x3e35d763	0.17757945
199	0x3ebef221	0.37294105
200	0x3e04a82d	0.12954779
201	0x3e72a63d	0.23696227
202	0x3f20c0ca	0.6279417
203	0xbe259a90	-0.16172242
204	0x3dd3d3c3	0.10343125
205	0x3e48fb22	0.1962705
206	0x3dd16465	0.10224227
207	0x3ef23eed	0.47313634
208	0xbdabb90a	-0.08384903
209	0xbf0e7175	-0.5564187
210	0xbdcaca29	-0.0990184
211	0x3ef864f6	0.48514527
212	0xbe8467c9	-0.25860432
213	0xbd060ea9	-0.032728825
214	0xbf52fde8	-0.8241868
215	0xbe75f078	-0.24017513
216	0xbe9fa7ee	-0.31182808
217	0xbd9ffcac	-0.07811865
218	0xbb4af7b3	-0.0030970394
219	0x3f1bce2c	0.6086147
220	0x3f2e541f	0.6809711
221	0x3e9c51c3	0.3053113
222	0xbe90c0eb	-0.28272185
223	0xbfa39a70	-1.2781506
224	0xbea0c2f2	-0.3139873
225	0x3e4d527c	0.20050997
226	0x3e55d64f	0.20882533
227	0x3e217bc2	0.15769866
228	0xbf0776cb	-0.5291564
229	0xbe3c2b66	-0.1837593
230	0xbf9f507d	-1.2446438
231	0x3df997ec	0.1218718
232	0xbe196d17	-0.1498302
233	0x3e242e7a	0.16033354
234	0x3e0d0903	0.13772969
235	0x3db0c680	0.08631611
236	0x3e5f8295	0.21827157
237	0x3e07ae9d	0.13250203
238	0x3f449262	0.7678586
239	0xbf3e55ad	-0.7434948
240	0x3e05a221	0.13050129
241	0xbf6b73d2	-0.919736
242	0x3e140782	0.14455989
243	0x3e62f670	0.22164321
244	0x3f1f7516	0.62288034
245	0x3e79f218	0.24408758
246	0x3dabdd0b	0.0839177
247	0x3e8f79d5	0.28022638
248	0x3e941072	0.28918797
249	0x3e420310	0.18946481
250	0xbe47203b	-0.19445889
251	0x3e40f1cb	0.18842237
252	0xbf80a994	-1.0051751
253	0x3d496b98	0.049174875
254	0xbcc424cb	-0.023943326
255	0x3da7fe93	0.08202853

bias f4 [32]
0	0x3dbc302c	0.091888756
1	0xbd7f528d	-0.062334586
2	0xbd9dc557	-0.07703655
3	0x3ebb4213	0.36573848
4	0xbdff737e	-0.124732
5	0x3e9cdd69	0.30637673
6	0x3da97db2	0.082759276
7	0x3d4f003f	0.050537344
8	0xbe2c74c5	-0.16841419
9	0x3ec3119b	0.3809937
10	0xbc3fd158	-0.011707626
11	0x3d92d5d5	0.071696915
12	0x3eaabee6	0.3334877
13	0x3e8150c3	0.2525693
14	0x3cd9e62a	0.026599009
15	0xbe4722bc	-0.19446844
16	0x3ec08b3b	0.37606224
17	0x3df88b4b	0.12135943
18	0xbe39bca0	-0.18138361
19	0x3e6de6b0	0.23232532
20	0xbe02d47d	-0.1277637
21	0xbca30a60	-0.019902408
22	0xbdaff13e	-0.08590935
23	0x3e41d825	0.18930109
24	0x3e1808e3	0.1484714
25	0xbe226933	-0.15860443
26	0x3e2ae409	0.16688551
27	0x3daa2e25	0.083095826
28	0xbe23bdeb	-0.15990417
29	0xbe9e73f6	-0.30947846
30	0xbd2cb6fc	-0.042166695
31	0xbe0acd51	-0.13554884
