models/proto.pth (torch_old, 210378 bytes, 18 tensors)

weight f4 [32, 1, 3, 3]
0.044891015 -0.17253524 0.13743928 0.118754566 -0.15390795 -0.021383435 -0.19063212 0.10596976
-0.064475544 0.2111275 0.21833551 0.021220312 -0.16885254 -0.21681103 -0.050875336 -0.12397113
0.12377189 -0.29861715 0.30451632 -0.26389268 0.25793117 -0.064917065 0.1725984 0.13734877
0.013568307 0.06992988 0.26602587 0.11686223 0.21099234 -0.22243015 0.2660264 0.1503514
0.1209558 0.06191118 0.19560084 0.34394878 -0.05081091 -0.1581895 -0.052979704 -0.17927879
0.18892746 -0.13236032 -0.1533188 0.31717458 0.33855975 0.0681483 -0.020932721 -0.0033003052
0.1847101 -0.2770426 -0.23561096 0.29169917 0.36169907 0.015843274 -0.25421932 0.040899187
-0.1158646 0.000796001 0.19119066 0.18422581 -0.05100432 0.05111003 0.117776446 -0.25066236
-0.090947784 0.043357763 -0.17572942 -0.120503046 0.14474227 0.20877263 0.032242823 -0.09430299
0.20602162 -0.15060261 -0.042217616 0.3372182 0.0950472 0.061375823 0.13447642 -0.047434304
0.3231351 -0.25750285 -0.06998736 -0.031706207 -0.12411975 -0.06202767 0.23174205 0.19512212
0.037574917 0.31433547 -0.21989329 -0.17532887 0.1820869 -0.0070612333 -0.28314868 -0.20076993
-0.19414555 0.27721575 0.18000154 0.27771288 -0.22145396 -0.29715136 -0.19943362 0.061639786
-0.038357966 -0.19253269 0.267329 -0.08044965 -0.21417657 0.15781075 -0.06814279 0.18936388
0.083967 0.030458303 0.056024347 -0.23649794 -0.14953469 -0.14371863 -0.16852102 0.08115142
0.076748215 -0.117706545 0.24234277 -0.17488481 0.09069253 -0.06554862 -0.28303102 -0.18558812
0.17523511 0.12358554 -0.18152522 -0.06752439 -0.32293913 0.19899383 0.32022804 0.13911374
-0.16980858 0.21455508 0.30404595 -0.034438565 -0.01780142 0.13947988 0.074336536 -0.07466089
-0.3129966 -0.21818106 0.049361024 -0.029731087 0.284041 0.036130175 -0.10383598 -0.32751462
-0.29392108 0.15921512 0.33158988 0.036043063 -0.29157412 0.14163892 0.304558 -0.2282898
-0.07897037 0.049250647 -0.17985195 -0.2697399 0.18881395 -0.26091778 -0.04543622 -0.13577408
0.26727432 0.10155451 0.1937798 -0.23547435 0.27933374 0.040494926 -0.19404034 -0.021753637
-0.22299747 -0.023212759 0.18881728 -0.13428749 0.30415595 0.13031504 -0.025873043 0.12301063
-0.035228774 -0.04675486 -0.20375426 0.21793969 0.22927502 0.091180325 0.18456763 0.3329994
0.28941858 -0.336127 0.074861765 -0.053974282 0.097730316 -0.06528641 0.08618596 -0.30179313
0.16099785 0.32682404 -0.044174656 -0.24617875 -0.26627976 -0.043672662 0.022911526 0.07154913
0.081086695 0.29216957 -0.028608548 0.13359356 -0.1367256 0.35787517 0.16477248 -0.006924063
0.22353476 0.1341022 0.08648076 -0.102217205 0.052770853 0.05183708 -0.20839815 0.006455722
0.09727416 -0.21893859 0.07035221 -0.08245148 -0.29572862 -0.18206507 -0.23882525 0.08140416
0.22430561 0.32730037 0.35290286 0.16497423 0.19944565 -0.04043385 0.30275935 -0.09585014
-0.07907183 -0.08973908 -0.19705695 -0.25468224 -0.04283321 0.30190855 -0.16335376 -0.27880117
-0.04469405 0.30939913 0.103638016 0.009053527 -0.074382365 0.31857336 -0.29046088 0.20307462
00000000: a4df 373d 14ad 30be e2bc 0c3e 9835 f33d
00000010: 0c9a 1dbe 502c afbc 1135 43be ac06 d93d
00000020: c10b 84bd cf31 583e 5893 5f3e 38d6 ad3c
00000030: aee7 2cbe b603 5ebe a862 50bd 93e4 fdbd
00000040: 1e7c fd3d 59e4 98be 90e9 9b3e f11c 87be
00000050: 8e0f 843e 3df3 84bd a3bd 303e 28a5 0c3e
00000060: 9b4d 5e3c 6637 8f3d 8b34 883e 7755 ef3d
00000070: 600e 583e bbc4 63be 9d34 883e b8f5 193e
00000080: adb7 f73d 9496 7d3d 964b 483e 0e1a b03e
00000090: 1a1f 50bd 6efc 21be 3f01 59bd dc94 37be
000000a0: 3376 413e 7789 07be 9aff 1cbe b564 a23e
000000b0: b457 ad3e 5691 8b3d 197b abbc ef49 58bb
000000c0: a524 3d3e 87d8 8dbe 0044 71be 9859 953e
000000d0: 9f30 b93e c1c9 813c 0929 82be e885 273d
000000e0: 6b4a edbd b9aa 503a 7cc7 433e b1a5 3c3e
000000f0: e8e9 50bd c058 513d c734 f13d d156 80be
00000100: d542 babd e997 313d 6af2 33be 4dca f6bd
00000110: 5137 143e 7ec8 553e 0d11 043d ed21 c1bd
00000120: 55f7 523e 9237 1abe 61ec 2cbd dda7 ac3e
00000130: 1ba8 c23d 3765 7b3d 30b4 093e 794a 42bd
00000140: f771 a53e 6ad7 83be 8855 8fbd 5ede 01bd
00000150: 7f32 febd ba10 7ebd ca4d 6d3e 18ce 473e
00000160: 28e8 193d 94f0 a03e b52b 61be 6989 33be
00000170: fd74 3a3e eb61 e7bb ddf8 90be a296 4dbe
00000180: 17ce 46be 39ef 8d3e 5352 383e 6230 8e3e
00000190: d4c4 62be 3924 98be 5438 4cbe 007a 7c3d
000001a0: 3e1d 1dbd 4a27 45be 59df 883e c9c2 a4bd
000001b0: 1a51 5bbe 2499 213e 728e 8bbd 9be8 413e
000001c0: e4f6 ab3d b183 f93c c979 653d 842c 72be
000001d0: 9f1f 19be fa2a 13be c690 2cbe b732 a63d
000001e0: 2b2e 9d3d 2110 f1bd b428 783e 0115 33be
000001f0: 01bd b93d 5b3e 86bd 71e9 90be d00a 3ebe
00000200: d570 333e 6a1a fd3d bfe1 39be 3a4a 8abd
00000210: 4758 a5be 0ac5 4b3e eef4 a33e d573 0e3e
00000220: 4de2 2dbe 54b4 5b3e e9ab 9b3e 740f 0dbd
00000230: 49d4 91bc d0d3 0e3e c13d 983d cfe7 98bd
00000240: 1741 a0be db6a 5fbe c92e 4a3d 9c8e f3bc
00000250: d26d 913e 3cfd 133d f5a7 d4bd ffaf a7be
00000260: d37c 96be 4a09 233e 26c6 a93e e4a1 133d
00000270: 3449 95be cb09 113e 07ef 9b3e cdc4 69be
00000280: 38bb a1bd 0cbb 493d 1c2b 38be 591b 8abe
00000290: 7258 413e 0497 85be 541b 3abd 5c08 0bbe
000002a0: 2ed8 883e d0fb cf3d 366e 463e 3020 71be
000002b0: d504 8f3e 02de 253d 83b2 46be af34 b2bc
000002c0: 7359 64be af28 bebc 5159 413e a982 09be
000002d0: 54ba 9b3e 4e71 053e b4f3 d3bc ffec fb3d
000002e0: 0c4c 10bd 0682 3fbd f5a4 50be 952b 5f3e
000002f0: 12c7 6a3e c0bc ba3d 4cff 3c3e e67e aa3e
00000300: ac2e 943e d718 acbe 2051 993d 2314 5dbd
00000310: d526 c83d e2b4 85bd 4482 b03d a184 9abe
00000320: 9fdc 243e 7b55 a73e 7cf0 34bd 4816 7cbe
00000330: d255 88be 1be2 32bd f4b0 bb3c 5a88 923d
00000340: c810 a63d 4097 953e 795c eabc c0cc 083e
00000350: cc01 0cbe 6a3b b73e 1eba 283e 40e3 e2bb
00000360: 4ce6 643e 1652 093e d31c b13d 4157 d1bd
00000370: 4026 583d 1e53 543d 5366 55be 858a d33b
00000380: ad37 c73d 7031 60be d214 903d 52dc a8bd
00000390: be69 97be 446f 3abe 9b8e 74be 39b7 a63d
000003a0: 5fb0 653e ea93 a73e afaf b43e 01ef 283e
000003b0: 7b3b 4c3e f79d 25bd 4603 9b3e 144d c4bd
000003c0: 69f0 a1bd 1fc9 b7bd 4cc9 49be b665 82be
000003d0: e071 2fbd c293 9a3e 3546 27be 07bf 8ebe
000003e0: 1c11 37bd 9069 9e3e 2b40 d43d 3f55 143c
000003f0: c855 98bd 0c1c a33e 4ab7 94be cbf2 4f3e

bias f4 [32]
0.23546645 -0.113662094 -0.0025183333 -0.060413413 -0.23371542 0.0077892644 0.084782384 0.2995497
-0.11413112 0.34911385 -0.122357346 0.23946048 0.3114609 0.06906408 -0.08219924 0.2747474
-0.07222002 -0.12623702 -0.08485329 -0.24225274 -0.005243398 -0.23196463 0.2399657 -0.2852182
-0.21542963 0.08894186 0.23744662 0.35516682 -0.24140345 0.27393606 0.24808046 -0.19046119
00000000: 1e1e 713e acc7 e8bd 9f0a 25bb 0e74 77bd
00000010: 1853 6fbe 163d ff3b 63a2 ad3d 945e 993e
00000020: 94bd e9bd 0dbf b23e 7d96 fabd 2135 753e
00000030: ce77 9f3e 7871 8d3d 1358 a8bd b1ab 8c3e
00000040: 17e8 93bd 4744 01be 90c7 adbd 1a11 78be
00000050: cfd0 abbb 2388 6dbe 92b9 753e 1f08 92be
00000060: 9699 5cbe 2627 b63d 3525 733e 6dd8 b53e
00000070: 7732 77be 5941 8c3e ce08 7e3e 4208 43be

weight f4 [32, 32, 3, 3]
0.04402158 -0.012170362 0.020736769 -0.02881669 -0.014182781 -0.017836457 0.012052937 0.018060006
0.01894485 -0.014542036 0.033566643 0.03376665 -0.028152904 -0.035025544 0.0067430018 0.04009311
-0.024215639 0.014827827 0.023014244 -0.03838681 0.063041225 0.06500804 0.06453124 -0.003912484
-0.020541077 0.025225146 0.053319205 0.04857056 -0.03200762 0.05470126 -0.0061355736 0.008822248
0.0036728997 0.04869223 -0.037874546 -0.01944583 0.011360934 0.045994688 -0.008701761 0.059723288
0.07343565 0.021687552 -0.01694817 0.018974436 0.042215277 0.0071612764 -0.053186435 0.040244594
-0.0033444918 -0.02243524 0.049236253 0.036285672 0.061317824 0.0065986305 0.055165973 -0.008889352
-0.031137612 0.07719304 0.077726364 0.06180651 0.00628207 -0.0066908114 0.029793149 0.04831396
0.011822418 0.028499639 0.020308727 0.05306973 0.047193732 0.057172928 0.015533394 -0.028677119
-0.017016444 -0.023773951 0.057194497 0.019143656 0.011199435 -0.0029045758 0.018665494 0.057306282
0.018462492 0.045967385 0.039230578 -0.05163301 0.043236066 0.07842 -0.010298944 0.0321872
0.019906715 0.05020949 0.03277867 -0.039672293 -0.04063605 0.0736828 -0.00575351 -0.03265813
-0.02887644 -0.031041637 0.03371812 0.02615218 -0.030479511 -0.0104540475 0.032680586 0.040771067
0.04306672 -0.008031643 0.075550385 0.0749476 -0.022283874 0.058581695 -0.044368986 -0.01575904
0.03122888 0.036844403 0.07564199 0.02030539 0.05946294 -0.00074487226 -0.038311448 -0.0018343435
0.053962648 -0.0030854058 -0.030268796 -0.0122408345 0.030544536 0.07637657 0.021787604 -0.042290974
-0.021938164 0.053148944 0.0013084855 0.011638381 0.06742914 0.041403465 0.05624079 0.072747216
-0.014549794 0.014221293 -0.021637145 0.07791494 -0.019659176 0.07821866 0.072887465 0.03206933
-0.032299522 0.0009948928 -0.023274394 0.042080183 0.053479146 0.051910073 0.043831613 -0.023470184
-0.028948402 0.03699348 -0.006777815 0.03387624 0.080385655 0.03788277 -0.015066777 0.0058094054
0.056233533 0.026195524 0.058564294 -0.05182814 -0.003175029 -0.005848315 0.06420915 0.044830043
0.015490553 -0.035310082 0.012533428 0.06681219 0.002567256 0.0009815076 -0.03126898 0.066262536
0.06791195 -0.023557754 -0.021329341 0.022801919 -0.013616397 -0.042363334 0.025331948 0.0073263613
0.039771743 0.043543432 0.07436846 0.05368353 -0.03592083 -0.02704605 0.053384487 -0.0428458
0.058610056 -0.01629118 0.067509234 0.055354167 -0.021603232 -0.029272275 -0.006038107 -0.023014693
-0.030266214 0.065001965 0.03398195 0.01200852 0.019629952 0.04482612 0.026115593 0.012356933
0.058107153 0.048294753 0.025974855 0.059937328 0.0074187755 -0.02345121 0.052005578 0.051440258
0.029553825 -0.044451788 0.048616923 0.027290242 -0.011210548 -0.03175661 -0.0078511825 0.074513346
0.049487457 -0.0073546534 0.053486153 0.05454591 0.052260343 0.014000157 0.074105844 0.010102627
-0.0052219024 0.047524534 -0.004258493 0.048093654 -0.02561574 0.044643417 -0.023658345 -0.019016623
0.025556656 0.06638237 -0.024953714 0.0032002113 0.03228849 -0.005887021 -0.03001299 0.018881613
-0.0013080736 0.03724764 0.04387406 0.0019667116 -0.01049801 0.039234553 -0.046031386 0.051925935
00000000: f94f 343d 3366 47bc 28e0 a93c fb10 ecbc
00000010: e55e 68bc c31d 92bc af79 453c 94f2 933c
00000020: 3b32 9b3c b841 6ebc 2d7d 093d e64e 0a3d
00000030: eba0 e6bc f276 0fbd 66f4 dc3b ac38 243d
00000040: e05f c6bc 6af0 723c 5e88 bc3c 7d3b 1dbd
00000050: c21b 813d ef22 853d f428 843d 4b34 80bb
00000060: c345 a8bc f7a4 ce3c 3d65 5a3d ecf1 463d
00000070: 6c1a 03bd 6e0e 603d ec0c c9bb 318b 103c
00000080: 08b5 703b 8171 473d 5722 1bbd dc4c 9fbc
00000090: 3623 3a3c ed64 3c3d d591 0ebc 68a0 743d
000000a0: 6e65 963d 18aa b13c e3d6 8abc 4770 9b3c
000000b0: ede9 2c3d 24a9 ea3b 05da 59bd 84d7 243d
000000c0: 432f 5bbb 1cca b7bc f4ab 493d 49a0 143d
000000d0: 6628 7b3d 5339 d83b b7f5 613d a5a4 11bc
000000e0: 4e14 ffbc 6217 9e3d 002f 9f3d d328 7d3d
000000f0: d3d9 cd3b 983e dbbb c310 f43c dce4 453d
00000100: d1b2 413c 1378 e93c 7d5e a63c a55f 593d
00000110: 374e 413d 292e 6a3d c77f 7e3c 47ec eabc
00000120: 1266 8bbc 97c1 c2bc c744 6a3d 28d3 9c3c
00000130: d67d 373c b25a 3ebb 61e8 983c feb9 6a3d
00000140: a73e 973c 4c48 3c3d 3eb0 203d 237d 53bd
00000150: 4d18 313d aa9a a03d e7bc 28bc bad6 033d
00000160: 6813 a33c 77a8 4d3d ed42 063d 6a7f 22bd
00000170: fd71 26bd 02e7 963d f187 bcbb 88c4 05bd
00000180: 498e ecbc 084b febc 031c 0a3d 193d d63c
00000190: 2bb0 f9bc 7447 2bbc 14dc 053d 90ff 263d
000001a0: bb66 303d 2797 03bc 29ba 9a3d 217e 993d
000001b0: ac8c b6bc 5cf3 6f3d 41bc 35bd 1a19 81bc
000001c0: b5d3 ff3c 28ea 163d 30ea 9a3d 7d57 a63c
000001d0: 698f 733d 8843 43ba 77ec 1cbd 5b6e f0ba
000001e0: f007 5d3d 8534 4abb 44f6 f7bc c88d 48bc
000001f0: 8938 fa3c 526b 9c3d eb7b b23c 4d39 2dbd
00000200: aab7 b3bc b5b2 593d 7d81 ab3a e8ae 3e3c
00000210: 4a18 8a3d ae96 293d be5c 663d 7efc 943d
00000220: 4262 6ebc 6d00 693c 6240 b1bc de91 9f3d
00000230: 480c a1bc 1b31 a03d 0646 953d 215b 033d
00000240: 814c 04bd 1067 823a f1a9 bebc 455c 2c3d
00000250: f30c 5b3d a89f 543d c788 333d 8b44 c0bc
00000260: 3325 edbc 7a86 173d 6f18 debb d0c1 0a3d
00000270: 3ca1 a43d f72a 1b3d a5da 76bc d35c be3b
00000280: 2255 663d ff97 d63c 1de1 6f3d be49 54bd
00000290: 2614 50bb 39a3 bfbb 1680 833d b59f 373d
000002a0: 17cc 7d3c 4ea1 10bd 0259 4d3c d4d4 883d
000002b0: 693f 283b eea5 803a e713 00bd a7b4 873d
000002c0: 6c15 8b3d 31fc c0bc dfba aebc 17cb ba3c
000002d0: 4f17 5fbc 2d85 2dbd f284 cf3c f911 f03b
000002e0: b2e7 223d 995a 323d 7e4e 983d 43e3 5b3d
000002f0: b821 13bd ae8f ddbc b1a9 5a3d 147f 2fbd
00000300: 1911 703d 1575 85bc 4842 8a3d 0dbb 623d
00000310: 43f9 b0bc 69cc efbc 50db c5bb 4f89 bcbc
00000320: daf0 f7bc c01f 853d a830 0b3d 62bf 443c
00000330: fece a03c 989b 373d 5ef0 d53c bc74 4a3c
00000340: c401 6e3d b8d0 453d 38c9 d43c d880 753d
00000350: 3319 f33b c11c c0bc cd03 553d 05b3 523d
00000360: dd1a f23c 1413 36bd 8a22 473d c98f df3c
00000370: 72ac 37bc 3813 02bd 3fa2 00bc 749a 983d
00000380: 5cb3 4a3d 4eff f0bb 4c14 5b3d 886b 5f3d
00000390: f10e 563d ea60 653c cec4 973d 7d85 253c
000003a0: 7e1c abbb 16a9 423d d48a 8bbb dafd 443d
000003b0: 1ad8 d1bc 04dc 363d 25cf c1bc c0c8 9bbc
000003c0: 315c d13c 7bf3 873d bb6b ccbc a3ba 513b
000003d0: f040 043d e9e7 c0bb cddd f5bc 9dad 9a3c
000003e0: ab73 abba fb90 183d 49b5 333d f2e3 003b
000003f0: d8ff 2bbc 69b4 203d 688b 3cbd 4ab0 543d

bias f4 [32]
-0.036033615 0.059130017 0.0119104115 -0.032659277 0.015019621 0.05814618 -0.004027375 -0.020916969
0.04478703 0.044184238 0.04194173 0.010506272 -0.029385563 -0.015330976 0.04858234 0.032955185
-0.03125925 0.06927339 0.003988543 0.015207049 0.028390298 -0.033381924 0.043825515 -0.005217446
-0.02903068 0.016583648 -0.027044335 0.03861072 -0.016515354 -0.008929106 0.038369853 0.023401508
00000000: fc97 13bd 5132 723d e323 433c bcc5 05bd
00000010: db14 763c b02a 6e3d 12f8 83bb 105a abbc
00000020: 9b72 373d 88fa 343d 17cb 2b3d 8022 2c3c
00000030: feb9 f0bc c62e 7bbc 47fe 463d 04fc 063d
00000040: b309 00bd 35df 8d3d 53b2 823b fd26 793c
00000050: c592 e83c 7cbb 08bd 6282 333d 1cf7 aabb
00000060: c0d1 edbc 6eda 873c 158c ddbc 4626 1e3d
00000070: 354b 87bc 634b 12bc b529 1d3d 85b4 bf3c

weight f4 [32, 32, 3, 3]
-0.0040130573 -0.045262653 -0.02818827 0.025460308 -0.004895043 0.047066968 -0.01845204 0.0021563112
0.029017081 -0.033572286 -0.026843067 -0.00036331898 -0.013337992 0.05799504 -0.04556548 -0.03423109
0.060752675 -0.018312808 -0.045571245 0.02117513 0.06281026 -0.024436396 0.03541335 -0.001996719
-0.013600452 0.013534432 -0.0057447203 -0.023993634 -0.047598828 0.009147856 0.06466935 -0.0030809483
-0.011662716 -0.04581252 0.015896972 0.05184701 -0.024241617 0.04560618 -0.030328024 -0.0043114703
0.041091386 0.030590132 0.056964725 -0.034926116 0.06084451 0.035886694 -0.035439763 0.0033769293
0.06622935 0.050418675 -0.0123578925 0.0057757725 -0.012893471 0.05961082 -0.01823527 0.03728756
-0.025507556 -0.021572797 -0.0375364 0.04989875 -0.022159629 0.027338404 0.02527673 -0.06289557
0.016384527 0.061663438 0.054399047 -0.048773743 0.06308211 -0.013568829 0.032999303 -0.03753949
-0.02990867 0.041542225 0.068473935 0.06658184 -0.047228325 -0.042736184 0.02807511 0.059766673
0.030994073 -0.058566246 0.05607 0.06232973 0.029579323 -0.0504511 -0.03432658 -0.006012749
0.048274513 0.06865296 -0.04799481 -0.026891837 0.049109302 0.044715334 0.029039368 0.030016499
0.050544854 0.03848164 0.017270554 -0.051288042 0.045003712 -0.018025586 0.008854948 -0.0032474878
-0.015007874 -0.0041563064 0.04941559 0.011660656 -0.07374575 -0.01084282 0.013648031 0.006953934
-0.018810248 -0.041406747 0.0014218127 0.023874171 0.044687696 -0.017124854 0.0393769 0.074420355
-0.01271253 0.045654718 -0.042753406 -0.024157047 0.012763731 0.059419107 -0.028948423 -0.041949857
0.03864146 -0.022159722 -5.8869005e-05 0.0053323773 -0.031117877 -0.044884138 -0.017210135 -0.01927251
-0.023379179 0.0682331 -0.017189868 0.007093753 -0.047446948 -0.009108837 0.040524036 0.037880786
-0.046660103 0.027399335 0.036502417 0.01893408 0.018191587 0.02703817 -0.028837016 0.04606805
-0.029536527 0.0013649616 0.04729259 -0.01024252 0.028873473 -0.0103300745 0.033993095 -0.02251256
0.01893475 -0.035241924 0.024466898 0.013507201 0.0695937 0.015569655 0.0017959485 0.052973606
0.04540003 -0.025719404 -0.032311834 -0.01962266 0.017799007 -0.034505405 0.06359943 0.006708511
0.02962276 0.04619736 -0.011539676 -0.035547644 0.034682073 -0.011568685 -0.018098427 0.05503353
0.013247815 -0.012406134 -0.01909046 -0.012134066 0.034726407 -0.0404481 -0.013921637 0.06753129
-0.019048525 0.022454204 -0.0058284854 0.055994958 0.058380716 0.0111177815 0.037924763 0.007629715
-0.032879367 -0.036505777 0.058533523 0.03568923 0.0011520904 -0.023185806 -0.037409715 -0.051958963
-0.039447214 0.0751824 0.05938173 0.0487575 0.010096866 -0.006889046 -0.023056453 0.07700775
-0.040703136 -0.02148829 -0.009265533 0.054883223 -0.02920653 0.04132692 -0.019497298 -0.04622838
0.036873676 -0.03264026 -0.037000474 -0.030835286 -0.013535457 -0.029276736 0.05200883 0.06590544
-0.03906251 -0.008583366 -0.00040013512 0.064529724 0.0011885281 -0.03519002 0.00058614224 -0.046383295
-0.024853054 0.022927022 -0.0116069205 -0.01686917 -0.007977585 -0.009227024 0.013444589 -0.041915532
-0.0098345475 0.027844585 0.03938532 0.030008493 -0.05672329 0.03765539 -0.0064342697 -0.01321536
00000000: f77f 83bb 5565 39bd 16eb e6bc 2392 d03c
00000010: 9966 a0bb 4bc9 403d bc28 97bc e650 0d3b
00000020: 3bb5 ed3c 1883 09bd fee5 dbbc d97b beb9
00000030: 9887 5abc 358c 6d3d dea2 3abd e635 0cbd
00000040: ccd7 783d be04 96bc eaa8 3abd 7777 ad3c
00000050: aaa2 803d d62e c8bc 970d 113d 63db 02bb
00000060: 6ed4 5ebc 86bf 5d3c 353e bcbb 4c8e c4bc
00000070: fdf6 42bd e4e0 153c 5d71 843d bce9 49bb
00000080: fa14 3fbc e9a5 3bbd 5e3a 823c 885d 543d
00000090: 5b96 c6bc 8ccd 3a3d 7a72 f8bc 3c47 8dbb
000000a0: 714f 283d 2898 fa3c d853 693d b00e 0fbd
000000b0: 1838 793d edfd 123d 4929 11bd 794f 5d3b
000000c0: 41a3 873d d083 4e3d c278 4abc b142 bd3b
000000d0: 233f 53bc 7a2a 743d 2262 95bc d7ba 183d
000000e0: 39f5 d0bc 6fb9 b0bc c5bf 19bd a262 4c3d
000000f0: 1c88 b5bc caf4 df3c 2511 cf3c 65cf 80bd
00000100: d838 863c cd92 7c3d 89d1 5e3d fac6 47bd
00000110: 3131 813d cb4f 5ebc 472a 073d 02c3 19bd
00000120: 0703 f5bc 2e28 2a3d 103c 8c3d 0f5c 883d
00000130: 7d72 41bd 230c 2fbd c6fd e53c e6cd 743d
00000140: 48e7 fd3c 29e3 6fbd a8a9 653d 754d 7f3d
00000150: 5650 f23c d0a5 4ebd 079a 0cbd 9806 c5bb
00000160: 7fbb 453d ec99 8c3d 3596 44bd 454c dcbc
00000170: d626 493d 6d27 373d f8e3 ed3c 29e5 f53c
00000180: 1f08 4f3d ed9e 1d3d fa7a 8d3c 6913 52bd
00000190: d055 383d 65aa 93bc 5814 113c ced3 54bb
000001a0: 96e3 75bc a031 88bb 0068 4a3d 560c 3f3c
000001b0: 0308 97bd 15a6 31bc fe9b 5f3c d4dd e33b
000001c0: f317 9abc 1f9a 29bd 1e5c ba3a c493 c33c
000001d0: 720a 373d 6c49 8cbc ac49 213d b369 983d
000001e0: 3748 50bc 7100 3b3d 321e 2fbd 00e5 c5bc
000001f0: f81e 513c 7361 733d 3e25 edbc 9dd3 2bbd
00000200: 8246 1e3d 4e88 b5bc 1dea 76b8 39bb ae3b
00000210: ebea febc 6ed8 37bd 45fc 8cbc 62e1 9dbc
00000220: b185 bfbc ccbd 8b3d c4d1 8cbc b772 e83b
00000230: bb57 42bd 3b3d 15bc 88fc 253d e228 1b3d
00000240: aa1e 3fbd 9274 e03c 8f83 153d a51b 9b3c
00000250: 8606 953c 277f dd3c 9b3b ecbc dab1 3c3d
00000260: 96f6 f1bc 83e8 b23a e0b5 413d 3ed0 27bc
00000270: 1088 ec3c 793f 29bc 583c 0b3d 436c b8bc
00000280: 0d1d 9b3c d659 10bd ce6e c83c 4f4d 5d3c
00000290: 2487 8e3d de17 7f3c 0866 eb3a dafa 583d
000002a0: 62f5 393d 80b1 d2bc 6a59 04bd b3bf a0bc
000002b0: 39cf 913c 8a55 0dbd 6b40 823d 12d3 db3b
000002c0: 6eab f23c 7139 3d3d e910 3dbc 689a 11bd
000002d0: ca0e 0e3d 958a 3dbc 2743 94bc d76a 613d
000002e0: 5d0d 593c 1943 4bbc 9963 9cbc f6cd 46bc
000002f0: 473d 0e3d e8ac 25bd 9417 64bc d84d 8a3d
00000300: a70b 9cbc e1f1 b73c e1fc bebb f85a 653d
00000310: 9e20 6f3d 5b27 363c ff56 1b3d b002 fa3b
00000320: 84ac 06bd 1587 15bd d9c0 6f3d df2e 123d
00000330: bd01 973a 29f0 bdbc ee3a 19bd ecd2 54bd
00000340: 6793 21bd 3bf9 993d 423a 733d f2b5 473d
00000350: 536d 253c 82bd e1bb e3e0 bcbc 3db6 9d3d
00000360: 55b8 26bd 3608 b0bc 76ce 17bc 3bcd 603d
00000370: 8842 efbc 6b46 293d ccb8 9fbc f859 3dbd
00000380: da08 173d cbb1 05bd cf8d 17bd 489a fcbc
00000390: d2c3 5dbc c4d5 efbc 3607 553d 6ef9 863d
000003a0: 0300 20bd 3fa1 0cbc 3ac9 d1b9 2928 843d
000003b0: 63c8 9b3a 6923 10bd 57a7 193a 69fc 3dbd
000003c0: a298 cbbc 73d1 bb3c f42a 3ebc 3731 8abc
000003d0: 6bb4 02bc f22c 17bc b246 5c3c 9faf 2bbd
000003e0: 1521 21bc 541a e43c 8052 213d 5fd4 f53c
000003f0: ae56 68bd 8a3c 1a3d 91d6 d2bb 3d85 58bc

bias f4 [32]
0.061492812 0.041891318 -0.056920834 0.046603892 -0.032414027 -0.053732205 -0.029379752 0.012524232
0.050826725 0.029846536 -0.021467615 0.01464052 -0.052939128 -0.06828788 0.044693816 -0.014343886
-0.016985105 0.054594807 0.009457793 0.040442776 -0.0242383 0.02612268 0.02486236 0.008991052
-0.05409062 0.021098852 0.014663428 0.042989343 0.048855007 0.0053462735 0.043135807 -0.0204872
00000000: e3df 7b3d 3b96 2b3d d225 69bd b9e3 3e3d
00000010: 92c4 04bd 4d16 5cbd cead f0bc 7032 4d3c
00000020: af2f 503d b980 f43c dadc afbc cbde 6f3c
00000030: b3d6 58bd 84da 8bbd dd10 373d 9e02 6bbc
00000040: 5924 8bbc ce9e 5f3d dcf4 1a3c 53a7 253d
00000050: 668f c6bc 3bff d53c 26ac cb3c 354f 133c
00000060: 208e 5dbd 80d7 ac3c e03e 703c 9815 303d
00000070: 301c 483d cb2f af3b 2caf 303d c6d4 a7bc

weight f4 [10, 32, 3, 3]
0.0029440688 0.039418057 -0.0622964 -0.056171723 0.05614498 -0.04717057 -0.070119776 -0.047709197
0.02441776 0.0044911397 -0.043582875 -0.020785313 -0.06333087 0.036082678 -0.027749706 -0.039525613
0.012203113 -0.012794411 -0.021273425 -0.052113753 0.02125052 -0.007936586 0.06615182 -0.032458115
-0.0039341752 -0.044654127 -0.048370145 -0.009067435 0.008568178 -0.04239538 -0.031687006 0.054797787
-0.03324176 0.021993274 0.0024066 0.048027117 0.006968091 -0.040779572 0.02054976 0.0021656922
0.017057132 -0.01827672 -0.04373404 -0.07076255 -0.04388209 -0.013318914 0.0064378465 -0.04183004
0.014728004 0.0145054255 -0.053999905 -0.04950211 -0.06068614 0.030819353 0.019974107 0.0327476
-0.004006919 0.009822186 -0.059676234 0.0016119129 -0.0458752 0.032308765 0.03520922 -0.0076650507
-0.05013928 0.05364015 0.02891574 -0.025438039 -0.057930686 0.033133663 -0.042597424 -0.0588046
0.030129563 -0.004958142 0.033776037 0.030186458 0.007781665 -0.06098441 -0.0025275496 0.006739067
-0.022414993 0.047155607 0.006719741 0.052734654 -0.060692415 0.05290605 -0.018446155 -0.020887936
0.00569018 0.013384285 -0.053685457 -0.020892892 -0.04361992 0.016715234 0.0016401618 0.025369156
0.00016635489 -0.00756727 0.025908608 0.015587523 -0.028165122 0.053660475 0.045026742 -0.007946326
0.04858117 -0.003541873 -0.045528784 0.042046703 -0.013581923 0.0040357024 -0.038540713 -0.0062222616
0.021520944 0.0493691 0.0028572744 -0.021639645 -0.025523514 -0.025017561 -0.02617732 -0.05197676
-0.025053179 -0.020746171 -0.008363156 -0.00065863045 0.022688475 -0.03557559 0.05670287 -0.04424192
-0.040683243 -0.044266902 0.035897627 0.01719243 0.013377183 0.029137941 -0.049834583 -0.057343967
0.011404521 -0.06492815 -0.045093626 -0.0011370482 0.041554675 -0.020092707 0.055023707 -0.042142473
-0.008053136 0.008124622 -0.05062097 0.031268142 0.034804806 -0.048991926 0.031119421 -0.021735175
0.010196489 0.031538915 -0.060745534 0.0013424505 -0.063426435 0.0024292923 0.042753823 0.0055598887
0.029000126 0.037851077 0.050250567 0.0011795441 -0.004512352 0.033017315 -0.023226248 -0.026950944
-0.0015870281 0.021040773 0.022076396 -0.050792232 -0.06312174 0.012930698 0.0024851665 -0.058648735
0.045518763 -0.04568243 0.01618067 0.040695786 -0.05543029 0.041411858 -0.011017345 0.011206472
0.015954986 -0.028672222 0.010289964 0.06521124 -0.046287496 -0.049997833 -0.019669248 0.024106922
-0.019212635 -0.056374297 0.015588087 -0.05654356 -0.02930685 0.022686295 0.053434514 0.000679245
0.025990607 0.026541883 -0.02969225 -0.027471207 -0.0047257785 0.031522404 -0.027535016 -0.012449806
-0.05743229 0.010294999 -0.048587818 -0.0036945897 0.03336007 -0.035906274 0.030574448 0.0067218295
0.038715556 0.0012014251 -0.053788774 -0.032862917 -3.856524e-05 0.06268836 0.038223907 -0.00788431
0.023070905 -0.0584978 0.05191814 -0.04317745 0.037722733 0.030432908 -0.045280773 -0.020723896
0.016715037 0.04747156 -0.04713241 -0.047387157 -0.060234062 -0.027478522 -0.04253187 0.032893393
0.008357011 0.035049453 0.040292464 -0.04812429 0.0153591335 0.01636113 -0.0020004627 -0.013352609
0.04525683 0.020965086 -0.04744243 0.060541395 0.02530839 -0.0021014041 0.006450133 -0.020741815
00000000: 47f1 403b d474 213d 832a 7fbd 5214 66bd
00000010: 47f8 653d ed35 41bd f59a 8fbd b86a 43bd
00000020: c107 c83c 692a 933b f583 32bd f645 aabc
00000030: 9db3 81bd 6ecb 133d 5a53 e3bc 9ce5 21bd
00000040: 91ef 473c a69f 51bc 9b45 aebc 3b75 55bd
00000050: 9215 ae3c 7408 02bc 9b7a 873d cdf2 04bd
00000060: 41ea 80bb 3fe7 36bd c61f 46bd 948f 14bc
00000070: 8b61 0c3c c7a6 2dbd 3cca 01bd a573 603d
00000080: 8328 08bd 3d2b b43c 0cb8 1d3b 15b8 443d
00000090: 9554 e43b 7b08 27bd f857 a83c 49ee 0d3b
000000a0: 66bb 8b3c 0fb9 95bc 7722 33bd f5eb 90bd
000000b0: b5bd 33bd 9337 5abc 92f4 d23b fa55 2bbd
000000c0: ba4d 713c 2aa8 6d3c 012f 5dbd b9c2 4abd
000000d0: 0892 78bd de78 fc3c bda0 a33c 5922 063d
000000e0: 794c 83bb 3ced 203c 116f 74bd d246 d33a
000000f0: a2e7 3bbd 3256 043d 8b37 103d 1b2b fbbb
00000100: d85e 4dbd c6b5 5b3d b4e0 ec3c 6f63 d0bc
00000110: ba48 6dbd 2ab7 073d a37a 2ebd 18dd 70bd
00000120: 46d2 f63c e977 a2bb be58 0a3d 9749 f73c
00000130: 56fd fe3b caca 79bd 3fa5 25bb 64d3 dc3b
00000140: a69f b7bc 3d26 413d 4631 dc3b 4b00 583d
00000150: 9c98 78bd 04b4 583d 641c 97bc 2d1d abbc
00000160: b174 ba3b c349 5b3c 48e5 5bbd 9227 abbc
00000170: cdaa 32bd 63ee 883c b3fa d63a fad2 cf3c
00000180: 8d6f 2e39 ddf6 f7bb 4a3e d43c cf62 7f3c
00000190: 8bba e6bc 16cb 5b3d f66d 383d 4f31 02bc
000001a0: 0dfd 463d c51e 68bb 647c 3abd 2a39 2c3d
000001b0: b786 5ebc ed3d 843b dedc 1dbd 1de4 cbbb
000001c0: b14c b03c 4137 4a3d 1c41 3b3b a045 b1bc
000001d0: b016 d1bc a1f1 ccbc d271 d6bc 95e5 54bd
000001e0: 533c cdbc e0f3 a9bc 9e05 09bc f1a7 2cba
000001f0: 2edd b93c b6b7 11bd 4541 683d 0437 35bd
00000200: 79a3 26bd 3651 35bd 6409 133d 24d7 8c3c
00000210: f92b 5b3c b1b2 ee3c 591f 4cbd 82e1 6abd
00000220: 07da 3a3c 0df9 84bd 18b4 38bd 0209 95ba
00000230: 3c35 2a3d 7699 a4bc 8a60 613d 969d 2cbd
00000240: 4df1 03bc 221d 053c ef57 4fbd 0613 003d
00000250: 7c8f 0e3d c2ab 48bd 28ee fe3c f70d b2bc
00000260: 2d0f 273c f32e 013d 4fd0 78bd 2af5 af3a
00000270: b8e5 81bd c334 1f3b a21e 2f3d ba2f b63b
00000280: ac91 ed3c bb09 1b3d 8ad3 4d3d ef9a 9a3a
00000290: 5adc 93bb 2a3d 073d f944 bebc 3ac8 dcbc
000002a0: d403 d0ba b35d ac3c 8fd9 b43c 840b 50bd
000002b0: f945 81bd 47db 533c 2dde 223b a839 70bd
000002c0: e271 3a3d 801d 3bbd 538d 843c a0b0 263d
000002d0: df0a 63bd 7b9f 293d 1882 34bc 5a9b 373c
000002e0: 08b4 823c 02e2 eabc 3d97 283c 788d 853d
000002f0: f597 3dbd 87ca 4cbd 6721 a1bc e17b c53c
00000300: d163 9dbc bce8 66bd 2d65 7f3c 389a 67bd
00000310: eb14 f0bc 9cd8 b93c 26de 5a3d 5c0f 323a
00000320: 41ea d43c 5d6e d93c 293d f3bc 4c0b e1bc
00000330: b4da 9abb a31d 013d 1d91 e1bc 45fa 4bbc
00000340: 1f3e 6bbd 5bac 283c 0504 47bd ee20 72bb
00000350: 92a4 083d 7512 13bd 4477 fa3c cb42 dc3b
00000360: 3494 1e3d 2379 9d3a 9e51 5cbd 449b 06bd
00000370: 1cc1 21b8 c162 803d ac90 1c3d 312d 01bc
00000380: 32ff bc3c 649b 6fbd 1ea8 543d d6da 30bd
00000390: 2783 1a3d 6f4e f93c 5578 39bd 29c5 a9bc
000003a0: f9ed 883c 8a71 423d ea0d 41bd 0919 42bd
000003b0: feb7 76bd a31a e1bc e635 2ebd 39bb 063d
000003c0: d8eb 083c 0490 0f3d b609 253d fa1d 45bd
000003d0: e0a4 7b3c c707 863c 321a 03bb e7c4 5abc
000003e0: 3a5f 393d f9be ab3c fe52 42bd 41fa 773d
000003f0: 8a53 cf3c b6b7 09bb a35b d33b bdea a9bc

bias f4 [10]
0.00496535 0.020405598 0.05603034 0.046288308 -0.009516608 0.0064509013 -0.009893661 0.011556574
-0.062162273 0.04899283
00000000: 60b4 a23b a429 a73c 1280 653d cf98 3d3d
00000010: 8ceb 1bbc 1562 d33b 0619 22bc c957 3d3c
00000020: de9d 7ebd b5ac 483d

weight f4 [10, 32, 3, 3]
0.037883442 0.08889678 -0.0031895703 0.0006963457 0.07520617 0.041911747 0.10581463 0.08719352
0.00833553 0.089144684 0.052713733 0.07463246 0.020287763 0.007960633 0.005427667 0.016672242
0.024423378 0.08705972 0.00668524 0.021195406 0.03821285 -0.0077393996 0.07910356 0.059642177
0.007980119 -0.0026990324 0.03532091 0.07919404 0.076089025 -0.0005597328 0.06338577 0.03482227
0.021392137 0.061473835 -0.002313255 0.0213348 0.07049694 0.055616144 0.10068633 0.08501188
0.05315234 0.024702013 0.107800625 0.023906631 0.040823106 -0.031593163 0.05979545 0.0066096773
0.08196018 0.09907258 0.06121905 0.08065436 0.038925234 0.109561026 0.03487004 0.0949135
0.0899346 0.041557472 0.031813357 0.10164934 0.09136421 0.049061194 0.061987497 -0.001453785
0.07000619 0.023539025 0.02624548 0.0035867854 0.06633169 0.09043955 0.005340571 0.061841976
0.078907855 -0.014600054 0.029375764 0.012541411 0.007816787 0.04280842 0.004110279 0.022790259
0.09313349 0.07523486 0.0771318 0.045466293 0.098921545 -0.0010940525 0.027381701 0.003341614
0.014308433 0.010593691 0.06043711 0.051274788 0.08195426 -0.0061251735 0.055793494 0.01792402
0.015744505 0.08607118 0.032935936 0.040255 0.07796742 0.0729803 0.011902745 -0.0059250467
0.041277662 0.039518304 0.069042526 0.014136802 0.08449373 0.0818405 0.028585369 0.08247421
0.0007604423 0.08215847 0.104513794 0.0066895173 0.06895172 0.068548985 0.0911468 0.0042226193
0.0033989765 0.07271544 0.09962057 0.080566004 0.03711632 0.1020557 0.06857713 0.06309933
0.049060225 0.039447587 0.05646229 0.059995748 0.097661555 0.079309195 -0.0053285398 0.08630385
0.06852773 0.090930335 0.02587508 0.079561815 0.03750298 0.055329744 0.0430801 0.11345502
0.043499365 0.08157894 0.029636465 0.0156335 -0.0046546417 0.0885258 -0.011562535 0.02978715
0.04726348 0.09499576 0.07785846 0.04756009 0.07865772 0.014006952 -0.00034973305 0.0017785011
0.078963116 0.07346426 0.011150901 0.07749165 0.06034443 0.05847355 0.07252572 0.108655125
0.04638113 0.051152736 0.07843939 0.025735635 0.003580555 0.09245699 0.0524369 0.050586235
0.013637918 0.075108826 0.075529724 0.0069642495 0.04470891 0.044760376 0.049951475 -0.0012541482
0.103864744 0.0063700546 0.004456304 0.014848592 0.09104537 0.002690016 0.05206078 0.040169787
0.03977003 0.07967768 0.04598549 0.07791642 0.07959516 0.08544283 0.05927314 -0.005953073
0.09369504 0.0024568734 0.09930292 0.069963545 0.008725655 0.010686583 0.052478615 0.044107914
-0.008989303 0.020435393 0.008351082 0.0613808 -0.008968222 0.054513153 0.00900174 0.069513686
0.026347607 -0.019643528 0.0842289 0.10445235 -0.0049089896 0.08656198 0.06443347 0.09138122
0.009748958 -0.01222305 0.004502195 0.00959324 0.017162295 0.047594152 0.041853346 0.10034188
0.013020885 0.092283085 -0.022597073 0.017057704 0.057220545 0.055751793 0.027415887 0.029216357
0.046069454 0.10706072 0.07380974 0.020313911 -0.0026605492 0.06398933 0.10087974 0.046725783
0.074110605 -0.0102725355 0.058273282 0.11417172 0.014806859 0.026759427 0.001898278 0.05581756
00000000: ab2b 1b3d 840f b63d 1c08 51bb f88a 363a
00000010: b105 9a3d a7ab 2b3d 57b5 d83d 8492 b23d
00000020: bf91 083c 7d91 b63d 5bea 573d e7d8 983d
00000030: 8632 a63c 516d 023c 92da b13b 3a94 883c
00000040: 8913 c83c 5e4c b23d dc0f db3b fda1 ad3c
00000050: 1485 1c3d ca9a fdbb 0c01 a23d 5b4b 743d
00000060: 0cbf 023c 40e2 30bb a9ac 103d 7c30 a23d
00000070: 90d4 9b3d 08bb 12ba 66d0 813d cca1 0e3d
00000080: 903e af3c fdcb 7b3d fb99 17bb 52c6 ae3c
00000090: b360 903d c1cd 633d a234 ce3d b51a ae3d
000000a0: 45b6 593d e05b ca3c 93c6 dc3d d7d7 c33c
000000b0: 2136 273d d567 01bd 13ec 743d fe95 d83b
000000c0: bdda a73d 91e6 ca3d d4c0 7a3d 1d2e a53d
000000d0: 1170 1f3d 8861 e03d e3d3 0e3d 0262 c23d
000000e0: a22f b83d 2b38 2a3d b94e 023d 872d d03d
000000f0: 291d bb3d 64f4 483d 9ae6 7d3d ee8c beba
00000100: 685f 8f3d ead4 c03c c300 d73c 4610 6b3b
00000110: e9d8 873d 5f38 b93d f5ff ae3b 034e 7d3d
00000120: 719a a13d 1135 6fbc 71a5 f03c 7e7a 4d3c
00000130: fb11 003c e257 2f3d 85af 863b a3b2 ba3c
00000140: c5bc be3d bc14 9a3d 47f7 9d3d dd3a 3a3d
00000150: 6197 ca3d 4f66 8fba 974f e03c fbfe 5a3b
00000160: eb6d 6a3c 2991 2d3c e78c 773d 8305 523d
00000170: a3d7 a73d aeb5 c8bb b887 643d 65d5 923c
00000180: 9ffa 803c 1646 b03d d5e7 063d 6de2 243d
00000190: 62ad 9f3d b276 953d bb03 433c e526 c2bb
000001a0: c412 293d f2dd 213d 2b66 8d3d 0c9e 673c
000001b0: 0c0b ad3d fe9b a73d dd2b ea3c 3de8 a83d
000001c0: 6b58 473a b342 a83d 540b d63d bd33 db3b
000001d0: 8f36 8d3d 6963 8c3d 2cab ba3d e65d 8a3b
000001e0: 5dc1 5e3b d5eb 943d df05 cc3d caff a43d
000001f0: 4807 183d 9402 d13d 2b72 8c3d 393a 813d
00000200: 60f3 483d cb93 213d 0145 673d 1abe 753d
00000210: c802 c83d dc6c a23d 089b aebb 13c0 b03d
00000220: 4458 8c3d af39 ba3d faf7 d33c 4ef1 a23d
00000230: ba9c 193d 71a1 623d c274 303d 1b5b e83d
00000240: 642c 323d dc12 a73d 2cc8 f23c d311 803c
00000250: f785 98bb 044d b53d c970 3dbc 2e04 f43c
00000260: 5a97 413d 238d c23d 4274 9f3d 5ece 423d
00000270: 4c17 a13d 6a7d 653c 605c b7b9 981c e93a
00000280: 6ab7 a13d 6e74 963d 45b2 363c f1b3 9e3d
00000290: b92b 773d f681 6f3d 5d88 943d 9486 de3d
000002a0: 24fa 3d3d 8885 513d d5a4 a03d 8ad3 d23c
000002b0: bfa7 6a3b 175a bd3d 13c8 563d 8333 4f3d
000002c0: 9371 5f3c a8d2 993d 54af 9a3d 5c34 e43b
000002d0: b120 373d a856 373d eb99 4c3d 3b62 a4ba
000002e0: 0ab7 d43d e4bb d03b 3006 923b 8247 733c
000002f0: ff75 ba3d fb4a 303b af3d 553d 1389 243d
00000300: e6e5 223d 0d2e a33d 485b 3c3d a592 9f3d
00000310: ca02 a33d a7fc ae3d 64c8 723d ff11 c3bb
00000320: 2fe3 bf3d 7f03 213b 545f cb3d 0c49 8f3d
00000330: 0df6 0e3c c716 2f3c d1f3 563d 80aa 343d
00000340: df47 13bc 2068 a73c fad2 083c 6f6a 7b3d
00000350: 73ef 12bc 2f49 5f3d 097c 133c 315d 8e3d
00000360: f0d6 d73c 77eb a0bc 3480 ac3d 1deb d53d
00000370: 97db a0bb 6847 b13d b2f5 833d 1426 bb3d
00000380: 18ba 1f3c 3043 48bc 2687 933b f72c 1d3c
00000390: f197 8c3c 16f2 423d 6a6e 2b3d 0b80 cd3d
000003a0: 8d55 553c eafe bc3d 7f1d b9bc 99bc 8b3c
000003b0: 1760 6a3d fe5b 643d 4897 e03c 2457 ef3c
000003c0: 53b3 3c3d a742 db3d 9029 973d 5c69 a63c
000003d0: 9c5c 2ebb d60c 833d 0a9a ce3d 8963 3f3d
000003e0: 4dc7 973d 234e 28bc f7af 6e3d ddd2 e93d
000003f0: 7898 723c 9636 db3c a4cf f83a f4a0 643d

bias f4 [32]
0.05294417 0.022040395 0.07021032 0.09513063 0.10371972 0.015898474 0.08208681 0.00050872046
0.034799237 0.07472978 0.090255514 0.047587063 0.013533406 0.08066321 0.08309072 0.07349641
0.0024831637 0.041273843 0.019594157 0.06883049 0.053922664 0.04283502 0.013919079 0.0569288
0.028513849 0.07118594 -0.004460555 0.034966227 0.10140811 0.10367237 0.082487576 0.034976583
00000000: fcdb 583d 0f8e b43c 6eca 8f3d d9d3 c23d
00000010: 016b d43d 843d 823c 211d a83d a75b 053a
00000020: a589 0e3d ed0b 993d e2d7 b83d a7ea 423d
00000030: 38bb 5d3c c132 a53d 782b aa3d 4985 963d
00000040: 93bc 223b c30e 293d ed83 a03c 00f7 8c3d
00000050: 03de 5c3d c673 2f3d d90c 643c 2c2e 693d
00000060: e095 e93c efc9 913d d929 92bb bf38 0f3d
00000070: 0eaf cf3d 2e52 d43d 3fef a83d 9b43 0f3d

weight f4 [32, 32, 3, 3]
0.06333003 0.040797763 0.059036728 0.06897322 0.05566397 0.08330597 -0.012176025 0.07435951
0.026384197 0.038981587 0.05501795 0.003468012 0.05368632 0.07260183 0.020859461 -0.0048154243
0.07769601 0.06553426 0.021764794 0.025818432 0.0698943 0.008368232 0.056865454 0.009041228
-0.018161872 0.094335325 0.021757562 -0.025859008 0.041786302 0.0852559 -0.0016982531 0.011186402
0.08134856 0.009783783 -0.006502302 0.0019511105 0.024621995 0.05200516 -0.010327228 0.07808909
0.0050838054 0.083532944 0.060085792 -0.0009732727 -0.022849504 -0.0057759476 0.07700257 0.055630043
0.07176622 0.008081317 0.030323388 0.08198275 0.04588102 0.02877721 -0.010572866 0.005206431
0.02424036 0.020586446 0.063724354 0.049339022 0.050351474 0.033157296 0.082890265 0.027368734
0.09128941 0.06928505 0.08392644 0.042342108 0.01651215 -0.022149831 0.025943391 0.010289927
0.044880837 0.078100905 0.036123406 0.034814283 0.072109446 0.057746302 0.07134011 0.016643297
0.024639893 0.057748716 -0.014690722 -0.031234175 0.037770428 0.08442743 0.06837333 -0.026589628
0.097985215 -0.02420187 0.0070935427 0.06842795 -0.0116045335 0.09111367 0.06875243 0.037669692
0.006107025 0.091349654 -0.030744541 0.08350728 0.043218758 -0.0018501604 -0.011111564 0.016450187
0.033632737 -0.00036308222 0.023001742 -0.033730395 0.009517946 0.088098004 0.036496367 -0.013620508
0.10107179 0.041449707 -0.01925061 0.0653953 0.054014705 0.072399706 0.0008645331 -0.015343447
0.03007523 -0.009137959 0.03173521 -0.021915449 0.029958371 0.034893855 0.030409971 -0.01616111
-0.013715377 0.015796585 0.013544851 0.017899856 -0.017953623 0.016792703 -0.01590068 0.05686621
0.089695804 -0.03243287 -0.018702717 0.007263558 0.060220685 0.024799995 0.03408088 -0.011763246
0.053129803 0.055876214 0.018315997 0.085443504 0.10097542 0.013863497 0.052659493 0.08884068
0.07164812 0.054802924 0.035040706 -0.030986076 0.058828365 0.03771353 -0.012169642 0.07641813
0.09478685 0.029996058 0.046719093 0.08671212 -0.020564392 -0.008744764 0.08758237 0.017891832
0.016125007 0.05430802 0.016542286 0.056978803 -0.0024221698 -0.026549956 0.009735343 0.066604264
0.017954549 -0.019379808 0.019454123 -0.004357564 0.0033795922 0.0704683 0.042734906 0.03617592
-0.01255857 0.030028189 0.00990995 0.052660756 0.05114579 0.079738595 0.08841063 0.016113123
0.047217667 0.018094124 0.08997169 0.041467622 0.068065904 0.054399773 0.008966585 0.016291752
-0.007174496 -0.019984767 0.009316377 0.04140426 -0.010129069 0.008675382 0.072525516 0.017092647
0.037022352 0.07671997 0.021281952 0.0873148 -0.006730761 0.08154758 0.08264461 -0.03126419
-0.008429456 0.007969654 0.028158475 0.026065884 0.02639874 0.051473513 0.05841605 0.04836227
-0.031561144 0.018548856 0.04217923 0.053005364 0.024605393 0.032290008 0.0014047789 -0.028074408
0.07085634 0.063553676 0.08263809 0.016475538 0.004829205 0.07078351 0.0070191086 -0.019078776
0.063917205 -0.0072840936 0.004274473 0.05461295 0.039810408 -0.021579958 0.04830584 0.051890116
0.04834771 0.016672209 0.01512125 0.02564377 0.010717161 0.07588362 0.021441126 -0.009502449
00000000: 2db3 813d 8e1b 273d 7fd0 713d d541 8d3d
00000010: e7ff 633d 529c aa3d f37d 47bc cc49 983d
00000020: ac23 d83c 28ab 1f3d 805a 613d 9647 633b
00000030: 30e6 5b3d 45b0 943d 76e1 aa3c b5ca 9dbb
00000040: 161f 9f3d d336 863d 154c b23c 2d81 d33c
00000050: be24 8f3d e91a 093c c0eb 683d a921 143c
00000060: 35c8 94bc e132 c13d ea3c b23c 45d6 d3bc
00000070: 1d28 2b3d a59a ae3d eb97 deba 2c47 373c
00000080: 139a a63d 294c 203c 4311 d5bb 68bc ff3a
00000090: 11b4 c93c 5d03 553d 8933 29bc 2ced 9f3d
000000a0: 0d96 a63b 5213 ab3d 851c 763d 3a23 7fba
000000b0: e22e bbbc 2944 bdbb 86b3 9d3d 54dc 633d
000000c0: 2bfa 923d 8067 043c c168 f83c 92e6 a73d
000000d0: bded 3b3d 2fbe eb3c d039 2dbc b59a aa3b
000000e0: b893 c63c e8a4 a83c ea81 823d b717 4a3d
000000f0: 593d 4e3d f2cf 073d 5fc2 a93d 6534 e03c
00000100: f1f5 ba3d 52e5 8d3d a0e1 ab3d eb6e 2d3d
00000110: 7d44 873c 9073 b5bc 3c87 d43c 1597 283c
00000120: f8d4 373d 5ef3 9f3d 23f6 133d 6c99 0e3d
00000130: 1eae 933d 6387 6c3d c31a 923d 8657 883c
00000140: 9ad9 c93c eb89 6c3d 5bb1 70bc d0de ffbc
00000150: 2ab5 1a3d 4ae8 ac3d 5107 8c3d 7ed2 d9bc
00000160: 79ac c83d 0043 c6bc f370 e83b f423 8c3d
00000170: f120 3ebc ce99 ba3d 13ce 8c3d 894b 1a3d
00000180: 701d c83b 8715 bb3d fadb fbbc dd05 ab3d
00000190: 2706 313d 1581 f2ba 470d 36bc 8bc2 863c
000001a0: 7bc2 093d 125c beb9 266e bc3c e228 0abd
000001b0: 29f1 1b3c ba6c b43d 377d 153d 8d28 5fbc
000001c0: bafe ce3d 2bc7 293d 75b3 9dbc f9ed 853d
000001d0: 863e 5d3d 4c46 943d d6a1 623a 1563 7bbc
000001e0: 5460 f63c 61b7 15bc c8fc 013d 0788 b3bc
000001f0: 426b f53c dcec 0e3d 551e f93c 4e64 84bc
00000200: 76b6 60bc d767 813c 39eb 5d3c b8a2 923c
00000210: 7a13 93bc da90 893c 2542 82bc 8bec 683d
00000220: 6fb2 b73d 54d8 04bd 7136 99bc 2403 ee3b
00000230: f7a9 763d 5c29 cb3c 6598 0b3d a1ba 40bc
00000240: a39e 593d 75de 643d 6e0b 963c 01fd ae3d
00000250: 33cc ce3d b923 633c 7bb1 573d 1af2 b53d
00000260: 40bc 923d 0879 603d d886 0f3d 83d6 fdbc
00000270: 03f6 703d 8179 1a3d 2e63 47bc 1c81 9c3d
00000280: 9c1f c23d 4bba f53c 855c 3f3d 2096 b13d
00000290: a876 a8bc 3346 0fbc 635e b33d e491 923c
000002a0: 9718 843c 1672 5e3d b083 873c 9b62 693d
000002b0: 44bd 1ebb 4b7f d9bc fd80 1f3c d167 883d
000002c0: 6b15 933c 67c2 9ebc 415e 9f3c e5c9 8ebb
000002d0: 267c 5d3b af51 903d cc0a 2f3d 342d 143d
000002e0: 76c2 4dbc adfd f53c 585d 223c ceb2 573d
000002f0: 3f7e 513d fd4d a33d a210 b53d abff 833c
00000300: 5067 413d 213a 943c 1443 b83d f4d9 293d
00000310: 2366 8b3d 4cd2 5e3d 95e8 123c 4876 853c
00000320: 0918 ebbb 18b7 a3bc b8a3 183c 8397 293d
00000330: 65f4 25bc 3023 0e3c 4288 943d e105 8c3c
00000340: c0a4 173d 5c1f 9d3d 7d57 ae3c 1ad2 b23d
00000350: b78d dcbb 6b02 a73d 9441 a93d e10e 00bd
00000360: b31b 0abc 2793 023c 9aac e63c 1f88 d53c
00000370: 2c42 d83c e4d5 523d ab45 6f3d 8417 463d
00000380: 4246 01bd c5f3 973c 21c4 2c3d 271c 593d
00000390: 4091 c93c 8742 043d 8f20 b83a 4dfc e5bc
000003a0: 211d 913d 6e28 823d 293e a93d b5f7 863c
000003b0: 4f3e 9e3b f2f6 903d 8d00 e63b 184b 9cbc
000003c0: 06e7 823d 68af eebb e110 8c3b d4b1 5f3d
000003d0: 3d10 233d 74c8 b0bc 58dc 453d bb8a 543d
000003e0: 4008 463d 2894 883c 1fbf 773c e212 d23c
000003f0: 0897 2f3c df68 9b3d 4da5 af3c 29b0 1bbc

bias f4 [32]
0.053138584 0.09739076 0.057569776 -0.009126535 -0.018275933 0.013165251 0.052082334 0.09757549
0.09678058 0.043549687 0.0025739009 0.0017590455 0.096369594 -0.029440707 0.075158104 0.07635232
0.048393972 0.0957555 0.07398913 -0.00979796 0.05587804 0.029332772 0.08989419 0.041073266
0.06330129 0.063286915 0.04523864 -0.009474862 0.024479592 0.078460485 0.019933809 0.09268633
00000000: d8a7 593d cf74 c73d 49ce 6b3d 7687 15bc
00000010: 69b7 95bc 11b3 573c 4954 553d a9d5 c73d
00000020: e634 c63d 2861 323d e4ae 283b c68f e63a
00000030: 6c5d c53d a32d f1bc 7eec 993d 9b5e 9c3d
00000040: c238 463d 761b c43d 9d87 973d 9f87 20bc
00000050: 5fe0 643d 484b f03c 721a b83d 713c 283d
00000060: 1ba4 813d 929c 813d 274c 393d 743c 1bbc
00000070: 6d89 c83c e4af a03d 3a4c a33c 55d2 bd3d

weight f4 [32, 32, 3, 3]
0.027150985 -0.0801243 -0.056928184 -0.03093686 0.019256016 0.022881923 -0.05232704 -0.06049515
-0.010707333 0.06117795 0.029092574 0.03093312 0.06316224 0.067317784 0.06324944 0.064601704
-0.028044162 0.050657317 -0.024869489 -0.037954092 -0.0764332 -0.07014114 0.037908282 0.019322753
0.0032152606 0.07762079 0.029821869 0.02868919 -0.058557805 0.040354457 -0.058557745 0.0054656137
-0.027286414 0.022202104 -0.05008705 0.030371 -0.030026164 -0.030941138 -0.029941935 -0.04455384
-0.033240333 0.019632252 -0.08433726 -0.022017252 -0.05045214 0.040556926 0.038386483 -0.07456918
0.037927177 -0.0668492 0.018304098 -0.08025005 -0.063298196 0.0074248645 -0.017745147 -0.03003467
-0.04488471 -0.050251085 0.037915237 0.0074051525 0.020438353 -0.055135332 0.02455479 0.041358743
0.08111073 0.08487229 -0.014256833 0.017400488 0.059521846 0.051015288 0.07827935 0.07076436
-0.02760064 0.047156136 -0.018237192 -0.016337804 -0.0078049363 0.047672078 -0.03645941 0.024299491
0.06222633 0.007216915 0.06906397 -0.011389203 -0.001976072 0.080794685 0.0038324432 0.06230545
0.08866704 0.012303098 -0.021064732 -0.00831937 -0.0026777782 0.06106284 -0.013359246 0.025556505
0.027643668 0.04718657 0.06483906 -0.037775055 -0.022406835 -0.06295913 -0.08924098 -0.0036559121
-0.05238515 -0.050734036 -0.055502042 -0.05628863 -0.010485742 0.028173698 0.062235214 0.05729086
0.10277882 0.014232462 -0.014207323 0.05926814 0.01620677 0.02250699 -0.07456829 -0.010509056
-0.038263835 -0.018850373 0.025515428 -0.07320348 -0.055409968 -0.051043738 0.025066165 0.00974954
0.0060003805 -0.023992725 0.028254954 -0.01798053 -0.077229485 -0.071798116 -0.05251289 0.05896467
-0.04513811 0.04028628 0.0501544 -0.019961992 -0.015314847 0.060698986 -0.028106445 -0.005531899
0.06362123 0.07452297 0.084996715 0.031225098 0.09349347 0.05637073 0.020344565 0.0142858215
0.04064063 -0.0370074 0.014766534 -0.07256278 -0.035288457 -0.00877939 -0.026223887 0.03823026
0.0492162 0.00049099815 0.047800932 0.030307634 -0.0067983964 0.027885739 -0.022995625 0.022229377
-0.008354325 0.031205023 0.052275084 -0.003518646 -0.021088162 0.017861068 -0.025770256 0.0580064
0.0333559 0.06590763 -0.010518956 0.044565663 -0.0020429143 -0.07813204 0.028655186 -0.021668712
0.008429067 -0.010056884 -0.07643572 -0.069214106 -0.063804336 0.035552375 -0.044867493 -0.065361366
0.030827079 -0.054993216 -0.030028677 -0.0044249846 -0.043248594 -0.0208982 -0.03812336 -0.037041735
0.029214885 0.07498108 0.06589367 -0.016567642 -0.0066918544 0.06332821 -0.00063044054 0.049753293
0.03123968 0.08019601 -0.0025125158 -0.00087366765 0.08579918 0.079054624 0.024045633 0.08827648
0.050655805 0.05058465 0.066455305 0.08438618 0.039464734 0.09253694 -0.013603539 0.073888525
0.086330146 -0.0076684034 -0.09084894 0.055353798 0.06497961 0.011107523 0.08047357 0.09133556
0.08709964 0.063785054 -0.03138742 -0.0030844696 0.02622118 0.09058004 0.07407614 0.05864685
0.011517125 0.081541106 0.02308381 0.0015590746 -0.01605217 -0.046148583 -0.05354548 -0.0046799006
-0.017854998 0.015253972 -0.05415342 -0.021914247 0.018864676 0.06095143 0.036196828 0.059285063
00000000: be6b de3c 3618 a4bd 872d 69bd 4c6f fdbc
00000010: cbbe 9d3c df72 bb3c e154 56bd c3c9 77bd
00000020: cf6d 2fbc bb95 7a3d 8d53 ee3c 7467 fd3c
00000030: 345b 813d e8dd 893d ec88 813d e64d 843d
00000040: dfbc e5bc 0c7e 4f3d 19bb cbbc c075 1bbd
00000050: 0289 9cbd 28a6 8fbd b745 1b3d c04a 9e3c
00000060: 1fb7 523b a6f7 9e3d fe4c f43c 9805 eb3c
00000070: 4fda 6fbd b74a 253d 3fda 6fbd e418 b33b
00000080: c287 dfbc 30e1 b53c 1428 4dbd 9acc f83c
00000090: 6ef9 f5bc 4578 fdbc ca48 f5bc 167e 36bd
000000a0: 0427 08bd d1d3 a03c 03b9 acbd 865d b4bc
000000b0: e7a6 4ebd 051f 263d 253b 1d3d bab7 98bd
000000c0: 8759 1b3d 3ce8 88bd 7af2 953c 235a a4bd
000000d0: 7ca2 81bd 474c f33b 455e 91bc 450b f6bc
000000e0: 08d9 37bd 15d4 4dbd 024d 1b3d eca6 f23b
000000f0: 556e a73c 96d5 61bd 2127 c93c c967 293d
00000100: 621d a63d 86d1 ad3d 7e95 69bc 788b 8e3c
00000110: 2ecd 733d 68f5 503d ed50 a03d e8ec 903d
00000120: bd1a e2bc cb26 413d 2a66 95bc dcd6 85bc
00000130: 8dc0 ffbb cc43 433d 7656 15bd ba0f c73c
00000140: 09e1 7e3d df7b ec3b 6971 8d3d c899 3abc
00000150: fd80 01bb af77 a53d ba29 7b3b 0034 7f3d
00000160: 1197 b53d ef92 493c f28f acbc f84d 08bc
00000170: aa7d 2fbb 071d 7a3d bde0 5abc e05b d13c
00000180: f974 e23c b446 413d 57ca 843d 04ba 1abd
00000190: 8a8e b7bc b7f0 80bd fac3 b6bd 0798 6fbb
000001a0: d091 56bd 7ece 4fbd 1c56 63bd e88e 66bd
000001b0: 64cc 2bbc 87cc e63c 5aea 7e3d d2a9 6a3d
000001c0: b47d d23d 462f 693c d5c5 68bc 26c3 723d
000001d0: 0fc4 843c 9460 b83c 42b7 98bd 2d2e 2cbc
000001e0: 8aba 1cbd 196c 9abc bb05 d13c b5eb 95bd
000001f0: 90f5 62bd 3d13 51bd 8f57 cd3c 89bc 1f3c
00000200: d79e c43b 648c c4bc ef76 e73c e84b 93bc
00000210: 7e2a 9ebd e40a 93bd c217 57bd f084 713d
00000220: bde2 38bd 3a03 253d b36e 4d3d 5587 a3bc
00000230: 20eb 7abc 809f 783d 7d3f e6bc ef44 b5bb
00000240: d94b 823d 809f 983d c212 ae3d c7cb ff3c
00000250: 8179 bf3d ffe4 663d a5a9 a63c 140f 6a3c
00000260: ca76 263d 1295 17bd 55ef 713c cb9b 94bd
00000270: a18a 10bd 6ed7 0fbc 7ad3 d6bc 5597 1c3d
00000280: ed96 493d 54b6 003a e9ca 433d b747 f83c
00000290: 15c5 debb a270 e43c 5261 bcbc 621a b63c
000002a0: 94e0 08bc ada1 ff3c 661e 563d 1599 66bb
000002b0: 15c1 acbc 6051 923c 251c d3bc 1e98 6d3d
000002c0: 32a0 083d 94fa 863d b357 2cbc 7c8a 363d
000002d0: 6ae2 05bb b103 a0bd 48be ea3c 9582 b1bc
000002e0: 121a 0a3c a1c5 24bc 558a 9cbd 20c0 8dbd
000002f0: d9ab 82bd 5e9f 113d fac6 37bd 2edc 85bd
00000300: 1289 fc3c 9140 61bd b3fe f5bc 76ff 90bb
00000310: 7025 31bd b432 abbc 3e27 1cbd 13b9 17bd
00000320: 0e54 ef3c ae8f 993d 43f3 863d ddb8 87bc
00000330: 5847 dbbb 38b2 813d 2644 25ba 1cca 4b3d
00000340: 5bea ff3c ce3d a43d 05a9 24bb d806 65ba
00000350: 7bb7 af3d 64e7 a13d 59fb c43c 4dca b43d
00000360: 767c 4f3d da31 4f3d b819 883d a9d2 ac3d
00000370: c6a5 213d 0284 bd3d 61e1 5ebc de52 973d
00000380: dccd b03d 3b47 fbbb 020f babd aaba 623d
00000390: 0814 853d 54fc 353c 54cf a43d 230e bb3d
000003a0: 4c61 b23d bda1 823d 1890 00bd d024 4abb
000003b0: cdcd d63c 0782 b93d 3bb5 973d ae37 703d
000003c0: 53b2 3c3c 06ff a63d 421a bd3c dd59 cc3a
000003d0: d77f 83bc 4c06 3dbd 8152 5bbd da59 99bb
000003e0: a544 92bc cceb 793c facf 5dbd 8285 b3bc
000003f0: 188a 9a3c 35a8 793d 2043 143d e5d4 723d

bias f4 [32]
-0.013816442 0.07311281 -0.03596024 -0.04521533 -0.03719264 -0.028845435 0.009349424 0.055652943
-0.031553753 0.09856238 0.062580176 -0.005202172 0.0233196 0.0066982154 -0.0003965701 -0.03292577
0.022638151 -0.044535693 0.06428252 0.016943771 -0.08581038 0.018597635 0.054267988 0.009537141
0.018555861 0.09454618 0.022178836 -0.048065275 0.034237463 0.0010399473 0.0058182385 0.007536124
00000000: 5c5e 62bc 2bbc 953d 0b4b 13bd b633 39bd
00000010: 4f57 18bd 434d ecbc 542e 193c 57f4 633d
00000020: 823e 01bd 13db c93d 092a 803d fb76 aabb
00000030: bf08 bf3c b47c db3b bdea cfb9 2cdd 06bd
00000040: a573 b93c 0f6b 36bd 8ea6 833d aacd 8a3c
00000050: 5abd afbd 115a 983c 1c48 5e3d ab41 1c3c
00000060: 7602 983c 6da1 c13d 64b0 b53c 18e0 44bd
00000070: 953c 0c3d d74e 883a eca6 be3b 97f1 f63b
